notebook/output/saved_models/dynamic_graph_model.pth (torch, 480812 bytes, 99 tensors)

temporal.input_proj.weight f4 [32, 7]
000000 3c 76 a0 3e e5 30 73 3e f5 f9 87 3e d4 a1 52 3d
       0.31340206 0.2374912 0.2655789 0.051423863
000010 17 56 2e be 59 e2 cd bd 45 21 32 be 11 db 21 be
       -0.17025028 -0.10052938 -0.17395504 -0.15806223
000020 92 e3 4c 3d ff b8 bc be d6 80 25 3e b4 61 8a bc
       0.050021715 -0.3685989 0.16162428 -0.016892292
000030 f8 10 2f 3e f0 7e 92 be a2 47 87 bc 46 ac 72 3c
       0.17096317 -0.2861247 -0.01651365 0.014811581
000040 2f 51 23 bc 7b 61 cb 3d ea c5 61 be 1b ee c3 3e
       -0.009968086 0.09930702 -0.22048154 0.38267598
000050 c1 fe a7 3e 29 b6 fe 3c 96 04 0f 3e 76 4c 33 be
       0.3281155 0.03109272 0.13966593 -0.17509636
000060 58 ca 93 3e fd 01 b0 3e c1 62 b8 be fd be a9 bd
       0.28865314 0.34376517 -0.36012843 -0.08288381
000070 77 82 69 3e 7c e8 89 3e 5f e4 80 be 41 13 78 be
       0.22803675 0.26935184 -0.25174233 -0.24226095
000080 76 d7 84 bd c8 5d 5c bd 35 51 bd bc a7 f3 13 be
       -0.064864084 -0.053800374 -0.023110012 -0.14448415
000090 53 c3 78 3d c3 ef a9 3e 51 fe a9 3e c1 b1 81 3e
       0.06073315 0.33190736 0.3320184 0.25330928
0000a0 81 c3 be 3d 65 8f a5 be 06 ac 82 bd bb 0f fe bc
       0.09314633 -0.32335964 -0.06380467 -0.03101336
0000b0 46 df 0d 3d c3 4a 8a be ab 76 a3 be 68 86 44 be
       0.03463676 -0.27010164 -0.31926474 -0.19191897
0000c0 d9 48 c7 3e da 00 5b 3e 9b 2a f8 3d e7 d5 be be
       0.38922766 0.21387044 0.12117501 -0.3727257
0000d0 7b e8 ad 3d e6 1e 36 3e 0c 23 a4 be 21 b8 7b be
       0.08491608 0.17785224 -0.3205799 -0.24581958
0000e0 8a e6 bc 3e 63 78 82 bc 41 2e a0 3e 38 e1 45 3e
       0.36894637 -0.015926545 0.3128529 0.19324195
0000f0 ab f9 fc 3c 77 4e bb 3e f4 10 21 be b7 b9 ae 3e
       0.03088077 0.365833 -0.15729123 0.34126064
000100 27 58 a9 be ce e7 b7 3c fc 99 34 bd 1d 85 8e be
       -0.33075067 0.0224494 -0.044092163 -0.27835932
000110 26 6c 32 be fc f6 08 3e ef cb 0f be f8 08 d7 3d
       -0.17424068 0.13375467 -0.14042638 0.104997575
000120 a4 ec 03 be 3a eb eb 3c 94 7f 99 be f3 ab 9b be
       -0.1288324 0.028798688 -0.29980147 -0.30404624
000130 75 78 5f 3e 57 65 94 3d 33 1a a6 be 7d 18 6e bd
       0.21823294 0.072458915 -0.32441863 -0.058128823
000140 6f 8b 44 be d6 01 f7 3d f1 80 ab 3e e5 56 ee 3d
       -0.19193815 0.12060897 0.33496812 0.116376676
000150 41 83 ba 3e e2 f7 87 3d 10 f8 48 be 05 53 be 3e
       0.36428264 0.06639077 -0.19625878 0.37172714
000160 1f df 95 3e 46 38 57 3d 6c 95 96 3d 2c c6 aa 3e
       0.2927179 0.0525439 0.07352719 0.33354318
000170 15 cc f7 bd 05 b5 08 3e c0 89 ab be 6b d1 03 3e
       -0.120994724 0.13350303 -0.33503532 0.12872855
000180 92 ae 73 be 21 0d c2 3d d8 f2 8f be 8b 3a 55 3e
       -0.23797062 0.094751604 -0.28114963 0.20823114
000190 8a 0b 2e be c7 32 e2 3d df 44 61 3e 73 53 b0 3e
       -0.1699659 0.11044841 0.21998928 0.34438667
0001a0 05 e8 35 3d 64 42 c5 be c3 9b 5e bd 0e 7c b8 3e
       0.044410724 -0.38527215 -0.054347765 0.36032146
0001b0 6a 42 50 3e 6b d9 79 3e f1 24 a1 be 9d 2d b6 bd
       0.20337835 0.24399345 -0.31473497 -0.08895419
0001c0 9e 0c 29 be aa 7f ec bd 5e 98 e0 bd 4d 43 b9 be
       -0.1650872 -0.115477875 -0.10966562 -0.3618416
0001d0 ba b4 91 be d1 2f d2 3d 30 6b 98 be dd d8 5e bd
       -0.28458196 0.102630265 -0.29769278 -0.054406036
0001e0 fd 4c 63 3e fa 46 76 3e b6 31 9b 3d 13 b3 a2 be
       0.22197337 0.24050513 0.07577841 -0.31777248
0001f0 3e 9e 81 3c 83 a9 b7 be 31 90 80 3e 96 08 20 be
       0.015822526 -0.35871515 0.2511001 -0.15628275
000200 6b 6c 8e 3e ba 72 a1 3e 88 f9 43 be 2a 6e 50 be
       0.2781709 0.31532842 -0.19138157 -0.20354524
000210 6d cf ff bc bc 50 c5 3d 7e 92 b6 3c 8b e9 a6 3e
       -0.031226838 0.096345395 0.02228665 0.32600054
000220 4c e7 00 be 3e 91 4d 3e 1b c5 1e be 62 6b 01 be
       -0.12588233 0.20074937 -0.15504877 -0.1263862
000230 b5 47 86 bd be a1 92 be 8a 86 7c be 3e 1a 8b 3e
       -0.06556646 -0.28639024 -0.24660698 0.2716846
000240 0f de 2a 3c 4c 04 6e be ac f6 7b be ef a5 7c be
       0.010428919 -0.23243827 -0.24605817 -0.24672674
000250 d7 95 82 3e 72 30 81 be c8 52 8e 3d 0d 6e 84 3e
       0.25504944 -0.25232273 0.06949383 0.25865212
000260 3d 85 1f 3d 35 d0 63 be ed bc 85 3e c2 35 f8 bd
       0.038945425 -0.22247393 0.261207 -0.121196285
000270 d3 96 a3 be 05 47 a3 bd 20 04 c5 bd 2a 72 d9 3d
       -0.31951007 -0.0797253 -0.096199274 0.10617478
000280 e0 b1 bc bd 17 5a 2d be 52 76 7d be 12 b3 b6 3e
       -0.092136145 -0.16928898 -0.24752167 0.35683495
000290 7f ba 82 be d1 12 ae be 63 78 5f be 68 a3 d9 3d
       -0.2553291 -0.3399873 -0.21823268 0.106268704
0002a0 2e 40 81 3e 63 89 96 be db 07 1b be d9 55 a7 3e
       0.25244278 -0.29401693 -0.15139715 0.32682684
0002b0 d4 29 86 bc 98 ac 9d bc a7 0e 5c 3d e5 10 68 3e
       -0.016377367 -0.019247338 0.05372491 0.22662695
0002c0 18 e0 5e 3c 9d 5d 09 be 39 67 ff bd b8 0e 0b 3c
       0.013603233 -0.13414617 -0.1247086 0.008487396
0002d0 81 ec 85 3e 57 f2 87 be 07 fe 20 be 9e 05 a6 3e
       0.26157 -0.26552078 -0.15721904 0.3242616
0002e0 09 10 69 3e e8 ea 8e be f1 61 8e 3e 31 50 90 bd
       0.22760023 -0.27913594 0.27809098 -0.07046545
0002f0 06 16 86 bd 84 d7 b4 be 2c 02 7e 3e a0 9d b4 3d
       -0.065471694 -0.35320675 0.24805516 0.08819127
000300 1f 98 ea 3d 5b f9 1b bd 0e dc 60 be 45 c2 d3 be
       0.11454796 -0.0380796 -0.21958944 -0.41359153
000310 61 80 6e be d4 50 c2 3e 75 cc bf 3e ae 11 be 3e
       -0.2329116 0.37952292 0.37460676 0.37122864
000320 d2 16 4a bd 3a 93 17 be a2 7c 97 be 27 da db 3d
       -0.04933817 -0.14802256 -0.29587275 0.10734969
000330 73 c8 07 bc 64 56 30 be 8c b6 e4 3d 51 c3 8f 3b
       -0.008287537 -0.17220455 0.111676306 0.004387297
000340 36 fc a8 be bb 11 45 3e a6 fa 79 be 7b ea 94 be
       -0.33004922 0.19245045 -0.24412021 -0.29085144
000350 48 6f b9 be 0c c2 43 be 28 1e a9 3c 52 c8 6c 3e
       -0.36217713 -0.19116992 0.020644262 0.23123291
000360 ca 9f 84 be 57 fa ca 3e 76 64 64 3d 8a a9 38 be
       -0.2590316 0.3964412 0.05575987 -0.18033424
000370 9b ff 08 be a9 d6 b2 be cd 0f 08 3e 41 b6 87 3e
       -0.13378756 -0.34929398 0.13287278 0.26506236

temporal.input_proj.bias f4 [32]
000000 f3 82 e7 bc 47 9b b7 3e b8 40 03 bd 3e 17 9d be
       -0.028260684 0.35860655 -0.032044142 -0.30681795
000010 97 7e 74 be e7 93 a4 3d 2f 63 ad be 20 38 19 be
       -0.23876415 0.08036023 -0.33864734 -0.14962816
000020 43 f5 97 be 7c 55 86 bc dc ec d6 bd b4 7d 9a be
       -0.29679307 -0.016398184 -0.10494396 -0.3017403
000030 64 60 03 be ee 26 31 be 51 9d e8 3c a8 06 0d 3d
       -0.12829739 -0.17300007 0.028395327 0.034430176
000040 36 2b 6f be 1b 70 b5 3e b9 ce d9 3d e4 b0 44 3e
       -0.23356327 0.35437092 0.10635132 0.19208103
000050 8f 48 c5 bd da 78 a5 3d 49 e4 6b be 84 83 86 3e
       -0.0963298 0.08079691 -0.23036303 0.26272213
000060 ce 3b 73 be 40 62 4b 3e 53 c2 20 3e 07 02 62 3e
       -0.23753282 0.19861698 0.15699129 0.22071086
000070 2f 3e e1 bd d6 dc a8 be a9 81 88 3d 7c a5 a0 3e
       -0.10998189 -0.32980984 0.06665356 0.31376255

temporal.layer_norm.weight f4 [32]
000000 77 d6 6d 3f 2e 4b 85 3f 57 04 80 3f e7 de 61 3f
       0.9290537 1.0413568 1.0001324 0.88230747
000010 d0 6d 7a 3f d4 68 71 3f d7 fe 86 3f 1d 18 55 3f
       0.9782381 0.9430058 1.0546521 0.8323992
000020 ee bc 74 3f 81 b9 83 3f 68 58 7b 3f 01 11 70 3f
       0.95600784 1.0290986 0.9818177 0.93775946
000030 74 29 80 3f bd 11 74 3f cb 3c 80 3f 8e 1b 66 3f
       1.001265 0.95339566 1.0018553 0.89885795
000040 83 bd 87 3f ad f8 76 3f c3 0c 7c 3f c9 12 6e 3f
       1.0604709 0.964732 0.9845697 0.92997414
000050 b5 42 80 3f 0a a5 69 3f 6e 12 64 3f 09 41 6e 3f
       1.0020357 0.91267455 0.8909062 0.93067986
000060 d4 e8 62 3f 49 8e 82 3f 59 11 72 3f 55 b7 8a 3f
       0.8863652 1.0199672 0.9455772 1.0837198
000070 07 89 73 3f 7d 86 66 3f ef cd 81 3f 0f e9 7c 3f
       0.9513096 0.9004896 1.0140971 0.9879312

temporal.layer_norm.bias f4 [32]
000000 e0 cf c3 3b 72 21 a2 3d 69 a2 29 bd 66 8a 66 bd
       0.0059757084 0.079165354 -0.041414652 -0.05628433
000010 a5 11 ac bd 9d 66 13 bd 77 d3 6f bd f4 46 8a 3c
       -0.08401803 -0.03598653 -0.058551278 0.016879536
000020 6f 43 2a 3e 5b 84 8a bd dd a5 2a bd 3b c7 88 3d
       0.16627286 -0.06763526 -0.041662086 0.06678625
000030 86 f2 da 3d dc be 31 bd 37 96 3a 3d 9b db 3f bd
       0.10690789 -0.04339491 0.045553412 -0.04684029
000040 5d be 08 be 33 1c 82 3d 24 ea 50 bd b3 08 0b 3c
       -0.13353868 0.06353035 -0.051004544 0.008485961
000050 e7 ca 63 bd 0b a2 f9 3d aa 1c 0c be ed 90 89 bd
       -0.055613425 0.1218911 -0.1368281 -0.067170955
000060 28 ee 84 bb 5b f0 e9 3d eb 6c 22 3d ba 20 9c 3d
       -0.0040567107 0.11422797 0.039654654 0.076234296
000070 95 dc 8f 3d f6 9f 3f be e3 5d 7c 3d b0 e8 3e 3c
       0.070244946 -0.18713364 0.061612975 0.011652157

temporal.rnn.weight_ih_l0 f4 [128, 7]
000000 6f 20 be ba 1a ff 65 3e 9e 4b 8d 3a 6b ca 81 bd
       -0.0014505516 0.22460595 0.0010779982 -0.06337436
000010 91 60 38 bd af 2b 25 3e 13 b3 60 bd 92 b1 25 be
       -0.045013968 0.16129945 -0.05485828 -0.16181019
000020 7d 47 da 3d 18 21 ec bd 7c 35 1f 3d da c1 12 be
       0.106581666 -0.1152975 0.038869366 -0.14331761
000030 c6 c4 5a bd 50 77 dc bc 0d 98 a2 bd 34 88 ae 3c
       -0.053410314 -0.026912361 -0.07939158 0.021305181
000040 be bf 6c 3e 27 a9 9e 3c 85 4b 46 bd 52 55 16 3d
       0.23120019 0.019367767 -0.048411865 0.03670246
000050 20 bf 80 bd e7 29 7d 3d 7f 31 b5 3d 87 f1 1d 3e
       -0.06286454 0.06180754 0.08847331 0.15424167
000060 81 6c da bd 43 bd 4c 3e b3 bb 50 3e 9c 20 74 be
       -0.10665227 0.19994073 0.20384102 -0.23840564
000070 82 11 20 be 35 8c 06 3e d3 0c 2f bd eb 54 58 3d
       -0.15631679 0.13139422 -0.04273684 0.05281536
000080 f6 ed 1d 3e dd 52 5d 3e 4d a1 e7 3d 94 50 d3 bd
       0.15422806 0.21613641 0.113100626 -0.103181034
000090 95 2c f4 3d 34 fb d7 bd 82 9c ca 3d fd 67 c5 bb
       0.11922566 -0.1054596 0.09893133 -0.0060243593
0000a0 e9 d2 f8 bd 95 88 88 3b f7 d0 cc 3c 34 8d 12 bc
       -0.12149603 0.0041666725 0.025001986 -0.008944798
0000b0 3d e6 c3 3d 43 6d 08 be ee a6 36 3b 90 7a db bc
       0.09565399 -0.1332293 0.0027870494 -0.02679184
0000c0 89 fd 47 bd 49 9a c2 3d 7f 9f ae 3b 9d 56 19 be
       -0.048825774 0.09502084 0.005329072 -0.14974447
0000d0 f0 cc 07 3e bf 13 c3 3d 95 6d 8c 3d 3e 95 09 be
       0.13261771 0.09525251 0.068568386 -0.13435838
0000e0 54 43 34 3e 63 93 45 3e 64 ef 96 3c f1 d8 da bd
       0.17603809 0.19294505 0.018424697 -0.106859095
0000f0 4b b8 d2 3d 5b 59 1b be 47 92 0c bd 00 c0 26 3d
       0.10289057 -0.15170805 -0.03431919 0.04071045
000100 47 02 17 3d e1 97 27 be 32 04 fc bd 25 0a a8 bc
       0.036867406 -0.16366531 -0.12305488 -0.02051265
000110 a5 93 2d be e7 76 fc bd 02 7e 7c 3c d7 fe e3 3c
       -0.16950853 -0.12327366 0.015410902 0.027831478
000120 0e 29 cb 3d 6e c8 05 3e 97 52 28 be fb 7f 82 be
       0.0991994 0.13064739 -0.16437756 -0.25488266
000130 d0 fd 6f bc 23 cf d5 bd b8 d1 85 bc ba 1b ca bd
       -0.014647916 -0.10439899 -0.016335353 -0.0986857
000140 64 de 92 bd 83 71 60 be 07 74 63 be b8 3e 84 be
       -0.07171324 -0.21918301 -0.2221223 -0.258291
000150 83 ff e1 3d 0d 68 83 bd 04 11 14 3e 04 65 01 be
       0.11035063 -0.064163305 0.14459616 -0.1263619
000160 5a a1 85 3d 99 17 0a bd 1e cb e8 bd f9 6f 7d bd
       0.06524916 -0.03371391 -0.113668665 -0.061874364
000170 6f a9 30 3e 3d fb dc bd fd 7c c5 3d 3a 93 1e bd
       0.17252134 -0.107901074 0.0964298 -0.038714625
000180 00 58 d8 bb 22 a3 54 be 38 14 59 bd 6b 57 6e 3e
       -0.0066022873 -0.20765355 -0.052997798 0.23275535
000190 6b 3b c4 3d 6b d5 9c bd 4f fc 2a 3e c8 6a 3e 3e
       0.095816456 -0.07657894 0.1669781 0.18595421
0001a0 09 99 06 bb 17 f8 6f 3d 7e 01 b5 bd 99 63 ab 3d
       -0.0020537993 0.058586206 -0.08838175 0.08368606
0001b0 ee 83 c4 3d 30 9a 0e be 17 2d 03 be 38 c7 ad bd
       0.09595476 -0.13926005 -0.12810169 -0.084852636
0001c0 23 86 9d 3d 2c 66 8b 3d 56 ca ee bd 12 49 22 be
       0.076916 0.06806597 -0.11659686 -0.15848187
0001d0 41 42 20 3e ab 07 ba 3d 53 ef 2c be 64 f6 5a 3e
       0.15650274 0.09083494 -0.1688817 0.21383053
0001e0 12 0f 6b 3e 9f 3f ba 3d f4 16 1c 3e a9 ad 3b 3e
       0.22954968 0.09094166 0.15243131 0.18327965
0001f0 20 4b ec bc e6 01 6d bd 35 07 36 bd 51 32 2d 3d
       -0.028844416 -0.05786314 -0.044440467 0.042284314
000200 65 68 c8 3d 57 6c 2e 3e 0d 42 65 3d 57 b6 0c bd
       0.09785537 0.17033516 0.055971194 -0.03435358
000210 7c e2 7c 3d 3d f5 38 bd cd 59 3c 3a cc 64 0f 3e
       0.06173943 -0.045155752 0.0007185012 0.14003295
000220 2f 9f ff 3d e3 63 0d 3e 13 ec 0b 3e d6 f0 53 3d
       0.12481534 0.13807635 0.13664274 0.05174335
000230 c3 16 b8 3d 55 99 ce 3b 42 3f 35 3e b7 e8 42 3e
       0.089887165 0.0063048997 0.17699912 0.19034086
000240 9e d7 9f 3d 8b 6b 8a bd 27 cd c2 bd 24 ef e7 bd
       0.078047976 -0.067587934 -0.09511786 -0.11324909
000250 d0 51 ec bd 77 bf 5e be 84 1b c5 3d 0c 9c 77 bd
       -0.11539042 -0.21752726 0.09624389 -0.060451552
000260 69 79 2a 3d a8 fe ea bc 48 26 57 be 49 79 b7 bd
       0.041619692 -0.028685883 -0.21010697 -0.0895868
000270 f4 83 e2 bd 8b 84 41 3d e7 6d 10 be 72 76 11 be
       -0.11060324 0.047245543 -0.14104424 -0.1420534
000280 28 40 b8 3d 46 67 62 bb af 35 9f bd d4 6e 25 3c
       0.08996612 -0.003454642 -0.07773911 0.010097224
000290 0f 44 bd 3d b2 d6 d4 bd f1 76 13 be b7 f1 e9 3d
       0.09241497 -0.103925124 -0.14400841 0.114230566
0002a0 02 0e 28 3d aa 58 59 bd be f1 64 3d 5f fb fa 3d
       0.041028984 -0.053063072 0.055894606 0.122549765
0002b0 eb f0 08 be be 4a dd bd cf c5 16 bc f9 1f dc bd
       -0.13373153 -0.108052716 -0.009202435 -0.10748286
0002c0 4e 2c a8 3d ab 85 92 3c 11 d2 0d 3b cf a4 0f bc
       0.082115754 0.017886003 0.0021640102 -0.008767321
0002d0 ec b4 7a bc c2 03 35 bd 3c 1b d4 3c 2a fc 90 bd
       -0.015301924 -0.044193037 0.025891893 -0.070793465
0002e0 1b d8 5c be c7 ce db bc bb 49 a6 bd b7 4f 65 bb
       -0.21566813 -0.026831998 -0.08119532 -0.003499014
0002f0 ba 29 8d ba 97 dd b9 bd b1 13 38 be be 5d d3 3d
       -0.0010769882 -0.09075468 -0.17976262 0.10320614
000300 78 35 31 be 4b f1 97 bd 11 b3 dd bc 35 e2 88 bd
       -0.17305553 -0.0741907 -0.027062925 -0.066837706
000310 e8 4d 12 3e 0b 88 15 3e 49 ab 82 3d da e2 f8 bd
       0.14287531 0.14602678 0.06380326 -0.121526435
000320 35 2f 0f 3e f4 c4 f7 3d 93 f8 ae 3d 85 f2 9b bd
       0.13982852 0.12098113 0.085435055 -0.07614616
000330 57 a4 43 bb cd a1 eb bd 0e 20 15 3e 8e 58 70 3e
       -0.0029852593 -0.115054704 0.14563009 0.23471281
000340 66 8c 20 3c 5d f5 82 bd f4 74 0f 3e d8 5b 90 bd
       0.009799099 -0.063944556 0.14009458 -0.07048768
000350 6c 5b 53 3e 35 de db bd c5 9f fe 3d 6d ca dd bd
       0.20640343 -0.10735742 0.12432817 -0.10829625
000360 0a ae bd 3c 35 a5 1d bd e2 67 10 3e d1 88 db bd
       0.023154277 -0.03848763 0.14102128 -0.10719455
000370 4e cd fc 3c c2 95 49 3d 5b 1b 24 bc f1 91 4b 3d
       0.030859616 0.049215086 -0.010016288 0.049699727
000380 f5 6e 9b 3d 1e f5 2b 3e 5d 5f c6 3d a4 cf ec 3d
       0.07589523 0.16792724 0.09686158 0.11563042
000390 f3 a7 fd 3d df 0e 1e 3d ad 87 ee 3d d4 e6 1e 3e
       0.123855494 0.0385884 0.11646972 0.15517741
0003a0 26 43 4e 3d 8f 7b 47 3d b9 34 08 be f3 b0 37 3e
       0.050357006 0.04870182 -0.13301362 0.17938595
0003b0 81 41 e4 3d ef 50 a8 3c 94 1a 32 3e ef 7e 40 bd
       0.111453064 0.020546405 0.17392951 -0.046996053
0003c0 68 12 5d 3c 2c 9f 1d 3e b7 f6 d9 3d 54 2d dc 3d
       0.013493158 0.1539275 0.1064276 0.10750833
0003d0 f5 23 0d be 9b db 96 bd d0 00 31 3e 80 03 ec bd
       -0.13783248 -0.07366105 0.17285466 -0.11524105
0003e0 d4 d5 88 37 a0 f7 36 3e 82 86 b9 bd 6d d6 5a be
       1.6312035e-05 0.17867899 -0.090588585 -0.2137086
0003f0 14 6b aa 3d 22 98 f7 bd 54 20 ad bd 8c 44 86 3d
       0.08321205 -0.12089564 -0.08453432 0.06556043

temporal.rnn.weight_hh_l0 f4 [128, 32]
000000 41 12 5a bd c4 05 3e bd 12 fb 02 bc 6b b1 78 bc
       -0.053240065 -0.046392217 -0.00799443 -0.0151790185
000010 bd 08 76 3d d2 f9 a8 bd 8d fb 85 3b 84 c1 46 3e
       0.060066927 -0.082507744 0.004088825 0.19409758
000020 30 65 08 3e ba 1f 05 3d e8 a6 88 bd 89 d2 73 3d
       0.1331985 0.03250096 -0.0667246 0.059526954
000030 da 9b dc bd 24 b5 0b be 23 de 9a bd d8 a0 8c 3d
       -0.10771914 -0.13643318 -0.075619005 0.06866616
000040 63 b7 45 be 13 82 42 be b0 89 a0 bd 24 58 0b be
       -0.19308238 -0.18994932 -0.07838762 -0.13607842
000050 0a bb b4 3d 1b a6 0d 3e 1b 81 c0 3d 0d 15 12 3d
       0.08824737 0.13832895 0.09399625 0.035664607
000060 00 fc 0e 3d 89 f1 83 bd 19 70 ad bd 19 7a 2b 3e
       0.034908295 -0.064425536 -0.084686466 0.16745795
000070 61 6c 05 be 17 ec a1 bc 37 8c 26 3d c2 58 76 bd
       -0.13029625 -0.019765897 0.040661063 -0.06014324
000080 b0 1f 2b 3c 1c be 06 be 66 ac ee 3d bf a7 0c bd
       0.010444567 -0.13158458 0.11653976 -0.034339663
000090 33 34 2a 3e a2 f4 41 3e 75 45 0f be 01 3c 06 bd
       0.16621475 0.18940976 -0.1399134 -0.032772068
0000a0 d0 c1 8b bd 80 4d f4 bd fa 6c 55 bd 47 07 2d 3e
       -0.06824076 -0.119288445 -0.05210588 0.16897307
0000b0 eb 8a 9a bd c7 01 94 bc 58 cf 20 bd f5 e9 8a bd
       -0.07546028 -0.018067254 -0.03926024 -0.06782905
0000c0 6c 7f 20 be 17 c2 94 bd 41 b5 3f bd 28 a6 20 3d
       -0.15673608 -0.07263582 -0.046803717 0.03922096
0000d0 d9 68 bc 3d 0a f9 58 3d db 1c b0 3d 37 3c ca bd
       0.091996856 0.052971877 0.08599254 -0.09874766
0000e0 8a 20 1c be 5b e5 05 bd 80 d7 13 be b0 76 cf 3d
       -0.15246788 -0.032689434 -0.14437675 0.1013006
0000f0 90 d1 73 3d 98 17 22 bd fc 91 32 bd 18 2a 41 3a
       0.059526026 -0.039573282 -0.043596253 0.0007368638
000100 cc b4 04 3d 72 44 c4 bd cb c2 08 3e 23 43 a2 bc
       0.032398984 -0.095833674 0.13355558 -0.019807404
000110 cc 70 e1 3d 30 8c 71 3d 0a e5 2d be 58 6b 93 3d
       0.110078424 0.058971584 -0.16981903 0.071982086
000120 f2 e7 a1 3d cb ec 89 bd d3 68 02 3e 0f 82 a1 3d
       0.07905568 -0.06734618 0.127353 0.07886135
000130 b2 2c 6f 3d e9 05 22 3e 72 92 d7 3d 9a 31 aa bd
       0.058392234 0.15822567 0.10525979 -0.08310242
000140 a6 74 1c bd a1 86 ba bd 80 68 ff bd 71 bf 7e 3c
       -0.038197182 -0.0910771 -0.12471104 0.015548573
000150 d5 a4 1b bc 5f f1 9b bd 12 0a 8d bd 35 b8 8c bd
       -0.009499748 -0.07614397 -0.068866864 -0.06871072
000160 43 8b 9d bd 32 bb 86 3d 5f e4 2e 3e 5f ed 7a bd
       -0.07692578 0.065786734 0.17079304 -0.06126153
000170 9e 2b c7 bd 97 fb b4 3d 88 a9 06 be 5b c0 d2 bd
       -0.09725116 0.088370495 -0.13150609 -0.10290595
000180 1c 5d cd bd e4 ac 0c 3e c8 29 2d be d2 bc 9e 3d
       -0.10027525 0.13737828 -0.1691047 0.07750858
000190 ed d3 3e be 82 8a d5 bd e2 a1 47 bd b0 cd 5f 3e
       -0.18635531 -0.10426809 -0.048738368 0.21855807
0001a0 26 ec 8c bd be be c7 bd 7b a5 27 3d 4d 37 f6 bd
       -0.06880979 -0.09753178 0.0409293 -0.120222665
0001b0 c7 bc 08 3d 85 fb 22 3e 79 41 46 3e b9 07 d6 3d
       0.033383157 0.1591626 0.19360913 0.10450692
0001c0 1b d6 56 3d 13 04 b8 3d 81 9b de 3d e4 c8 0c bc
       0.05245028 0.08985152 0.10869504 -0.008592818
0001d0 9e 7b b6 bd 40 22 4f 3e 4d 22 7e 3d 78 a5 f6 3d
       -0.08910297 0.20227909 0.06204443 0.120432794
0001e0 6b dd a5 3b bf 8d c6 bd 0e b6 03 3d 83 d0 1f 3e
       0.0050617955 -0.09695005 0.032156043 0.15606885
0001f0 c6 65 93 3c f4 69 ed bd 12 5f 57 3e 20 93 27 3d
       0.017992865 -0.115924746 0.2103236 0.040911794
000200 90 a0 0c bd c3 6c 55 bd ef a4 73 3d bf 08 56 bd
       -0.03433281 -0.052105676 0.059483465 -0.052254435
000210 32 58 da bc 89 a9 71 bd f6 9d 90 bd 6e 2b d4 bd
       -0.026653383 -0.058999572 -0.07061379 -0.10359846
000220 de 22 55 be 1d 9c 86 bd cb 6d 1c be b1 f6 17 3e
       -0.20814082 -0.06572745 -0.15276258 0.14840199
000230 30 67 35 3e 03 35 ae 3d a5 0d c6 bc 00 51 d8 3d
       0.17715144 0.08506205 -0.024176428 0.105623245
000240 6e da e6 bd 14 a8 92 3d 84 99 6f 3d ae d9 c6 bd
       -0.11272131 0.071609646 0.058496013 -0.09709488
000250 9f 74 4b 3d f5 1f 01 3e 25 e5 cc 3d 11 61 b4 3d
       0.049671765 0.12609847 0.10004643 0.088075764
000260 37 a8 1d 3e 0c cd 64 3d aa 4d 9c bd 7c 03 49 3e
       0.153962 0.05585961 -0.07632001 0.19630235
000270 cb 1f ba bd 09 23 2d 3e cc 52 87 3a e3 2e 0a 3e
       -0.09088095 0.16907896 0.0010324358 0.13494448
000280 86 5a c6 3d 47 ec 10 be 14 95 f0 bd fe 11 ad 3d
       0.09685235 -0.14152633 -0.117471844 0.08450697
000290 c7 59 31 3d ac ce 43 bd bc 8c 09 bc 92 60 a3 bd
       0.04329851 -0.04780452 -0.00839537 -0.07977404
0002a0 d6 94 66 3d 25 ec 57 3d 94 70 8a bd 8a a6 54 3d
       0.056294285 0.05271544 -0.06759754 0.051916637
0002b0 49 26 e7 bd 2c 1c 0b 3e c1 28 29 be 4e 24 9c bd
       -0.11286599 0.13584965 -0.16519453 -0.07624112
0002c0 fc b4 33 3e 8e cf 96 bd ba cc f7 3b 6b 20 15 3d
       0.17549509 -0.07363807 0.007562247 0.03640787
0002d0 f1 a0 bd bd 3d c4 d3 bc 06 72 6e bd 5a 94 b2 3b
       -0.09259213 -0.02585041 -0.05821421 0.005449814
0002e0 5c 51 f1 bd 50 6d a0 3d 4d bc b6 bd c7 df bc bd
       -0.11783096 0.0783335 -0.08922634 -0.0922237
0002f0 a9 97 15 be 69 c9 e1 bd 02 95 29 bc 47 30 23 be
       -0.14608635 -0.11024744 -0.010350468 -0.15936385
000300 c1 cd 5b bd 6d 51 fd bd ec ad 06 3e cc b2 08 be
       -0.05366302 -0.12369046 0.13152283 -0.13349456
000310 22 21 6a bc 86 37 c4 3b 5b 2a 26 3e 91 c1 17 3e
       -0.014290126 0.005988064 0.16227095 0.14819933
000320 47 3c 93 3d 55 c5 be 3c ba 5b 1e 3c f3 11 35 be
       0.07189231 0.023287455 0.009665424 -0.17682628
000330 0f a3 1d be 07 71 82 bc c2 d2 0a 3d 13 98 29 be
       -0.15394233 -0.015923036 0.0338924 -0.16561918
000340 3a 1e cb bc 1f 8f 6c bd 17 5a c5 bd 5a 55 62 3d
       -0.024794687 -0.05775368 -0.09636324 0.05525718
000350 fd 77 9b bd 0c 13 c1 bd a0 57 75 3d 30 37 2d be
       -0.07591245 -0.09427461 0.05989802 -0.16915584
000360 a1 6b a5 bd 41 ba 93 3d 71 c7 9e 3d 78 ea 31 be
       -0.08077169 0.072132595 0.07752884 -0.17374599
000370 33 a0 88 3d 6e cb 27 3c 4a 14 d6 3d c9 14 88 3c
       0.066711806 0.0102413725 0.104530886 0.016611474
000380 6c bb 7f bd 16 fd 4e 3d 19 7c 9a bd ee 4f 0e 3e
       -0.0624346 0.05053433 -0.07543201 0.13897678
000390 24 48 19 3e ee 17 3b 3e 1b 33 6a 3c 3d 86 04 be
       0.14968926 0.18270847 0.014294411 -0.12941833
0003a0 7d f1 f7 3d 45 80 52 be ce 02 91 3d f9 75 86 3c
       0.12106607 -0.20556743 0.07080613 0.016413676
0003b0 e0 21 a0 bd a2 b4 a5 bd 5f f3 b7 bd d0 61 1a be
       -0.07818961 -0.080910936 -0.08981966 -0.15076375
0003c0 88 f5 e9 bd 5e b3 ff 3d bc 78 b3 bc ce 39 03 3e
       -0.114237845 0.124853835 -0.021908157 0.1281502
0003d0 1c 1f 12 be 3d 38 fe bd dd 3a de bd 20 d0 01 3e
       -0.1426968 -0.1241307 -0.10851071 0.1267705
0003e0 71 20 f1 3b 77 d3 ef 3c 1b 6b ed bd a9 5c ae 3d
       0.0073586036 0.029275639 -0.11592694 0.08513767
0003f0 9b da 36 bd b1 8b 88 bd f6 6c 76 bd ef cf 22 bc
       -0.044642072 -0.06667269 -0.060162507 -0.009937271

temporal.rnn.bias_ih_l0 f4 [128]
000000 40 ad ec bd e3 46 12 3e 08 cf f6 bd 18 0c 9a bd
       -0.11556482 0.14284854 -0.12051207 -0.07521838
000010 69 2b 01 be b3 f2 58 3d fe 9b aa bc a2 08 f9 3d
       -0.12614216 0.05296583 -0.020826336 0.1215985
000020 53 8e 26 3e 6d 00 6f 3c d2 a9 9e bd e7 e0 2c be
       0.1626523 0.014587504 -0.077472344 -0.16882668
000030 c6 04 05 3e 73 4f 86 bb 38 d3 98 3d 40 64 98 bd
       0.12990102 -0.0040988266 0.07462162 -0.07440996
000040 ac 24 47 bd 3b 4c dc bd 22 80 39 be c2 89 2f 3e
       -0.048618957 -0.10756727 -0.18115285 0.17142394
000050 f2 b1 1e 3d 08 78 06 be 99 16 1c be a5 a4 35 3c
       0.03874392 -0.13131726 -0.15242995 0.011086618
000060 c0 9a 5f 3e b8 cd 0e 3d c7 57 0c bd 2e 07 8e 3c
       0.21836376 0.034864157 -0.0342634 0.017337408
000070 0b 85 42 3e 2f ee 89 3d 26 5c 9d 3d 26 c4 05 3e
       0.18996064 0.06734883 0.076835915 0.13063106
000080 43 d7 ab 3b fc 4c 8a bc 4a 0a 9a bd 54 96 e7 3b
       0.005244167 -0.016882412 -0.07521494 0.007067481
000090 ce 7a 97 3c 81 cf 95 3d f7 66 39 3c 33 d2 8b bd
       0.018491175 0.07314969 0.011316053 -0.06827202
0000a0 fa bb f6 bc 9e a9 91 3d d4 26 36 3d f6 10 7d 3d
       -0.030118931 0.0711243 0.044470623 0.061783753
0000b0 f9 5e 79 bc 91 bd 29 3e f1 5b c4 3d ca 08 0f 3e
       -0.015220397 0.1657622 0.09587849 0.13968197
0000c0 2e 80 af bd dd 20 32 3e 83 0d ef bd e6 d5 14 bd
       -0.0856937 0.17395349 -0.11672499 -0.036336802
0000d0 3a 82 30 3c e0 af c9 3d 11 82 08 3e 22 51 9c bd
       0.010773236 0.098479986 0.13330866 -0.07632662
0000e0 85 0a 01 3e 64 3e 61 bd fe 69 5f 3d eb 92 63 bd
       0.12601669 -0.05499114 0.05454444 -0.055560034
0000f0 61 56 c3 bd 81 b3 ec bd 96 06 be 3d 3c ef 8b bc
       -0.0953796 -0.11557675 0.092786 -0.01708185
000100 20 96 3e be c8 2c 5c bd 86 d5 ba bd b5 30 e7 3d
       -0.18611956 -0.053753644 -0.091227576 0.11288587
000110 2b ad 21 bd fd d9 a8 bd e0 79 a0 bd 2a cf 17 3b
       -0.039471786 -0.08244703 -0.07835746 0.002316425
000120 bc 89 0a be ec 31 41 3d 29 be 08 be 37 56 db 3b
       -0.13529104 0.04716675 -0.1335379 0.006693627
000130 eb 4b c1 bd 8e d0 eb 3d 54 f0 48 3e 34 68 61 be
       -0.09438308 0.11514388 0.19622928 -0.22012407
000140 b3 3a f1 bc ab 0b c2 bd e0 dc 16 3e 82 fb e5 3d
       -0.029446935 -0.09474882 0.14732695 0.11229612
000150 4d f5 b5 3d a9 49 cf 3d 8d 9f 03 3e dd 2e bb 3b
       0.08884678 0.101214714 0.12853833 0.0057123736
000160 40 66 0f 3e e6 a7 8d 3d 03 98 f1 3d e0 7d 58 3d
       0.14003849 0.0691679 0.11796572 0.05285442
000170 ea a7 33 3e ec 85 6a 3e 78 35 4e 3e c4 09 34 3e
       0.17544523 0.2290265 0.20137584 0.1758185
000180 5c 0a 01 be 46 9d c9 3d fd 87 02 3e 06 27 93 bd
       -0.12601608 0.09844451 0.12747188 -0.071851775
000190 ba 78 97 3c d6 0d 02 3e ad 55 0c bb 79 c6 c5 3d
       0.018490184 0.1270059 -0.0021413371 0.09656996
0001a0 d9 f9 8d bc 9a 98 d0 3c 3b de 2b 3d f3 8a d3 3c
       -0.01733105 0.025463391 0.041959982 0.025823092
0001b0 60 77 46 be ea 4b 90 3d 8a 6f cc bd 9f c7 4f 3e
       -0.19381475 0.070457295 -0.09982212 0.20290993
0001c0 d2 0b d0 bc 6c 0c fc bd aa 67 ba bd 7e 4e d7 3d
       -0.025396261 -0.12307057 -0.091018036 0.10513018
0001d0 3d 57 c3 3d db a9 55 3d 4c 39 9d bd 32 66 28 be
       0.09538124 0.05216394 -0.07676944 -0.16445234
0001e0 8c a4 10 bd a7 7e 50 3e 30 a8 c3 bd 17 2b 6c be
       -0.035313174 0.20360814 -0.095535636 -0.23063312
0001f0 06 1c 69 bb 90 b0 9e bd 06 ee 2b bd e7 cc 9a bd
       -0.0035569682 -0.077485204 -0.041975044 -0.07558613

temporal.rnn.bias_hh_l0 f4 [128]
000000 5f 47 7b 3d b6 f5 2c 3d c5 2d f3 3d 49 4b e8 bd
       0.06134736 0.042226516 0.11873964 -0.113424845
000010 41 05 8a bd d9 a2 45 bd 06 13 3a be 40 24 c5 bd
       -0.06739283 -0.048251007 -0.1817132 -0.09626055
000020 e0 50 98 bd a5 7f 57 bd 34 b5 89 bc 69 b9 74 bc
       -0.07437301 -0.052611966 -0.016810037 -0.014936783
000030 06 3d d2 bd 79 81 c8 bc 9f 39 03 3c 25 f9 81 bd
       -0.102655455 -0.0244758 0.008009343 -0.06346349
000040 84 32 10 3e de 74 f9 3d 5a 03 32 be f9 b3 12 be
       0.1408177 0.12180494 -0.17384091 -0.14326467
000050 ea 8b 24 be 1d bd b2 3d 43 5d 0d 3d 5f 27 04 3e
       -0.16068998 0.08727477 0.03451277 0.12905644
000060 d6 aa 42 3e 84 90 8c 3d 74 e1 e0 3d f6 87 0e be
       0.19010481 0.06863502 0.10980502 -0.13919052
000070 7d 8a 7a 3e 8f ec 87 bc 6a 34 51 3e 79 26 5f bc
       0.24466892 -0.016592292 0.2043015 -0.013620012
000080 f5 6e ba bc b4 d4 f8 3d e3 e7 7f 3d 29 e8 9e bd
       -0.022757987 0.12149945 0.062477004 -0.07759125
000090 96 34 52 3d fb 25 35 be da ec 34 be fb 7c 81 3c
       0.05131968 -0.1769027 -0.17668477 0.015806666
0000a0 cf c8 f4 bd 94 1c e5 3b b2 d6 8c 3d 91 82 d1 bd
       -0.11952364 0.006991932 0.068768874 -0.10229982
0000b0 40 cc f5 3c a0 d6 78 bd 67 4a f4 bd cc 59 f4 bc
       0.03000462 -0.060751557 -0.119282536 -0.029827975
0000c0 49 14 77 3d a9 7f 85 3d 8e b1 ec bd cf 6f 80 bd
       0.06032208 0.0651849 -0.11557303 -0.06271326
0000d0 a5 83 03 3e 69 3e 27 3e 36 38 30 bd 5c 4e 1c bd
       0.12843187 0.16332401 -0.043022357 -0.038160667
0000e0 bb f9 3c 3e 14 c0 bc bd 16 37 fb 3d d7 65 f6 3c
       0.1845464 -0.092163235 0.12266366 0.030077858
0000f0 7c dd 81 3e 72 ac 18 3e c1 cd 9a bd aa ef 22 bc
       0.25364292 0.14909533 -0.07558776 -0.009944836
000100 56 05 08 be 4c d9 6b ba 5f 93 ea bd 19 86 03 3c
       -0.13283285 -0.00089969183 -0.1145389 0.008027577
000110 72 c3 4d be 58 d4 15 3e 2a 2d 11 be cb c9 04 be
       -0.20094088 0.14631784 -0.14177385 -0.12967603
000120 99 72 98 bd e6 10 0d be ef 84 ba bd 4e 2e 97 3d
       -0.07443733 -0.13775977 -0.09107386 0.07381879
000130 6b fe 20 3e 00 03 71 3e d7 33 48 3e 8a 33 04 be
       0.15722053 0.235363 0.19551025 -0.12910286
000140 fc 6d e3 bd 75 b8 24 be d9 01 18 3e 87 0a 5c bc
       -0.11104962 -0.1608599 0.14844455 -0.013430244
000150 c5 a6 9a 3a ab e6 29 3e a3 89 c7 bb d7 e2 6e 3d
       0.0011798969 0.16591899 -0.0060894056 0.0583218
000160 a1 32 5b 3e e2 e6 79 be 12 81 9c 3d 60 38 14 3e
       0.21406032 -0.24404481 0.07641806 0.1447463
000170 94 6f 81 bd 0a c3 3c 3e 77 fb 21 3d 13 78 6e 3e
       -0.0632011 0.18433776 0.039546456 0.23287992
000180 89 5d ee bd d7 ae b8 3c 4f 53 d6 3d df 52 14 3e
       -0.11638934 0.022544308 0.104651086 0.14484738
000190 3c 30 ef bd 91 76 bd 3d 40 96 c0 bd ed 6a 34 bd
       -0.11679122 0.0925113 -0.09403658 -0.044047285
0001a0 8c 22 ea 3d 54 fe 56 bd 29 65 2a be 28 68 1c 3e
       0.114323705 -0.05248864 -0.16640152 0.15274107
0001b0 26 63 78 3c 80 00 30 3d e0 9f 5f 3e 3c 35 34 3d
       0.015160358 0.042969227 0.21838331 0.04399608
0001c0 d0 a6 ba 3d ae 23 a7 bd e6 f7 20 bc 2c 09 00 3e
       0.09113848 -0.08161102 -0.009824729 0.12503499
0001d0 b9 d9 d4 bb a9 81 9a 3d 2e 8c ed 3d 3c 4a 86 3d
       -0.006495681 0.07544262 0.11599003 0.06557128
0001e0 8a a5 8d 3d f0 30 51 3e 59 ff 1d 3e e4 61 50 be
       0.0691634 0.20428824 0.15429439 -0.20349842
0001f0 d7 05 75 bc 10 86 9e 3c 78 03 13 3e 6c 80 6b 3d
       -0.014955006 0.019351035 0.14356792 0.05749552

temporal.rnn.weight_ih_l1 f4 [128, 32]
000000 45 6a 21 bd c4 9a c4 3d 9e c1 2a bc c5 0b 0d be
       -0.039407987 0.09599832 -0.0104221385 -0.13774021
000010 30 df 2e be fa c1 d0 3c c0 83 86 3d 37 bf 48 3e
       -0.17077327 0.02548312 0.06568098 0.19604193
000020 38 89 bd bd c4 00 93 bd 85 f4 bd 3c 74 9a 1c be
       -0.09254688 -0.071778804 0.023187885 -0.15293294
000030 06 43 05 3e ca 79 5b 3c ea 1b 11 3e cd 4c f6 bc
       0.13013849 0.013395736 0.14170805 -0.030065918
000040 1e 26 fe 3d 36 b2 c9 bd 7b 35 9c bd 78 12 57 bd
       0.12409614 -0.09848444 -0.07627388 -0.052507848
000050 87 75 0d 3e 4a e6 fc 3d 3b fd fa 3d fa ca 6c bc
       0.13814364 0.12348612 0.12255331 -0.01445269
000060 ff ec 53 3d 42 d2 e1 3d e8 b1 0e bc b1 86 31 3e
       0.05173969 0.110264316 -0.008709408 0.17336537
000070 22 13 58 3d 4a cc 7a 3d 99 5d 38 3e 9e 07 12 be
       0.05275262 0.06122998 0.18004455 -0.14260718
000080 71 37 08 3e d6 80 0e bd 52 f2 5f bc 33 3f f4 3d
       0.13302399 -0.034790836 -0.0136686135 0.11926117
000090 12 a8 96 3d f6 74 e8 3d 7b 3f 23 bd 5f 13 f2 bb
       0.073562756 0.113504335 -0.03985546 -0.007387563
0000a0 98 aa 46 3e 29 7d 1b bd f5 25 08 3e 31 aa 4a be
       0.19401014 -0.03796116 0.1329573 -0.19791485
0000b0 50 0c b1 3d e9 3e c7 3d 47 0a 29 be 0b a0 46 3e
       0.086449265 0.09728796 -0.16507827 0.19396989
0000c0 73 42 2b 3e 53 8a 9c 3d 24 55 17 be 8d 30 0b 3d
       0.16724567 0.07643571 -0.14778572 0.03398185
0000d0 44 7c b1 3d c9 1f dc 3d 4a 27 c0 3c d3 c4 26 3d
       0.0866628 0.1074825 0.023456234 0.04071505
0000e0 df c9 43 3d 15 e5 80 3d 18 99 cd bd 0b ac 23 be
       0.04779994 0.06293694 -0.10038966 -0.15983598
0000f0 aa 85 c9 bb 0e df 03 3e b5 46 33 be f3 de 50 be
       -0.006149967 0.12878057 -0.17507441 -0.20397548
000100 72 22 9c 3d 62 c9 de bd f7 2b 40 bd 4f 8e 96 bd
       0.076237574 -0.108782545 -0.04691693 -0.07351362
000110 65 ca 01 be cc 4e c0 bd fb fc 70 3d a1 d9 32 3b
       -0.12674864 -0.09390029 0.05883501 0.0027290361
000120 25 6f 16 be c9 97 26 3d 4f 09 d0 3d 2c 72 42 3c
       -0.14690836 0.040672097 0.101580255 0.011868041
000130 56 fa a2 3d 3c 8f 02 3d c9 f9 e1 3c 8c c6 ca bd
       0.07957904 0.03187488 0.027584927 -0.09901151
000140 a8 1c a8 3d cf 72 15 be ce 54 47 3e 0c e7 15 3c
       0.08208591 -0.14594577 0.19465944 0.009149324
000150 fd 2b 35 3d 8e 4c e4 3d 02 3c 11 be b5 b7 a2 bd
       0.044231404 0.11147414 -0.14183047 -0.079451956
000160 9b 3f ec bd 7b d7 33 bd 72 f6 8d bc 76 75 35 3d
       -0.11535569 -0.04390667 -0.017329428 0.044301473
000170 55 27 2b be 61 e7 d0 bd d2 d3 7e bd 05 29 74 bd
       -0.16714223 -0.10200382 -0.062213726 -0.05960943
000180 25 9f eb 3d 23 36 87 3d ec 19 3f 3e b2 67 ae bd
       0.11504964 0.06602123 0.18662232 -0.08515872
000190 a9 df 3a 3e e9 e5 86 bd dd ac 23 3e f5 06 1d 3e
       0.18249382 -0.06586821 0.15983911 0.15334685
0001a0 b0 b8 e9 bd ac 5d 42 bd 8c 41 cd 3d e9 8b c0 3b
       -0.114121795 -0.047452614 0.10022268 0.0058760536
0001b0 b9 13 63 3d 53 ef 29 3e b0 e0 39 be ef f8 e0 3d
       0.05543873 0.16595201 -0.18152118 0.1098498
0001c0 22 b7 f9 bd 7e 27 05 3c 62 e1 56 be 4f 30 24 be
       -0.12193133 0.008127091 -0.20984414 -0.16034053
0001d0 6d 87 20 be 45 d4 2b be 8d 7b 88 3d 6e cc 9a bd
       -0.15676661 -0.16780193 0.066641904 -0.07558523
0001e0 38 ef 9f bd 70 e1 a6 bd c4 fe 9c 3d 4d 6c dc bd
       -0.07809299 -0.081484675 0.0766578 -0.10762844
0001f0 27 c4 23 3c 04 97 b0 bd 20 51 a2 bd 7c fc dc bc
       0.009995497 -0.08622554 -0.079256296 -0.026975863
000200 0b 53 90 3d 5b bb ad bd 9d fd e5 bc 81 52 bb 3d
       0.07047089 -0.08483001 -0.028075034 0.09146596
000210 82 e9 1a 3e 52 ca 0e be 18 86 c3 bc 27 52 8a bd
       0.15128139 -0.13944367 -0.023867652 -0.067539506
000220 24 e9 aa bc 68 88 1a be a8 b4 c4 bd 13 f1 03 be
       -0.020863123 -0.15091097 -0.0960477 -0.12884931
000230 76 b9 23 3e 30 9c 31 bd 1b 79 9c bd 4b 68 99 3c
       0.15988716 -0.043361843 -0.076402865 0.018726489
000240 b1 0d 32 3c 15 a2 ad 3d 13 de 18 be 12 ab 1c be
       0.010867522 0.0847818 -0.14928465 -0.15299633
000250 a0 2a b6 bd 5f 55 cd 3c 20 6a a4 bd 66 f9 a4 bc
       -0.08894849 0.025065122 -0.08028054 -0.020138454
000260 25 2f 1d 3d ef b8 28 bd ab 5a 4f bc 78 cd 2b 3d
       0.03837504 -0.04119199 -0.012655894 0.041943997
000270 c3 85 8f bd 49 89 63 3d 91 0c b2 bd 31 1b 15 be
       -0.07007935 0.055550847 -0.08693803 -0.14561154
000280 79 7b 6e bd f4 dc 04 3e bb 43 09 3e c9 50 1a be
       -0.05822322 0.12974912 0.13404743 -0.1506988
000290 e9 97 e9 bd 97 70 4b 3d c8 f4 e0 3c 4c 66 76 3d
       -0.11405928 0.04966792 0.02746047 0.06015615
0002a0 1e 7c 2a 3d 23 ff 19 3e 29 73 e9 bd de 35 d3 3d
       0.041622274 0.15038733 -0.11398918 0.10313009
0002b0 c7 06 e6 bd c6 1a fb bb e9 7b fc 3c 7a c1 ee 3d
       -0.112317614 -0.0076631038 0.030820804 0.116579965
0002c0 7c 0e da bc 40 c5 51 3d 28 91 4f be f8 9d d0 bd
       -0.026618235 0.051213503 -0.20270216 -0.1018638
0002d0 99 75 df bd 59 a0 85 bd 16 73 22 3e 92 18 43 be
       -0.10911102 -0.065247245 0.15864214 -0.19052342
0002e0 30 b8 8a bd f0 8f eb 3c f2 93 f6 bd bd 57 0a be
       -0.06773412 0.028755158 -0.12039937 -0.13510032
0002f0 d8 41 f9 bd 89 96 22 be 82 68 ef bd 24 59 16 be
       -0.12170762 -0.15877737 -0.11689855 -0.14682442
000300 a9 b8 cb 3c b9 4e b9 bd 32 62 1a 3d 85 6f 7b 3d
       0.024868326 -0.09048218 0.037691303 0.06138565
000310 9f 5e 9e bd bf aa e8 bd 27 c2 e6 3b 9d c6 f2 3d
       -0.07732891 -0.11360692 0.0070421877 0.11854289
000320 ab 73 29 bd 31 95 d7 bc f5 02 72 3d 49 99 f7 3d
       -0.041370075 -0.026316257 0.05908485 0.12089784
000330 4f 91 3c bd 36 37 46 3e cd 50 f9 3d 21 a5 7b bc
       -0.046037015 0.19356999 0.12173615 -0.015359194
000340 15 42 9f bd 34 04 35 bd 27 0c eb 3c 2a aa 05 3e
       -0.07776276 -0.04419346 0.028692318 0.13053194
000350 8b 4a 9c bc 32 b0 19 3e 91 4c 7b bd 79 46 17 3d
       -0.019078514 0.1500862 -0.061352316 0.036932442
000360 b9 68 e2 bd 74 d3 a8 3d cc 4d c6 3d d9 70 97 3d
       -0.110551305 0.082434565 0.09682807 0.07394571
000370 95 eb a1 bd 73 d6 65 bd 59 c1 ad bd 31 d1 00 3e
       -0.07906262 -0.056112718 -0.08484144 0.125798
000380 61 db 1d bd 32 22 d7 bd dd d0 74 bc 09 0c 10 3e
       -0.038539294 -0.10504569 -0.014942375 0.14067091
000390 49 6d c7 bd 27 01 70 bd ad 3e 07 3e 88 58 06 be
       -0.09737641 -0.05859485 0.13207503 -0.1311971
0003a0 54 f2 df bc f0 41 e4 bc 94 16 1f be 54 d9 3a bd
       -0.02733723 -0.027863473 -0.15535957 -0.045617417
0003b0 49 d0 dc bd 87 55 04 be 3e 59 16 3d 41 20 3e bd
       -0.10781915 -0.12923251 0.0367062 -0.04641748
0003c0 0b eb 0e 3e 83 c7 f8 3d d7 c3 9e bc 47 08 0a 3e
       0.1395685 0.12147429 -0.019380493 0.1347972
0003d0 3f 14 ce 3d 89 bb 0d 3e ee b5 d0 3c d4 1b b5 3d
       0.100624554 0.1384107 0.025477376 0.088431984
0003e0 a9 b7 02 be 8d bb e9 bd 6b f3 0f 3e 84 52 a6 bd
       -0.12765373 -0.114127256 0.140577 -0.08121207
0003f0 3d 02 93 bd 86 87 ee bd b9 f2 3e 3d 4c 56 06 3e
       -0.07178161 -0.11646943 0.046618197 0.13118857

temporal.rnn.weight_hh_l1 f4 [128, 32]
000000 7e 02 ae bd e4 f5 59 3d fb fd 60 bc e1 5a 38 be
       -0.08496569 0.053213015 -0.013732429 -0.18003418
000010 41 f0 04 3e f1 d5 05 3d 31 fb cd 3d a0 79 4c 3d
       0.12982275 0.032674734 0.100576766 0.04992068
000020 ad c6 17 be 60 cc b0 3d c0 9a 8b 3d e4 0b d9 bd
       -0.14821883 0.086327314 0.068166256 -0.10597971
000030 96 0e 21 be 02 fa d5 3d b3 d0 ba bd 33 19 e0 3d
       -0.1572822 0.10448076 -0.091218375 0.10942306
000040 fe 1b 02 be 49 e9 c2 bd 61 d3 d8 3d 48 86 4e be
       -0.1270599 -0.09517152 0.10587192 -0.20168412
000050 bf e1 0c be 55 94 44 3c 1b 82 18 3e 01 98 51 3e
       -0.1375799 0.011998256 0.14893381 0.20468141
000060 4e 9c 84 bd a9 ca 2b 3e 11 2b 04 be 13 62 00 3e
       -0.06475125 0.16776527 -0.12907054 0.12537412
000070 07 3d 2e 3e af e6 0b 3e 2b 9e 4e be ab 54 e9 3b
       0.17015468 0.13662218 -0.20177524 0.007120689
000080 55 e4 d3 bd 23 eb ea bd ac 29 c1 bd 3b 25 12 bd
       -0.10346285 -0.1147063 -0.094317764 -0.035680037
000090 1d fe 4a 3e f8 d6 a1 bd 55 1b 82 3c 88 33 4d be
       0.19823499 -0.0790233 0.015882174 -0.20039189
0000a0 49 02 e8 bd 65 1e fd bd f5 33 aa bd 0e 13 24 be
       -0.11328561 -0.12359313 -0.08310691 -0.16022894
0000b0 6e 12 8d 3c 0c 5a b0 bd 69 c7 0d be b8 2b 08 be
       0.017220702 -0.08610925 -0.138456 -0.13297927
0000c0 5d 47 ca bc aa e9 22 bd 81 54 b5 bd b8 17 63 3d
       -0.024692232 -0.03977362 -0.088540085 0.05544254
0000d0 33 48 e6 3d 10 3d 56 3d 23 b0 f1 bc f9 c0 05 be
       0.1124424 0.052304327 -0.029502934 -0.13061894
0000e0 00 36 6c 3d 5f 69 04 3e f2 88 00 3e 33 97 b2 bd
       0.057668686 0.12930821 0.1255224 -0.08720245
0000f0 09 d3 17 3d 55 bd 01 3d f6 46 48 bd ea 1e 8b 3d
       0.037066493 0.0316747 -0.0488958 0.06793006
000100 ec 55 0b be 08 4f 55 be 1b 43 e7 bc 29 4a b5 3b
       -0.13606995 -0.2083093 -0.02823024 0.005532522
000110 80 fe ff 3d d3 9b 13 3e 86 53 14 be 06 04 2a bb
       0.12499714 0.14414911 -0.14484987 -0.002594234
000120 98 a0 b3 3d 96 03 af bb 18 fa 02 3e 04 24 3d 3e
       0.08770865 -0.0053410036 0.12790716 0.1847077
000130 a9 b5 68 bd 95 2c 95 bc 60 1e 98 bd ce 5f 80 3c
       -0.05681387 -0.018209735 -0.074276686 0.015670683
000140 4c 79 9e bd ae c6 44 3e 6c 6e e4 bd e5 dd 64 bc
       -0.07737979 0.19216415 -0.11153874 -0.013968919
000150 42 99 7a bc f9 c3 15 3e e0 e7 89 bd 25 0d ef 3d
       -0.015295329 0.14625539 -0.0673368 0.11672429
000160 4d d4 3f be 44 4c 7a 3d 05 42 ca 3c 34 9f b0 bd
       -0.1873333 0.06110789 0.024689684 -0.086241156
000170 45 ce 47 3e d5 ae e8 bc 17 c8 56 bd b9 b9 85 3d
       0.1951228 -0.028403679 -0.052436914 0.065295644
000180 29 d8 fe bd 92 5e 16 3e 53 aa 10 3e e1 b5 4b 3e
       -0.12443573 0.14684513 0.14127474 0.198936
000190 b1 d2 43 3e 92 0b 02 bc 04 ed ee 3c 3e e5 86 3d
       0.19123341 -0.007937329 0.029165752 0.06586693
0001a0 6d b6 d4 bd 92 76 9c bd d8 65 4c bd 42 45 3e 3d
       -0.103863575 -0.07639803 -0.049901813 0.04645277
0001b0 b2 b7 aa 3d 3d ed 14 bd 99 1f 2a be c4 31 26 3c
       0.08335818 -0.03635906 -0.16613616 0.010143701
0001c0 aa 67 f0 3d 57 30 be bd bc e2 a4 bd 88 27 0e bd
       0.11738522 -0.09286564 -0.08051059 -0.03470567
0001d0 8c 91 8e bd 32 46 cb bc 39 69 a5 bd 75 30 00 3e
       -0.069613546 -0.024813745 -0.0807671 0.12518485
0001e0 9d e6 0d bd 4a 0a 39 be c0 0f 34 be 45 1a fe bd
       -0.034643758 -0.18070331 -0.17584133 -0.12407354
0001f0 da a3 a4 bb aa ed da bd 2d 5d af 3d f7 59 af 3d
       -0.0050244154 -0.10689862 0.08562694 0.08562081
000200 b5 68 82 bd e0 7e f1 bc b1 84 05 be 3b 12 20 be
       -0.063676275 -0.029479444 -0.13038899 -0.15631954
000210 e5 1a a0 bd 44 57 b2 bd 49 c8 28 3e fd e1 ba 3d
       -0.0781763 -0.08708051 0.16482653 0.09125135
000220 96 25 5e be 8a c5 da bd 47 2e cb bc ae 46 a3 bc
       -0.21694025 -0.10682209 -0.02480234 -0.019931164
000230 21 d3 63 bd 35 0e 42 3e f9 8f 1a 3d 1b 36 1a be
       -0.05562127 0.18950732 0.03773496 -0.15059702
000240 03 3e 74 3d f2 2a b4 bd 91 9c a3 3b 25 ba df bc
       0.05962945 -0.08797254 0.0049930294 -0.02731044
000250 0d 44 0d be d8 71 e3 3d c8 97 20 bd c8 1f 14 bd
       -0.1379549 0.11105698 -0.03920725 -0.03616312
000260 52 ce dc bd 7c ed 3a 3e 83 ca a6 bb e2 1e 54 be
       -0.1078154 0.18254656 -0.0050900592 -0.20714906
000270 6b be 93 bd bb 7c 94 bd cf b5 d2 bc bb 49 3a be
       -0.07214054 -0.07250353 -0.025721459 -0.18192188
000280 27 4d 40 bd 8f 0f 1b 3e d8 fa 95 3c 17 92 3d 3e
       -0.04694858 0.15142654 0.018308088 0.1851276
000290 f3 ad 75 3c 0e 26 29 3e 8f a2 b9 3d 33 35 42 3d
       0.014995086 0.16518423 0.09064209 0.047414016
0002a0 69 0c e5 3b 61 e1 1b 3e f5 77 3b 3b f6 04 85 bd
       0.006990005 0.15222694 0.0028605436 -0.06495087
0002b0 33 00 93 3d e2 74 ec bc e4 a3 91 bc 7c 68 8f bd
       0.071777724 -0.028864328 -0.017778344 -0.07002351
0002c0 e9 0a aa 3d 58 84 13 3d 55 9a a1 bd 1f 12 ac bd
       0.08302862 0.036014885 -0.078907646 -0.08401894
0002d0 32 25 61 bd d9 03 bd bc e5 f9 e8 bc 9e f4 a1 3d
       -0.054967113 -0.023073124 -0.028439471 0.07907985
0002e0 8d fd af bd a9 c4 8c bd 3b bc 0e be 5b 64 ac 3c
       -0.08593283 -0.068734474 -0.13938992 0.021043947
0002f0 89 a9 df bd 82 fb 23 be 09 ee a8 3c 31 50 cb bc
       -0.10921008 -0.16013911 0.020621317 -0.024818512
000300 10 3d 40 bd b6 36 fa 3d 45 61 5b be 32 ac 83 3d
       -0.046933234 0.122174665 -0.21423824 0.06429328
000310 87 27 92 bd d0 e2 ac bd 3d ec ad bd fb 33 bb 3d
       -0.071364455 -0.084416986 -0.084923245 0.09140774
000320 6c 72 01 3e a3 3b cc 3d f4 de ea bd bb 01 ff 3d
       0.12641305 0.09972312 -0.11468306 0.12451502
000330 56 b6 20 3e b6 e2 f3 bd d3 1f d6 3c c3 0d 1f 3d
       0.15694556 -0.11908476 0.026138222 0.038831484
000340 3c af 44 be 7c 12 da bd 75 0a 5e 3d ea ab bb 3c
       -0.19207472 -0.10648057 0.05420919 0.022909123
000350 b3 a2 b2 3d f4 71 20 3e 8b 6a d8 3d 9f f2 d3 3d
       0.08722439 0.1566847 0.105671965 0.10349011
000360 65 90 6c bd d4 5f ed bd b5 b9 10 3d fa 17 73 3d
       -0.057754893 -0.115905434 0.035333354 0.059349038
000370 2c 29 19 3e 00 40 e6 3d 5e 9c 09 3e 64 ae 10 3e
       0.14957112 0.11242676 0.13438556 0.14129025
000380 0d fb c5 3d 13 ee 1d be d6 42 0d be 49 eb a6 bc
       0.09667025 -0.1542285 -0.13795027 -0.020375865
000390 55 6c ed 3d 83 8a d8 3d fc a8 af bc 4a 38 cd 3d
       0.11592928 0.10573294 -0.021442883 0.10020502
0003a0 13 bc 08 3e b4 ab ee bc ba 22 b4 3d 53 cd 15 3e
       0.13352995 -0.029134609 0.08795686 0.14629106
0003b0 dd fd 23 be b5 03 39 bd 26 aa 11 3e cc 88 c2 3c
       -0.1601481 -0.04516955 0.14225063 0.02374687
0003c0 ab a7 d6 3c 62 c2 31 bd 4e c2 0c be de 78 df bd
       0.026202997 -0.04339827 -0.13745996 -0.109117255
0003d0 81 7b 19 be 45 d6 af bd 5d da 0c be 79 0c e3 bd
       -0.14988519 -0.085857905 -0.13755174 -0.11086363
0003e0 c2 0f f3 3d 1f 97 3c 3e 61 5c 18 be d9 23 3c 3e
       0.1186824 0.18417023 -0.1487899 0.1837305
0003f0 32 ce b6 3d 6c e9 17 be 36 71 e2 3b 6b 40 f2 3d
       0.089260474 -0.14835137 0.0069104685 0.11828693

temporal.rnn.bias_ih_l1 f4 [128]
000000 49 88 af 3c 30 a7 0e be ea 56 ba 3d 2e 8a c6 bd
       0.02142729 -0.13930964 0.09098609 -0.096943244
000010 e2 46 ea 3d 2e 26 06 3d 72 79 2d 3e 9d 93 b0 bd
       0.11439301 0.032751255 0.16940859 -0.08621905
000020 ff f7 bd 3b df bd c1 bd 59 c8 ce bc 62 e3 7f 3c
       0.0057973857 -0.09460043 -0.025242018 0.015618177
000030 ea 34 84 3d 4c f3 20 3c c1 83 24 3e 81 26 2a 3e
       0.06455405 0.0098236315 0.16065885 0.1661625
000040 ff b8 a0 bd 95 32 1e 3e 26 26 b7 bd 4a e1 25 be
       -0.07847785 0.15448983 -0.08942823 -0.16199222
000050 0b e5 36 3d a6 ec 06 3d ad 2c 37 3e a0 ba e2 bd
       0.044652026 0.03294053 0.17888136 -0.11070752
000060 e8 cf 09 be 7a a9 77 3d 22 a1 10 bd 76 ba 6a 3d
       -0.13458216 0.06046436 -0.03530992 0.05730673
000070 c0 c7 e7 3d 31 5b 3a 3d d1 82 52 bd b8 13 c1 3c
       0.11317396 0.045497123 -0.051394287 0.023568973
000080 f2 46 1b 3d 78 b9 10 be 3e 0b 14 be 74 f3 e4 3d
       0.037909456 -0.1413325 -0.14457414 0.111792475
000090 f3 48 d2 bd 13 9a ea 3d d7 4c d1 bd 3e 87 2f 3c
       -0.1026782 0.114551686 -0.10219734 0.010713397
0000a0 ce 5d 22 3c f2 c3 41 3d fc 3f f7 3c ee 38 16 3e
       0.00991006 0.04730601 0.030181877 0.14670154
0000b0 ba 58 97 bd 22 aa a0 3c f3 75 2f 3d 55 d7 0b be
       -0.0738997 0.019612376 0.042837095 -0.13656361
0000c0 41 e7 2c 3e b6 3f 08 3e 62 3b 14 3e 11 df 10 be
       0.16885091 0.13305554 0.14475778 -0.14147593
0000d0 ba 34 10 be 72 05 48 be 70 c9 ac 3d 9a d8 4e be
       -0.14082614 -0.19533327 0.08436859 -0.20199814
0000e0 68 26 e2 bc cd 97 30 3d d3 5d 11 3e 0e 9f 0e 3e
       -0.027606204 0.04311352 0.14195947 0.13927862
0000f0 fc 1a 0d 3d 95 92 54 3d 05 05 8f b8 17 ae b9 bd
       0.034449562 0.051897604 -6.819706e-05 -0.09066408
000100 f5 f5 9f 3b a5 d6 06 be 79 48 18 be 62 fc ee bd
       0.0048816153 -0.13167818 -0.14871396 -0.11669232
000110 12 1b bd bd ed 6f 0b 3d 4f 24 0a 3e f3 4f 08 be
       -0.09233679 0.034042288 0.13490413 -0.13311748
000120 17 ef 11 bd e7 88 47 be a5 03 9d bc 0f a1 00 3d
       -0.035628404 -0.19485818 -0.019166777 0.031403597
000130 df 11 cb 3d 12 04 48 be ed 3d a6 3d cc e0 06 be
       0.09915518 -0.19532803 0.0811728 -0.1317169
000140 cd bc 0b be 17 dc 3a 3e a2 b7 1e bb 6d a0 f6 bd
       -0.1364624 0.1824802 -0.002421834 -0.120423175
000150 34 ac 74 3d f5 d6 a4 bd c8 4c fb 3d 86 87 04 3e
       0.05973454 -0.08048812 0.12270504 0.12942323
000160 70 df 2a bd 16 95 89 3d b1 4e cb bd 0b 52 85 3c
       -0.041716993 0.06717889 -0.099271186 0.016274473
000170 fc 5c 4b 3e 44 f9 22 3e af e7 f2 3d a7 28 ef bc
       0.1985969 0.159154 0.118605964 -0.02919419
000180 df 7c ae 3d 56 bb 3c be 91 3e 07 3e f8 3d 01 be
       0.08519911 -0.18430838 0.13207461 -0.12621295
000190 7f 9a f3 3c 4f 4f 8f 3d 63 cb 39 3e 7e da 72 3c
       0.029736755 0.06997549 0.18143992 0.0148226
0001a0 70 f3 20 3e 83 34 ab bd 87 d2 09 be 57 de 96 3b
       0.15717864 -0.08359625 -0.13459216 0.0046041417
0001b0 da 8d 00 be e6 e9 00 be 6a cf 8b 3d 7f b8 d4 bd
       -0.12554112 -0.12589225 0.068266705 -0.10386752
0001c0 17 8f ce bd fe 02 fd 3c 5d 6e e9 3d f8 b2 d9 bd
       -0.10085886 0.030885216 0.11398003 -0.10629839
0001d0 49 48 cd 3c b4 41 65 bd 93 bc 0f be a7 92 be bd
       0.025058882 -0.055970863 -0.14036779 -0.093053155
0001e0 ce b7 8c 3d 09 12 cd 3d 1a 0c 9b 3d 7d d6 d7 3d
       0.068709955 0.100132056 0.075706676 0.10538957
0001f0 48 54 b5 3d 71 99 2b be 1c e0 3a be fe 40 b0 3d
       0.08853966 -0.16757752 -0.18249553 0.08606146
