notebook/output/saved_models/dynamic_graph_model.pth (torch, 480876 bytes, 99 tensors)

temporal.input_proj.weight f4 [32, 7]
0	0xbe4ae63b	-0.19814388
1	0xbea7d8a2	-0.32782465
2	0x3e7b139b	0.24519198
3	0xbe4cd737	-0.20003973
4	0x3e7d827c	0.24756807
5	0x3ec42c3c	0.38314998
6	0xbe479c0e	-0.19493124
7	0xbe147560	-0.144979
8	0xbece81c1	-0.4033337
9	0x3e172ecd	0.14763947
10	0x3d9297b7	0.071578436
11	0xbdeab434	-0.11460152
12	0xbe5140fc	-0.20434946
13	0x3e90aae9	0.28255394
14	0x3e2e57d2	0.17025688
15	0x3edfa9a1	0.43684104
16	0xbd8c9237	-0.06863826
17	0xbd9741e5	-0.07385615
18	0x3e0a10bd	0.13482948
19	0xbe240ccd	-0.16020508
20	0xbd3b55e5	-0.045736212
21	0xbdee6d21	-0.116419084
22	0xbe98c62c	-0.29838693
23	0x3e987296	0.29774922
24	0x3eac80a0	0.33691883
25	0xbe232417	-0.15931736
26	0xbd84f98b	-0.06492909
27	0xbf19e7ce	-0.6011933
28	0x3e206804	0.15664679
29	0xbe90f62e	-0.2831282
30	0xbea98d0b	-0.3311542
31	0x3e914b36	0.28377694
32	0x3eb45568	0.3522141
33	0x3e2724be	0.1632261
34	0xbe3db8b2	-0.18527487
35	0xbdf40d45	-0.119165935
36	0x3eacebc8	0.33773637
37	0xbe65e31b	-0.22449915
38	0xbe9c5741	-0.3053532
39	0x3e64465a	0.22292462
40	0x3e2dff37	0.16991888
41	0x3e8238dc	0.25434005
42	0xbe422c05	-0.18962105
43	0xbe7b321c	-0.24530834
44	0xbe2ae1c1	-0.16687681
45	0xbe328dff	-0.1743698
46	0xbdf4eaa3	-0.11958816
47	0x3b61a5c7	0.0034431086
48	0x3d615d01	0.055020336
49	0xbe888ad5	-0.2666842
50	0x3d9188b9	0.07106156
51	0x3ead2571	0.33817628
52	0x3dd22599	0.102610774
53	0x3dc17cf4	0.09447661
54	0xbd28e4c8	-0.041233808
55	0x3e371003	0.17877202
56	0x3eb09a0c	0.34492528
57	0xbe302c4f	-0.17204402
58	0xbb1ca778	-0.002390353
59	0xbeb961f5	-0.36207548
60	0xbe88f131	-0.26746514
61	0x3ee52a44	0.4475881
62	0xbdb7d924	-0.08976963
63	0x3e5e3eee	0.21703693
64	0xbe5bc281	-0.21460916
65	0xbdf07935	-0.117418684
66	0xbe95ccbe	-0.29257768
67	0x3e82b732	0.25530392
68	0xbe95566f	-0.29167506
69	0xbeb568ca	-0.3543151
70	0x3b7d9e4e	0.0038699093
71	0xbe8cbbf4	-0.27487147
72	0x3ea2f07a	0.31824094
73	0xbddc1c93	-0.107476376
74	0x3e196f2f	0.1498382
75	0xbcd8b158	-0.026451752
76	0x3cd2f07f	0.025749443
77	0xbdd0c8d8	-0.10194558
78	0x3e9bd2ee	0.30434364
79	0x3e062007	0.13098155
80	0x3ba26ca0	0.0049567968
81	0x3d6b3953	0.057427716
82	0x3de20d76	0.11037724
83	0xbda3fffc	-0.080078095
84	0x3d3dc2cf	0.046328362
85	0x3e92a54f	0.28641745
86	0x3d1a98ca	0.037743367
87	0x3eb5a3b9	0.35476473
88	0x3d99684d	0.07490597
89	0xbe97e8f0	-0.29669905
90	0x3dcfd785	0.10148529
91	0x3ec5c5f5	0.38627592
92	0x3e97faeb	0.29683623
93	0x3c2978d7	0.010343752
94	0xbdcb47fe	-0.09925841
95	0x3e65dfa6	0.22448596
96	0x3bbf2d1f	0.0058342363
97	0xbe91930e	-0.28432506
98	0x3ea4f4b6	0.3221795
99	0xbe546418	-0.20741308
100	0x3e82d702	0.25554663
101	0xbeb0961c	-0.34489524
102	0x3dd33656	0.10313098
103	0xbd1f2194	-0.038850382
104	0x3c8171d0	0.01580134
105	0x3e17d100	0.14825821
106	0x3e8a8d98	0.27061152
107	0xbd903477	-0.07041257
108	0x3e576b27	0.21036969
109	0x3e6d935f	0.23200749
110	0xbd89243b	-0.066963635
111	0xbda8c789	-0.08241183
112	0xbe858ff9	-0.26086405
113	0x3e51538f	0.20442031
114	0xbe9a0020	-0.3007822
115	0x3e63be6a	0.22240606
116	0xbdcd3c7c	-0.10021302
117	0xbc611d55	-0.013739903
118	0x3e90c159	0.28272513
119	0x3e9558a9	0.29169205
120	0xbccc3b82	-0.02493072
121	0xbe791306	-0.24323663
122	0xbe7ae60e	-0.24501821
123	0x3ec603ed	0.3867487
124	0x3e653a51	0.22385527
125	0xbe831534	-0.25602114
126	0xbe688083	-0.22705273
127	0xbe364814	-0.17800933
128	0xbe9a123f	-0.30092046
129	0xbdd70dff	-0.105007164
130	0x3ea87d8a	0.3290828
131	0x3dc295b7	0.09501212
132	0xbe5de8b3	-0.21670799
133	0xbe78d01b	-0.24298136
134	0x3ec20739	0.37896135
135	0xbda5aeb0	-0.080899596
136	0x3e990cdb	0.2989262
137	0x3e2a7cc7	0.16649161
138	0x3ed92d57	0.42417404
139	0xbeaa1344	-0.33217824
140	0xbe1c7947	-0.15280639
141	0xbe180769	-0.14846577
142	0x3c19fdcd	0.00939889
143	0xbcaa9132	-0.020821188
144	0x3e6e8a32	0.23294905
145	0xbdb7bf9f	-0.08972096
146	0xbd9f473c	-0.07777259
147	0xbd903095	-0.07040516
148	0x3e825278	0.25453544
149	0xbe927e8a	-0.28612167
150	0x3ebb63e8	0.3659966
151	0x3e295ef5	0.1654013
152	0xbe39147c	-0.1807422
153	0x3da59fd9	0.08087129
154	0xbe4fa43b	-0.20277493
155	0x3ded6719	0.1159193
156	0x3e81c65a	0.25346643
157	0x3d26aea1	0.040693883
158	0x3eb1fdd4	0.34763968
159	0x3e159576	0.14607796
160	0xbc0abcf1	-0.008467899
161	0x3ce98b96	0.028508943
162	0xbe6fc4f7	-0.2341498
163	0xbe425cca	-0.18980709
164	0x3e021a89	0.12705435
165	0x3e57c4f5	0.21071227
166	0x3e1b7fb4	0.15185434
167	0xbe11b852	-0.14230469
168	0xbd9a7890	-0.07542527
169	0x3e416f09	0.18890013
170	0x3cb586dd	0.022159034
171	0xbe6eb591	-0.2331145
172	0x3ed7d6f6	0.4215619
173	0x3e8361ac	0.25660455
174	0xbe7c7d20	-0.24657106
175	0x3eb3689c	0.35040748
176	0x3eaa35b6	0.33244103
177	0xbe1c99fa	-0.15293112
178	0xbe5d70e5	-0.21625097
179	0x3e6e6147	0.23279296
180	0xbc2e0539	-0.010621362
181	0xbe5cfc6c	-0.21580666
182	0x3e1bf083	0.15228467
183	0x3e637f24	0.22216469
184	0xbc777f93	-0.0151061
185	0xbebd42dd	-0.36965075
186	0xbdf1f83f	-0.11814927
187	0xbb771b15	-0.003770535
188	0x3cbbbf87	0.022918476
189	0x3d4577bb	0.048209887
190	0x3eb7d357	0.35903427
191	0x3e205e30	0.1566093
192	0xbcafdb89	-0.021466987
193	0xbdf38a76	-0.11891644
194	0xbcaf9c76	-0.021436911
195	0xbdcf9897	-0.10136526
196	0x3e85c681	0.2612801
197	0x3e338769	0.17532124
198	0x3ec85252	0.39125305
199	0x3e95b28a	0.29237777
200	0xbdcfae59	-0.10140676
201	0xbe645b73	-0.2230051
202	0x3e8200ba	0.2539118
203	0x3e0e5dc9	0.13902964
204	0x3e8ed78f	0.27898833
205	0x3e43f684	0.19137007
206	0x3e6fe2c2	0.23426345
207	0xbe954a3d	-0.29158202
208	0xbe88f70e	-0.26750988
209	0xbddfc0bd	-0.10925434
210	0xbdcf5f5f	-0.101256125
211	0x3d8e80b8	0.06958145
212	0x3e211674	0.15731221
213	0xbba04e3f	-0.00489214
214	0xbea77951	-0.32709745
215	0x3e45875c	0.19289917
216	0x3e3afad6	0.18259749
217	0x3e823bf8	0.25436378
218	0x3e004dbb	0.12529652
219	0x3d6ba943	0.057534467
220	0xbe9ae118	-0.30249858
221	0xbd8f8356	-0.07007472
222	0x3da81c6a	0.082085446
223	0xbc842cbb	-0.01613461

temporal.input_proj.bias f4 [32]
0	0xbe1c4111	-0.15259196
1	0xbe53559b	-0.20638125
2	0xbe1382af	-0.1440532
3	0x3ec2aa02	0.3802033
4	0x3ecc512b	0.39905676
5	0xbe970cfb	-0.2950209
6	0xbe1d9265	-0.15387876
7	0xbe46017d	-0.19336505
8	0x3e71a36f	0.23597501
9	0x3e9629eb	0.29328856
10	0xbd0c741b	-0.034290414
11	0x3d2767cd	0.040870477
12	0xbe0087e6	-0.12551841
13	0xbe5f3173	-0.21796207
14	0xbcb0bb9a	-0.02157383
15	0xbea5b752	-0.32366425
16	0x3e0747fb	0.13211052
17	0x3e642447	0.22279464
18	0x3e09ba6c	0.1345002
19	0x3d1613d3	0.03664
20	0x3ea2e679	0.31816462
21	0xbdc8c1fc	-0.098026246
22	0x3e81cb1a	0.25350267
23	0x3ea0dae3	0.31416997
24	0xbe8a6b87	-0.27035162
25	0x3d2dba4a	0.042413987
26	0xbe0a7058	-0.13519418
27	0xbddc323f	-0.10751771
28	0x3e684739	0.2268342
29	0xbe58e3e0	-0.21180677
30	0xbe7f5598	-0.24934995
31	0xbdc1d918	-0.094652355

temporal.layer_norm.weight f4 [32]
0	0x3f5f6dc9	0.87276894
1	0x3f82bd9b	1.0214113
2	0x3f711525	0.9417289
3	0x3f8b0c3f	1.0863112
4	0x3f88ffba	1.0703042
5	0x3f6b01ab	0.9179942
6	0x3f7ed73c	0.9954717
7	0x3f7d960b	0.9905707
8	0x3f6906db	0.91026086
9	0x3f6d94b0	0.92805004
10	0x3f6cafd2	0.9245578
11	0x3f778d32	0.9669982
12	0x3f88bfa3	1.0683483
13	0x3f6aa352	0.9165546
14	0x3f86829c	1.0508609
15	0x3f584b0b	0.84489506
16	0x3f75e2a1	0.96048933
17	0x3f687dea	0.9081713
18	0x3f7bcc9d	0.9835909
19	0x3f7f2315	0.99662906
20	0x3f804fb4	1.0024323
21	0x3f760030	0.96094036
22	0x3f7e2760	0.9927883
23	0x3f7b86e4	0.982527
24	0x3f70a2c9	0.9399839
25	0x3f8361ba	1.0264199
26	0x3f6acf99	0.9172302
27	0x3f803b8f	1.0018176
28	0x3f800551	1.0001622
29	0x3f83764d	1.0270478
30	0x3f864b57	1.0491742
31	0x3f79a637	0.9751925

temporal.layer_norm.bias f4 [32]
0	0x3ce8bcec	0.028410397
1	0xbccf09fb	-0.025273314
2	0x3cecc888	0.028904215
3	0x3db57a75	0.088612475
4	0x3dc83bdd	0.09777043
5	0xbd0c05fa	-0.034185387
6	0xbdd1b6ac	-0.1023992
7	0xbe0d2a72	-0.13785723
8	0x3e8af966	0.271434
9	0x3e18eeec	0.14934891
10	0xbaebb283	-0.0017982278
11	0xbb6e7596	-0.0036386005
12	0xbdbabdd1	-0.09118236
13	0x3dcf2eb1	0.101163276
14	0xbdba9f80	-0.091124535
15	0x3d25ed11	0.040509287
16	0xbdb169a4	-0.086627275
17	0xbda9e713	-0.08296027
18	0xbc57124a	-0.013126919
19	0x3d7676d5	0.06017192
20	0x3e05723f	0.13031863
21	0xbe3f6ea7	-0.18694554
22	0x3d9e3fd9	0.07727022
23	0x3d3ce802	0.046119697
24	0x3e27a315	0.16370805
25	0x3d2cebb7	0.042216983
26	0xbd47f3bd	-0.04881643
27	0xbdb99b1d	-0.09062789
28	0xbd9e6889	-0.07734782
29	0xbda5cced	-0.08095727
30	0xbe0ea6de	-0.13930842
31	0xbcdf4879	-0.027256237

temporal.rnn.weight_ih_l0 f4 [128, 7]
0	0xbbe2217c	-0.0069009643
1	0x3de537bc	0.11192271
2	0x3db84953	0.089983605
3	0xbdc6a55d	-0.09699509
4	0x3d885bc7	0.0665813
5	0xbdf9d16d	-0.12198148
6	0xbe403fb2	-0.18774298
7	0xbe26cca6	-0.16289005
8	0xbe5ab44e	-0.21357843
9	0x3d15bca4	0.036556855
10	0xbe2677b1	-0.16256596
11	0xbded8b83	-0.115988754
12	0xbe026bd8	-0.12736452
13	0xbe6ce13f	-0.231328
14	0xbde48309	-0.111578055
15	0xbda3b392	-0.07993235
16	0xbe2b1f2f	-0.16711114
17	0x3db64401	0.088996895
18	0x3ddeb2c1	0.10873938
19	0xbde80a6c	-0.11330113
20	0xbe5883e7	-0.21144067
21	0xbd238d9e	-0.03992998
22	0xbdd423b1	-0.1035837
23	0x3e178e90	0.14800477
24	0xbdb361d9	-0.08758897
25	0xbd8b22ce	-0.06793748
26	0xbd1fcaa5	-0.039011616
27	0xba0579bd	-0.0005091688
28	0x3e2981da	0.1655344
29	0x3ddd6bf9	0.1081161
30	0x3e505a2e	0.20346901
31	0xbc55f1d6	-0.013058146
32	0xbd73e6b6	-0.059546195
33	0xbde65187	-0.11246019
34	0x3d1b0fdb	0.037856918
35	0xbe2b641f	-0.16737412
36	0xbdf1d05f	-0.11807322
37	0xbddbe2ea	-0.1073664
38	0x3bdd9dc8	0.0067631938
39	0x3e06fadb	0.13181631
40	0x3e4c3162	0.19940713
41	0x3dafb5a7	0.08579569
42	0xbcef3644	-0.02920068
43	0xbcd08d97	-0.02545814
44	0x3dc140a3	0.094361566
45	0xbe42fae3	-0.19041018
46	0x3e0118e2	0.12607148
47	0xbd0d39ba	-0.03447888
48	0xbe8d55cd	-0.27604523
49	0xbdbfeda7	-0.093715005
50	0x3d06fed7	0.032957878
51	0x3dddf65b	0.10838004
52	0xbe271fb8	-0.16320693
53	0xbc953b30	-0.0182167
54	0xbd79be6e	-0.060972624
55	0xbe55488f	-0.2082846
56	0xbdc2028e	-0.094731435
57	0x3da68e8b	0.08132657
58	0x3d88bfb7	0.06677192
59	0x3bfe4ba9	0.0077604842
60	0xbdad1683	-0.084515594
61	0xbc89968b	-0.016795417
62	0xbecaa406	-0.39578265
63	0xbe53fc88	-0.20701802
64	0x3da4be0f	0.08044063
65	0xbdad0988	-0.084490836
66	0xbd88b9e3	-0.0667608
67	0x3c633b8d	0.0138691785
68	0xbd180d72	-0.037122197
69	0xbd990707	-0.074720435
70	0xbdaebbe1	-0.08531929
71	0x3c346773	0.011010992
72	0xbe469eae	-0.19396469
73	0x3c035e57	0.008018098
74	0x3d1de2f9	0.038546536
75	0xbe21730d	-0.15766545
76	0xbc0e1b7c	-0.008673545
77	0xbe48fd74	-0.19627935
78	0xbe41b1cd	-0.18915482
79	0x3c8ed16f	0.01743385
80	0x38c1c7ca	9.240171e-05
81	0xbd006f4f	-0.031356152
82	0xbca45289	-0.020058887
83	0xbd7bbf1b	-0.06146155
84	0xbe114f2b	-0.14190356
85	0xbc989aa4	-0.018628426
86	0x3d19c236	0.03753873
87	0xbd8b63be	-0.06806134
88	0xbce25862	-0.027630035
89	0xbde95d0e	-0.11394702
90	0xbb45ad6a	-0.0030163177
91	0x3da63300	0.08115196
92	0x3d5d61fb	0.05404852
93	0xbd944b58	-0.07240933
94	0x3d308378	0.04309413
95	0xbdd02ecb	-0.10165175
96	0x39480b07	0.00019077594
97	0x3dce1bdd	0.10063908
98	0xbe1b4370	-0.15162444
99	0x3db82122	0.089906946
100	0xbe2110c7	-0.15729056
101	0xbc3a58ef	-0.0113737425
102	0xbe075779	-0.13216962
103	0x3d6a8419	0.057254884
104	0xbe817d50	-0.25290918
105	0xbddd4a21	-0.108051546
106	0xbe54948f	-0.20759796
107	0xba9b3200	-0.0011840463
108	0x3e0d2627	0.13784085
109	0x3a8f8b83	0.0010951612
110	0x3e19ab28	0.15006697
111	0xbdfeef68	-0.12448007
112	0xbd0d9a30	-0.034570873
113	0xbe4d5d40	-0.20055103
114	0x3d1447a7	0.036201145
115	0xbc248a16	-0.010042688
116	0xbd06d1f8	-0.032915086
117	0xbda4b4d5	-0.080423035
118	0xbe4520f4	-0.19250852
119	0x3d67c95b	0.056588512
120	0xbd821833	-0.06352272
121	0x3d943ea5	0.07238511
122	0x3df7d1ed	0.12100587
123	0xbe0bdd74	-0.13658696
124	0x3cfc40f3	0.030792689
125	0x3c55b45e	0.013043491
126	0xbe45d2d1	-0.19318701
127	0x3dcf952e	0.10135876
128	0x3d6fdc74	0.05855985
129	0xbd87b84d	-0.066269495
130	0xbe2214ba	-0.15828219
131	0xbd9529d7	-0.07283371
132	0xbd533ffc	-0.051574692
133	0x3e96dd38	0.29465652
134	0x3e22d3be	0.15901086
135	0x3e4559e9	0.19272579
136	0x3c954fe3	0.01822657
137	0x3d8d9e93	0.06915011
138	0xbcb97582	-0.02263904
139	0x3e1689c1	0.14700986
140	0x3df9d948	0.12199646
141	0xbd8e7275	-0.06955425
142	0x3e5c204c	0.21496695
143	0x3d4fdd2f	0.050748046
144	0x3dc41f59	0.095762916
145	0x3e507345	0.20356472
146	0xbe96411e	-0.29346555
147	0xbd35334d	-0.044238377
148	0x3dd207d7	0.102554016
149	0xbb7707d7	-0.0037693882
150	0x3d0a72d5	0.03380092
151	0x3c034d93	0.008014101
152	0xbcaae649	-0.020861762
153	0xbd6c576c	-0.05770056
154	0x3dc9b753	0.098494194
155	0x3c0c93a9	0.008580127
156	0xbd833a67	-0.06407624
157	0x3e44b67f	0.19210242
158	0x3db5cb80	0.08876705
159	0x3dd2790e	0.102769956
160	0x3e2cff65	0.168943
161	0x3dc3529e	0.09537242
162	0x3e082a97	0.13297497
163	0xbe122364	-0.14271313
164	0xbd4138c6	-0.047173284
165	0x3d8c7b27	0.06859427
166	0xbdd66bbf	-0.1046977
167	0x3b068710	0.002052728
168	0xbde0f50e	-0.109842405
169	0x3daaa1ef	0.08331668
170	0xbe247420	-0.16059923
171	0xbe2762c9	-0.16346277
172	0xbd213c82	-0.039364345
173	0xbd52ba90	-0.05144745
174	0xbd7f4e5d	-0.062330592
175	0x3d15f7e8	0.036613375
176	0xbd1f98b5	-0.038963992
177	0xbe446d76	-0.19182381
178	0x3dacd7c2	0.0843959
179	0xbd6b380f	-0.05742651
180	0x3e38c649	0.1804439
181	0x3d5a1d58	0.05325064
182	0xbe007b70	-0.12547088
183	0xbdea60e0	-0.11444259
184	0xbc39792c	-0.0113203935
185	0x3dde1611	0.108440526
186	0xbdb9024d	-0.09033642
187	0xbdbc969c	-0.09208414
188	0x3ce92fb0	0.028465122
189	0x3d8efe6d	0.069821216
190	0x3d8d288f	0.068925016
191	0xbe0e99c3	-0.13925843
192	0x3dba7fee	0.09106432
193	0xbcc0550e	-0.023478057
194	0xbe4dc6d4	-0.20095378
195	0x3d227199	0.039659116
196	0x3ddde1d2	0.108340874
197	0x3e2aac19	0.16667213
198	0xbd70cf25	-0.0587913
199	0xbccb49bd	-0.024815435
200	0x3dc7cc3b	0.09755751
201	0xbddeed20	-0.10885072
202	0xbdbf1e57	-0.09331959
203	0x3e27d496	0.16389689
204	0xbe0549a5	-0.13016374
205	0xbe22eba4	-0.15910202
206	0x3dc32a60	0.09529567
207	0xbdecdd01	-0.11565591
208	0xbdedf48b	-0.116189085
209	0xbd442709	-0.04788879
210	0xbe39b378	-0.18134868
211	0xbca72afa	-0.020406235
212	0xbd6aea58	-0.057352394
213	0xbc3747eb	-0.01118658
214	0x3d3b310a	0.045701064
215	0xbe19aed0	-0.15008092
216	0xbe48f710	-0.19625497
217	0xbe22998a	-0.15878883
218	0xbe31439f	-0.17310952
219	0xbe0e7a7a	-0.13913909
220	0x3dc82875	0.097733416
221	0x3e076bc8	0.13224709
222	0x3cb83ae3	0.022489017
223	0x3e138b15	0.14408524
224	0xbdb69913	-0.08915915
225	0x3c4c3699	0.012464189
226	0x3e276fc6	0.16351232
227	0xbe135b80	-0.14390373
228	0xbe2bac86	-0.16765031
229	0xbc22a614	-0.009927291
230	0xbe73d67c	-0.23812288
231	0x3d9cb1f3	0.076511286
232	0xbe717ba7	-0.23582326
233	0x3dcd9242	0.10037662
234	0xbe359727	-0.17733441
235	0xbdf2f2eb	-0.11862739
236	0xbda634b1	-0.08115519
237	0xbe7f408a	-0.24926963
238	0xbd335cb3	-0.043789577
239	0xbdaa0274	-0.08301249
240	0x3c7815de	0.015141932
241	0xbe5d03be	-0.21583459
242	0x3dba4ba2	0.09096457
243	0xbddf2e08	-0.10897452
244	0xbe84fdaf	-0.25974795
245	0xbd822a1d	-0.06355689
246	0xbdc7a41b	-0.097480975
247	0xbcfdc3a5	-0.03097708
248	0x3e1030c2	0.140811
249	0x3e037ae0	0.12839842
250	0xbcef50f8	-0.029213414
251	0xbe2fca4d	-0.17167015
252	0x3d22b971	0.039727632
253	0x3dc29645	0.09501318
254	0x3e185cd4	0.14879161
255	0x3de1f5e3	0.11033227

temporal.rnn.weight_hh_l0 f4 [128, 32]
0	0x3ccc0955	0.024906794
1	0xbda63dcd	-0.08117256
2	0xbe6e7b2d	-0.23289175
3	0x3dc3d7b1	0.09562624
4	0xbd2c64c0	-0.04208827
5	0x3dd30ef1	0.10305584
6	0xbd448ec0	-0.0479877
7	0xbe42d5ea	-0.19026914
8	0xbde41669	-0.11137087
9	0x3e378687	0.17922412
10	0x3d019a31	0.03164119
11	0xbe30bd07	-0.17259608
12	0x3d870ce6	0.06594257
13	0x3dcc2952	0.09968819
14	0xbd707ceb	-0.05871288
15	0x3d96cad2	0.07362904
16	0xbe12f193	-0.14349966
17	0xbe4373dc	-0.19087166
18	0x3df5d137	0.12002795
19	0xbe10d4fb	-0.14143746
20	0x3d053530	0.032521427
21	0xbde82619	-0.113353916
22	0xbe0fb1f0	-0.14032722
23	0xbd741990	-0.05959469
24	0xbc9257a7	-0.017864062
25	0xbc46c8e3	-0.012132856
26	0x3e6acd3b	0.22929852
27	0xbd83f520	-0.06443238
28	0x3db20d1f	0.08693909
29	0xbd83c1f1	-0.06433476
30	0xbe51f44c	-0.20503348
31	0xbd095467	-0.033527758
32	0xbddf40cd	-0.10901032
33	0x3b470a78	0.003037123
34	0x3cfdcfd8	0.030982897
35	0xbd948c9c	-0.072533816
36	0x3d982a2b	0.07429918
37	0xbe2ffc7f	-0.17186163
38	0x3c33e12f	0.010978981
39	0x3dcf1a60	0.101124525
40	0xbe008ad6	-0.12552962
41	0xbdbae2cc	-0.09125289
42	0x3d7c25ac	0.061559364
43	0x3dcf3494	0.1011745
44	0xba2ca69b	-0.00065861054
45	0x3d505511	0.050862376
46	0xbe038048	-0.12841904
47	0x3e21e3ba	0.15809527
48	0x3d876c1a	0.066124156
49	0xbd9b7a27	-0.07591658
50	0x3da33b99	0.07970352
51	0xbdc0f155	-0.094210304
52	0xbdb120e1	-0.08648849
53	0xbbc64d95	-0.006051729
54	0x3e147a51	0.14499785
55	0xbdf0ecfd	-0.11763952
56	0xbdc70ebf	-0.097196095
57	0x3d96d1d5	0.07364241
58	0x3e37b6bd	0.17940803
59	0xbdb09c1f	-0.08623528
60	0xbd4b46c0	-0.04962802
61	0xbe115bf5	-0.14195235
62	0x3e0712cc	0.13190764
63	0xbd4b0bb9	-0.049571726
64	0x3cc00911	0.023441823
65	0xbb4415d5	-0.002992024
66	0xbe8a3395	-0.2699248
67	0xbe0d50dc	-0.13800377
68	0xbcb2ea89	-0.02184035
69	0x3e28f081	0.16497995
70	0xbdd45eb6	-0.10369627
71	0xbde9c702	-0.11414911
72	0xbe20fe04	-0.157219
73	0x3df8fdc9	0.12157781
74	0xbd806a0d	-0.062702276
75	0xbdb2cdc1	-0.08730651
76	0x3dc43338	0.09580082
77	0xbdce6952	-0.10078682
78	0xbc59f256	-0.013302406
79	0xbdd48ff0	-0.103790164
80	0x3e50467d	0.20339389
81	0x3e4dfcd3	0.20115976
82	0x3e44d356	0.19221243
83	0x3b966e5e	0.0045907935
84	0xbcc12e35	-0.023581604
85	0x3e2eb97c	0.17062944
86	0xbdd22341	-0.102606304
87	0xbe14ef0f	-0.14544319
88	0x3da08c0f	0.07839214
89	0x3e4a6a07	0.19767009
90	0x3dc4f61c	0.09617254
91	0x3d2fdfe0	0.042938113
92	0x3d7cd00f	0.061721858
93	0x3df8a982	0.12141706
94	0xbd05d04d	-0.032669354
95	0x3d63cfd0	0.055618107
96	0x3e4774e3	0.19478182
97	0x3d42678b	0.047462028
98	0xbdbf79db	-0.09349414
99	0x3db03687	0.0860415
100	0x3dceb0e8	0.10092336
101	0x3e2b560c	0.16732043
102	0x3cc5019b	0.024048617
103	0x3d326cec	0.043560907
104	0xbd94ff0b	-0.07275208
105	0x3e2897cc	0.16464156
106	0xbe3d979b	-0.18514864
107	0xbda7d956	-0.081957504
108	0xbdb21df1	-0.08697117
109	0xbd3c5867	-0.045982745
110	0xbc1683a0	-0.009186655
111	0xbdf4b2bf	-0.119481556
112	0xbd6e31ee	-0.058153085
113	0xbe04d5ba	-0.12972155
114	0x3daae29d	0.08344004
115	0xbe46aa35	-0.19400866
116	0xbebde2ec	-0.3708719
117	0xbe09f45a	-0.13472119
118	0x3d00048e	0.031254344
119	0xbdae2f69	-0.085051365
120	0xbe40a919	-0.18814506
121	0xbd68db30	-0.05684966
122	0x3e7a977b	0.24471848
123	0xbd88fa69	-0.06688387
124	0xbe1a4992	-0.15067127
125	0xbe20466a	-0.15651861
126	0xbdfcd93a	-0.1234612
127	0xbcb8f8c7	-0.022579564
128	0xbdf36a7a	-0.11885543
129	0xbe23bb73	-0.15989475
130	0xbe5bafbc	-0.21453756
131	0x3d110be5	0.035411734
132	0xbdabfba3	-0.08397605
133	0xb9102e86	-0.00013750241
134	0xbdbc1aea	-0.09184821
135	0xbe200d0e	-0.1562998
136	0x3e39bf3f	0.18139361
137	0xbd9998d4	-0.07499853
138	0x3e119ddb	0.14220373
139	0xbe2f3ac2	-0.17112258
140	0xbdc6c533	-0.097055815
141	0x3e40dda5	0.1883455
142	0x3e21ae26	0.15789089
143	0xbde577d4	-0.11204496
144	0xbda14ac0	-0.078755856
145	0xbb09313f	-0.0020933894
146	0xbd367831	-0.044548217
147	0xbdce929c	-0.10086557
148	0xbd5b4551	-0.053532902
149	0x3dc90383	0.09815123
150	0xbc3c88ca	-0.011507222
151	0x3e4fc764	0.20290905
152	0xbe306169	-0.17224659
153	0xbe12b30f	-0.14326118
154	0xbe2a0e11	-0.16606928
155	0xbd6fd056	-0.058548294
156	0x3dd71238	0.10501522
157	0xbe3eff10	-0.18651986
158	0xbe105718	-0.14095724
159	0x3da493e1	0.08036018
160	0xbdea5495	-0.11441914
161	0xbd5b520e	-0.05354505
162	0x3e24cf5e	0.1609473
163	0xbde39132	-0.11111678
164	0x3e067c2d	0.13133307
165	0x3d27d90f	0.040978488
166	0x3e54870f	0.20754646
167	0xbe395079	-0.18097104
168	0x3c251396	0.01007547
169	0xbe518845	-0.20462139
170	0xbe418088	-0.18896687
171	0x3d0afe63	0.03393401
172	0x3d4b1075	0.04957624
173	0xbe22fc5b	-0.15916578
174	0xbdbff5f6	-0.09373085
175	0xbdf71a26	-0.12065534
176	0x3e372281	0.17884256
177	0xbb2b6ff3	-0.0026159256
178	0x3e349c30	0.17637706
179	0xbd833c86	-0.06408028
180	0xbdce2a3e	-0.10066651
181	0xbc5e3cd6	-0.013564309
182	0xbe10c7eb	-0.14138763
183	0x3e122dbc	0.14275259
184	0xbd8d3434	-0.068947226
185	0xbd77c890	-0.060494006
186	0x3e42872e	0.1899688
187	0xbe521189	-0.20514502
188	0xbdeef061	-0.116669424
189	0xbda9d9a6	-0.08293466
190	0x3c9bcc4a	0.019018311
191	0xbde16b37	-0.11006778
192	0xbceca68a	-0.028888006
193	0xbe213cc4	-0.15745836
194	0xbe0b62aa	-0.13611856
195	0xbe0481a0	-0.12940073
196	0x3e26bf4f	0.16283916
197	0x3bcba90a	0.0062152194
198	0xbd0de0c6	-0.03463819
199	0xbe86de52	-0.26341492
200	0xbce64fb3	-0.028114175
201	0x3dfc3a3f	0.12315797
202	0x3e1140b3	0.14184837
203	0x3e0f9cee	0.14024708
204	0xbe23d297	-0.15998302
205	0x3da89719	0.082319446
206	0xbd97a358	-0.07404202
207	0x3ce7bde8	0.028288797
208	0xbd48d7e9	-0.049034033
209	0x3e1f5414	0.15559417
210	0x3e2222c3	0.15833573
211	0x3cb04828	0.021518782
212	0xbbd611db	-0.0065328903
213	0xbd351e3c	-0.044218287
214	0xbdffb2a0	-0.12485242
215	0xbd8898b2	-0.06669749
216	0x3e39877a	0.18118086
217	0x3dcc64c1	0.09980155
218	0xbd60f463	-0.054920565
219	0x3e0867ec	0.13320893
220	0xbdd7dbf7	-0.10540002
221	0xbdff8db4	-0.124781996
222	0xbe0ed0cd	-0.13946839
223	0xbc951a4c	-0.018201016
224	0xbe260500	-0.16212845
225	0x3d2484ea	0.04016582
226	0x3d835b65	0.064139165
227	0xbe1544e2	-0.14577058
228	0x3d295cd7	0.041348305
229	0x3e26a043	0.16272072
230	0x3d967d74	0.07348147
231	0xbd8cf4d5	-0.068826355
232	0xbe0bb846	-0.13644513
233	0xbc983b47	-0.018582953
234	0x3df8de15	0.12151734
235	0xbd4435c7	-0.04790285
236	0x3d3ed47c	0.04658936
237	0x3df0a11a	0.11749478
238	0xbdeb159e	-0.114787325
239	0x3dcf0bb0	0.10109651
240	0x3d972658	0.0738036
241	0xbde3a6ef	-0.111158244
242	0xbcf7b8b1	-0.030239435
243	0x3e089a37	0.13340078
244	0x3d6fb987	0.058526542
245	0x3d86ccf3	0.0658206
246	0xbe2337ea	-0.15939298
247	0x3d8dfcdf	0.06932997
248	0xbe0a1933	-0.13486175
249	0x3dd87fbc	0.105712384
250	0x3e21877d	0.15774341
251	0xbc394122	-0.011307033
252	0x3da94a58	0.08266133
253	0xbd8cef2f	-0.06881558
254	0x3e10d8c2	0.14145187
255	0x3e099ca3	0.13438658

temporal.rnn.bias_ih_l0 f4 [128]
0	0x3dd97806	0.10618596
1	0xbca28e96	-0.01984338
2	0x3dd8540a	0.10562904
3	0xbcd3790f	-0.025814561
4	0xbd998683	-0.07496359
5	0x3e72fc56	0.23729071
6	0xbe1ecada	-0.15507069
7	0xbe12dbaf	-0.14341615
8	0xbd85f7b0	-0.06541383
9	0xbd148d0a	-0.036267318
10	0xbdd9b7fc	-0.10630795
11	0x3df58609	0.11988456
12	0xbabd6aff	-0.0014451443
13	0xbdb6ae54	-0.08919969
14	0x3d9fba88	0.0779925
15	0x3e602150	0.21887708
16	0xbd987f52	-0.074461594
17	0xbd576ec1	-0.052595858
18	0x3d546063	0.051849734
19	0x3e4c8069	0.1997086
20	0x3e231de8	0.15929377
21	0xba8dd84f	-0.0010821911
22	0x3e2ef4d1	0.17085578
23	0x3d181249	0.037126813
24	0x3e344814	0.1760562
25	0x3c25825d	0.010101882
26	0xbe2130a7	-0.15741216
27	0xbd91a0fe	-0.07110785
28	0x3de79ee6	0.11309604
29	0xbe4298d6	-0.19003615
30	0x3cb94030	0.022613615
31	0x3c0c2745	0.008554284
32	0xbd8fec7c	-0.07027528
33	0xbdc1b002	-0.09457399
34	0xbcd18353	-0.025575316
35	0x3d9d2ddc	0.076747626
36	0xbe16f591	-0.14742114
37	0x3db00a39	0.085957
38	0xbc99b7df	-0.018764434
39	0xbde0fc48	-0.10985619
40	0xbd997460	-0.074929
41	0x3b4a0e34	0.003083122
42	0xbce3a4c1	-0.027788522
43	0xbe4e628e	-0.20154783
44	0xbe13c438	-0.1443032
45	0xbe3206b8	-0.17385375
46	0x3ca1998d	0.019726539
47	0x3e6b267b	0.22963898
48	0x3cb06862	0.021534149
49	0x3d55d0a1	0.052200917
50	0xbd08400e	-0.033264212
51	0x3e2ad905	0.16684349
52	0x3d52b7d2	0.051444836
53	0x3cec03f0	0.028810471
54	0x3cbcda30	0.023053259
55	0x3e554524	0.20827156
56	0xbe0b9600	-0.13631439
57	0xbdc6c013	-0.09704604
58	0xbccac763	-0.024753278
59	0x3dcc4e0b	0.09975823
60	0xbce639d1	-0.02810374
61	0xbe326106	-0.17419824
62	0xbd953591	-0.072856076
63	0x3e0a5220	0.1350789
64	0xbe26f056	-0.16302618
65	0x3e012d74	0.12614995
66	0x3db19422	0.08670832
67	0x3dec8dfa	0.115505174
68	0x3dbf4e97	0.09341162
69	0x3df25d4b	0.118342005
70	0x3d15aca8	0.03654161
71	0x3df9c143	0.12195065
72	0xbd113435	-0.03545018
73	0x3e26503f	0.16241549
74	0xbd5b5cce	-0.053555302
75	0x3c6facde	0.014628617
76	0x3decd013	0.115631245
77	0xbd480323	-0.048831116
78	0x3d5a3e1f	0.0532819
79	0xbe0e83f4	-0.13917524
80	0x3d5c0dbd	0.05372404
81	0x3e0cf167	0.13763963
82	0xbde712b9	-0.11282868
83	0x3e098809	0.134308
84	0x3d83a07b	0.064270936
85	0x3dec4ca4	0.115380555
86	0x3d2d595b	0.042321544
87	0xbcb72d33	-0.02236042
88	0xbd735693	-0.059408735
89	0xbd9985dc	-0.07496235
90	0xbe471a92	-0.1944373
91	0xbdcfde01	-0.10149766
92	0xbd8d3ebb	-0.068967305
93	0x3d8df31a	0.069311336
94	0x3daae778	0.083449304
95	0xbe1963ac	-0.14979428
96	0xbe3066aa	-0.17226663
97	0x3d30bf54	0.043151215
98	0x3d949f4c	0.07256946
99	0x3d85cde9	0.06533415
100	0xbd834014	-0.06408706
101	0xbddbb1de	-0.10727285
102	0x3dd4e899	0.10395927
103	0x3dfe81b4	0.12427083
104	0x3d468572	0.048467107
105	0xbe3f4e27	-0.18682157
106	0xbddeba92	-0.10875429
107	0xbdc6ca9e	-0.09706615
108	0xbd31278c	-0.043250605
109	0x3c802172	0.015640948
110	0x3df419dc	0.11918995
111	0x3dad1bb7	0.08452552
112	0x3e17cd44	0.14824396
113	0xbe44caa2	-0.19217923
114	0x3cb79627	0.022410465
115	0x3e564531	0.20924832
116	0x3dec5646	0.11539893
117	0xbd2aebdd	-0.041728843
118	0xbe34f5e2	-0.17671922
119	0x3e26a278	0.16272914
120	0xbe137041	-0.1439829
121	0x3e36e09a	0.17859116
122	0xbc3ea73d	-0.011636552
123	0xbe386242	-0.18006232
124	0x3e0d4b46	0.13798246
125	0x3d9af29a	0.07565804
126	0x3e340fb6	0.17584118
127	0x3ca81225	0.020516464

temporal.rnn.bias_hh_l0 f4 [128]
0	0xbdc835e0	-0.09775901
1	0xbb9afbf5	-0.0047297426
2	0xbd943f5c	-0.07238647
3	0x3befbb55	0.007316033
4	0x3d28a1c4	0.041169897
5	0x3e40c465	0.18824919
6	0x3dca0e63	0.09866025
7	0xbdb99f7e	-0.09063624
8	0xbb430896	-0.0029759756
9	0x3db9025a	0.09033652
10	0xbda008e5	-0.078141965
11	0xbdf07f4e	-0.117430314
12	0x3d625cbc	0.05526422
13	0x3d26f6e0	0.040762782
14	0x3d81ed9d	0.06344149
15	0x3e1fdabd	0.15610786
16	0xbd425793	-0.0474468
17	0xbe00d99a	-0.12583008
18	0xbd94c38e	-0.072638616
19	0x3deef5ba	0.11667962
20	0xbd353d45	-0.044247884
21	0xbdc8fbdd	-0.09813664
22	0x3e2c619f	0.16834114
23	0xbddc6dd1	-0.10763133
24	0xbd456193	-0.048188757
25	0x3e1632c8	0.14667809
26	0xbdebc1f3	-0.11511602
27	0xbe4207ac	-0.18948239
28	0x3ddf40b5	0.10901014
29	0x3d592b31	0.053019706
30	0x3db2ce91	0.08730806
31	0x3dc9cef0	0.09853923
32	0xbe53eef8	-0.20696628
33	0x3dbf708c	0.093476385
34	0x3d02c32a	0.031924404
35	0xbe20b26a	-0.1569306
36	0xbc36d114	-0.011158247
37	0x3e15d49e	0.14631888
38	0xbdaa30f5	-0.08310119
39	0xbd4a46ce	-0.04938393
40	0xbe29a85d	-0.16568132
41	0xbd81afdc	-0.06332371
42	0xbe79935e	-0.24372622
43	0xbc9379df	-0.018002449
44	0xbe570c72	-0.21000841
45	0xbbee8cab	-0.0072799525
46	0x3d6c9a98	0.05776462
47	0xbc96d115	-0.018410245
48	0xbdd7f324	-0.10544422
49	0xbe0e78f0	-0.13913321
50	0x3de871c2	0.113498226
51	0x3bfb983f	0.0076780613
52	0x3db3e319	0.0878355
53	0x3df0d6d1	0.11759723
54	0xbd402102	-0.04690648
55	0x3c67d7fd	0.014150617
56	0x3d993015	0.07479874
57	0xbd98422e	-0.07434498
58	0xbdd31d7a	-0.103083566
59	0xbd835ce8	-0.06414205
60	0x3e4b9758	0.19881952
61	0x3d1ec314	0.03876026
62	0xbdda0c2e	-0.10646854
63	0x3d6caa49	0.057779584
64	0x3d9cacf6	0.07650177
65	0x3dda4303	0.10657313
66	0x3d730f6c	0.05934088
67	0xbd4dcbdc	-0.050243244
68	0xbdf71a90	-0.12065613
69	0x3be35242	0.006937296
70	0x3d9efe57	0.07763355
71	0xbd8d5cc5	-0.0690246
72	0xbd854b72	-0.06508531
73	0xbe0ec3d5	-0.13941891
74	0x3e28cfcb	0.16485517
75	0x3d82c319	0.06384868
76	0xbcde9256	-0.027169388
77	0xbddaeccc	-0.10689697
78	0xbdb9b197	-0.09067076
79	0xbe231a20	-0.15927935
80	0x3dea8e17	0.11452883
81	0x3e1a0aac	0.15043133
82	0xbd2a93b7	-0.041644778
83	0xbd52e290	-0.051485598
84	0x3df4f132	0.11960067
85	0xbe0181e9	-0.12647213
86	0xbe388e01	-0.1802292
87	0xbc877caa	-0.016538937
88	0x3e042da1	0.12908031
89	0x3c98cee0	0.018653333
90	0x3de32d23	0.110925935
91	0xbdd1de3d	-0.10247467
92	0x3d7c890f	0.061654147
93	0x3c4bd46b	0.012440781
94	0x3e0bf030	0.13665843
95	0xbe2dfe7c	-0.1699161
96	0x3892ddd9	7.003145e-05
97	0xbcdd2561	-0.026995363
98	0x3cdfd02f	0.02732095
99	0xbc2e1148	-0.010624237
100	0xbc99245e	-0.018694099
101	0xbd8fd5ef	-0.070232265
102	0xbe252ca3	-0.16130309
103	0xbce3828c	-0.02777221
104	0x3d091084	0.033463016
105	0x3df59caa	0.11992772
106	0x3db0f5bf	0.08640622
107	0x3d0a35b9	0.03374264
108	0xbe160664	-0.14650875
109	0x3d86c748	0.06580979
110	0x3df9ebdd	0.122031905
111	0xbdd643e2	-0.10462166
112	0xbe0dcdc4	-0.13848025
113	0xbcb89fe5	-0.022537181
114	0xbe0e36d3	-0.13888101
115	0x3db5592d	0.088548996
116	0x3d6b207a	0.05740402
117	0x3be5c0e5	0.00701152
118	0xbd964a6b	-0.07338413
119	0xbce56417	-0.028001828
120	0xbd99ed5f	-0.07515978
121	0x3d2a9abc	0.041651472
122	0x3da60781	0.081069
123	0x3d29b5b8	0.041433066
124	0xbd964621	-0.07337595
125	0x3e0f9fef	0.14025854
126	0xbd9e5342	-0.07730724
127	0xbe4c1503	-0.1992989

temporal.rnn.weight_ih_l1 f4 [128, 32]
0	0xbe1f68f9	-0.15567388
1	0xbd5daf6d	-0.054122377
2	0xbe03e070	-0.12878585
3	0xbd59851b	-0.053105455
4	0x3d815cc7	0.06316524
5	0x3dd07db2	0.101802245
6	0x3e4c1024	0.19928032
7	0x3dc02c89	0.093834944
8	0x3bc8f535	0.0061327466
9	0x3cd4bcee	0.025968995
10	0x3dbda3f7	0.092597894
11	0x3e350700	0.17678452
12	0x3e0ccfaa	0.13751093
13	0x3daa7359	0.08322782
14	0x3c87ddcd	0.016585255
15	0x3de181ca	0.110110834
16	0x3d779d0c	0.060452506
17	0xbe0f93ae	-0.14021179
18	0x3cc77cd5	0.024351517
19	0x3e17b21a	0.14814034
20	0xbd9b0ede	-0.07571195
21	0xbcb1c8cf	-0.021702198
22	0xbb9a61e6	-0.0047113774
23	0xbe46e3c3	-0.19422822
24	0x3e1d1d88	0.15343297
25	0xbc5bf969	-0.013426163
26	0x3caccc6e	0.021093573
27	0xbd49e1fc	-0.04928778
28	0x3e215c03	0.15757756
29	0x3de71da1	0.11284948
30	0xbde9d212	-0.11417021
31	0x3bc6bd23	0.0060650273
32	0xbd459736	-0.04823991
33	0x3e753de8	0.23949397
34	0x3e6bcc56	0.23027167
35	0x3e395638	0.18099296
36	0x3d7e07ad	0.06201904
37	0xbb35fdd2	-0.0027769697
38	0x3d3c5815	0.04598244
39	0xbd3c08f6	-0.045906983
40	0xbdd63363	-0.1045902
41	0xbe00ae08	-0.12566388
42	0xbd0914fb	-0.033467274
43	0x3e419c2a	0.18907228
44	0xbd0c0aa1	-0.034189824
45	0xbe69a3c5	-0.2281638
46	0x3e149612	0.14510372
47	0xbe9301fb	-0.28712448
48	0x3e55bf5a	0.20873776
49	0x3cde0ede	0.027106699
50	0x3dd8bb16	0.10582559
51	0x3c851e21	0.016249718
52	0x3df1679b	0.11787339
53	0xbe62c93c	-0.22147077
54	0xbcc674ca	-0.024225611
55	0xbcf094b9	-0.029367791
56	0x3e0d7d9c	0.13817447
57	0x3be23028	0.0069027133
58	0x3e18b853	0.14914064
59	0xbe3d2805	-0.18472297
60	0xbe4a11bb	-0.19733326
61	0xbd2a5166	-0.041581534
62	0x3eb7f674	0.35930216
63	0xbe5a31a1	-0.21307994
64	0x3e4c5551	0.1995442
65	0x3d8efc6e	0.06981741
66	0xbe0eec32	-0.13957289
67	0xbdfe8792	-0.12428202
68	0xbd45cfa5	-0.04829373
69	0xbdc5e6b5	-0.096631445
70	0xbe179b17	-0.14805256
71	0xbbc77438	-0.0060868524
72	0xbe293b4e	-0.16526529
73	0x3df39373	0.11893358
74	0x3e0a3cd8	0.13499773
75	0xbe2f26aa	-0.17104593
76	0xbe7b7439	-0.24556054
77	0x3cb0d74d	0.021587038
78	0xbc96c4cf	-0.018404393
79	0x3c616c6d	0.013758761
80	0xbdf024cc	-0.117257684
81	0x3b8bde73	0.0042684614
82	0x3e344293	0.17603521
83	0x3d32ba4e	0.043634705
84	0xbea720ec	-0.32642305
85	0xbe15a40a	-0.14613357
86	0xbdd74ee0	-0.10513091
87	0x3e50a94e	0.20377085
88	0x3ddfa948	0.1092096
89	0x3db8aa6a	0.09016879
90	0xbcc1dee5	-0.023665855
91	0xbe13d9b6	-0.14438519
92	0x3e2a909e	0.1665673
93	0x3e168201	0.1469803
94	0xbdcc2d96	-0.09969632
95	0x3e1da94b	0.15396611
96	0xbab51af9	-0.0013817243
97	0xbe22428c	-0.15845698
98	0xbd19d649	-0.037557874
99	0xbda6579f	-0.08122181
100	0xbddafffa	-0.10693355
101	0xbdbaeb4e	-0.09126912
102	0xbd245279	-0.040117715
103	0x3ab90dd6	0.0014118503
104	0x3e1faf0c	0.15594119
105	0x3dd26416	0.10272996
106	0xbe00266d	-0.12514658
107	0xbda9aa17	-0.08284395
108	0xbd4945c4	-0.0491388
109	0x3d894680	0.067029
110	0xbe47153f	-0.19441698
111	0xbd2ad8b9	-0.04171059
112	0x3cb34f0e	0.021888282
113	0x3d1ed50e	0.038777404
114	0xbd82e7f4	-0.06391898
115	0xbe3778f4	-0.17917234
116	0x3d2dc2a7	0.042421963
117	0xbdf1e96e	-0.11812101
118	0x3d1abb92	0.037776537
119	0xbd452075	-0.048126657
120	0xbe1ec8f7	-0.1550635
121	0x3d64c198	0.055848688
122	0x3ce7684d	0.028247977
123	0x3cc57bbd	0.024106855
124	0xbe08704d	-0.1332409
125	0xbe1cdd5d	-0.15318818
126	0xbc9dd7c3	-0.019267922
127	0x3cf3907e	0.029731985
128	0x3de4d017	0.111725025
129	0x3e285bf3	0.16441326
130	0xbc8df89c	-0.01733046
131	0xbca42fa6	-0.020042252
132	0xbca76e3a	-0.020438302
133	0x3e32b049	0.1745006
134	0x3e38a2b1	0.18030812
135	0x3e230736	0.1592072
136	0x3cf9d8d3	0.030498898
137	0xbdf70a8f	-0.12062561
138	0xbe331cbe	-0.17491433
139	0xbd9e92b4	-0.07742825
140	0xbd5bdeaa	-0.053679146
141	0x3df9546d	0.12174306
142	0xbdc78346	-0.09741835
143	0xbe127bbc	-0.14305013
144	0xbe4ab5ee	-0.19795963
145	0xbe168a22	-0.14701131
146	0xbe09adca	-0.13445202
147	0xbb640f65	-0.0034799215
148	0x3b130c09	0.0022437593
149	0x3c964ba8	0.018346623
150	0x3d2ae9fe	0.04172706
151	0xbcad5842	-0.021160249
152	0xbe21aa61	-0.1578765
153	0xbc69d4a4	-0.014271889
154	0xbd901d8a	-0.07036884
155	0xbc3e3207	-0.011608607
156	0x3b565f7d	0.0032710724
157	0x3dc527a5	0.09626702
158	0x3e258877	0.16165338
159	0x3e123ad0	0.14280248
160	0x3dae27cd	0.08503685
161	0x3c6125f0	0.013741955
162	0xbe273f52	-0.16332749
163	0xbe4924ad	-0.19642897
164	0x3d8ae3f1	0.067817576
165	0xbddfa587	-0.10920244
166	0x3dd96997	0.10615843
167	0xbe20cc10	-0.15702844
168	0x3dde8b48	0.108664095
169	0xbccffa60	-0.025387943
170	0x3e0fe9c8	0.14054024
171	0xbd996215	-0.07489411
172	0x3e0b076c	0.1357705
173	0xbc2471e6	-0.010036921
174	0x3d6a44cb	0.057194512
175	0x3dccf574	0.10007754
176	0x3c1c89cf	0.0095543405
177	0xbd8b6a57	-0.06807392
178	0x3e018908	0.1264993
179	0xbe8d0bb3	-0.27547988
180	0xbe06d665	-0.13167723
181	0x3d90164b	0.07035502
182	0xba278189	-0.00063898467
183	0x3dd5029f	0.104008906
184	0xbe54c4cb	-0.20778196
185	0xbe00d68b	-0.12581842
186	0x3cd29b15	0.025708715
187	0xbd29d58e	-0.041463427
188	0x3e5ec9c0	0.21756649
189	0x3e0405ce	0.1289284
190	0xbe36db33	-0.17857055
191	0x3d7c9b85	0.061671752
192	0xbe167cce	-0.14696047
193	0xbd40b0f1	-0.047043744
194	0xbda92d84	-0.082606345
195	0x3ddc0fa7	0.10745173
196	0xbdbb4efc	-0.091459244
197	0xbdff2ff9	-0.12460322
198	0xbda29ad5	-0.07939688
199	0x3c06d556	0.008229574
200	0xbd55bab3	-0.052180003
201	0x3c72f1ce	0.014828159
202	0x3e213fee	0.15747043
203	0xbdf26a3d	-0.118366696
204	0xbcc64980	-0.02420497
205	0x3e3615dd	0.17781778
206	0x3d2063f4	0.039157823
207	0x3e4c494a	0.19949833
208	0xbe389a15	-0.18027528
209	0xbe06a55f	-0.13149022
210	0xbe08fed0	-0.13378453
211	0xbcd4963a	-0.02595054
212	0x3de3844c	0.11109218
213	0x3b2305f4	0.0024875375
214	0x3dc5cf10	0.09658635
215	0x3dd318e6	0.103074834
216	0x3dcc67e7	0.09980755
217	0xbc9846ea	-0.018588502
218	0x3da6649a	0.08124657
219	0xbded2f63	-0.11581304
220	0x3e68c625	0.22731836
221	0xbd1fa627	-0.038976815
222	0x3d84d8c6	0.06486659
223	0x3df17660	0.11790156
224	0xbd0b5c4e	-0.034023575
225	0x3d6ba8e8	0.05753413
226	0xba7982fb	-0.0009518114
227	0xbd3c6484	-0.045994297
228	0x3db8f708	0.090314925
229	0x3d1e0d62	0.03858698
230	0x3cae54e5	0.021280715
231	0x3daf8ada	0.08571406
232	0xbe4dd7f4	-0.20101911
233	0x3d80f873	0.06297388
234	0x3e0da536	0.13832554
235	0xbdbc75d5	-0.09202162
236	0xbdb4b507	-0.08823591
237	0x3e0e5cde	0.13902614
238	0x3c9b9c81	0.018995525
239	0x3e673a7b	0.22580902
240	0xbe21c1c4	-0.15796572
241	0xbe0a81a4	-0.13526016
242	0x3d1093b1	0.0352971
243	0xbdb4d9bc	-0.08830592
244	0x3ce7ffc6	0.028320204
245	0x3c3a9b08	0.011389501
246	0x3e00f646	0.12593946
247	0x3da06f1c	0.078336924
248	0x3cad1a40	0.021130681
249	0xbc282ab9	-0.010264092
250	0x3ba9cee2	0.005182133
251	0xbd59ead0	-0.05320245
252	0xbd96a9ad	-0.07356582
253	0x3da72a48	0.081623614
254	0xbca991b7	-0.020699365
255	0x3dd89c90	0.10576737

temporal.rnn.weight_hh_l1 f4 [128, 32]
0	0x3d7eb6c4	0.062186018
1	0xbeb5dd5d	-0.3552045
2	0xbe0c9f59	-0.13732661
3	0xbe342c97	-0.17595135
4	0xbdc609ef	-0.096698634
5	0xbd5844ae	-0.052799873
6	0x3e00665e	0.1253905
7	0xbd7c2d35	-0.06156655
8	0xbdd481b6	-0.10376303
9	0x3e9122fd	0.28347006
10	0xbcec0649	-0.02881159
11	0xbd80929f	-0.06277966
12	0x3e142a27	0.14469205
13	0x3d47e775	0.04880472
14	0xbe0c7a24	-0.13718468
15	0x3dda4143	0.10656979
16	0x3e04179b	0.1289963
17	0x3d63f363	0.055652034
18	0x3a86bcac	0.0010279617
19	0x3e233436	0.15937886
20	0x3e23426f	0.15943311
21	0x3e3f4384	0.18678099
22	0x3e1800ce	0.14844057
23	0xbd85863b	-0.06519743
24	0x3d74092e	0.059579067
25	0x3d07b232	0.033128925
26	0x3dcf2b9f	0.10115742
27	0xbd3d7183	-0.04625083
28	0xbe8a7c11	-0.2704778
29	0x3d8b8624	0.06812695
30	0x3dd99316	0.106237575
31	0x3d879b4e	0.06621419
32	0x3e64814f	0.22314952
33	0xbdac4602	-0.084117904
34	0x3d9c67e4	0.07637003
35	0xbdc0bf0b	-0.094114386
36	0xbe0096d8	-0.12557542
37	0x3bff0377	0.0077823955
38	0xbe4dc7de	-0.20095775
39	0x3d828faf	0.06375062
40	0x3e88883b	0.26666436
41	0x3d268bb7	0.040660586
42	0xbde8ffc7	-0.11376911
43	0x3e2ac629	0.16677155
44	0x3cb63fc1	0.022247197
45	0x3d720a9f	0.05909216
46	0x3ca4d859	0.020122694
47	0x3c5907d4	0.013246495
48	0xbc6e974a	-0.014562437
49	0x3e87cc30	0.2652297
50	0xbcfa8c38	-0.03058444
51	0x3e35be7d	0.17748447
52	0x3e9d465b	0.3071774
53	0xbe424d10	-0.1897471
54	0xbd2e7b16	-0.042597853
55	0xbdac1dbe	-0.0840411
56	0x3d027dce	0.031858258
57	0x3dcd33b3	0.100196265
58	0xbd527dae	-0.05138939
59	0x3d6b7475	0.05748411
60	0xbea425b9	-0.3206003
61	0x3dccb31e	0.099951014
62	0x3e83f350	0.2577157
63	0x3e28cec5	0.16485126
64	0x3d37054c	0.044682786
65	0x3d2b982d	0.041893173
66	0xbe128b82	-0.1431103
67	0x3e19057b	0.14943497
68	0xbd908c6b	-0.070580326
69	0xbda579e3	-0.08079889
70	0x3d2348ea	0.03986446
71	0xbda0fc58	-0.07860631
72	0xbdf9de7d	-0.122006394
73	0x3e2cd8a9	0.16879524
74	0xbdfcd8be	-0.12346028
75	0x3bd7e5a2	0.0065886537
76	0x3dcc0c6c	0.09963307
77	0x3ddbe0e2	0.10736252
78	0xbe1d74b8	-0.15376556
79	0xbda86da1	-0.08224035
80	0x3e4ca266	0.19983825
81	0xbe88e2fb	-0.26735672
82	0x3c970ca8	0.018438652
83	0x3e36451a	0.17799798
84	0x3e3424a3	0.17592101
85	0xbe3e76c0	-0.18599987
86	0xbd8e875d	-0.06959412
87	0x3cdd3c82	0.027006391
88	0xbd3bd697	-0.045858946
89	0x3d20be27	0.039243843
90	0x3dcfd2fe	0.101476654
91	0x3cfe3029	0.031028824
92	0x3d2e2f43	0.04252554
93	0xbe9c9465	-0.30581966
94	0xbd97f851	-0.074204095
95	0xbbf359d8	-0.0074264817
96	0xbdeabd0c	-0.11461839
97	0xbca212c0	-0.019784331
98	0x3da34f12	0.07974066
99	0xbe0c66a1	-0.13711025
100	0x3e2c1823	0.16806082
101	0x3d7e8721	0.062140588
102	0x3e0a7f1f	0.13525055
103	0x3e174579	0.14772595
104	0x3d464a35	0.048410613
105	0xbacf694d	-0.0015824229
106	0xbdf947a5	-0.12171868
107	0x3dc1e083	0.0946665
108	0xbdb7ab30	-0.08968198
109	0xbe1693ef	-0.1470487
110	0xbd92e9c6	-0.07173495
111	0x3e1669df	0.14688824
112	0x3d0e56f5	0.034750897
113	0x3d4cb3bc	0.049976096
114	0x3de246fa	0.11048694
115	0x3e3f14b9	0.18660249
116	0x3deae059	0.11468572
117	0xbdd8fb96	-0.10594861
118	0xbe09a73e	-0.13442704
119	0xbe0781a8	-0.13233054
120	0x3d911118	0.070833385
121	0xbbca7769	-0.0061787856
122	0x3e37ebdc	0.17961067
123	0xbd88b732	-0.06675567
124	0xbd586aa4	-0.052836075
125	0x3ddad2cd	0.10684738
126	0xbd94e481	-0.07270146
127	0x3dca9c1e	0.09893058
128	0xbe1fcc6c	-0.15605325
129	0xbcf6db14	-0.030133761
130	0xbd5b02e2	-0.053469546
131	0x3ccc1ab8	0.024915084
132	0xbcd2aed0	-0.025718123
133	0x3d49f0b3	0.049301814
134	0x3e56e0f8	0.20984256
135	0x3daa71df	0.083225004
136	0x3e067dd8	0.13133943
137	0x3e390d7a	0.18071547
138	0x3d11f5e7	0.0356349
139	0x3c3c8bb5	0.011507918
140	0x3e1d8aac	0.1538493
141	0x3e2d2d95	0.1691192
142	0x3d787039	0.0606539
143	0xbbad35ef	-0.0052859704
144	0xbe11a77e	-0.1422405
145	0xb92ce3f0	-0.00016488112
146	0x3bf0e837	0.007351901
147	0x3db21abd	0.08696506
148	0x3e17ca81	0.14823343
149	0x3e51768b	0.20455377
150	0xbe16424f	-0.14673732
151	0x3e2be016	0.16784701
152	0xbd19cd33	-0.03754921
153	0x3d182fb0	0.037154853
154	0x3e5d64a1	0.21620418
155	0xbdf1aa36	-0.11800043
156	0x3d781b0c	0.06057267
157	0x3e0e9c24	0.1392675
158	0xbdbfa4d2	-0.09357609
159	0x3dcbea0e	0.09956752
160	0xbda3d0f6	-0.079988405
161	0xbd529a53	-0.051416706
162	0xbdef4c86	-0.116845176
163	0x3d9416a4	0.07230881
164	0xbe06d433	-0.13166885
165	0xbda63e90	-0.081174016
166	0xbc86a908	-0.016438022
167	0xbd5b228b	-0.05349974
168	0xbd03431b	-0.03204642
169	0xbe4026d9	-0.18764819
170	0xbe206b64	-0.15665966
171	0xbdce1bdf	-0.1006391
172	0x3ddf8879	0.10914702
173	0xbe64d7e6	-0.22347984
174	0x3d6930fe	0.05693149
175	0x3c1db783	0.009626272
176	0x3e33f365	0.17573316
177	0xbe473da2	-0.19457105
178	0xbd6afdb6	-0.057370864
179	0xbd995da8	-0.07488567
180	0xbe0cd10b	-0.13751619
181	0xbde33084	-0.11093238
182	0x3d751c09	0.05984119
183	0x3e28b28d	0.16474362
184	0xbe582dfa	-0.21111289
185	0xbe2ebe80	-0.17064857
186	0xbdad2efc	-0.08456227
187	0xbd4c7e7e	-0.04992532
188	0x3b078e08	0.0020684022
189	0xbe887e41	-0.26658824
190	0xbe1c34b1	-0.15254475
191	0xbe4f3242	-0.20234016
192	0xbb26e22b	-0.0025464396
193	0x3d8ef588	0.06980425
194	0xbd14a17c	-0.036286816
195	0xbdad08ee	-0.08448969
196	0xbd46ccfb	-0.04853533
197	0x3e0a1373	0.13483982
198	0xbe55f65f	-0.20894764
199	0xbd6d3a09	-0.057916675
200	0xbbf0b924	-0.007346289
201	0xbe55eb6d	-0.20890589
202	0xbd87e02a	-0.06634553
203	0x3e0a23d1	0.13490225
204	0xbdc54f56	-0.09634273
205	0xbd8f862e	-0.070080146
206	0x3d9d06eb	0.07667335
207	0xbd7beb3c	-0.061503634
208	0xbd03252d	-0.032017875
209	0xbe7bccd6	-0.24589857
210	0xbd8b74c2	-0.06809379
211	0xbe16e7b1	-0.14736821
212	0x3e06156e	0.13094112
213	0xbe12efc5	-0.14349277
214	0xbd861169	-0.065462895
215	0x3d90c3ca	0.07068594
216	0x3cb8d5d2	0.022562895
217	0x3b6910ed	0.0035563067
218	0xbe255163	-0.16144328
219	0xbe5540bc	-0.20825475
220	0x3e3486be	0.17629525
221	0x3d53c46e	0.051701
222	0x3e3ee302	0.18641284
223	0x3decb268	0.11557466
224	0x3d4ba874	0.049721196
225	0x3e3fe846	0.18740949
226	0xbe2913f4	-0.16511518
227	0xbde3ee2c	-0.11129412
228	0x3dd7465e	0.10511468
229	0xbe0475c6	-0.12935552
230	0xbe7c8ad2	-0.24662331
231	0xbd5560bc	-0.052094206
232	0x3dbb679a	0.0915062
233	0x3cc089d2	0.023503218
234	0x3e2ba85b	0.16763441
235	0x3ce729ff	0.028218267
236	0xbe48cd6f	-0.19609617
237	0xbd0cc419	-0.0343667
238	0x3c2d0732	0.0105607975
239	0xbc9401ed	-0.018067325
240	0x3e315675	0.17318137
241	0xbe49ece2	-0.1971927
242	0xbe0c2b2a	-0.13688341
243	0xbe4ba6ae	-0.19887802
244	0xbdcbcaea	-0.09950812
245	0xbdfea4c8	-0.12433773
246	0xbd9b1cdf	-0.07573866
247	0xbe0d688f	-0.13809417
248	0xbdbc0b9c	-0.09181902
249	0xbe5b1632	-0.21395186
250	0x3de2ad61	0.11068226
251	0xbcaef037	-0.021354778
252	0xbd23aaf9	-0.039957974
253	0x3d6d1b4e	0.057887368
254	0xbdc0b529	-0.094095536
255	0xbded6ec2	-0.11593391

temporal.rnn.bias_ih_l1 f4 [128]
0	0xbce553ce	-0.027994063
1	0x3e030841	0.12796117
2	0x3e30c589	0.17262854
3	0x3df2f528	0.11863166
4	0x3dc9fb92	0.09862436
5	0xbdea2041	-0.11431933
6	0xbde9aba3	-0.1140969
7	0x3c96bab7	0.01839958
8	0x3e4cc130	0.1999557
9	0x3d12ae6b	0.03581087
10	0x3cb96dc8	0.022635356
11	0x3dbd97ad	0.092574455
12	0xbe4643a5	-0.19361742
13	0xbd1cea29	-0.03830925
14	0xbdd307ba	-0.10304208
15	0x3e5dd4ab	0.21663158
16	0xbde601c3	-0.11230805
17	0xbdc854bf	-0.09781789
18	0xbdbb65a6	-0.09150247
19	0x3cc24644	0.023715146
20	0x3e27bdf7	0.1638106
21	0xbe16085e	-0.1465163
22	0xbd453eb3	-0.048155498
23	0xbe15c6d4	-0.14626628
24	0x3e0893c2	0.13337615
25	0x3d8f5802	0.06999208
26	0x3e3385d9	0.17531528
27	0xbd777b58	-0.060420364
28	0x3e005fb0	0.12536502
29	0xbd1affe6	-0.0378417
30	0xbe107e03	-0.1411057
31	0xbcc3dd71	-0.023909302
32	0x3e12577d	0.14291187
33	0x3eb2d690	0.34929323
34	0x3ddc0deb	0.10744842
35	0xbe5913d2	-0.21198967
36	0xbdbc4b42	-0.09194042
37	0xbe3ddb49	-0.18540682
38	0x3daef765	0.085432805
39	0xbd5cf0cf	-0.05394059
40	0x3e4f7722	0.2026029
41	0x3e6a0983	0.22855191
42	0xbd270b3a	-0.04078219
43	0xbd91ce70	-0.07119453
44	0xbdeaf567	-0.11472588
45	0x3ce48a2e	0.02789792
46	0xbccf252e	-0.025286283
47	0x3e14a55e	0.14516208
48	0xbc14adfd	-0.009074685
49	0x3e129bcb	0.14317243
50	0xbe47ceb3	-0.19512443
51	0xbd118f1a	-0.035536863
52	0xbc91a6d9	-0.017779754
53	0xbe38242d	-0.1798255
54	0x3e4c8626	0.19973049
55	0xbcdc1f6e	-0.026870456
56	0xbcee4539	-0.029085742
57	0x3e020bb9	0.12699784
58	0xbca7bb6d	-0.020475114
59	0x3dda54e4	0.10660723
60	0x3e13f192	0.1444762
61	0x3ca6f9b3	0.020382738
62	0xbe096600	-0.13417816
63	0xbd276b3a	-0.040873744
64	0xbd0a8d90	-0.03382641
65	0xbdc53e3d	-0.09631012
66	0x3e1f514d	0.15558358
67	0x3cb51d4c	0.022108696
68	0xbdbb296b	-0.09138759
69	0x3e0c69cb	0.13712232
70	0xbdd06e86	-0.10177331
71	0x3d6509a4	0.055917397
72	0x3dc5d2fa	0.09659381
73	0xbc549b77	-0.012976519
74	0x3d226fd7	0.03965744
75	0x3d46868a	0.04846815
76	0x3d9613b9	0.073279805
77	0x3e028f59	0.12749995
78	0x3d493242	0.049120195
79	0x3e1de31e	0.1541867
80	0xbe47dec2	-0.19518569
81	0x3e01c460	0.12672567
82	0xbe2e4203	-0.17017369
83	0x3e09d14a	0.13458744
84	0x3e67f22a	0.22650972
85	0xbd7572d2	-0.059923954
86	0x3b3a474c	0.0028423844
87	0xbd9f01c3	-0.07764008
88	0xbcdc90ed	-0.026924575
89	0x3bdad5ca	0.0066783177
90	0xbdf54f1f	-0.11977982
91	0xbdb66192	-0.08905329
92	0x3dd11797	0.102095775
93	0x3d19f00c	0.037582442
94	0x3dfcb38d	0.12338934
95	0xbd87ec65	-0.066368856
96	0x3d4f3734	0.050589755
97	0x3c0847bd	0.008317885
98	0x3cbe3786	0.023219835
99	0xbd1758f3	-0.036950063
100	0x3e3f0a46	0.18656263
101	0xbdf3bb53	-0.11900964
102	0xbd9a867c	-0.07545182
103	0xbe437d9e	-0.19090888
104	0xbd4904f6	-0.049076997
105	0x3d87718a	0.06613453
106	0x3d178749	0.036994252
107	0x3c58a4f7	0.013222924
108	0xbd6169a7	-0.0550324
109	0x3e558c88	0.2085439
110	0xbded6dff	-0.11593246
111	0x3de746b2	0.11292781
112	0xbe607c75	-0.21922477
113	0x3bafc7b9	0.005364385
114	0x3dde844d	0.10865078
115	0x3e484631	0.19558026
116	0x3c534859	0.012895667
117	0xbe51a156	-0.20471701
118	0xbcd5e213	-0.026108777
119	0xbe2b710c	-0.16742343
120	0x3e75c0f2	0.23999384
121	0x3e45d2fc	0.19318765
122	0x3cc2140c	0.0236912
123	0x3d9a5a84	0.07536796
124	0x3dfa4e85	0.12222008
125	0x3cb7785d	0.02239626
126	0xbc287153	-0.010280925
127	0x3ddbd95a	0.10734816

temporal.rnn.bias_hh_l1 f4 [128]
0	0xbceac6f7	-0.028659327
1	0x3dbe0ade	0.092794165
2	0x3e1dbed1	0.15404822
3	0x3d9879bc	0.07445094
4	0x3c92fd3c	0.017943017
5	0xbe6c9306	-0.2310296
6	0x3ddd107d	0.107941605
7	0x3c421309	0.011845359
8	0x3e1b3c0f	0.1515963
9	0xbd5b6c92	-0.053570338
10	0xbc839df4	-0.016066529
11	0x3e20ef99	0.15716399
12	0xbd57795e	-0.05260598
13	0xbd9dc0b8	-0.07702774
14	0x3af97a72	0.0019033684
15	0xbd577166	-0.05259838
16	0xbe095ba0	-0.13413858
17	0xbd91f407	-0.07126623
18	0x3d4b317e	0.049607746
19	0x3c8b3228	0.01699169
20	0x3d09c4af	0.033634838
21	0xbd58d62d	-0.05293863
22	0xbdb5ce23	-0.08877208
23	0xbe178956	-0.14798483
24	0x3e893de8	0.26805043
25	0xbc5f96df	-0.01364681
26	0x3e09fd2a	0.1347548
27	0x3dd372aa	0.10324605
28	0xbbc36555	-0.0059630075
29	0xbd690f72	-0.056899495
30	0x3d6bd4bb	0.057575922
31	0x3da0dba0	0.0785439
32	0x3cb23a4e	0.021756317
33	0x3e38f041	0.180604
34	0xbd1cd596	-0.03828963
35	0xbdcf8e67	-0.10134583
36	0x3d727b1a	0.05919943
37	0xbe6e432e	-0.23267815
38	0x3cf0ccf8	0.029394612
39	0x3d2b6cf2	0.041851945
40	0x3dacbd96	0.08434598
41	0x3cd5868c	0.026065134
42	0x3cb28d40	0.021795869
43	0xbd8abac7	-0.06773906
44	0x3d9830b5	0.07431165
45	0xbd6770a5	-0.05650391
46	0xbc767651	-0.015042857
47	0x3e58942c	0.21150273
48	0xbde6cf68	-0.11270028
49	0x3e2c7e73	0.16845112
50	0x3ceffd40	0.029295564
51	0x3e37085d	0.17874284
52	0x3db07159	0.08615369
53	0xbda65280	-0.081212044
54	0xbde5dc99	-0.11223716
55	0xbe1cf895	-0.15329202
56	0x3e67c9ab	0.22635524
57	0x3de2b2b4	0.11069241
58	0xbe0e53c0	-0.13899136
59	0x3d89b591	0.06724084
60	0x3dfe2079	0.124085374
61	0xbe201a83	-0.15635113
62	0xbce314c3	-0.02771986
63	0x3dfec1bd	0.124392964
64	0x3e3ee676	0.18642601
65	0xbc11799e	-0.008879093
66	0xbe0963fd	-0.13417049
67	0x3e28cb87	0.1648389
68	0xbdfcc9fa	-0.123432115
69	0xbd6575aa	-0.056020416
70	0xbe1a45aa	-0.15065637
71	0xbdba1a42	-0.090870395
72	0x3e47f3db	0.19526617
73	0x3e4c3231	0.19941022
74	0xbd8fe975	-0.0702695
75	0xbd1bf04a	-0.038070954
76	0xbd7f7f23	-0.062377106
77	0x3d77134f	0.06032115
78	0x3d1e2680	0.038610935
79	0xbe03ef9e	-0.12884375
80	0x3e0dcfaa	0.13848749
81	0xbe2ab019	-0.16668738
82	0xbe12e32f	-0.14344476
83	0xbd1d3015	-0.038375933
84	0x3e430698	0.19045484
85	0x3d801baf	0.0625528
86	0xbd18f094	-0.03733881
87	0x3dc71823	0.097214006
88	0x3e299d72	0.16563967
89	0x3c4b628b	0.012413631
90	0xbe08816e	-0.13330624
91	0x3df6a3f4	0.1204299
92	0xbe20dc02	-0.15708926
93	0x3bbb1619	0.0057094214
94	0x3e05e5c3	0.13075928
95	0x3e085656	0.13314185
96	0x3d6d44c4	0.057926908
97	0x3e66fbd9	0.2255701
98	0xbcb3cff6	-0.02194975
99	0xbcce0165	-0.02514715
100	0x3e26adc7	0.16277228
101	0xbe420453	-0.18946962
102	0x3d51f225	0.051256318
103	0xbcd781a0	-0.026306927
104	0xbdd8b969	-0.10582239
105	0xbc75147c	-0.014958497
106	0x3ca1f118	0.019768283
107	0x3df6f1e5	0.120578565
108	0xbe460d8f	-0.1934111
109	0x3e8d5688	0.2760508
110	0xbe39ab0d	-0.18131657
111	0xbbafd68c	-0.005366152
112	0x3dd5f8a2	0.104478136
113	0x3e2633eb	0.16230743
114	0xbe135610	-0.14388299
115	0xbd5f8c3f	-0.05457711
116	0x3da6c706	0.081434295
117	0xbc4633c7	-0.012097306
118	0xbdb2a258	-0.08722371
119	0xbe3d87f6	-0.18508896
120	0x3dfdac90	0.12386429
121	0xbc1f0737	-0.00970631
122	0x3e05ba0f	0.13059257
123	0x3b9a7a6b	0.0047143004
124	0xbdc26c57	-0.094933204
125	0x3db81973	0.08989229
126	0x3d562a29	0.0522863
127	0x3e2eb553	0.17061357
