notebook/output/rolling_models_dynamic/window_5.pth (torch, 479797 bytes, 99 tensors)

temporal.input_proj.weight f4 [32, 7]
00000000: af12 d93e b79b 3b40 c571 2240 354c 83be
00000010: 9ad1 903d dd7a 7cbe 20ab e7bc 45a1 593f
00000020: ca0a 4e40 6370 3440 b23c 8ebe fd9f febd
00000030: 8be1 52bc 3590 b8bc d488 653f a9fa f43e
00000040: c9d7 16bf b744 1fbe a56f a23e a7e5 dbbd
00000050: 38cf ca3e 5b57 0f40 44bf 4b40 0f2d 1640
00000060: 0369 aebe 83bd e3bd 4b2f 00bd 1774 b6bc
00000070: cc65 a03f 9c92 353f daaa 4d3f d026 503e
00000080: 73fa 0cbe 5feb 2e3e 4f5d 8cbe efd4 0abf
00000090: df71 bb3f 934c 0640 87fb bc3e 9781 80be
000000a0: 29be 22bd ba6e 54be af9c 18c0 b7e3 98bf
000000b0: 2d67 7dbf 1a8a 5c3e d76d bfbd 6e55 6dbd
000000c0: bf04 2cbe 3313 01c0 68f8 82be aace 623f
000000d0: 2e08 83bd 4aae c7b9 b71f 42be 3f8b c0be
000000e0: 61cd 81c0 e8e1 e7bf 426b e6bf d719 2cbe
000000f0: 582e d03d b4e8 e9be 2198 263d d8eb 093f
00000100: 097e ad3c 3849 14be 7dd0 bbbe da5d 583d
00000110: ac7f 4bbe 4f42 9f3e f55d 1b3f 07ff 2e40
00000120: c365 0b40 cc16 6d3e c49c d63c 4934 88be
00000130: fe48 74bd 3de5 1bbf 57aa 2bc0 b873 b9bf
00000140: 1f33 80be c1f4 af3c fe91 753e 7865 b0bd
00000150: 7196 9abf 1e89 49c0 9520 32c0 a68e fdbd
00000160: 1846 60be 76ca aa3e ea6a abbc 86e3 843d
00000170: 5736 06c0 90d3 fabf ed8b 87bd 2f45 aebe
00000180: f174 fd3e 67e7 2b3b ccec 3cc0 79c8 36c0
00000190: fbc7 35c0 5414 c63d 9544 31bc 425d 27bc
000001a0: a57e e2ba 88a2 1bc0 f2de 3ec0 3bc4 21c0
000001b0: cc81 f2bd af6c 613d f353 103e 56a4 94bd
000001c0: 3caa 0140 1490 133f 358e 4e3f 08dc 1e3c
000001d0: 99cf 61bd 153b 18bc f2b7 c2be 0914 b53e
000001e0: ac38 3e3f bece 133f 5018 b3be 69db 04be
000001f0: 116f 25be 0ad1 293e 3f22 823e c388 2ac0
00000200: 6c3b e8bf 3cbc 193e 3827 0dbe bb00 aa3e
00000210: 53b6 5bbd 9485 683f 3c05 1640 16a0 0d40
00000220: 26b7 83be 0c8f 8fbe e613 20bd 0b26 953d
00000230: e4c8 703d 66f0 07c0 69fe 07c0 582d cd3b
00000240: 32cf 34ba b07f 043e 118e 643b da1b 9d3f
00000250: a0a9 c8bf f231 83bf 9ca2 e9ba a286 a0bd
00000260: 479e 923e d245 adbc c854 eb3e b1be 2240
00000270: 2523 0140 aeb7 d73d 8fba c1bd 922e 33be
00000280: f68f 263c 7fdf 65bf 103e 14c0 fcbd dbbf
00000290: c1a7 0bbe 4193 f23d eed7 dd3d 0605 553e
000002a0: a76f 09c0 1a79 87bf 7404 e4bf 693a 66bd
000002b0: d56d 803e af45 6c3e b6b9 42be 5a31 60be
000002c0: ee86 1b40 fbd2 ab3f 0e34 863e 8f66 893d
000002d0: 02fd 85be c14b 3dbd c488 6fbf 986b 16c0
000002e0: 63b0 0ec0 9bef 3d3e 7645 8fbe f973 b23e
000002f0: 016e cfbc 9300 373f 569e 31bf da6b 2dbf
00000300: fb18 bb3c bae5 9c3e efa1 c33c 6a8e 17bc
00000310: 9c71 f73f d5e3 4240 8c76 1d40 9af4 483e
00000320: bc3a 433d 98f8 37be e456 01bd 2993 1fc0
00000330: da1d 62be 7210 dd3e 5854 c13d aafd 3a3d
00000340: 0f0f c6be 281f 433e 405f 1c40 4cae a93f
00000350: 3b8e 723f 51ca 373e 5207 73bd 80bb 8a3d
00000360: 14f4 36be a521 993f a0cb 89be c23b d6be
00000370: f3ef 5a3e a830 e1be ad4b ae3e 0854 5b3e
0.42397067 2.931379 2.538194 -0.2564408 0.07071228 -0.24656244 -0.028279841 0.850117
3.2194085 2.8193595 -0.27780682 -0.12432859 -0.012871156 -0.0225297 0.8966191 0.4784749
-0.5892301 -0.15553556 0.31725803 -0.10737162 0.3961122 2.2397068 3.183549 2.3465002
-0.34064493 -0.11120131 -0.031295102 -0.022272153 1.2531066 0.70926833 0.80338824 0.20327306
-0.13767414 0.17081974 -0.2741494 -0.5423116 1.4644126 2.0984237 0.3691065 -0.2509887
-0.039732132 -0.20745364 -2.3845632 -1.1944493 -0.9898556 0.21537057 -0.09347122 -0.0579428
-0.16798685 -2.0167968 -0.25580144 0.88596594 -0.063980445 -0.00038086093 -0.18957411 -0.37606236
-4.0563207 -1.8115816 -1.8001482 -0.16806732 0.10165089 -0.4568535 0.040672425 0.53875494
0.021178262 -0.14481056 -0.366825 0.05282388 -0.19872922 0.31105277 0.6069024 2.7343156
2.178086 0.23153228 0.026197799 -0.2660239 -0.059639923 -0.60896665 -2.6822717 -1.448844
-0.25039002 0.021479012 0.23981473 -0.08613104 -1.2077161 -3.148994 -2.7832386 -0.12380724
-0.21901739 0.3335759 -0.020925004 0.06488709 -2.0970666 -1.9595814 -0.066184856 -0.34037158
0.49503282 0.0026230456 -2.951953 -2.8559859 -2.8403308 0.09671846 -0.010819574 -0.0102151055
-0.0017280175 -2.4317951 -2.9823575 -2.527602 -0.11841163 0.05503529 0.14094524 -0.07257907
2.0260153 0.5764172 0.8068574 0.009696014 -0.05512962 -0.00929143 -0.38030964 0.35366848
0.74305224 0.5773734 -0.34979486 -0.12974323 -0.1615565 0.16583648 0.25416753 -2.6645973
-1.8143134 0.15013212 -0.13784492 0.33203682 -0.053640675 0.90828824 2.3440695 2.2128959
-0.2572567 -0.28038824 -0.039081477 0.07282647 0.058785334 -2.1240478 -2.124903 0.006261509
-0.00068973296 0.12939334 0.0034874717 1.2274125 -1.5676765 -1.0249617 -0.0017824951 -0.07838179
0.2863638 -0.021151457 0.4596312 2.5428889 2.01777 0.10533081 -0.09459411 -0.17498234
0.010166159 -0.8979415 -2.316288 -1.7167354 -0.13638212 0.11844493 0.10832201 0.20802698
-2.1474397 -1.0583832 -1.7813859 -0.056208048 0.25083795 0.23073457 -0.19016156 -0.21893826
2.4301105 1.3423761 0.2621159 0.067090146 -0.26169592 -0.046214823 -0.9356806 -2.350317
-2.2295158 0.18548433 -0.27982682 0.34854105 -0.025321009 0.7148525 -0.69382226 -0.67742693
0.02283906 0.30644017 0.023880927 -0.009250263 1.9331546 3.0451558 2.4603605 0.19624558
0.047663435 -0.17965925 -0.031577006 -2.493357 -0.220817 0.4317661 0.094399154 0.04565207
-0.38683364 0.19054854 2.4433136 1.3256316 0.94748276 0.17948271 -0.059333153 0.06774044
-0.17866546 1.1963392 -0.26913166 -0.41842467 0.21380596 -0.43982434 0.3404211 0.21418774

temporal.input_proj.bias f4 [32]
00000000: 8d30 fc3d 7826 2f3e c6fa b8be a11c 8d3d
00000010: 183a 64bf 2f3d cd3e a850 2f3e c8a5 3c3f
00000020: da78 5bbe d9b2 8ebd 1532 213e 100a c2bd
00000030: cf1b 1ebe 09bb 9abe bd19 c3be ba32 90be
00000040: 3e58 fbbe b248 0d3f c7c5 7cbe c2a1 b23e
00000050: 5d3b 17be da79 dabe 8076 c73e 05eb 5cbd
00000060: e440 363f 8f83 e0bd c673 83bd edc4 2abf
00000070: e6aa 29bb 18f7 223f fe1f 20bf e097 d2be
0.12313948 0.17104518 -0.36128825 0.06890226 -0.89151144 0.40085742 0.17120612 0.7369046
-0.2143282 -0.06967706 0.15741761 -0.094745755 -0.15440296 -0.30220821 -0.38105574 -0.281637
-0.4909076 0.5518905 -0.24684821 0.34889036 -0.14768739 -0.4267109 0.38957596 -0.05393507
0.71192765 -0.10962593 -0.064185664 -0.66706735 -0.0025889217 0.63658285 -0.62548816 -0.41131496

temporal.layer_norm.weight f4 [32]
00000000: aed1 a03f 40ac aa3f 3c46 5c3f ccb3 da3f
00000010: e281 233f b5c5 5e3f f002 c93e 8fa6 673f
00000020: d71b 923f 66f0 9b3e 4f91 8d3f 4706 8a3f
00000030: 46c7 b23f 87c0 a13f 94e6 b73f 889b 9f3f
00000040: 7028 843f b81a 0b3f 2914 8e3f 9529 923f
00000050: f264 803f 7653 ad3f e7b5 8d3f 331d 2f3f
00000060: 3713 d33e 1549 9e3f cc5b b23f c3f9 363f
00000070: 3234 df3f 0391 893f 2507 433f 99a6 1d3f
1.2563989 1.3333817 0.8604467 1.708612 0.6387006 0.87020427 0.39260054 0.90488523
1.1414746 0.30456847 1.105997 1.0783166 1.3967063 1.263688 1.4367242 1.2469339
1.032484 0.54337645 1.1099902 1.141894 1.0030806 1.3541095 1.1071137 0.6840393
0.41225597 1.2366053 1.3934264 0.71474856 1.7437804 1.0747379 0.76182777 0.6158233

temporal.layer_norm.bias f4 [32]
00000000: 5172 8bbd 3795 60be e9f3 083f 69cf 43bd
00000010: 4dca d43e 4e25 bbbe 0ae1 9bbe d10d f9be
00000020: ac33 b7be 8c2d 893e 0f1f ebbd aa12 98be
00000030: efbd 873d 9ee4 7cbe cd7e b1bc 94ec d6bd
00000040: 87ff 163e 93c7 003f 6d64 b63d aa89 96be
00000050: aa96 8b3e f6df b9bd e54b 313e f876 723c
00000060: 9dea 54bf 0c33 413e 87bb 1b3e 8f51 56be
00000070: 7594 db3c a783 89be af55 d73e cd13 1e3f
-0.068089135 -0.21931921 0.5349718 -0.047805224 0.41560593 -0.365519 -0.3044513 -0.48643354
-0.3578161 0.26792562 -0.11480533 -0.2970174 0.06628024 -0.24696586 -0.021666909 -0.104943424
0.14745913 0.50304526 0.089058734 -0.29401904 0.27263385 -0.0907592 0.17314108 0.014798872
-0.8317049 0.18867129 0.15208255 -0.2092955 0.026804188 -0.26858255 0.4205756 0.61748964

temporal.rnn.weight_ih_l0 f4 [128, 7]
00000000: 38d2 98be 5185 d2be d777 01be 069e 26be
00000010: 3291 dabe 2b36 dfbe b9ab 9bbd 566e f5be
00000020: 4894 c6be ba9f c3be 9645 b9be e0fd ec3c
00000030: 85cf 92bd afee 803e 16ad 20bf 7774 28bf
00000040: c2be 0abf fda9 dabe 754b c1be f851 ebbe
00000050: 08f7 9f3d f4bc bf3e 93c7 c43e 84f2 743e
00000060: b208 2d3e 9392 aa3e 132b 243e 2606 34be
00000070: 6307 d53e c0a2 913e 5237 b43e d5ab 8a3e
00000080: a9c2 ef3d 435d ba3d 81a8 143e 7196 90bf
00000090: d1ce a5bf 5e53 60bf 6c2b 91bf bacd bebd
000000a0: 9f2b 08be 1417 7fbe be53 2b3e 6b30 3cbd
000000b0: adad 4e3c ad3d 073c 7f14 23be b5c6 c03b
000000c0: 0e93 a1be 7c0a 3f3e ef16 793e 6aa3 9e3d
000000d0: 5f1a 653e aacf dcbe f89b cfbe 725b 993e
000000e0: 43c3 34bf 810f 6dbf 198b 15bf 9846 6dbf
000000f0: b0c3 fbbd e144 c2bc 8c5d 9b3d 7c0e d9be
00000100: 7f3e cdbe 90c6 cdbe 5ade 1cbf 9a87 77be
00000110: 2de8 81be 830e aabd 065c f1be bc89 efbe
00000120: eb2c 0fbf bc4b 0abf 8c31 a0be e375 55be
00000130: f516 8dbe 71a3 0cbf d6ee acbe 746f 93be
00000140: f6c5 d7be a073 b3be 4cf0 c9be f75a 663e
00000150: af6f ee3e e63d 603e b107 e63e c395 0f3f
00000160: 810d 71be b4c0 89be 16ab 9d3e f975 77bf
00000170: 2e29 77bf a4b0 4bbf 2425 4cbf 9cf4 c53d
00000180: b046 2bbe 5c54 82be 4057 0dbf 5126 73be
00000190: cc4b cebe f4a1 b5be d1bb e8be 8ffa b2be
000001a0: b4b8 3ebe 269b 75bf 80c1 81bf a1bc 2dbf
000001b0: 3a78 8abf 09ca 9b3d 81d8 4cbe 36f6 8cbe
000001c0: c9f3 edbc c93f a83d d349 d73d 6323 20be
000001d0: 3dad 4c3e c858 073e 0496 0dbe 42ca 35bf
000001e0: 764d fabe ef20 0bbf cf66 36bf aa86 30be
000001f0: 4183 e3be 8d9d 22bd 10d4 13bf 19ad 42bf
00000200: d199 3cbf e36d 25bf 70b7 183e 22b2 40bd
00000210: bbc5 6bbe 2582 28bf 6a2e 35bf fb28 99be
00000220: cb0e bcbe 931b 103d 1135 f0bc 63ec 9fbd
00000230: 4f51 773e 4901 993e 9f00 6d3e d853 033e
00000240: 21db 02bf 43d7 e6be 3031 bf3e 4145 04be
00000250: 171b c8be bbc3 72be dada c3be 003e 40be
00000260: 6e28 a4be c2d3 f03b 33d1 21bf 2ad6 3bbf
00000270: d8ea 35bf 9317 0dbf 66de c3be 0ad0 09be
00000280: 8c0f d1bd 8985 7fbe f6cb c9be 9e72 94be
00000290: 091e 80be e27f f8be 65db fbbe 03ef 343e
000002a0: dfa6 cbbe 59e0 e9be d623 6bbe bc6b ecbe
000002b0: b151 24bd 0e4c 0fbc aea2 c83e 2ab6 47bf
000002c0: 7264 34bf 2bf1 55bf 149c 22bf 171d cbbc
000002d0: b90d 973d b3d7 2fbe a547 0cbf ed87 d9be
000002e0: a4c1 0fbf 0428 fdbe 1d59 933d 6cc9 cc3d
000002f0: 1f16 b0be 3335 30bf ab10 1cbf aa9d 51bf
00000300: d597 00bf 4d38 323e db44 cfbd 353c e3bd
00000310: 3279 b73d 29d4 8d3e 9c15 2f3e 9ed1 c33e
00000320: 5f79 e3be 9706 e2be 8e07 88be b595 a3bc
00000330: 8678 54be 8244 af3d a952 50be 7e49 77bd
00000340: 1881 9b3e a9af c43d 6803 b93d 0ffa 2b3e
00000350: 7afa 88bc 901a f4bd bd58 b03d bdb5 bd3d
00000360: fec8 0cbf b0c4 0ebf d2cc e2be 9e2c 04bf
00000370: e439 32bf d72e 24be ed94 58be 5e0a 313d
00000380: 499e 05be e530 91be 140c dbbd f111 c2be
00000390: 9819 9cbe 3ed8 bdbe f894 1a3d 5236 27be
000003a0: e93a 87be 1cbf 17be 8604 83be 46d5 d4bd
000003b0: 16c1 9bbe ec5a 7d3c 781d a5be 81cf eebe
000003c0: 4cf6 11bf 9ac2 0ebf 54c1 8b3c 12cf 083e
000003d0: e348 83be 8c11 d03e b62b 5a3e a86b a43e
000003e0: b755 c23d a02d 183d f578 dbbd 6662 f6bc
000003f0: 47aa 923e b0d9 453e 6ea7 9d3e 3fed 443d
-0.29847884 -0.41117337 -0.12643372 -0.16271219 -0.426889 -0.43596014 -0.07601113 -0.47935742
-0.38785005 -0.382078 -0.36185902 0.02892965 -0.071684875 0.251821 -0.6276411 -0.6580271
-0.54197323 -0.42707816 -0.37752882 -0.45960975 0.07810789 0.37448847 0.38433513 0.23920637
0.16897848 0.33314952 0.16032057 -0.1758047 0.41607198 0.2844448 0.35198456 0.27084222
0.1170705 0.090998195 0.14517404 -1.1295911 -1.295374 -0.8762721 -1.1341376 -0.09316583
-0.1329789 -0.24911147 0.16731164 -0.045944612 0.01261465 0.008254451 -0.15925787 0.0058830627
-0.31557506 0.18656343 0.24325155 0.077460125 0.22373341 -0.43127185 -0.40548682 0.2995258
-0.70610446 -0.9260178 -0.5841537 -0.9268584 -0.12293184 -0.023714485 0.07586202 -0.42393863
-0.40086743 -0.40190554 -0.6127678 -0.24172822 -0.2537245 -0.08303549 -0.4714052 -0.4678477
-0.55927914 -0.5402181 -0.312878 -0.20845751 -0.27556577 -0.5493689 -0.33775967 -0.2879597
-0.4214322 -0.35049152 -0.39441144 0.22495638 0.46569583 0.21898612 0.44927743 0.56087893
-0.23540308 -0.26904833 0.3079459 -0.96664387 -0.9654721 -0.7956641 -0.7974417 0.09665796
-0.16726184 -0.25454986 -0.5521126 -0.23745085 -0.40292203 -0.35475123 -0.45455793 -0.34956786
-0.18625146 -0.9593986 -1.0137177 -0.6786595 -1.081794 0.076068945 -0.20004465 -0.27531594
-0.02904691 0.08215291 0.10512128 -0.15638499 0.1998796 0.13217461 -0.13826758 -0.71011746
-0.48887223 -0.5434713 -0.71250623 -0.1723887 -0.44436076 -0.039701033 -0.57745457 -0.76045376
-0.73672205 -0.646208 0.14913726 -0.04704488 -0.23024647 -0.65823585 -0.7077395 -0.29914078
-0.36730036 0.035182547 -0.029322179 -0.07808759 0.2415211 0.29883793 0.23144768 0.12824953
-0.51115614 -0.45086107 0.37342215 -0.12917043 -0.39083168 -0.23707478 -0.38252908 -0.18773651
-0.32062095 0.0073494622 -0.6320984 -0.73373663 -0.7106147 -0.55114096 -0.38255614 -0.13458267
-0.102080435 -0.24953283 -0.39413422 -0.28993696 -0.25022915 -0.48535067 -0.49190822 0.176693
-0.3977575 -0.45678976 -0.22962889 -0.46175945 -0.04011697 -0.00874616 0.39186615 -0.78012335
-0.7046577 -0.8357112 -0.63519406 -0.024794145 0.07375664 -0.17172126 -0.5479682 -0.42486516
-0.5615485 -0.49444592 0.071947314 0.09999356 -0.34391877 -0.68831176 -0.60962933 -0.818812
-0.5023168 0.1740429 -0.10120555 -0.11095468 0.08958663 0.27700928 0.17098087 0.38245863
-0.44428536 -0.44145653 -0.26568264 -0.019968847 -0.20749101 0.08557989 -0.20344032 -0.060372822
0.30371928 0.09603817 0.09033853 0.16794609 -0.016720999 -0.11919129 0.086106755 0.092631795
-0.5499419 -0.5576887 -0.4429689 -0.5163058 -0.69619584 -0.16033493 -0.2115056 0.043222778
-0.13048662 -0.28357616 -0.10695663 -0.37904313 -0.30488276 -0.37079042 0.037739724 -0.16329315
-0.26412132 -0.14818996 -0.2558939 -0.10392241 -0.3042075 0.015463572 -0.32249045 -0.46642688
-0.57016444 -0.5576569 0.01705996 0.13360241 -0.25641546 0.40638387 0.21305737 0.32113385
0.09489005 0.037152886 -0.1071643 -0.030076217 0.28645536 0.19321322 0.307918 0.048077818

temporal.rnn.weight_hh_l0 f4 [128, 32]
00000000: 5de9 503e de36 8bbe 4f19 15bd 0cd3 353c
00000010: a974 f8bc 8e4c 7c3e b3b4 463c 17a5 063e
00000020: 44a6 a63e c672 bbbd 9afa 76bd 4e67 64bd
00000030: 8a12 0bbe 6f4c 0dbe ddd6 e3bc dee1 84be
00000040: 9c58 063e b7c1 14bd c7b8 b4bd 4ac6 cdbe
00000050: c562 2fbe 0a91 d43d 0167 dcbd 9040 41bd
00000060: 24da ed3d 02f7 11bf 61fb f53d 8694 28be
00000070: 7473 043e 0f9e 4bbe 6761 3ebe c8b7 163e
00000080: d0a6 9bbd de20 d0bc 0522 efbd 8d62 803d
00000090: 1feb 303e 0eca 0dbe 2176 ca3d 5a20 863d
000000a0: dff7 bc3c 77e7 ecbd 58ba 353e dcd1 3fbe
000000b0: 9851 d4be 5b03 adbe 192a b4bd 0d45 37bd
000000c0: 0d98 75be 5546 86bd 0c4b 0ebe 86d6 de3d
000000d0: 4a70 023e 86c9 a8bd d6ca a9bd 586b ea3d
000000e0: 2b3b a53c 12d5 94bd 5416 d93d 31d3 973d
000000f0: db18 833e 8300 3cbe 5534 d7bd 74b6 dc3e
00000100: d301 0c3d d7a2 33be 0bfb 843d e11f d1bd
00000110: c615 e2bd 039e e2bd 7cf7 933d 5f56 ae3e
00000120: 7b3e 233d e60b 63be a3f0 813e cedc 82be
00000130: 52ca 0abe afd5 633e 7702 07be 6d2e cb3d
00000140: aca3 d1bc b783 5cbd 0677 2ebd 406d 143d
00000150: 5d9f c3be f658 0c3f 82cd fd3b ce78 23be
00000160: db56 c53c d170 4c3e 9380 e23d 26bd 7f3e
00000170: e0de b4bd 7e00 40be 3237 48be afb4 063e
00000180: 6eec d2bd 0090 973e dcc8 74be 1c5d d53e
00000190: 736c 00bd 6d20 22be 7d0d a9bd 455b 533e
000001a0: aa7f 5b3d 045b 8f3e e7bb 6d3e 72ac d2be
000001b0: dc30 f73d affe f8bd 389a 0abe d118 5a3e
000001c0: 7592 f0be 71e4 863e 3d61 733e 5714 153d
000001d0: 1564 88be 02eb 233e 2784 c43e d293 533e
000001e0: 92d2 58bd 1103 083e 6a8a ca3e 2800 833d
000001f0: 4a48 dcbd 51de 93be e056 693e cd44 87be
00000200: 7f3c d43c 7e2f 8fbd b279 a23d 4086 b2bd
00000210: e669 1ebe dfa4 ba3e ce38 11be 3532 dcbc
00000220: f159 fa3d 3fe9 883d 1537 a7bd 9740 12be
00000230: 205b 29be d244 45be dd10 0c3e d4fa 863d
00000240: 66d4 5c3e 9ba8 cebe 76dd ea3d 714c 43be
00000250: 5e5b 06bf 38a7 d23d 2590 98be 1462 203d
00000260: 4e80 67be 59eb 12bf 0b25 3fbe e2e2 a9be
00000270: 926b e23d d066 9f3e c62a c53d d68c 2dbe
00000280: d129 a93c 6541 02bc 23d2 2cbd 5bbf 5fbe
00000290: f082 113f 5ca0 263e f031 ddbd 4649 523e
000002a0: f37f b33c 3ce3 e0bd d24e 11be 818e 2abe
000002b0: 646a f6bd 1dea e83c 27dc 693d 5def 2d3e
000002c0: ba28 10be 20c0 a2bc 031f 073d fc80 60be
000002d0: ed34 bc3c 8f40 cb3d a14e f3bc c909 c5bc
000002e0: 3154 c13d f5fa 47bd b4cf fe3d 2c94 33bd
000002f0: 5041 073e 07e1 70be 441e c4be 0e16 e73e
00000300: a5d4 443e 2d1d 1fbc 6e36 46be 1807 ba3e
00000310: 4d77 d33d 8841 2c3e 627a 63bd 1939 1abe
00000320: 81e1 873e 73ca 203c 9fec a43e e05c 07be
00000330: 6f07 2cbd 6b20 c5be 576e 4fbe d177 523e
00000340: 581b c9bd 8034 e43d e008 d9bd 1b05 02be
00000350: d855 873d 27c1 b93d b5fb 303d c97d 583e
00000360: 78cf 79be ac18 2a3d 9961 f73d 1e85 2abe
00000370: b238 443e b5ba 9abe db25 bcbc 891a 44be
00000380: 7914 21be 7094 f5bd 5bda 9ebd 4f1d 09bc
00000390: 9daf 2f3d 9d4e adbe 20a1 a03c b674 a5bd
000003a0: c426 9cbb 0846 e63d 7561 183e 3a5a fdbe
000003b0: 7a4a 703e b90c 1b3e 536a 3ebe d834 7f3e
000003c0: 13f8 533e d9b1 783d 4ccc ca3d 861d 433e
000003d0: c549 00be ae3e 5f3e 6853 2839 ad89 9cbe
000003e0: 2b17 eb3e 75a9 2b3f 1811 033e b963 043f
000003f0: ace3 1fbe cd6e 1cbe 29ad 8dbd 3fea adbc
0.20401521 -0.27190298 -0.03640109 0.011097681 -0.030329065 0.24638578 0.012128043 0.13148914
0.32548726 -0.09152751 -0.060297586 -0.05576258 -0.13581291 -0.13798688 -0.027812416 -0.25953573
0.1311974 -0.036317553 -0.08824306 -0.40190345 -0.17127521 0.103792265 -0.10761834 -0.047180712
0.11613873 -0.5701753 0.12010837 -0.16462907 0.12934667 -0.19884513 -0.18591844 0.14718544
-0.07600176 -0.025406297 -0.116764106 0.06268797 0.17277192 -0.13846609 0.098858126 0.06549139
0.023067413 -0.11567586 0.17746866 -0.18732399 -0.414685 -0.33791623 -0.08797092 -0.044743586
-0.23983784 -0.065563835 -0.13895816 0.10880761 0.12738147 -0.082415625 -0.08290641 0.114462554
0.020169815 -0.072672024 0.10599962 0.074133284 0.256049 -0.1835957 -0.105080284 0.4310795
0.034181427 -0.17542587 0.06493195 -0.102111585 -0.11039309 -0.110652946 0.07224938 0.3405027
0.039854508 -0.22172508 0.25378904 -0.25559086 -0.13553742 0.22249483 -0.13184534 0.099209644
-0.02559074 -0.05383655 -0.04259398 0.036237 -0.38207522 0.54823244 0.0077454457 -0.15964052
0.024089267 0.19964911 0.1105968 0.24974498 -0.088315725 -0.18750188 -0.19552305 0.13154863
-0.10299002 0.2960205 -0.23904747 0.416726 -0.031353425 -0.15832682 -0.08254526 0.20640285
0.053588547 0.27999127 0.2321621 -0.4114719 0.12069866 -0.12157952 -0.13535392 0.21298529
-0.46986738 0.26346162 0.23767562 0.03639635 -0.26638857 0.16007617 0.38382074 0.20661858
-0.05293519 0.1328242 0.39558727 0.06396514 -0.107559755 -0.2888055 0.22787046 -0.26419678
0.025907753 -0.0699148 0.07933368 -0.087170124 -0.15470085 0.36453912 -0.14181826 -0.02687941
0.12224186 0.06685113 -0.08164803 -0.14282452 -0.16538668 -0.19264534 0.13678308 0.065908104
0.21565399 -0.4036301 0.114680216 -0.19072129 -0.52483165 0.10285801 -0.29797474 0.039156035
-0.22607538 -0.5739036 -0.18666475 -0.3318091 0.11055674 0.31133127 0.09627299 -0.16948256
0.020649822 -0.007950162 -0.04219259 -0.2185034 0.5684042 0.1627211 -0.108005404 0.20535764
0.021911597 -0.109808415 -0.14190224 -0.16655923 -0.12032011 0.028431946 0.05709472 0.16985841
-0.14078036 -0.019867003 0.03298856 -0.21924204 0.022974456 0.09924423 -0.02970058 -0.024052517
0.09439886 -0.048823316 0.1244196 -0.04384248 0.13208508 -0.23523341 -0.3830434 0.45134014
0.19221742 -0.009711546 -0.19356701 0.36333537 0.10325489 0.16821873 -0.055536635 -0.15060844
0.26539233 0.009813893 0.32211778 -0.13219023 -0.041999277 -0.38501295 -0.20256935 0.20553519
-0.098196685 0.11142826 -0.10597396 -0.1269726 0.0660817 0.09070044 0.043208797 0.21141733
-0.2439555 0.041527435 0.12079162 -0.16652343 0.19162253 -0.3022057 -0.02296727 -0.19150747
-0.15730466 -0.11991203 -0.07756492 -0.008368804 0.042892087 -0.3384904 0.01960808 -0.080789015
-0.0047653634 0.11243826 0.14880927 -0.494829 0.2346591 0.15141572 -0.18595247 0.24922502
0.20700102 0.060716484 0.09902248 0.19054231 -0.12528141 0.21801254 0.000160528 -0.30573788
0.45916113 0.67055446 0.1279949 0.51714665 -0.15614194 -0.15276642 -0.06917793 -0.021229861

temporal.rnn.bias_ih_l0 f4 [128]
00000000: 7be2 2a3e a291 a1be a246 f4bd bae1 823e
00000010: 1fd6 5abe bcc7 da3d 151c ce3d c376 c9be
00000020: 0542 883c c441 543d 9bab 6dbe e49a 9bbe
00000030: 7593 abbd ed12 62be 9c79 2fbe 485e 41be
00000040: b1be 293d 8593 0cbe b5de 0abe 10a9 08be
00000050: 27e7 a8be 659b 1abe a290 b53d 92b8 00bf
00000060: a33f 35be 0e77 8b3c 2b4e 27be 7daa f03d
00000070: f175 aebe 2921 1fbe ace0 b53d 6011 b53c
00000080: 80d4 43be fc04 98be 89ec c5bd ac5c 2ebe
00000090: 66fc 8b3c 55f0 253e 72de 24be 6704 06be
000000a0: abd0 d53c 70c5 2a3d 5af8 173e f501 31be
000000b0: 3a27 72bd d8ed 043e 5821 83be dee1 8abd
000000c0: 3c32 823e 2129 19be 2a1c 12bd 941c 5fbe
000000d0: ce79 67bd 8f98 b2be fad7 343e 964e bebe
000000e0: 983e 823d 3493 e63d e91e 78be 2ee7 353e
000000f0: 061e dc3b 65f5 843c c0e8 ce3c 4657 85bd
00000100: 1d20 123e 68d6 60be 89c8 c93e 2198 1bbe
00000110: 6e73 173d 68bc 6a3e 1947 743e 848f 1b3e
00000120: c57d 473e 330b ef3d c9ad 2fbd 5ff3 6c3d
00000130: f2da 1bbd d1a1 c9bd a108 363e e5bc fdbd
00000140: 139d 4c3e eb5c 54be 60b6 c3bd e8d5 0ebe
00000150: 5e26 b0bb 6509 053b 8a28 a5be ec03 d13c
00000160: 269a 6dbd 46ee 83bd 4254 5cbe bbf8 cdbe
00000170: 0800 6d3e ca02 0c3d d814 36be d164 e6bd
00000180: ca59 373e 38cc 9abe 7dd6 2bbe 74f7 debc
00000190: 870d 043d ba0e 6d3d d33c 023e 5e82 1ebe
000001a0: 5716 003d 4ba0 7bbc 5b48 85be c982 bebe
000001b0: 51a3 a1bd d838 2c3e ba61 ff3d de9e 8cbb
000001c0: 4ce4 c93d 9b24 5cbd 91d2 333d 0c05 80be
000001d0: df1b a2be 4b85 1fbd 9625 b3bd 0fb4 c2be
000001e0: 4029 d73c 4e0c b6bd ee1f dcbd b676 073e
000001f0: 7ec5 44be 3ccd 86bd 529c fe3d d4c2 e4bd
0.16687958 -0.31556422 -0.11927535 0.2556284 -0.21370743 0.106826276 0.1006395 -0.3934842
0.016633043 0.05182053 -0.23209994 -0.3039161 -0.083777346 -0.22077532 -0.17136234 -0.18883622
0.041441623 -0.13728149 -0.13561518 -0.13345742 -0.32988855 -0.15098341 0.08865477 -0.5028163
-0.17700057 0.017024543 -0.16338412 0.11751268 -0.34074357 -0.15539993 0.088807434 0.022103012
-0.19124031 -0.29691303 -0.09664256 -0.17027539 0.017088126 0.1620496 -0.16100481 -0.13087617
0.026100477 0.041692197 0.14840832 -0.17285903 -0.05911944 0.12981355 -0.25611377 -0.06781362
0.2542895 -0.14957096 -0.03567139 -0.21788245 -0.056512646 -0.34882018 0.17660514 -0.3716933
0.06359595 0.112585455 -0.24230541 0.1776397 0.0067174463 0.016230294 0.025257468 -0.06510787
0.14270063 -0.2195679 0.3941081 -0.15194751 0.036975317 0.22923434 0.23855247 0.15191466
0.19481571 0.11672058 -0.042890344 0.057849284 -0.0380506 -0.09845317 0.17776729 -0.123895444
0.19981794 -0.2073857 -0.0955627 -0.13948786 -0.0053756675 0.002029979 -0.3225749 0.025514565
-0.058008336 -0.064419314 -0.21516517 -0.4022883 0.23144543 0.034182347 -0.17781389 -0.11249698
0.17905346 -0.30233932 -0.1678104 -0.027217604 0.032239463 0.057875372 0.12718515 -0.15479419
0.031271305 -0.015358041 -0.26031765 -0.37209156 -0.07892478 0.16818559 0.12469812 -0.0042913994
0.09857997 -0.053745847 0.043901984 -0.2500385 -0.3166189 -0.038945477 -0.08747403 -0.38028
0.026264787 -0.08889066 -0.107482776 0.13228878 -0.19215962 -0.06582114 0.124321595 -0.11169973

temporal.rnn.bias_hh_l0 f4 [128]
00000000: 7adc a4bd ade2 45be 0e28 69be 8400 12bd
00000010: 7293 4ebe 965f 2e3d 9582 97bd 47db 8abe
00000020: d0fc 513d 8738 6cbe 3089 093d e689 d1be
00000030: 6cd9 34be e312 e7bd d8dc 1e3d 2e5a ccbe
00000040: e781 723e 85d0 95be f591 d2bd 5da0 e0bd
00000050: 36da 45be e28e 9dbe b782 083d 045a ccbe
00000060: af49 e23d 9fd8 083e 5fa2 c1bd d280 233e
00000070: 91f2 81be 9df5 91be 9674 eb3d 6973 70be
00000080: a5bc 7bbd 92f1 91be a8a1 8b3d 5b08 4dbe
00000090: fa77 3d3e 3a4f 943d 57ba 81bd 1e31 afbb
000000a0: ca9d 273d 503f ffbd f24e 3e3c e721 eabd
000000b0: 661c 813b 377e 0b3d b9d2 8fbd 26fb e13b
000000c0: f321 8d3e 0afd 093e d62a 97bd 2510 d9be
000000d0: 9065 86be c67a 64be e490 e73d fa8b 56be
000000e0: bdb9 dc3d d9cb 9b3d 6c88 9fbd 5c79 38bd
000000f0: ae27 15be b894 16be 9f5a 05be 3632 0b3e
00000100: 5ba4 883d 0110 41bd ee96 863e 3892 5a3b
00000110: bada 863d 3ede 0f3e 058c 1b3e 2246 7b3e
00000120: 4863 463e 285d 4abd 6ca1 aebe 2978 26bd
00000130: 944b b83d a494 43bd 3afa 063e f3b9 093e
00000140: 0d4a 1e3e cc86 933d 5a48 8cbe dd7d c8bd
00000150: 7b07 a83d 2399 fb3d b92c 87be 9ba8 b73d
00000160: 3d39 003e 4ad8 40be 2492 cdbd 6d29 f2bd
00000170: be37 4c3e b18c 643e 45b4 a3be c1cb cebd
00000180: 5fd9 1abd f78b a6be 1a10 b5bc a791 29bc
00000190: 6f26 643e d517 d9bd d3d9 14be 119e f8bd
000001a0: da46 37bc f678 2cbc 1d95 55be af62 64be
000001b0: 3feb a2bd 9d8c cfbd 253c 893d 141d be3d
000001c0: fb92 283e ed90 3cbe 581c 40be bbbe 42bd
000001d0: fb3d 9bbe cc4a 8abe de8e 15be 18c2 01bf
000001e0: 544d babb 33a9 d73b cf8f 81be 867a 173e
000001f0: afb2 30bd 00f6 21be 98ff 4f3e d094 433d
-0.08049865 -0.19324751 -0.22769186 -0.035645023 -0.20173433 0.042571627 -0.073979534 -0.2712042
0.05126649 -0.23068438 0.033578098 -0.4092552 -0.17661065 -0.11282899 0.03878483 -0.39912552
0.23682366 -0.2926065 -0.10281745 -0.10968087 -0.19321522 -0.30773073 0.033327784 -0.39912426
0.1104921 0.13363884 -0.09454798 0.1596711 -0.25380376 -0.285077 0.114968464 -0.23481525
-0.061459202 -0.28504616 0.06817943 -0.20022719 0.18502799 0.07241674 -0.0633437 -0.0053464314
0.040921964 -0.12463248 0.011615502 -0.114322476 0.003940153 0.034055915 -0.07022614 0.0068963943
0.27564964 0.13475433 -0.07381217 -0.4239513 -0.2624936 -0.2231246 0.113069326 -0.20951834
0.10777614 0.0760724 -0.07789692 -0.045037612 -0.14565918 -0.14705169 -0.1302285 0.13593373
0.06671973 -0.047134403 0.26287025 0.0033351313 0.065846875 0.14049622 0.15190132 0.24538472
0.1937381 -0.049405247 -0.3410753 -0.040641937 0.089987904 -0.047749177 0.13181391 0.1344984
0.15457936 0.07203445 -0.2739895 -0.097896315 0.08204552 0.12285068 -0.26401308 0.08967706
0.12521835 -0.18832508 -0.1003764 -0.118243076 0.19943139 0.22319295 -0.31973472 -0.10097457
-0.037804957 -0.3252866 -0.022102404 -0.010349668 0.22280286 -0.10600249 -0.14536218 -0.12139524
-0.011186326 -0.010526886 -0.20857663 -0.2230327 -0.07955026 -0.10134242 0.06700925 0.0928289
0.16462319 -0.1841466 -0.18760812 -0.047545176 -0.30320725 -0.2701019 -0.14605281 -0.5068679
-0.0056854878 0.0065814494 -0.2530503 0.14792833 -0.043139156 -0.15816498 0.20312345 0.04774934

temporal.rnn.weight_ih_l1 f4 [128, 32]
00000000: 2d9a 09bf 05c2 07be e2eb 0b3e 02e2 d23e
00000010: e841 38bf 2414 d1bd a065 0bbf 2441 7e3e
00000020: ab46 67bd 7f01 d6be 08a6 343e d04f de3e
00000030: 574e 663e 60eb cfbc 7b91 a8be b685 27bd
00000040: 435f 06be 9f91 823d b5e5 ad3d 7d7b cd3d
00000050: b2fe f93c c3bb c8be 2b5e 42be 4055 7c3e
00000060: c04f 453e b9b7 a0bc 823c 9f3d 9dc4 193d
00000070: 761d 2abe 2273 953e e854 833e a784 cc3e
00000080: bd41 b4be b5d4 a53e b860 62be b919 ba3e
00000090: ae63 ddbe a8a4 04bf b061 e4be 7c5e 6fbe
000000a0: 8844 ebbe 8904 60bb 429e 0d3d ef4a 9fbd
000000b0: bbbb dd3e 34d1 923e 4170 ccbe 63ea ae3e
000000c0: aec8 2fbf 3e30 093e 17c6 c63e 3711 a93e
000000d0: 216a dd3e d7aa babe 747d 673e c615 56bd
000000e0: 1bd8 af3e 4280 883e 8089 d33e d912 d03e
000000f0: c4ae b8bd 7902 163e 1c52 873e 996b 9c3e
00000100: 9c3f a53d 9157 03bf d883 093e b260 3bbd
00000110: 28b0 553e f607 983d 30f9 3ebe 776d 5dbc
00000120: 9f64 e73d 9b4a 78bc 7b3b f0be b627 cb3e
00000130: 081c c83e 3ed3 3e3d 4d7f 543e 98e2 a7be
00000140: bab4 91bc f207 0fbf 1da4 d5be 8379 a5be
00000150: 9bcf 8f3d 3b26 55bd 8cec 8fbe b4be 9a3c
00000160: 77a7 18be eb80 bfbe 3e5c a5be 3809 d8be
00000170: 3d8f 5c3e fd51 9b3e 0c81 f53d f2e8 acbc
00000180: 991b 1dbe f759 823d 81c4 8c3e 65c3 7d3e
00000190: 9806 16be 34ba 05be ab45 0cbf 38ac 5fbd
000001a0: 6242 7dbe 9a6a c0bc 5f32 77bd c02f f93d
000001b0: 58b0 18be 3da8 8a3e b98b c8be 4321 bb3e
000001c0: f85b 0ebf 68df 8fbd f3cc c93e 77da eb3e
000001d0: d6a0 843e b50a e5be 1a56 c53d 2a94 b83d
000001e0: d403 e43e f06f 28bc ea64 db3d cad7 833e
000001f0: 8590 dabe 69f5 5dbc 483d a53e ba9f 933d
00000200: e302 3abd 224f a7be 406c 77be 7a24 e1be
00000210: e6c7 143f 959e 333e f108 033f 66d1 6c3e
00000220: 78df 3cbe 0d72 05bd 8543 b9bb 85d8 fb3e
00000230: 5204 943d 69aa aebd 544e 93be fbe4 50bf
00000240: fe3d 863e 1ec1 ba3d 48a1 07bd 6371 18bf
00000250: 8301 65be 00cb a7be 302c 8b3e b3fc 3a3f
00000260: e2ae 12be 3610 88be 7eb3 393d a688 e5bd
00000270: f221 9b3e 9683 98bd 9832 95be 545c 353f
00000280: 9129 d7be 7572 bdbe 0119 9abd 7b9b 38be
00000290: 2770 013e 1274 a93e 2de5 923e 68c9 c43e
000002a0: 712f 283e a094 f0be 3a16 a1bb 0ad8 a43e
000002b0: a1e6 31be d934 b4be b5c5 8f3e 1c88 0fbf
000002c0: 2e98 ba3d c470 aebe 1b7f 86be 1a52 30bf
000002d0: e577 69bd 2e81 b83d aabc 26be 38d2 5abe
000002e0: d442 0abe 16cd f0be 3003 38be c8c1 9fbe
000002f0: 55a7 8a3e 5f8b ec3d 66c3 b0be 2209 873e
00000300: 240b 3dbe 9e8b 39be 72b5 6f3b a861 bcbe
00000310: 99c1 793e dcad 313e a6ac 573f 8ef3 d13e
00000320: 992f 923e 73fc 66bd cd7b 0fbe 5d1d 013f
00000330: df1e 04be 33a4 f9be e25e 503d acfa 303e
00000340: a663 b03e d992 07be 4b52 1dbe af8c 96be
00000350: ce4e c0be 2a58 0e3f 42d9 09be 2ce3 343f
00000360: f32f 25bf 90b6 4ebe 23e2 d63d 0fb9 3bbe
00000370: d526 503f dc21 6a3e 3ab3 89bf efea 75be
00000380: 5012 4f3f c1fd d0bc 5a61 a83e d58a 713e
00000390: abc7 4d3f 99cd 1c3d 55a6 ad3d d9e3 1a3f
000003a0: babf 213d 9030 763e 87ea 29bf 8d24 ac3e
000003b0: fdc3 493d 3f79 083e 76ec a23e e241 5e3e
000003c0: 44aa b23d d40a 0fbf d08e a6be ad42 c3be
000003d0: df3d fbbd 7a8a e33d 6b99 c3be 300a 223d
000003e0: 2ce6 29bc 2a47 f8be 961b 95be a36e 0ebe
000003f0: acf2 6a3e 9177 90bd 8fa5 153d 10c5 05bf
-0.5375088 -0.13257606 0.13664201 0.41188055 -0.71975565 -0.1020892 -0.5445194 0.24829537
-0.05646388 -0.41798016 0.17641461 0.43420267 0.22490822 -0.02538079 -0.32923493 -0.040899
-0.13122277 0.06375431 0.08491079 0.10033319 0.030516956 -0.3920575 -0.18981235 0.24641895
0.19268703 -0.019618856 0.07775213 0.03754102 -0.16612801 0.29189402 0.25650716 0.39944956
-0.35206404 0.32388845 -0.22107208 0.3634775 -0.43240112 -0.51813745 -0.4460578 -0.23375887
-0.45950723 -0.003418239 0.034574755 -0.07777964 0.4330729 0.28675234 -0.39929393 0.34163198
-0.6866559 0.13397309 0.38823006 0.33020946 0.43245032 -0.36458465 0.2260645 -0.05226686
0.34344563 0.26660353 0.41315842 0.4063938 -0.09017709 0.1464938 0.26429832 0.3055084
0.08068773 -0.5130549 0.134292 -0.045746513 0.2086798 0.074233934 -0.18649745 -0.013514868
0.11298489 -0.015154506 -0.4692038 0.39678735 0.39083886 0.046588175 0.20751686 -0.32790065
-0.017786372 -0.558715 -0.4172677 -0.3231927 0.070220195 -0.052038413 -0.28110158 0.018889762
-0.14907633 -0.37403044 -0.32296938 -0.42194533 0.21539016 0.3033599 0.11987504 -0.02110717
-0.15342559 0.06364816 0.2749367 0.24781568 -0.14650953 -0.13059312 -0.54793805 -0.0546076
-0.24732354 -0.023488332 -0.060350772 0.12167311 -0.1491102 0.2708148 -0.391691 0.36548814
-0.55609083 -0.07025033 0.39414176 0.46065113 0.25903958 -0.4473473 0.09635563 0.09012635
0.4453417 -0.010280594 0.10712607 0.2575057 -0.42688385 -0.01354728 0.32273316 0.072082
-0.04541291 -0.3267756 -0.24162388 -0.43973142 0.5811752 0.17540963 0.5118552 0.23126754
-0.18444622 -0.03257947 -0.005653801 0.4918863 0.072273865 -0.08528597 -0.28770697 -0.81599396
0.2621917 0.091188654 -0.033112794 -0.59548014 -0.22363858 -0.32772064 0.2718215 0.7304184
-0.14324525 -0.26574868 0.045337193 -0.11207704 0.30299336 -0.07446973 -0.29140162 0.70844007
-0.420239 -0.37001386 -0.075243 -0.18028061 0.12640439 0.33096367 0.28690472 0.3843491
0.16424347 -0.46988392 -0.0049159797 0.32196075 -0.17373134 -0.3519657 0.28080526 -0.5606706
0.09111057 -0.34070408 -0.2626885 -0.6887528 -0.056999106 0.09009014 -0.16282907 -0.21369255
-0.13502055 -0.47031468 -0.17969966 -0.3120253 0.2708079 0.115500204 -0.34524077 0.26374155
-0.18461281 -0.18119666 0.0036576656 -0.36793256 0.24390258 0.17351478 0.84247816 0.4100613
0.2855194 -0.056393098 -0.1401207 0.5043543 -0.12902401 -0.48758087 0.050871737 0.17283124
0.34451026 -0.13239612 -0.15363424 -0.29404208 -0.37560123 0.5560328 -0.13461784 0.70659137
-0.6452629 -0.2018683 0.10492351 -0.18332313 0.8130925 0.22864479 -1.0757821 -0.24015401
0.8088732 -0.025511624 0.32886773 0.23588116 0.80382794 0.03828201 0.08478991 0.6050392
0.039489485 0.24041963 -0.66373485 0.33621636 0.049259175 0.13327502 0.3182103 0.2170482
0.08723882 -0.558759 -0.32530832 -0.38136807 -0.1226766 0.11110397 -0.38202986 0.039560497
-0.010369819 -0.48491794 -0.2912261 -0.13909392 0.22944134 -0.070540555 0.036534842 -0.5225382

temporal.rnn.weight_hh_l1 f4 [128, 32]
00000000: 91c8 673e f513 5d3e f96f ea3d 3a12 223e
00000010: 5a51 fa3d 2797 e2bd 6d4e 433e 62db 1dbe
00000020: b678 b73e ab39 d7be 22b1 183d 923c 9b3d
00000030: f721 9e3e 4f04 0c3e 6263 a33e dccd b03e
00000040: c5d2 1e3e fc75 e4be c552 08bf 6f9f 433e
00000050: 6921 033e 3028 92be 989e 44be 5217 dabe
00000060: 1a47 ed3e eb3b 073e 77ec 4cbe 586e 023f
00000070: 6b7a 613e 7149 313e 70da b8bd ab31 3cbe
00000080: a5cf 203e d22d 713e 55a0 64ba 97be 843e
00000090: 3af3 c33e a229 fabd 6efe 5b3e 665a babd
000000a0: 77f1 c93d a2ee 53be 4022 1c3e c80a 85be
000000b0: a1a8 ba3d 478b 293e d938 38be 7e45 4ebe
000000c0: 2ea8 1e3e d74e 263e 9a42 9bbe 81db 19be
000000d0: 1f78 c13d 43da 543e 4fc3 38be 1c58 a4bd
000000e0: 9602 d93d 95c5 683e 48d9 bcbe f209 f5bd
000000f0: d6b3 5fbe f6d8 92bc 67ba 4a3d bd07 1ebe
00000100: db3e 22bc b7ab 933e ea76 a7bd 541c 30be
00000110: d0b4 963d f02a 0bbd 0f2c 40be b959 e93d
00000120: 3b10 6abe 75fc be3d cf2f 2f3f 9b01 0ebe
00000130: c541 4cbe db4f 9abc bdea 443e 5244 0ebe
00000140: 2223 993e 69f0 853e 43e1 dfbc 4ed5 243e
00000150: a140 afbe 5067 bcbe 4a03 a03e 0148 043e
00000160: 2bf1 e9bb a6c8 0b3e 06ec a2be 9746 3abe
00000170: 437b 9e3e 5646 173d aff5 11bd e853 353e
00000180: dac2 0cbf b762 5dbe e7f8 1c3d bd8e be3e
00000190: 6e4a c33e 7255 8cbe c540 8b3d efdf 083e
000001a0: 47f5 77be 55b0 393e d1f8 2dbe 1494 0a3d
000001b0: ebe2 bfbe 1100 49be 7116 cebe d0de b3bd
000001c0: 93fe 5dbd 827e 243e 4b8a ae3c a7d9 e7be
000001d0: 0f96 413e d0c9 c4bd 6d3a 0c3e 93a0 b3be
000001e0: b045 92be 3a85 d73d 505e 543e 9e35 643d
000001f0: 548c 64be bd3e ddbc b164 ec3d 16a4 8bbd
00000200: b1f2 363d 8736 bcbe a60e 99be 9e3e 233e
00000210: ad39 70bc 3172 e1be 643e 113e deac a33e
00000220: c492 273e 4b28 073e 3714 0f3d b6e3 3dbc
00000230: 2729 653d a01d a9bd 79f2 f33e 27de a8bd
00000240: fb06 263e a03a e03e d4c7 1cbd 4c6b e4bd
00000250: 1112 953e a688 05bf db02 6b3e db77 023f
00000260: e15d aa3e 41fc 5cbe ac73 dc3e b23f 50bd
00000270: 6a5a 3bbd d016 0dbf c53d b33e 8df3 983d
00000280: 9c6c a0be f44d 2cbb 694b 12bf b6fd 7ebd
00000290: 0d8e 57be ba6f c83e 8617 e8be f842 0a3f
000002a0: 917c 1cbf c835 983e 8ce3 003e 2ffd 6ebe
000002b0: 7f2a 0dbf 4df7 d9be 63b7 a03e 75ca 0ebf
000002c0: 2fc7 073f 3ae8 df3e f153 803d ff43 79be
000002d0: 741e 23be 3010 a5be c8dc f93e bbf8 f93d
000002e0: a3d1 143e c215 1c3c 4d79 8b3d 3473 1bbf
000002f0: 79b8 9dbe 0f18 ce3e 0360 6ebe ea44 b83e
00000300: aaa6 1cbe f06f 41be 9f14 49be f508 95be
00000310: 33f3 5f3e 8f18 fb3e 732e cd3e 2a9f fd3e
00000320: 709f 34be 9569 723e 4bab c8be 0535 8c3e
00000330: 4dd9 18bd f3de e43d 1cbe f73d 6aca 5e3d
00000340: f5ad 0cbd 9ee9 a4bd 7682 513e 3ccf 693d
00000350: 151d 483e 62ac 903d 3465 28bf f7be edbd
00000360: 9311 d83e 7c8f d4be 2bb1 923e dfa2 f5bd
00000370: 32a5 01be a758 223f 8789 6abc 2a6f 86b9
00000380: 4fee 9dbe 6ed9 d3bc e5d8 1bbe 8e16 89be
00000390: c6e0 a13e ed9d e3be a09d 2abf 7474 753e
000003a0: 9b20 b3be a665 223f 500e 613e af00 873e
000003b0: 0af7 15bf 42bf 80be f396 303e 0b38 f0bd
000003c0: b68e 143f 5337 2c3f 6fef 913e 9463 6e3c
000003d0: 8a7a 2d3e f163 3fbe c68f e03e 6180 a73d
000003e0: 45b1 49be bce2 13be ba32 a93e a804 31bf
000003f0: 0312 a43c 2336 09bf 6d7b f63e a0ed 463f
0.22635104 0.21589644 0.11447138 0.15827265 0.12222548 -0.11063986 0.19072886 -0.15415719
0.35834283 -0.42036185 0.037278302 0.07579912 0.30885288 0.13673519 0.3191176 0.34532058
0.1551009 -0.44621265 -0.53251296 0.19103788 0.12805714 -0.28546286 -0.19201124 -0.42595917
0.4634331 0.1320645 -0.20012079 0.5094962 0.22019355 0.17313172 -0.09026039 -0.18378322
0.1570421 0.23552635 -0.0008721401 0.2592666 0.38271505 -0.12214972 0.21483776 -0.090992734
0.09860509 -0.206965 0.1524744 -0.25984788 0.09114195 0.16557036 -0.17990436 -0.20143697
0.15493843 0.16241013 -0.3032425 -0.1502514 0.094467394 0.20786385 -0.18043254 -0.08024618
0.10596196 0.22731622 -0.36884522 -0.119647875 -0.21845946 -0.01792572 0.049494173 -0.1543264
-0.009902681 0.28841946 -0.08176978 -0.17198306 0.07358706 -0.033976495 -0.18766807 0.11394066
-0.22857754 0.09325496 0.68432325 -0.138678 -0.19946964 -0.018836906 0.1923017 -0.1389325
0.29909617 0.2615998 -0.027329093 0.16096994 -0.34228995 -0.3679757 0.3125251 0.12918092
-0.007139345 0.1365076 -0.31820697 -0.1819099 0.30953416 0.036932312 -0.035634693 0.17707789
-0.5498482 -0.21619688 0.03832331 0.37218276 0.38142723 -0.2740894 0.06799463 0.13366674
-0.2421466 0.18133672 -0.16989447 0.033832625 -0.37477812 -0.19628932 -0.40251496 -0.087827325
-0.05419786 0.16063884 0.021306178 -0.45283243 0.18904899 -0.09608805 0.13694163 -0.35083446
-0.28568792 0.10523458 0.20739102 0.055715196 -0.22319156 -0.027007455 0.11542643 -0.06818406
0.044665042 -0.3676035 -0.29893988 0.15941855 -0.0146621885 -0.44032434 0.14183956 0.31967825
0.1636458 0.13198964 0.034931388 -0.011589935 0.05594745 -0.08257604 0.4764593 -0.08245497
0.162136 0.43794727 -0.03827651 -0.11153278 0.29115346 -0.52161634 0.22950308 0.50964135
0.3327475 -0.21580602 0.43057 -0.050841995 -0.045740522 -0.55112934 0.35008064 0.074683286
-0.31332862 -0.002629158 -0.57146317 -0.062253676 -0.21050282 0.3914774 -0.45330447 0.54008436
-0.61127573 0.29728532 0.12586802 -0.2333877 -0.5514297 -0.42571488 0.31389913 -0.55777675
0.53038305 0.43731862 0.062660106 -0.24342345 -0.15929586 -0.32238913 0.48801255 0.12205645
0.14533095 0.009526672 0.06810246 -0.6072266 -0.30804804 0.4025273 -0.23278813 0.35990077
-0.15297952 -0.18890357 -0.19636773 -0.29108396 0.21870117 0.49042174 0.400745 0.49535495
-0.17638946 0.23673089 -0.39193186 0.273842 -0.03731661 0.11175337 0.12096807 0.054392256
-0.034345586 -0.080523714 0.20459923 0.0570824 0.19542344 0.070641294 -0.65779424 -0.11608689
0.42200908 -0.4151572 0.28650793 -0.11993956 -0.12660673 0.6341652 -0.014315016 -0.00025641295
-0.30845878 -0.025860514 -0.15219457 -0.2677502 0.316168 -0.44456425 -0.66646767 0.23970205
-0.34985813 0.63436353 0.21978116 0.2636771 -0.58580077 -0.25145918 0.17245083 -0.11729439
0.5803026 0.6727192 0.28502986 0.014550108 0.16941276 -0.18690468 0.4385969 0.08178783
-0.19696529 -0.14441961 0.33046514 -0.6914773 0.02002812 -0.5359823 0.4814104 0.77706337

temporal.rnn.bias_ih_l1 f4 [128]
00000000: 35e7 183e 0384 51be 6beb 883d 7363 d7be
00000010: 0c1f 00be c05e b4be 34c1 9b3c d9c1 26bd
00000020: 58cd 1bbd bd0b e33c dacd cbbd aa76 7abe
00000030: 3b8b 81bc 5507 3ebe 6707 4b3d 5459 38be
00000040: df09 3abe 156d 673e 4c68 6bbe 1e75 0e3f
00000050: 1e95 9cbd 48cc 7b3d 27b3 f3bd 88a0 13be
00000060: 895f 15bc 2501 3cbe b2e3 41be 0187 543e
00000070: 0778 f5be 851d 55be 3547 b2bd 1749 bc3d
00000080: 2f74 36be 6bd3 e0bd 8d04 0dbd 0762 bcbe
00000090: 48f2 cabc c607 0b3f 6ffa b03e 21a5 913e
000000a0: be55 b53e f101 e33e b838 1abe ef65 91be
000000b0: ed7a 643d 0bf8 6cbb 1b33 003f 7e7d 6cbd
000000c0: 7be0 98bd 90bd a63e 3c1f d1bd ac0e 343f
000000d0: a271 e23d fb42 8abd 58cf fb3d 5444 1b3f
000000e0: e5df b93c 0f45 c3be dca0 78be e84c 4b3e
000000f0: 5e2f 09bf bbeb b23e de2f 9bbd 0ef5 503e
00000100: 5741 c73e 4273 cb3e 5a45 ab3e d28d 41be
00000110: b549 153e 6aa8 043e 3358 97bd dd11 0dbe
00000120: 851a 9c3e ed75 92be 81e3 47bd 4fbc 4c3e
00000130: c9ca 863e 17d7 ba3d 675d 453e 4946 4cbd
00000140: 6c01 54be c1bd e1ba c08d 85bd e9c5 253f
00000150: 80f3 18be 9077 063f 5b63 2f3e 44fa e0bd
00000160: d831 65bd 4aa4 d3bd 7c91 19be 290c 4d3e
00000170: bc54 b63e 71a1 9c3d 37d1 d13d 5bd4 9bbe
00000180: cbdf c3be 60a1 e5be c139 00bc 8f6d 01bf
00000190: f9be 4c3e bd65 243e f8b5 0e3f 42cf 683e
000001a0: 8195 003f 9e2a 6e3e f922 34be 20d0 20be
000001b0: 77a3 253d eb9c 7cbd e7ca 4d3d 306d 20be
000001c0: bdea 35bc f12d 903e 0741 d0be 8a0c da3d
000001d0: 2901 4cbe 2498 363e 5cf3 85be ca0f b43d
000001e0: 8b3b 523d b393 2ebe 50bb c8be ea73 f63c
000001f0: 4bb1 10bf e892 a63e c024 0bbe 5e93 533e
0.14931948 -0.20460515 0.066855274 -0.4206806 -0.12511843 -0.3522854 0.019013025 -0.04071221
-0.038037628 0.027715558 -0.099513724 -0.24459329 -0.01581346 -0.18557484 0.049567606 -0.18002826
-0.18167828 0.22600205 -0.22989005 0.55647457 -0.07645629 0.061474115 -0.11899405 -0.14416707
-0.009117016 -0.18359812 -0.18934515 0.20754625 -0.47943136 -0.20812042 -0.08704988 0.09193628
-0.17817758 -0.10977825 -0.034428168 -0.3679354 -0.024773732 0.54308736 0.34566066 0.28446296
0.3541698 0.4433742 -0.15060699 -0.28398082 0.055781294 -0.0036158587 0.5007798 -0.057736866
-0.07464691 0.325665 -0.102110356 0.7033489 0.1105683 -0.06751057 0.12295407 0.60651135
0.022689769 -0.38138625 -0.24280113 0.19853556 -0.535879 0.34945473 -0.07577489 0.20405981
0.38917038 0.39736372 0.3345135 -0.18901756 0.14578898 0.1295487 -0.073898695 -0.13776346
0.30488983 -0.28605595 -0.04880095 0.19993709 0.26326588 0.091230564 0.19273911 -0.049871717
-0.20703667 -0.0017222689 -0.06521177 0.6475511 -0.14936638 0.5252619 0.17127745 -0.109852344
-0.055955738 -0.1033407 -0.14996904 0.2002417 0.35611522 0.0764798 0.10244983 -0.30435452
-0.38256678 -0.44849682 -0.00782627 -0.505578 0.19994725 0.16054435 0.5574641 0.22735313
0.50228125 0.23258445 -0.17591466 -0.15704393 0.040439095 -0.061673086 0.05024233 -0.15666652
-0.011103329 0.2816005 -0.40674612 0.10646923 -0.19922318 0.17831475 -0.2616223 0.08792074
0.051326316 -0.1704853 -0.39205408 0.030084569 -0.5652053 0.32533956 -0.13588238 0.20661685

temporal.rnn.bias_hh_l1 f4 [128]
00000000: 7c58 f5bc 3d6a 64bc 7eed fc3d 12a4 1dbe
00000010: a6df 9abd 35cc a6be 4baa 573c 0b04 8cbe
00000020: 22d2 733d 8be4 6d3d 45fb 30be e272 0ebe
00000030: 4e11 d43c 6287 d5be 3a0f 843d eff1 57be
00000040: 5bfb 7cbe 6cd6 263e 9409 4bbe 76b9 023f
00000050: 1918 80be a39a d5bd 6370 58be 1bc2 6cbe
00000060: 1c1e bfbc d8f1 5dbe b068 00bf ef86 523e
00000070: 8eb2 f0be f6a3 cebd bbbe c2bd 25d0 bc3d
00000080: 0b74 a6bd 3e60 82bd efef 113c fbed 34be
00000090: 9058 e7bc 9663 8e3e 5860 e83d ae02 af3d
000000a0: 1f2a d13e 45d1 f33e bc3d f5bd 55b5 c8bd
000000b0: c459 4abe 3394 fe3b 7202 fa3e c0df 973d
000000c0: 50dd 89be 0079 d33d 1e15 1f3e 7c96 1c3f
000000d0: 8c77 903d 12ac 9fbe 9868 bbbd abad e43e
000000e0: 7d9c 3d3e 4df7 84be fa9b dfbe 66c1 e63e
000000f0: bd9d 05bf b213 c73e 8b57 80be fdd1 f2bc
00000100: ddc4 513e b737 763e f65a 2e3d 1aad 193d
00000110: fb9b 75bc 65ee 52bd 21b7 243e 0496 20be
00000120: 8c76 663e 464f f8be 1235 103d bec1 a3bd
00000130: a770 c13e cd3d 2bbe 478f 34bd 1cad e33d
00000140: 2701 83be b840 6dbe 49ca 04be 37b6 353f
00000150: 9cb9 4fbe 24a8 dc3e c6ac 24be f125 9b3c
00000160: 1a09 963d 3708 ea3c 0671 cdbd 932c 033e
00000170: 07a8 a83e 92f2 b33c dd58 a0bd e5c0 93be
00000180: 50f7 cbbe 4edc c8be fe7b 483d 860e 0abf
00000190: 456f b13c 8151 c43e 2027 ff3e ae10 5b3e
000001a0: 2b5b 013f 5d5c 983e 2bd3 9abe 1f47 ebbd
000001b0: 2811 1bbe c5ea 94bd 8ec8 25bd 6fff 883d
000001c0: 5aa9 033c fa4c fd3d ebb0 92be f3aa 7f3e
000001d0: acff 39bd 26a7 95bd 4d64 abbe 2b05 f5bd
000001e0: 0586 203d 2c75 d7be 39b0 89be 1d1d 8d3e
000001f0: 2b50 cfbe eb35 1c3c 2cde a2bd 8bbe ea3e
-0.02994942 -0.013941345 0.123499855 -0.15394619 -0.07562189 -0.32577673 0.01316316 -0.27346835
0.05952657 0.058079284 -0.17283352 -0.13911012 0.025887158 -0.4170485 0.06448217 -0.21088384
-0.2470526 0.16292733 -0.19827873 0.5106424 -0.25018385 -0.10429885 -0.21136622 -0.2312092
-0.023329787 -0.21674287 -0.5015974 0.20559286 -0.47011226 -0.10089867 -0.09509035 0.09219388
-0.08127602 -0.06366013 0.008907302 -0.17668907 -0.028240472 0.27810353 0.11346501 0.08545433
0.40852448 0.47620597 -0.119746655 -0.09800211 -0.19760805 0.0077691316 0.4882999 0.07415724
-0.2692666 0.10325813 0.155354 0.6116712 0.07054052 -0.31185967 -0.09150809 0.44663748
0.18516727 -0.25969926 -0.43673688 0.45069426 -0.52193815 0.38882214 -0.2506679 -0.029641146
0.20485254 0.24044691 0.042567216 0.0375186 -0.014990802 -0.051496882 0.16085483 -0.15682226
0.2250616 -0.4849798 0.03520686 -0.07995938 0.3778126 -0.16722794 -0.044081952 0.11117002
-0.25586817 -0.2316922 -0.1296779 0.7098116 -0.20285648 0.4309703 -0.16081533 0.01893899
0.07325955 0.02856837 -0.10031323 0.12809972 0.32940695 0.021966252 -0.07829449 -0.28858104
-0.39837122 -0.3923058 0.048946373 -0.5392841 0.021659503 0.38343433 0.49834538 0.21393082
0.50529736 0.29757968 -0.30239233 -0.11488175 -0.15143263 -0.07271341 -0.040474467 0.06689345
0.008035982 0.12368198 -0.28650603 0.24967556 -0.045409843 -0.07307272 -0.3347496 -0.11963876
0.03919031 -0.42081583 -0.2689226 0.27561274 -0.4049085 0.009534339 -0.07952532 0.45848498
