notebook/output/rolling_models_dynamic/window_6.pth (torch, 479861 bytes, 99 tensors)

temporal.input_proj.weight f4 [32, 7]
0	0x3e1c216b	0.15247123
1	0x4041b713	3.026799
2	0x402d44c1	2.7073214
3	0xbe834c35	-0.2564408
4	0x3dc3591a	0.09538479
5	0xbe5b05bc	-0.21388906
6	0x3c002e43	0.00782353
7	0x3f956f23	1.1674541
8	0x4057faab	3.3746746
9	0x4047fa19	3.1246397
10	0xbe8e3cb2	-0.27780682
11	0xbde002fb	-0.109380685
12	0xbc3fbf13	-0.0117032705
13	0xba143391	-0.0005653436
14	0x3f8bbe6f	1.0917491
15	0x3f0055da	0.50131
16	0xbf3774ec	-0.71662784
17	0xbe1f44b7	-0.15553556
18	0x3ead57be	0.33856004
19	0xbd9664cc	-0.07343444
20	0x3ed2b3b0	0.41152716
21	0x403b69a1	2.928322
22	0x4054f331	3.3273432
23	0x4016f25b	2.3585422
24	0xbeae6903	-0.34064493
25	0xbdb39a2c	-0.0876964
26	0xbc0a7e2e	-0.008452935
27	0xbcec5af7	-0.02885197
28	0x3fa43fa6	1.2831924
29	0x3f1406db	0.5782296
30	0x3f47e34b	0.78081197
31	0x3e5026d0	0.20327306
32	0xbe302419	-0.1720127
33	0x3e2e8647	0.1704341
34	0xbe590610	-0.21193719
35	0xbf3395b6	-0.70150316
36	0x3fcff51c	1.6246676
37	0x401774f1	2.3665125
38	0x3ebcfb87	0.3691065
39	0xbe7781ff	-0.24170683
40	0xbbb89946	-0.005633506
41	0xbe3546fd	-0.17702861
42	0xc0387e27	-2.8826997
43	0xbf7a391e	-0.97743404
44	0xbf615cff	-0.88032526
45	0x3e5c8a1a	0.21537057
46	0xbc72f866	-0.014829731
47	0xbc3b59e0	-0.011435002
48	0xbea7d4b8	-0.3277948
49	0xc0343510	-2.8157387
50	0xbe7c68f0	-0.24649405
51	0x3f876572	1.0577834
52	0xbd83082e	-0.063980445
53	0x3bbd178b	0.005770629
54	0xbe2abde1	-0.16673996
55	0xbe9c6cb0	-0.30551672
56	0xc09e308d	-4.9434266
57	0xc0088308	-2.1329975
58	0xbfd26050	-1.6435642
59	0xbe2c19d7	-0.16806732
60	0x3d9d5b11	0.07683385
61	0xbeed7c57	-0.46383926
62	0x3cae5dac	0.0212849
63	0x3f03d81d	0.5150164
64	0xbe6b0648	-0.22951615
65	0xbe9074aa	-0.28214008
66	0xbebbd07d	-0.366825
67	0x3c59c696	0.0132919755
68	0xbe65c7fe	-0.22439572
69	0x3eab57d1	0.33465436
70	0x3d033dfa	0.032041527
71	0x4026e4e5	2.6077206
72	0x40129856	2.2905478
73	0x3e6d16cc	0.23153228
74	0x3d985263	0.07437589
75	0xbe710b7b	-0.23539536
76	0xbc61fca5	-0.013793145
77	0xbea7a3e6	-0.32742232
78	0xc0243a4f	-2.5660589
79	0xbfc15024	-1.5102582
80	0xbe80331f	-0.25039002
81	0xbd1c5d29	-0.038174782
82	0x3e3d421e	0.18482253
83	0xbd955b69	-0.07292826
84	0xbfbbb934	-1.4665895
85	0xc04e9dee	-3.2283893
86	0xc036f33a	-2.8585954
87	0xbdfd8ea6	-0.12380724
88	0xbe7841a3	-0.24243788
89	0x3e9aa2c1	0.30202296
90	0xbc887403	-0.016656881
91	0x3f08b669	0.53403336
92	0xc001c8e7	-2.027887
93	0xc007fba9	-2.124735
94	0xbd878bed	-0.066184856
95	0xbead3ebe	-0.3383693
96	0x3ee01161	0.4376326
97	0xbd8eebb9	-0.06978554
98	0xc075fa77	-3.8434122
99	0xc041292b	-3.0181377
100	0xc0363be0	-2.8474045
101	0x3dc61454	0.09671846
102	0xbd877f06	-0.06616025
103	0x3a802ab4	0.0009778352
104	0xbc80ee0a	-0.015738506
105	0xc034c128	-2.8242893
106	0xc0444148	-3.0664845
107	0xc02708f4	-2.6099215
108	0xbdf281cc	-0.11841163
109	0x3d3b2dbf	0.045697924
110	0x3dfa009f	0.1220715
111	0xbccf15c6	-0.025278937
112	0x400adba0	2.1696548
113	0x3edc195c	0.42988098
114	0x3f33a492	0.7017299
115	0x3c1edc08	0.009696014
116	0xbd9f369f	-0.0777409
117	0x3bef0143	0.0072938516
118	0xbec68b9e	-0.38778394
119	0xbdcb4b4c	-0.09926471
120	0x3ee1fd7f	0.44138715
121	0x3f2dc91c	0.67884994
122	0xbeb31850	-0.34979486
123	0xbe82d31c	-0.2555169
124	0xbe8d2213	-0.2756506
125	0x3e4b5399	0.19856109
126	0x3f28537e	0.657524
127	0xc032e380	-2.7951355
128	0xc0001b69	-2.001673
129	0x3e19bc3c	0.15013212
130	0xbe28f8f8	-0.16501224
131	0x3e59acc1	0.21257307
132	0xbd94f5c7	-0.07273441
133	0x3f8f3610	1.1188374
134	0x40329985	2.79062
135	0x4014c312	2.3244061
136	0xbe83b726	-0.2572567
137	0xbe3d58be	-0.18490884
138	0x3d032b50	0.032023728
139	0x3d4664f2	0.048436113
140	0x3ec5c6f3	0.3862835
141	0xc008d659	-2.1380827
142	0xc01a9ac8	-2.415697
143	0x3bcd2d58	0.006261509
144	0xbd765503	-0.060139667
145	0x3d8de114	0.06927696
146	0xbd082832	-0.03324146
147	0x3fe45a71	1.78401
148	0xbfc89ec1	-1.5673448
149	0xbf931d12	-1.1493247
150	0xbae9a29c	-0.0017824951
151	0xbd9f47be	-0.077773556
152	0x3e5b042a	0.21388307
153	0xbd911601	-0.07084275
154	0x3ec61594	0.38688338
155	0x40209de1	2.5096362
156	0x400ca832	2.1977658
157	0x3dd7b7ae	0.10533081
158	0xbda3e6b5	-0.08002988
159	0xbe1348b6	-0.14383206
160	0x3bd0b590	0.0063693
161	0xbf6dc1ee	-0.9287404
162	0xc01d4f7c	-2.4579763
163	0xbffa8eae	-1.9574792
164	0xbe0ba7c1	-0.13638212
165	0x3e0f3b6a	0.13987508
166	0x3db357ce	0.08756982
167	0xbd0ff186	-0.035142444
168	0xc0158669	-2.3363287
169	0xbf4ddc0e	-0.804139
170	0xbfe121d4	-1.7588449
171	0xbd663a69	-0.056208048
172	0x3eccbc45	0.39987388
173	0x3e93f5dc	0.28898513
174	0xbdf06c03	-0.117393516
175	0xbf7c9f59	-0.98680645
176	0x40107965	2.2574093
177	0x3fac20e8	1.3447542
178	0x3e86340e	0.2621159
179	0x3d97f1ae	0.074191436
180	0xbe57259a	-0.21010438
181	0x3b521184	0.0032053897
182	0xbf5cae07	-0.86203045
183	0xc011f006	-2.2802749
184	0xc01390b7	-2.3057077
185	0x3e3def9b	0.18548433
186	0xbe8bc70f	-0.27300307
187	0x3eac4585	0.3364679
188	0xbd2158fb	-0.0393915
189	0x3faf4ad6	1.3694713
190	0xbf26a24c	-0.65091395
191	0xbf2e97d7	-0.6820044
192	0x3cbb18fb	0.02283906
193	0x3ebcff92	0.36913735
194	0x3cc46d71	0.023977967
195	0xbce17441	-0.027521254
196	0x40196f40	2.3974152
197	0x40476414	3.1154833
198	0x401d863d	2.4613183
199	0x3e48f49a	0.19624558
200	0x3d5e4249	0.054262433
201	0xbe2931e7	-0.16522942
202	0xbcd7e9a9	-0.026356535
203	0xc05206f9	-3.2816756
204	0xbf0b554a	-0.54427016
205	0x3f17ce73	0.5929939
206	0x3dc15458	0.094399154
207	0x3d5eb16c	0.05436842
208	0xbeaf8b28	-0.34285855
209	0x3e160d53	0.1465352
210	0x40377240	2.8663483
211	0x3fb0fda9	1.3827411
212	0x3f56e5f5	0.83944637
213	0x3e37ca51	0.17948271
214	0xbda3ac1f	-0.07991814
215	0x3d634426	0.055484913
216	0xbdd6f51e	-0.10495971
217	0x3fa18967	1.2620057
218	0xbed92842	-0.42413527
219	0xbf1dea06	-0.61685216
220	0x3e5aeff3	0.21380596
221	0xbef94a3e	-0.48689455
222	0x3e935d97	0.2878234
223	0x3e2c0bdf	0.16801403

temporal.input_proj.bias f4 [32]
0	0x3db8aef0	0.09017742
1	0x3dcfb95e	0.10142778
2	0xbeaf10bf	-0.34192464
3	0x3d8b1494	0.06791034
4	0xbf61eb1e	-0.88249385
5	0x3ea790fb	0.327278
6	0x3e71583a	0.23568812
7	0x3f38f461	0.7224789
8	0xbe9522ec	-0.29128206
9	0x3c3d2749	0.011545011
10	0x3d9e5365	0.0773075
11	0xbd941681	-0.07230855
12	0xbe27887c	-0.16360658
13	0xbe957805	-0.2919313
14	0xbed0d206	-0.40785235
15	0xbe8f1d6a	-0.2795213
16	0xbed3cfcd	-0.41369477
17	0x3ef9f41e	0.4881906
18	0xbe701789	-0.23446478
19	0x3ec0bdfc	0.37644947
20	0x3bcc84a5	0.0062413984
21	0xbec296ba	-0.3800562
22	0x3ed4648d	0.41482964
23	0x3d3681c9	0.044557367
24	0x3f2e7dc2	0.6816064
25	0xbe15a5e5	-0.14614065
26	0x3d241480	0.040058613
27	0xbf334215	-0.7002271
28	0x3b71af60	0.0036878213
29	0x3f09c979	0.5382305
30	0xbf24c542	-0.6436349
31	0xbeabbde2	-0.33543307

temporal.layer_norm.weight f4 [32]
0	0x3f9a36c0	1.2047958
1	0x3fb226e6	1.3918121
2	0x3f688b4f	0.9083757
3	0x3fecabc4	1.8489919
4	0x3f29502b	0.6613795
5	0x3f4b5328	0.7942376
6	0x3ed18fd5	0.40930048
7	0x3f63aae7	0.8893265
8	0x3f93001d	1.148441
9	0x3eab0696	0.33403462
10	0x3f86580c	1.049562
11	0x3f8ed543	1.1158832
12	0x3fa8d113	1.3188804
13	0x3fa9d4f8	1.3268118
14	0x3fd10401	1.6329347
15	0x3fa4f046	1.2885826
16	0x3f64c506	0.89363134
17	0x3efcecdf	0.49399468
18	0x3f9387af	1.1525782
19	0x3f92dc02	1.1473391
20	0x3f825850	1.0183201
21	0x3fb9666c	1.4484382
22	0x3f8da0eb	1.1064733
23	0x3f38befe	0.7216643
24	0x3ee81c49	0.4533408
25	0x3fa4c6fd	1.2873226
26	0x3f9e02d4	1.2344613
27	0x3f562deb	0.83663815
28	0x3fd85d14	1.6903405
29	0x3f8928c2	1.0715563
30	0x3f5cbed1	0.8622866
31	0x3f1586be	0.58408725

temporal.layer_norm.bias f4 [32]
0	0xbd9f04a0	-0.07764554
1	0xbe97b163	-0.29627523
2	0x3f178f95	0.59203464
3	0xbd88eb4b	-0.066855036
4	0x3ed45f37	0.41478893
5	0xbef76a50	-0.48323298
6	0xbea06aea	-0.3133157
7	0xbf0dde04	-0.55416894
8	0xbed177dd	-0.4091176
9	0x3e936745	0.28789726
10	0xbe139706	-0.1441308
11	0xbea44d30	-0.3209014
12	0x3d4896b5	0.04897185
13	0xbe8ece8d	-0.2789196
14	0x3bc469a8	0.0059940405
15	0xbde2557d	-0.11051462
16	0x3e262d94	0.16228324
17	0x3ecb0fd0	0.396605
18	0x3d1a18bd	0.03762125
19	0xbeadc6a6	-0.3394062
20	0x3eb01f2a	0.34398776
21	0xbdbad1ec	-0.09122071
22	0x3e2af619	0.16695441
23	0x3d8764d6	0.0661103
24	0xbf60133a	-0.8752934
25	0x3e4ece87	0.20195971
26	0x3e5aedd4	0.21379787
27	0xbe8a2929	-0.26984528
28	0x3c81378b	0.015773555
29	0xbea63560	-0.32462597
30	0x3ecd3d79	0.40085962
31	0x3f34fe83	0.70700854

temporal.rnn.weight_ih_l0 f4 [128, 7]
0	0xbec2623d	-0.37965575
1	0xbf0061a3	-0.5014898
2	0xbe57ff6a	-0.21093526
3	0xbe877c60	-0.26462078
4	0xbeac203a	-0.33618337
5	0xbed19a12	-0.4093786
6	0xbdf51856	-0.11967532
7	0xbf2ded3c	-0.67940116
8	0xbf1562c1	-0.5835381
9	0xbf11a8cf	-0.56898206
10	0xbf0c64ce	-0.54841316
11	0xbcc5b8a1	-0.02413589
12	0xbe235eec	-0.15954179
13	0x3e9010b1	0.28137735
14	0xbf21169c	-0.62925124
15	0xbf20fe84	-0.6288836
16	0xbf10f2a2	-0.5662023
17	0xbedd4026	-0.43213004
18	0xbf0bcd37	-0.5461001
19	0xbf1d6de0	-0.6149578
20	0x3dd0103c	0.101593465
21	0x3e5850c0	0.21124554
22	0x3e414101	0.18872453
23	0x3dce0779	0.10060019
24	0x3b183ad0	0.0023228414
25	0x3ed5eb86	0.41781253
26	0x3e3f9d18	0.1871227
27	0xbe40530c	-0.1878168
28	0x3e87cd8d	0.2652401
29	0x3e166af8	0.14689243
30	0x3e332e02	0.1749802
31	0x3ddba206	0.10724263
32	0x3e431313	0.19050245
33	0x3e9c4c58	0.30526996
34	0x3da6aaf6	0.08138077
35	0xbfd36d8e	-1.6517808
36	0xbff05827	-1.8776902
37	0xbfa899aa	-1.3171895
38	0xbfd4cfe3	-1.6625942
39	0xbdb2c2c3	-0.08728554
40	0xbe4cb40a	-0.19990554
41	0xbe83b4fb	-0.25724015
42	0x3d11e256	0.03561624
43	0xbe29cd33	-0.16582184
44	0xbdf146e6	-0.11781101
45	0xbdd8ede1	-0.10592247
46	0xbd410b49	-0.047129903
47	0x3ddea8e6	0.108720586
48	0xbf0af3c7	-0.54278225
49	0x3e67e151	0.22644545
50	0x3e8e0a32	0.27742153
51	0x3de593e6	0.1120985
52	0x3e82ef59	0.25573233
53	0xbee8442c	-0.4536451
54	0xbed02d3d	-0.40659514
55	0x3e8b4ec5	0.27208534
56	0xbf547cb3	-0.83002776
57	0xbf82b94f	-1.0212802
58	0xbf3d1303	-0.73857135
59	0xbf879311	-1.0591756
60	0xbe9e8f5e	-0.30968755
61	0xbe7a5fd4	-0.24450618
62	0x3def7dd0	0.11693919
63	0xbf059cf3	-0.5219261
64	0xbefa50f8	-0.488899
65	0xbf080184	-0.5312731
66	0xbf3b3a33	-0.7313568
67	0xbe83ef3f	-0.25768468
68	0xbeb2d869	-0.34930733
69	0xbd4c8858	-0.049934715
70	0xbf3861bb	-0.72024125
71	0xbf339f54	-0.7016499
72	0xbf4b0f10	-0.7931986
73	0xbf45e492	-0.77301896
74	0xbf03caed	-0.51481515
75	0xbec19f7d	-0.37816992
76	0xbe31f745	-0.17379482
77	0xbf098525	-0.5371879
78	0xbea2efcf	-0.31823584
79	0xbe8b88be	-0.27252764
80	0xbeccda86	-0.4001047
81	0xbed700b9	-0.4199274
82	0xbed6bf46	-0.41942805
83	0x3eb291e2	0.34876925
84	0x3ef5746c	0.47940385
85	0x3e5b2a8d	0.2140295
86	0x3eefc34d	0.4682869
87	0x3f105d85	0.563927
88	0xbea1d54f	-0.31608054
89	0xbe961b35	-0.29317632
90	0x3e406569	0.18788685
91	0xbf8c755f	-1.0973319
92	0xbf9efe9c	-1.2421451
93	0xbf5b1530	-0.85579205
94	0xbf7c97d6	-0.98669183
95	0x3d7f7c3b	0.062374335
96	0xbea13f4f	-0.31493613
97	0xbd967daf	-0.07348191
98	0xbf06b8cf	-0.52625746
99	0xbe4201f3	-0.18946056
100	0xbed057e6	-0.4069206
101	0xbeaed9b2	-0.34150463
102	0xbf23bda4	-0.63961244
103	0xbee2904d	-0.44250718
104	0xbe4aef9e	-0.19817969
105	0xbf975e12	-1.1825583
106	0xbfab12c9	-1.3365108
107	0xbf585638	-0.8450656
108	0xbfab6dcd	-1.3392884
109	0x3e218108	0.15771878
110	0xbe535bfb	-0.20640557
111	0xbe5d0d23	-0.21587043
112	0x3d81027b	0.06299301
113	0x3e3711a9	0.1787783
114	0x3e47865b	0.19484846
115	0xbd82b217	-0.06381624
116	0x3d9ba9e0	0.076007605
117	0xbd3b3b26	-0.045710705
118	0xbd9b3cb5	-0.07579938
119	0xbf4268f9	-0.75941426
120	0xbf022af2	-0.5084678
121	0xbf210e61	-0.62912565
122	0xbf472b76	-0.7780069
123	0xbe9040b9	-0.2817438
124	0xbf04e40a	-0.5191046
125	0xbda9c92e	-0.08290325
126	0xbf68bc37	-0.90912193
127	0xbf926e5d	-1.143993
128	0xbf7ff6e5	-0.99986106
129	0xbf730c2e	-0.9494046
130	0x3d61d686	0.055136226
131	0xbe5329e7	-0.20621453
132	0xbe19ff84	-0.15038878
133	0xbf4b2870	-0.7935858
134	0xbf6610c3	-0.89869326
135	0xbeb78082	-0.3584023
136	0xbef00fa4	-0.46886933
137	0x3d7bbd71	0.061459962
138	0xbdb5fca0	-0.08886075
139	0xbdbd74e7	-0.09250813
140	0x3e65efda	0.22454777
141	0x3e94837c	0.29006565
142	0x3e3f1134	0.18658906
143	0x3dc7603d	0.09735153
144	0xbf090c1d	-0.5353411
145	0xbf03b56c	-0.514487
146	0x3ecbcc5d	0.39804354
147	0xbd96b26e	-0.073582515
148	0xbea76029	-0.32690552
149	0xbe30f6e1	-0.17281677
150	0xbea0e280	-0.31422806
151	0xbebc39fb	-0.36762986
152	0xbf05e213	-0.52298087
153	0x3db63a15	0.08897797
154	0xbf4e1b81	-0.8051072
155	0xbf5f386a	-0.87195456
156	0xbf67d5b0	-0.90560436
157	0xbf3a8165	-0.7285369
158	0xbf23bc22	-0.6395894
159	0xbea87028	-0.32898068
160	0x3c043a1a	0.008070493
161	0xbea579d6	-0.32319516
162	0xbedeada4	-0.43491852
163	0xbec9374c	-0.393
164	0xbeaa53ff	-0.3326721
165	0xbf20abc4	-0.62762094
166	0xbf19643d	-0.59918576
167	0x3e61db60	0.22056341
168	0xbe99c0b0	-0.3002982
169	0xbecbf3a4	-0.3983432
170	0xbdf5cf74	-0.12002459
171	0xbec2c8e9	-0.38043907
172	0x3c82a445	0.01594747
173	0x3cfccd90	0.030859739
174	0x3f00a956	0.50258386
175	0xbf70510d	-0.93873674
176	0xbf63b302	-0.8894502
177	0xbf6d6665	-0.92734367
178	0xbf3b8483	-0.7324907
179	0xbe7101bc	-0.23535818
180	0xbe3ecdc4	-0.18633181
181	0xbda0f4cd	-0.07859192
182	0xbf293aaf	-0.6610517
183	0xbf061bfb	-0.52386445
184	0xbf2d81d0	-0.67776203
185	0xbf1af548	-0.6053052
186	0xbdd4eb25	-0.10396413
187	0xbcbb7034	-0.022880651
188	0xbe99df5c	-0.30053222
189	0xbf3d18c1	-0.73865896
190	0xbf2128a0	-0.62952614
191	0xbf572df4	-0.84054494
192	0xbefe99bf	-0.49726674
193	0x3d9be29c	0.07611582
194	0xbe89441f	-0.26809785
195	0xbd073d09	-0.033017192
196	0x3ded58c8	0.11589199
197	0x3e9aa24a	0.30201942
198	0x3e4cd4cc	0.2000305
199	0x3ed11304	0.4083482
200	0xbf12ea94	-0.5738919
201	0xbf0b004a	-0.54297316
202	0xbeab9f27	-0.3351986
203	0xbd08224b	-0.03323583
204	0xbe225609	-0.15853132
205	0x3d555314	0.052081183
206	0xbe46badf	-0.19407223
207	0xbe002a3f	-0.12516116
208	0x3ebecb2a	0.37264377
209	0x3dfa576c	0.12223706
210	0x3d6dcead	0.05805843
211	0x3e0d6b10	0.13810372
212	0xbd46ffde	-0.048583858
213	0xbe189cb9	-0.14903535
214	0xbc16f868	-0.009214498
215	0x3dd6a82a	0.104812935
216	0xbf222fb6	-0.6335405
217	0xbeefc03f	-0.4682636
218	0xbecdeb3a	-0.40218526
219	0xbec7bb0e	-0.390099
220	0xbf1d4add	-0.6144236
221	0xbe2c2d13	-0.1681407
222	0xbe4ec09f	-0.20190667
223	0x3b02de58	0.0019968953
224	0xbcf2844e	-0.029604103
225	0xbe3de8a5	-0.18545778
226	0xbc22f375	-0.00994574
227	0xbe91b462	-0.28457934
228	0xbed1f2eb	-0.41005644
229	0xbf045178	-0.5168681
230	0x3e392d6f	0.18083738
231	0xbeb578b5	-0.35443655
232	0xbee96b7b	-0.45589814
233	0xbeac97a5	-0.33709446
234	0xbee32d8e	-0.44370693
235	0xbe0ecab0	-0.13944507
236	0xbebca056	-0.36841077
237	0xbc405ac0	-0.0117403865
238	0xbe869a55	-0.2628962
239	0xbec365d8	-0.38163638
240	0xbf083802	-0.5321046
241	0xbefec068	-0.4975617
242	0xbe5d82a3	-0.21631865
243	0xbd81bd57	-0.06334942
244	0xbe40ec06	-0.18840036
245	0x3ebe5ac8	0.37178636
246	0x3e114be0	0.141891
247	0x3ea2e3b4	0.3181435
248	0x3d691225	0.05690207
249	0xbe1c17ef	-0.15243505
250	0xbe8facaa	-0.2806142
251	0x3d8ff5dd	0.070293166
252	0x3ea1021a	0.31446916
253	0x3e5c5ace	0.21519014
254	0x3eaa6ce1	0.33286193
255	0x3d897916	0.067125484

temporal.rnn.weight_hh_l0 f4 [128, 32]
0	0x3e6a0684	0.22854048
1	0xbec609e5	-0.38679424
2	0x3d2bea32	0.041971393
3	0x3de76e71	0.11300362
4	0xbe3585e8	-0.17726862
5	0x3e6e5c22	0.23277333
6	0xbd9bbfc3	-0.07604935
7	0xbd6241c0	-0.055238485
8	0x3eaf06f0	0.3418498
9	0xbe46d1ac	-0.19415921
10	0xbda2fe8e	-0.07958709
11	0x3d93cda6	0.07216959
12	0xbcc5975f	-0.02412003
13	0xbe0db02c	-0.13836735
14	0xbd8dff3b	-0.06933447
15	0xbea70534	-0.32621157
16	0x3e2304e2	0.15919831
17	0xbd8a9b9f	-0.067679636
18	0xbd974508	-0.073862135
19	0xbeda7b65	-0.42672268
20	0xbdac02bf	-0.08398961
21	0x3d985ef9	0.074399896
22	0xbe0d0deb	-0.1377484
23	0xbd8b240f	-0.06793987
24	0x3ddb42a2	0.107060686
25	0xbf218f15	-0.6310895
26	0x3da851ad	0.082187034
27	0xbe3924f5	-0.18080504
28	0x3dfe548e	0.12418471
29	0xbbf444a0	-0.00745447
30	0xbccfb962	-0.025356952
31	0x3db364a8	0.08759433
32	0xbbc8b98e	-0.0061256355
33	0x3d3e7e5c	0.046507224
34	0xbd6ceede	-0.05784499
35	0x3dca070d	0.09864626
36	0x3e8939b6	0.26801842
37	0xbe78a17f	-0.24280356
38	0x3e4e4c86	0.20146379
39	0x3d038f75	0.032119233
40	0x3d90343b	0.07041212
41	0xbd7fa5b4	-0.062413886
42	0x3e95f304	0.2928697
43	0xbe6bbbb6	-0.23020825
44	0xbef5dbad	-0.48019162
45	0xbe80ed8e	-0.2518124
46	0xbdb98f51	-0.090605386
47	0xbc9a10aa	-0.018806774
48	0xbe8a0bb5	-0.26962057
49	0x3c8986d7	0.01678793
50	0xbd5c49e5	-0.05378141
51	0x3e15463a	0.1457757
52	0x3df9a239	0.12189145
53	0x3d609c29	0.054836426
54	0xbd09c9aa	-0.033639587
55	0x3e0daf24	0.13836342
56	0x3ddcbe9c	0.10778543
57	0xbca8d6cb	-0.020610234
58	0x3e0e5927	0.13901196
59	0x3e0b161a	0.1358265
60	0x3e9c3920	0.30512333
61	0xbeaa2203	-0.33229074
62	0xbdc661f6	-0.09686653
63	0x3eacf78f	0.33782622
64	0xbd39b288	-0.045336276
65	0xbe9e2d2a	-0.30893832
66	0x3d4e11ed	0.050310064
67	0xbd6102f3	-0.054934453
68	0xbe3099cc	-0.17246169
69	0xbe28a7ae	-0.16470215
70	0x3d66e4a9	0.05637041
71	0x3e0db1cb	0.13837354
72	0x3cae1337	0.021249397
73	0xbeae18e5	-0.34003368
74	0x3eb3fee3	0.351554
75	0xbc7580f6	-0.01498436
76	0x3b7980c5	0.0038071137
77	0x3e9e9550	0.3097329
78	0xbe91652e	-0.28397506
79	0x3deb126a	0.114781216
80	0xbd53fcf4	-0.051754907
81	0x3d8ef982	0.069811836
82	0xbbb93454	-0.00565199
83	0x3d1600c7	0.036621835
84	0xbe850ae0	-0.2598486
85	0x3ecbd2e9	0.3980935
86	0x3c40baa6	0.01176325
87	0xbd96ae63	-0.073574804
88	0x3df5dfe9	0.12005598
89	0x3e6197f9	0.22030629
90	0x3e7617e2	0.24032548
91	0x3e88bd7a	0.2670706
92	0xbde79ef0	-0.11309612
93	0xbe6c8aba	-0.23099795
94	0xbeb0dcc8	-0.34543443
95	0x3e62faec	0.22166032
96	0xbdf460a9	-0.11932499
97	0x3eb2a5ee	0.3489222
98	0xbeaae6e7	-0.3337929
99	0x3eb029a8	0.3440678
100	0x3d1189f6	0.03553196
101	0xbddb0020	-0.10693383
102	0xbe2d919f	-0.16950081
103	0x3e98cdbb	0.2984446
104	0x3d66ba4e	0.056330018
105	0x3ec7719e	0.3895387
106	0x3e52c619	0.20583381
107	0xbef35534	-0.47525942
108	0x3d38c272	0.045107313
109	0xbe27e696	-0.16396555
110	0xbe64ebde	-0.22355601
111	0x3e009a8e	0.12558958
112	0xbeeb36a0	-0.45940113
113	0x3e70da73	0.23520832
114	0x3e57233c	0.21009535
115	0xbccecd28	-0.02524431
116	0xbe9cdd59	-0.30637625
117	0x3e31dede	0.17370173
118	0x3ec40a82	0.38289267
119	0x3e712951	0.23550917
120	0xbe1d30e1	-0.15350677
121	0x3d4cb5ab	0.04997794
122	0x3eb756bc	0.3580836
123	0x3d6e3bcc	0.058162495
124	0xbd4ff730	-0.050772846
125	0xbeaad8f5	-0.3336865
126	0x3e5e08d2	0.21683052
127	0xbeacd761	-0.3375807
128	0xbe02283f	-0.12710665
129	0xbe4a3160	-0.19745398
130	0x3e699af1	0.22813012
131	0xbeb2b28d	-0.34901848
132	0xbdf9bf05	-0.12194637
133	0x3f15bdf4	0.5849297
134	0xbb9b7386	-0.004743996
135	0x3dd77bf4	0.10521689
136	0x3ea2b71c	0.31780326
137	0x3d6725dd	0.056432594
138	0xbe378e0d	-0.17925282
139	0xbdaa0db4	-0.08303395
140	0xbe8721c2	-0.26392943
141	0xbec7e891	-0.39044622
142	0x3e776da8	0.24162924
143	0xbe002a5b	-0.12516157
144	0x3f019a1a	0.50625765
145	0xbf0744b5	-0.52839214
146	0xbd9bac6f	-0.076012485
147	0xbe89e96e	-0.26935905
148	0xbf2506a3	-0.6446325
149	0x3e867238	0.26259017
150	0xbee4e112	-0.44702965
151	0x3cc87da9	0.024473982
152	0xbe88328f	-0.26601073
153	0xbf14092e	-0.5782651
154	0xbed12c66	-0.40854186
155	0xbf05cfd7	-0.52270263
156	0x3eaa7d25	0.33298603
157	0x3ecca8a7	0.39972422
158	0x3b6c901a	0.0036096633
159	0xbd6293a2	-0.055316575
160	0x3dae6402	0.08515169
161	0x3dc9ab26	0.09847097
162	0xbe35c2d7	-0.17750107
163	0xbe30e4fa	-0.17274848
164	0x3f29d7f0	0.6634512
165	0x3e0f46fb	0.1399192
166	0xbe57c3b9	-0.21070756
167	0x3ea824ac	0.32840478
168	0x3ca54c08	0.020177856
169	0xbc7d9829	-0.015478172
170	0xbd7d7bf7	-0.0618858
171	0xbe8600d6	-0.26172513
172	0xbe829286	-0.25502414
173	0xbcaced46	-0.021109235
174	0xbdcec6b4	-0.10096493
175	0x3e0c5965	0.13705976
176	0xbe0cd8a8	-0.13754523
177	0xbced96f9	-0.029002653
178	0x3da580e6	0.08081226
179	0xbe1662ab	-0.14686076
180	0x3d3e8c44	0.046520486
181	0x3d94847f	0.07251834
182	0x3c4ddd0b	0.012564908
183	0xbe78410e	-0.24243566
184	0x3d5f0395	0.054446775
185	0xbbb8c806	-0.005639079
186	0x3e56471c	0.20925564
187	0xbd015c24	-0.031582013
188	0xbd9ff5a6	-0.078105256
189	0xbeb8b5ff	-0.36076352
190	0xbed32796	-0.4124114
191	0x3e36473d	0.17800613
192	0x3da1203d	0.07867477
193	0xbdc446aa	-0.095837906
194	0xbd77d6bd	-0.060507525
195	0x3ed8c21b	0.4233559
196	0x3c9306b5	0.017947534
197	0x3e6cf07c	0.23138613
198	0xbd8ea435	-0.06964914
199	0xbe486d9d	-0.19573064
200	0x3ee7f60f	0.45304915
201	0xbe0dba04	-0.1384049
202	0x3e813090	0.25232363
203	0xbe04bb0d	-0.12961979
204	0x3bcab476	0.0061860634
205	0xbee232a9	-0.44179276
206	0xbebab1b5	-0.36463705
207	0x3d122882	0.035683163
208	0xbe030bd7	-0.12797485
209	0x3db1ad42	0.086756244
210	0xbe413b73	-0.18870334
211	0xbe15391b	-0.14572565
212	0x3e34a72d	0.17641897
213	0x3dc657c9	0.096847124
214	0xbd36d9ee	-0.044641428
215	0x3e271899	0.16317977
216	0xbe5ad0a7	-0.21368657
217	0x3d1ccc0c	0.03828053
218	0x3da60b4d	0.08107624
219	0xbe6a1f1d	-0.22863431
220	0x3da432cb	0.080175005
221	0xbe963765	-0.29339138
222	0x3bc32993	0.005955884
223	0xbe9a39aa	-0.3012212
224	0xbe7e40c8	-0.248294
225	0xbe05c850	-0.13064694
226	0xbc7533e6	-0.014965987
227	0x3ce70f01	0.028205397
228	0x3c8b235b	0.016984632
229	0xbebceed5	-0.36900964
230	0x3d4f3fbe	0.0505979
231	0xbdb63b5a	-0.08898039
232	0x3d9c4300	0.07629967
233	0x3d620c08	0.055187255
234	0x3e56d27b	0.2097873
235	0xbf0034c2	-0.500805
236	0x3e8f0976	0.27936906
237	0x3e1c3c08	0.15257275
238	0xbe64b452	-0.22334412
239	0x3e87b8d8	0.26508212
240	0x3e1a07b5	0.15042002
241	0x3de223df	0.11041998
242	0x3e1747ac	0.14773434
243	0x3e8dc9d3	0.27693042
244	0xbdef2288	-0.11676508
245	0x3e4dbd64	0.20091778
246	0x3cddedee	0.027090993
247	0xbe9ba1a9	-0.30396774
248	0x3eee000e	0.46484417
249	0x3f3cb2c5	0.7371028
250	0x3e2beaae	0.16788742
251	0x3f0e4105	0.5556796
252	0xbe0bd010	-0.13653588
253	0xbe134767	-0.14382707
254	0xbd1c7313	-0.03819568
255	0x3bf21624	0.0073878933

temporal.rnn.bias_ih_l0 f4 [128]
0	0x3e5bf2f6	0.21479401
1	0xbe9e7835	-0.30951086
2	0xbdda4119	-0.10656948
3	0x3e66e4b4	0.22548181
4	0xbdf281c6	-0.118411586
5	0x3ca00b45	0.019536624
6	0x3e5c0729	0.21487106
7	0xbeb29251	-0.34877256
8	0xbd188c42	-0.037243135
9	0x3c5705d7	0.013123951
10	0xbea3d0fb	-0.31995377
11	0xbea5ee7c	-0.32408512
12	0xbe0c6453	-0.13710146
13	0xbeae885a	-0.34088403
14	0xbe0058f6	-0.12533936
15	0xbe460680	-0.19338417
16	0xbcbf3646	-0.02334131
17	0xbdcdc5b3	-0.10047474
18	0xbe692338	-0.22767341
19	0xbe47eee1	-0.19524719
20	0xbe9f9638	-0.31169295
21	0xbe99907f	-0.29993054
22	0x3d57e552	0.05270893
23	0xbef1ee3c	-0.4725207
24	0xbe94e65b	-0.29081997
25	0xbda4f6c4	-0.08054879
26	0xbe707535	-0.23482211
27	0x3b3bb55f	0.002864204
28	0xbeb9fb65	-0.3632461
29	0xbe33bcee	-0.1755254
30	0x3b254d34	0.0025223019
31	0x3cb6ce35	0.022315124
32	0xbeabf07e	-0.33581918
33	0xbe900c2c	-0.28134286
34	0xbdaf4793	-0.085585736
35	0xbebc0053	-0.36718997
36	0xbcfe5116	-0.031044524
37	0x3daf349b	0.085549556
38	0xbd66c965	-0.05634441
39	0xbdab3cf1	-0.08361233
40	0x3acb4ec4	0.0015511145
41	0x3c979653	0.018504297
42	0x3dc2e819	0.09516925
43	0xbe4714d9	-0.19441546
44	0xbe1375c7	-0.14400397
45	0x3e1141ef	0.14185308
46	0xbe76052c	-0.2402541
47	0x3ca5536d	0.020181382
48	0x3e4667c9	0.19375528
49	0xbe13bb55	-0.1442693
50	0xbd8fe32d	-0.07025752
51	0xbe91e624	-0.28495896
52	0x3ce995a8	0.028513744
53	0xbed84fa6	-0.42248267
54	0x3e291387	0.16511355
55	0xbec0db74	-0.3766743
56	0x3ca7a259	0.020463156
57	0x3cf024a2	0.029314343
58	0xbe9d1c19	-0.306855
59	0x3d63ab3a	0.055583216
60	0x3bc7a5ba	0.006092754
61	0x3c92ca2f	0.017918674
62	0x3d400c8d	0.04688697
63	0xbe2cd633	-0.16878586
64	0x3e0e50d0	0.13898015
65	0xbe96dfb7	-0.29467556
66	0x3ef7a68c	0.48369253
67	0xbe1676f4	-0.14693815
68	0x3d4f7bf6	0.050655328
69	0x3e4e0e43	0.20122628
70	0x3e52f48c	0.206011
71	0x3da7ac31	0.0818714
72	0x3e77228e	0.24134275
73	0x3d49f204	0.04930307
74	0xbde86003	-0.11346438
75	0x3dc201bc	0.09472987
76	0xbd814b0f	-0.063131444
77	0xbc19908b	-0.009372841
78	0x3e47d5ed	0.195152
79	0xbdd0f70e	-0.10203372
80	0x3d9dd6bc	0.07706973
81	0xbe868a84	-0.26277554
82	0xbe2aad52	-0.16667679
83	0xbe27ec15	-0.16398652
84	0x3c1067fc	0.008813854
85	0x3da7c9dd	0.08192799
86	0xbedd8647	-0.43266508
87	0xbdbaeb6d	-0.09126935
88	0x3d27a659	0.040930126
89	0xbdabff19	-0.083982654
90	0xbe6d3473	-0.23164539
91	0xbeb4ccd8	-0.35312533
92	0x3e7e67da	0.24844304
93	0x3d86d4a3	0.06583526
94	0xbe47a82f	-0.1949775
95	0xbe17bc24	-0.14817864
96	0x3e9e21e1	0.30885223
97	0xbe9d81f1	-0.307632
98	0xbe1e7901	-0.15475847
99	0xbdb8cfdb	-0.0902402
100	0x3e1d6a66	0.15372619
101	0x3cd537ac	0.026027523
102	0x3e8412e7	0.2579567
103	0xbdaf9de4	-0.08575037
104	0x3bf3906e	0.007432989
105	0xbd049d44	-0.032376543
106	0xbe94653d	-0.2898349
107	0xbed1e1cc	-0.40992582
108	0xbdeb15d4	-0.11478773
109	0x3e3f8aa3	0.1870523
110	0x3e1dd86c	0.1541459
111	0x3dc76bca	0.09737356
112	0xbd2be208	-0.041963607
113	0x3d215bf6	0.03939434
114	0xbcaf411b	-0.02139335
115	0xbe914ad5	-0.28377405
116	0xbe5b0f4d	-0.21392556
117	0xbe40df02	-0.1883507
118	0xbd9c6f73	-0.07638445
119	0xbec9d384	-0.39419186
120	0x3d93b676	0.07212536
121	0xbe3acb01	-0.18241502
122	0xbe393d9f	-0.18089913
123	0x3bd67e96	0.006545852
124	0xbe3fcf31	-0.18731381
125	0xbd43f92d	-0.047845054
126	0x3e0cb3e3	0.13740496
127	0xbdc37819	-0.09544391

temporal.rnn.bias_hh_l0 f4 [128]
0	0xbd0578f1	-0.03258604
1	0xbe3fb01a	-0.18719521
2	0xbe5c253f	-0.21498583
3	0xbd86bdfd	-0.06579206
4	0xbdd9fc42	-0.106438175
5	0xbd3729da	-0.044717647
6	0x3d24deac	0.04025142
7	0xbe67eded	-0.22649355
8	0xbb2b08fd	-0.0026097887
9	0xbe89ec57	-0.26938125
10	0xbd5e504a	-0.05427579
11	0xbedbdd7e	-0.42942423
12	0xbe6b740a	-0.22993484
13	0xbe6e879b	-0.23293917
14	0x3dadaf7a	0.08480735
15	0xbeceae48	-0.4036734
16	0x3e302b75	0.17204078
17	0xbe82f836	-0.25579995
18	0xbe478da9	-0.19487633
19	0xbe2f95e4	-0.17147022
20	0xbe333826	-0.17501888
21	0xbee9d17c	-0.45667636
22	0xbb2ba0eb	-0.0026188444
23	0xbebcd791	-0.36883214
24	0xbb5a113d	-0.0033274435
25	0x3d13ba75	0.03606649
26	0xbe29f80b	-0.16598527
27	0x3d3868e3	0.045021903
28	0xbe8d780c	-0.2763065
29	0xbe9c43d0	-0.30520487
30	0x3ceaf9ce	0.02868357
31	0xbe703b75	-0.23460181
32	0xbe52fc03	-0.20603947
33	0xbe89f8c5	-0.2694761
34	0x3da24671	0.07923592
35	0xbecb5644	-0.39714253
36	0x3e0c2e35	0.13689502
37	0xbb85cd62	-0.0040833214
38	0x3d293b3b	0.041316252
39	0x3d2bb2be	0.04191851
40	0x3c861fa2	0.016372506
41	0xbe175e3b	-0.1478204
42	0xbd2a7d7c	-0.041623577
43	0xbe0b2381	-0.13587762
44	0xbda5c695	-0.08094517
45	0x3d3ccef6	0.04609581
46	0xbd5ead25	-0.054364342
47	0x3dc2567e	0.09489153
48	0x3e5c46fd	0.21511455
49	0x3e0f6ad6	0.14005598
50	0xbdde000d	-0.108398534
51	0xbefb67ba	-0.49102575
52	0xbe35b992	-0.1774657
53	0xbe97f4d6	-0.29678982
54	0x3dd0078d	0.1015769
55	0xbe5ba660	-0.21450186
56	0x3d8463e7	0.06464367
57	0xbbebe66e	-0.0071991
58	0xbe11dd33	-0.14244537
59	0xbe2b1a58	-0.16709268
60	0xbe15cbcc	-0.14628524
61	0xbe14d9f9	-0.14536275
62	0xbdde6983	-0.108599685
63	0x3d041ef0	0.032256067
64	0x3d81051b	0.06299802
65	0xbdfa5982	-0.122241035
66	0x3eb474e8	0.35245442
67	0x3c08bbfc	0.0083456
68	0x3da2dfa7	0.079528145
69	0x3de6609c	0.112488955
70	0x3df472eb	0.11935981
71	0x3e338c89	0.17534079
72	0x3e760825	0.24026544
73	0xbdef4061	-0.11682201
74	0xbed2c35c	-0.41164672
75	0xbb76873b	-0.0037617225
76	0x3d84ee81	0.064908035
77	0x3d294b4f	0.041331585
78	0x3e18c78a	0.14919868
79	0x3e201ccb	0.15635984
80	0x3d0261c8	0.031831533
81	0x3c8858cb	0.016643902
82	0xbeb0b194	-0.3451048
83	0xbdfaaa2f	-0.12239491
84	0x3dc51711	0.0962354
85	0x3e4f9d66	0.20274886
86	0xbebf8a78	-0.3741033
87	0xbcde10ed	-0.02710768
88	0x3e65894b	0.22415654
89	0xbe54e0c6	-0.2078887
90	0xbdef530f	-0.11685764
91	0xbd8d7ba8	-0.06908351
92	0x3e5d9f4b	0.21642797
93	0x3e827b10	0.25484514
94	0xbeac7dd9	-0.33689764
95	0xbe0befa3	-0.13665633
96	0x3dbc680d	0.091995336
97	0xbea941b0	-0.33057928
98	0xbc144727	-0.009050167
99	0xbd964410	-0.07337201
100	0x3eb04684	0.344288
101	0xbe0d28bb	-0.13785069
102	0xbc6f1320	-0.014591962
103	0xbd566f45	-0.05235221
104	0xbd0f75ea	-0.03502456
105	0xbce1a751	-0.027545603
106	0xbe73ce51	-0.23809172
107	0xbe85906b	-0.26086745
108	0xbdec5db8	-0.11541313
109	0xbda8e8c4	-0.082475215
110	0x3dc58a7b	0.09645554
111	0x3e472955	0.1944936
112	0x3cc54371	0.02408001
113	0xbdba617c	-0.09100625
114	0xbe817c25	-0.25290027
115	0xbda6778d	-0.08128271
116	0xbe4d538c	-0.20051402
117	0xbed6ca0c	-0.41951025
118	0xbe0a3419	-0.13496436
119	0xbf055228	-0.52078485
120	0x3d248e9d	0.04017507
121	0xbdb20f37	-0.08694308
122	0xbea726f9	-0.3264692
123	0x3cb5bd7a	0.022185076
124	0xbd1cdaa5	-0.038294453
125	0xbe0f8db0	-0.14018893
126	0x3e5d6513	0.21620588
127	0x3d831535	0.06400529

temporal.rnn.weight_ih_l1 f4 [128, 32]
0	0xbf1122b9	-0.5669361
1	0xbd2c9cf2	-0.042141862
2	0x3e002df6	0.12517533
3	0x3f19a917	0.60023636
4	0xbf89f8c8	-1.0779047
5	0xbea1812b	-0.3154386
6	0xbefbfdac	-0.49216974
7	0x3e455607	0.19271098
8	0xbe27104b	-0.16314809
9	0xbebbac73	-0.36655006
10	0x3eb5b8d0	0.35492563
11	0x3ed60182	0.41798025
12	0x3e9bc76d	0.30425587
13	0x3de5035c	0.111822814
14	0xbedd4fb7	-0.4322488
15	0x3e1a3318	0.15058553
16	0xbe86f9c1	-0.26362422
17	0x3e2ea979	0.17056836
18	0x3e888000	0.26660156
19	0x3e9f8fa9	0.31164292
20	0xbc91fa2f	-0.017819492
21	0xbeae8171	-0.3408313
22	0xbd827449	-0.06369836
23	0x3ee4e610	0.44706774
24	0x3ed774ba	0.42081243
25	0x3e535984	0.20639616
26	0x3e31c66d	0.1736085
27	0x3e791784	0.24325377
28	0xbe71808e	-0.23584196
29	0x3ea1379d	0.31487742
30	0x3ea48d4d	0.32139054
31	0x3f0d689b	0.5523774
32	0xbef94d78	-0.48691916
33	0x3ea8fbe8	0.3300469
34	0xbe352da7	-0.17693196
35	0x3f1d1dd8	0.6137366
36	0xbf754e1a	-0.958223
37	0xbf303343	-0.6882822
38	0xbf06e20e	-0.5268868
39	0xbf1b0786	-0.60558355
40	0xbefcb3f0	-0.4935603
41	0xbdf28416	-0.118416
42	0x3d4f3fd7	0.05059799
43	0xbc8bd107	-0.017067445
44	0x3f29aa50	0.662755
45	0x3eb77d42	0.35837752
46	0xbef2eb83	-0.47445306
47	0x3ecf7d59	0.4052532
48	0xbf3eae84	-0.7448504
49	0x3e61b247	0.22040664
50	0x3efc07a3	0.49224576
51	0x3ee68bf8	0.45028663
52	0x3f36aa0e	0.7135323
53	0xbec2d499	-0.38052824
54	0x3e7f9a7e	0.24961278
55	0x3de178b9	0.11009354
56	0x3f07ca97	0.530435
57	0x3ec3932d	0.38198224
58	0x3ed2980a	0.41131622
59	0x3f051a28	0.51993036
60	0xbd03a258	-0.032137245
61	0x3e589a50	0.21152616
62	0x3eb561cf	0.35426185
63	0x3eb3828d	0.3506054
64	0x399a9c9a	0.00029489846
65	0xbef1c546	-0.4722082
66	0x3da074af	0.07834756
67	0x3ded20dc	0.11578533
68	0x3db58367	0.08862954
69	0xbd87335d	-0.06601594
70	0xbcb0cbfe	-0.021581646
71	0x3e281fc8	0.16418374
72	0xbda67485	-0.08127693
73	0xbdf4469f	-0.119275324
74	0xbe9f3c98	-0.31100917
75	0x3eaa0b85	0.33211914
76	0x3eb88c92	0.36044747
77	0x3e238618	0.15969121
78	0x3e251e7b	0.16124909
79	0xbe9366d8	-0.287894
80	0xbe459b8d	-0.19297619
81	0xbe6d8c45	-0.2319804
82	0xbe824380	-0.25442123
83	0xbe459c8b	-0.19297998
84	0xbdcf3863	-0.10118177
85	0xbc73dcf1	-0.0148842195
86	0xbd80c2c1	-0.06287146
87	0x3e834ea9	0.2564595
88	0x3d18bb57	0.037288036
89	0xbe511d40	-0.20421314
90	0xbe83a3a6	-0.2571079
91	0xbe89d52c	-0.2692045
92	0x3e62d1f3	0.22150402
93	0x3eccb10e	0.39978832
94	0x3dd94032	0.106079474
95	0x3e761e0b	0.24034898
96	0xbe0a8cbc	-0.13530248
97	0x3df4ff38	0.119627416
98	0x3e855f74	0.26049387
99	0x3eb4dad6	0.3532321
100	0xbe13b128	-0.14423048
101	0xbea1b72e	-0.31585068
102	0xbf2ac4c6	-0.667065
103	0xbc46f2c7	-0.012142844
104	0xbeb583e3	-0.35452184
105	0x3c5cba69	0.013472178
106	0x3ca01c7f	0.019544838
107	0x3dc71f5e	0.0972278
108	0xbe412936	-0.18863377
109	0x3ee298fe	0.4425735
110	0xbf047f75	-0.51756984
111	0x3ed85f22	0.4226008
112	0xbf42f578	-0.76155806
113	0xbd4a3d48	-0.04937485
114	0x3f0223c9	0.50835854
115	0x3f0a1c00	0.53948975
116	0x3e36d517	0.17854725
117	0xbed4cd1c	-0.41562736
118	0x3e761ba7	0.24033986
119	0x3e4b8dea	0.19878355
120	0x3f0f12bb	0.55887955
121	0xbc5fe936	-0.013666442
122	0x3e2f2406	0.17103586
123	0x3f01a4c5	0.50642043
124	0xbef8e998	-0.48615718
125	0xbdafabf9	-0.08577723
126	0x3ea2cff7	0.3179929
127	0x3db7e3d2	0.08979
128	0xbdb073f7	-0.086158685
129	0xbe524922	-0.2053571
130	0xbeee690f	-0.46564528
131	0xbed0a746	-0.4075262
132	0x3f04e83e	0.51916873
133	0x3cdfcc5d	0.027319128
134	0x3ed63ed3	0.41844806
135	0x3e885c5e	0.2663297
136	0xbea67ee9	-0.325187
137	0x3d3717b2	0.044700332
138	0x3e1d76e9	0.15377392
139	0x3ef75cab	0.48312888
140	0xbd85150c	-0.06498155
141	0x3c4b0091	0.012390272
142	0xbed2d4a4	-0.41177857
143	0xbf52202c	-0.8208034
144	0x3e15e4fa	0.14638129
145	0x3e07385e	0.13205096
146	0x3dee0b10	0.11623204
147	0xbee7510e	-0.45179027
148	0xbe42d99f	-0.19028328
149	0xbed0b9ef	-0.40766856
150	0x3ef5a0cc	0.4797424
151	0x3f5ca8c6	0.8619503
152	0xbdece0d3	-0.11566319
153	0xbe49d7d4	-0.19711238
154	0x3e2e1b6a	0.17002645
155	0x3ca0bec1	0.019622209
156	0x3e4979ba	0.19675341
157	0xbd94fbb4	-0.07274571
158	0xbe693fb1	-0.22778203
159	0x3f53c1aa	0.8271738
160	0xbf164888	-0.58704424
161	0xbef6fe68	-0.48240972
162	0xbd65d276	-0.056108914
163	0xbe7e39e0	-0.24826765
164	0x3e76ca1c	0.24100536
165	0x3ee90867	0.45514223
166	0x3eae0e36	0.33995217
167	0x3e82e88a	0.25568038
168	0x3e7a365c	0.24434799
169	0xbed2d6a3	-0.4117938
170	0xbe043898	-0.12912214
171	0x3ea5979b	0.32342228
172	0xbe5e47ad	-0.2170703
173	0xbf060931	-0.52357775
174	0x3e77354c	0.24141425
175	0xbf34a4c9	-0.7056394
176	0x3e98db0c	0.2985462
177	0xbed64d35	-0.4185578
178	0xbece63b7	-0.4031045
179	0xbf42956f	-0.7600927
180	0x3d833e9c	0.06408426
181	0x3e1b2161	0.15149452
182	0xbe97ce9a	-0.29649812
183	0xbe6f0e65	-0.23345335
184	0xbcafe1db	-0.021470001
185	0xbf2431f1	-0.64138705
186	0xbe8a2473	-0.26980934
187	0xbeef2fb3	-0.4671608
188	0x3e4a3624	0.19747216
189	0x3e0d64a7	0.13807927
190	0xbed825a4	-0.42216218
191	0x3e668bbf	0.22514246
192	0xbe0e951f	-0.13924073
193	0xbdd9c7c4	-0.106338054
194	0x3d900237	0.070316724
195	0xbef38630	-0.47563314
196	0x3ebfe11a	0.37476426
197	0x3e4d4d7d	0.2004909
198	0x3f82060c	1.0158095
199	0x3ee8519c	0.45374763
200	0x3eb4a320	0.35280704
201	0x3c907e6c	0.017638408
202	0xbea227b6	-0.31670922
203	0x3f14e16d	0.5815647
204	0xbdfdc381	-0.12390805
205	0xbf0e3cd7	-0.55561584
206	0x3dca7936	0.098864004
207	0x3eab94b4	0.3351189
208	0x3ea49234	0.32142794
209	0xbe107e5e	-0.14110705
210	0xbe79b558	-0.24385583
211	0xbe8ff9bf	-0.2812023
212	0xbed7baeb	-0.42134795
213	0x3f038f7b	0.5139081
214	0xbe80244f	-0.250277
215	0x3f0bfa03	0.5467836
216	0xbf3dfbf0	-0.7421255
217	0xbea1f46c	-0.31631792
218	0x3e113454	0.14180118
219	0xbe04ad3a	-0.12956706
220	0x3f5d4f0e	0.8644875
221	0xbc7e18ef	-0.015508874
222	0xbf999037	-1.1997136
223	0xbeab7bc9	-0.33492878
224	0x3f96f58c	1.1793685
225	0xbcf25742	-0.029582623
226	0x3ef31f82	0.47484976
227	0x3e74d794	0.23910362
228	0x3f7780f4	0.9668114
229	0x3e0ecc54	0.13945132
230	0x3e92b32c	0.28652322
231	0x3f30ee7a	0.69113886
232	0x3e6ecbf6	0.23319992
233	0x3e36abcf	0.17838977
234	0xbf58279e	-0.8443545
235	0x3ec475e6	0.383712
236	0xbcf8d942	-0.030377034
237	0x3d8e6b3d	0.06954048
238	0x3ee98f1f	0.45617005
239	0x3e0a057c	0.13478655
240	0x3e256581	0.16152002
241	0xbf2ea43f	-0.6821937
242	0xbed69b05	-0.41915146
243	0xbefc50fb	-0.49280533
244	0xbe19836c	-0.1499154
245	0x3e01dfb6	0.12682995
246	0xbf12825a	-0.5723015
247	0xbe1cf80d	-0.15328999
248	0xbc498706	-0.0123002585
249	0xbf14bf70	-0.5810461
250	0xbecb966a	-0.39763194
251	0xbe5546ca	-0.20827785
252	0x3eb587eb	0.3545526
253	0xbe3641b9	-0.17798509
254	0xbdc6d768	-0.09709054
255	0xbf1ba20b	-0.6079413

temporal.rnn.weight_hh_l1 f4 [128, 32]
0	0x3e2f769a	0.17135087
1	0x3e5a0a61	0.21293022
2	0x3e8d2376	0.27566117
3	0x3de710f4	0.112825304
4	0x3e673ad3	0.22581033
5	0xbe45d87e	-0.19320866
6	0x3e736b21	0.23771335
7	0xbdca9ff1	-0.09893788
8	0x3e839ca5	0.25705448
9	0xbea3d7cf	-0.32000586
10	0x3ddde0cf	0.108338945
11	0x3db48057	0.088135414
12	0x3e4a2f9b	0.19744723
13	0x3e0ad325	0.13557108
14	0x3ebd127e	0.3692817
15	0x3ebc8826	0.36822623
16	0x3e3d26da	0.18471852
17	0xbef28b3c	-0.47371852
18	0xbecef377	-0.40420124
19	0x3d020ea8	0.03175226
20	0x3e5c2cf4	0.21501523
21	0xbe9abcee	-0.30222267
22	0xbeb09291	-0.3448682
23	0xbed8d34b	-0.42348704
24	0x3f068884	0.52552056
25	0x3e64b434	0.22334367
26	0xbe31f464	-0.17378384
27	0x3ecd1a92	0.40059334
28	0x3dfc6f97	0.123259716
29	0x3d7f75c7	0.06236818
30	0x3d9682a2	0.07349135
31	0xbe164cf6	-0.14677796
32	0x3e426913	0.18985395
33	0x3e984ef7	0.29747745
34	0x3ddf7f65	0.109129705
35	0x3e2e83b2	0.17042425
36	0x3eb94451	0.36184934
37	0xbdbd9dfb	-0.09258648
38	0x3ea78087	0.32715246
39	0x3d2339b0	0.039849937
40	0x3e0f92f7	0.14020906
41	0xbe839bcc	-0.257048
42	0x3e95bb89	0.2924464
43	0xbe319af2	-0.17344263
44	0x3e0beebe	0.13665292
45	0x3eb787bd	0.35845748
46	0x3b863283	0.004095377
47	0xbcb350f7	-0.021889193
48	0xbcf24450	-0.02957359
49	0xbb675535	-0.003529859
50	0xbe351d15	-0.17686875
51	0xbe323f05	-0.17406853
52	0x3da96c18	0.0827257
53	0x3ebf64f3	0.37381706
54	0xbee5c719	-0.44878462
55	0xbd4e3c6f	-0.050350603
56	0x3e86c984	0.2632562
57	0x3ed381d3	0.41309986
58	0xbee165df	-0.44023034
59	0xbd99c4b4	-0.07508221
60	0xbea8233b	-0.3283938
61	0xbd08bfc1	-0.033385996
62	0x3e0a5dcb	0.13512342
63	0xbe6d89af	-0.23197053
64	0x3df7e857	0.12104862
65	0x3f068cf1	0.5255881
66	0xbe3a588d	-0.18197842
67	0xbe5eafca	-0.21746746
68	0x3e2ecdf1	0.17070748
69	0x3dc97e80	0.09838581
70	0x3d602291	0.054720465
71	0x3eda4340	0.42629433
72	0xbe5febe5	-0.2186733
73	0x3d875429	0.06607849
74	0x3f7ba1fa	0.9829403
75	0xbea62026	-0.32446402
76	0xbed01f38	-0.40648818
77	0xbe324bb1	-0.17411686
78	0x3ec94755	0.39312235
79	0xbe366c78	-0.17814815
80	0x3ea277b6	0.31731957
81	0x3be9ebc2	0.0071387
82	0xbe97b680	-0.29631424
83	0xbc332932	-0.010935115
84	0xbef16b2b	-0.47152075
85	0xbef15b7f	-0.47140118
86	0x3e88004c	0.26562726
87	0x3ea56917	0.3230674
88	0x3e44b9b6	0.19211468
89	0x3ec09d95	0.37620226
90	0xbef2f069	-0.47449043
91	0xbe611b33	-0.21983032
92	0x3d819319	0.06326885
93	0x3e05636d	0.13026209
94	0xbe0e7511	-0.13911845
95	0x3dd4a738	0.10383457
96	0xbf30fa78	-0.69132185
97	0xbf0921b5	-0.5356706
98	0xbc517e31	-0.012786434
99	0x3ec25ee1	0.37963012
100	0x3ed0826e	0.4072451
101	0xbf0ac7be	-0.5421103
102	0x3daf0893	0.08546557
103	0x3e8205e4	0.2539512
104	0xbe9b4e88	-0.30333352
105	0x3e706b14	0.23478347
106	0xbe8cf1b1	-0.27528146
107	0x3e2de7cd	0.16982956
108	0xbef9c764	-0.48784935
109	0xbe7565f2	-0.2396467
110	0xbee71b56	-0.45138043
111	0xbe0584cf	-0.13038944
112	0xbde09ee0	-0.10967803
113	0x3e04932d	0.12946768
114	0x3d90ddbb	0.07073542
115	0xbf0c871b	-0.54893655
116	0x3ed39475	0.413242
117	0xbe2ed02c	-0.17071599
118	0x3ddab858	0.10679692
119	0xbeb69128	-0.3565762
120	0xbe84ba02	-0.25923163
121	0x3cd384a5	0.025820086
122	0x3ecb8bec	0.3975519
123	0x3b9443d6	0.0045246882
124	0xbe9f339c	-0.31094062
125	0xbe413916	-0.18869433
126	0x3c16be89	0.009200701
127	0xbd5062bd	-0.050875414
128	0xbdd3f7ff	-0.10350036
129	0xbf2c5ae8	-0.6732621
130	0xbef4c487	-0.47806188
131	0x3e25be91	0.16185977
132	0x3cffc2c9	0.03122081
133	0xbf1edf02	-0.6205903
134	0x3df40109	0.1191426
135	0x3ef25a98	0.47334743
136	0x3d41402a	0.047180332
137	0x3e727040	0.23675632
138	0xbe72188f	-0.23642181
139	0xbde9baea	-0.11412604
140	0xbdd61f71	-0.10455216
141	0xbe543921	-0.20724918
142	0x3eb81708	0.3595507
143	0xbe769c21	-0.24082996
144	0x3e49c73a	0.19704905
145	0x3ecdef45	0.4022161
146	0xbe36e8fd	-0.17862315
147	0xbe582e14	-0.21111327
148	0x3edf7b16	0.43648595
149	0xbf1f54c8	-0.6223874
150	0x3e7f8730	0.24953914
151	0x3f6b2903	0.91859454
152	0x3e511b69	0.20420612
153	0xbef51fec	-0.47875917
154	0x3f169a03	0.58828753
155	0xbe2c89aa	-0.1684939
156	0xbdcff538	-0.10154194
157	0xbf2bdb78	-0.6713176
158	0x3e312812	0.17300442
159	0x3e2909ba	0.16507617
160	0xbe8a50a0	-0.27014637
161	0x3d7bdcc3	0.06148983
162	0xbee91ed6	-0.45531338
163	0x3e75decb	0.2401077
164	0xbea0718b	-0.31336626
165	0x3ebbd3f0	0.36685133
166	0xbee18957	-0.44050094
167	0x3f2f3086	0.68433416
168	0xbf20bd5e	-0.6278895
169	0x3eb8ba60	0.36079693
170	0x3e06c8e2	0.13162568
171	0xbe46f3ee	-0.1942899
172	0xbea37f4c	-0.31933057
173	0xbe925f60	-0.2858839
174	0x3e91ddc3	0.28489503
175	0xbf18c8f2	-0.5968162
176	0x3f3fb6ea	0.7488848
177	0x3e91e061	0.284915
178	0xbce2ac87	-0.027670158
179	0xbe6f4cd4	-0.23369151
180	0xbe0f1553	-0.13972978
181	0xbe1b904e	-0.15191767
182	0x3ec7816f	0.38965937
183	0x3d5e5fa3	0.054290425
184	0x3e5b1daf	0.21398042
185	0xbbf04813	-0.0073328107
186	0x3d089624	0.03334631
187	0xbf11ccef	-0.5695333
188	0xbdd50325	-0.104009904
189	0x3efaf2fe	0.49013513
190	0x3e25daba	0.16196719
191	0x3edb3d97	0.42820427
192	0xbe8b9e06	-0.27269
193	0xbea50610	-0.32231188
194	0xbe550a51	-0.20804717
195	0xbe99c422	-0.3003245
196	0x3e3ee990	0.18643785
197	0x3e9a7e93	0.30174693
198	0x3eda3eb0	0.42625952
199	0x3ed571cb	0.4168838
200	0xbe902d0f	-0.28159377
201	0x3ea97054	0.33093512
202	0xbef7caba	-0.48396856
203	0x3ecd38e7	0.40082476
204	0xbd918373	-0.0710515
205	0x3e904fa7	0.2818577
206	0x3d210e51	0.039320294
207	0xbe098464	-0.1342941
208	0xbd77af12	-0.060469694
209	0xbe6dfdcf	-0.23241352
210	0x3eaa9e37	0.33323833
211	0xbcf3e096	-0.029770177
212	0x3e8758ed	0.26435032
213	0x3e38d2b9	0.18049134
214	0xbf297e9f	-0.66208833
215	0xbd482142	-0.048859842
216	0x3ebeeac0	0.37288475
217	0xbf06770c	-0.525254
218	0x3ed40989	0.41413525
219	0xbe41033e	-0.18848893
220	0xbde93588	-0.113871634
221	0x3ef6e903	0.4822465
222	0x3e3f4c9d	0.1868157
223	0x3dc7d380	0.09757137
224	0xbe41f834	-0.18942338
225	0x3dbeb251	0.09311355
226	0xbdda6489	-0.10663707
227	0xbe62f8f4	-0.2216528
228	0x3ea1ca29	0.31599548
229	0xbea49e0e	-0.32151836
230	0xbf21517b	-0.63014954
231	0x3e26d317	0.16291462
232	0xbe8964eb	-0.26834807
233	0x3f0c01e7	0.546904
234	0x3eb7bbe1	0.35885528
235	0x3ed5b067	0.41736147
236	0xbeb6d447	-0.3570883
237	0xbdd4454d	-0.103647806
238	0x3ec2b299	0.38026884
239	0x3e109850	0.14120603
240	0x3f42fac6	0.761639
241	0x3f41f7b1	0.7576857
242	0x3e9f7121	0.31140998
243	0xbbcbcf4a	-0.006219779
244	0x3e49690b	0.19668977
245	0xbdcb3c05	-0.09923557
246	0x3ea3f87e	0.32025522
247	0xbe6fe373	-0.23426609
248	0x3e26a534	0.16273957
249	0x3d238e23	0.039930474
250	0x3e7abd8c	0.24486369
251	0xbf1f301e	-0.62182796
252	0x3cc1e168	0.023667052
253	0xbef5c9d7	-0.48005554
254	0x3f13b3be	0.5769614
255	0x3f278a7b	0.6544568

temporal.rnn.bias_ih_l1 f4 [128]
0	0x3d07ba4a	0.033136643
1	0xbe307adf	-0.17234372
2	0x3d8cf9f4	0.06883612
3	0xbf036015	-0.51318485
4	0xbe796b06	-0.24357232
5	0xbeb977f1	-0.3622432
6	0xbdbe43a0	-0.09290242
7	0xbccfa4a3	-0.02534706
8	0xbdac4bee	-0.0841292
9	0x3cfd6efc	0.03093671
10	0xbd729cb0	-0.05923146
11	0xbdd2537d	-0.102698304
12	0xbc2ff351	-0.0107391635
13	0xbe711c6f	-0.23546003
14	0x3dd80987	0.10548692
15	0xbdd6e6f8	-0.104932725
16	0xbe2f97f2	-0.17147806
17	0x3e5034c8	0.20332634
18	0xbe31d1e1	-0.17365219
19	0x3ef7c2cb	0.48390803
20	0x3c44f539	0.012021356
21	0x3d857f1d	0.065183856
22	0xbe1c828f	-0.15284179
23	0xbe7fe8f0	-0.24991202
24	0x3e256947	0.16153441
25	0xbdd22e3b	-0.10262724
26	0xbe118e7f	-0.14214514
27	0x3e66ae9c	0.22527546
28	0xbf01a590	-0.50643253
29	0xbdf8d704	-0.12150386
30	0xbd142dcb	-0.036176484
31	0x3e33812b	0.17529742
32	0xbe227560	-0.15865088
33	0xbcaab9a9	-0.020840483
34	0x3cd570d0	0.02605477
35	0xbeb65e07	-0.35618612
36	0xbd389dd7	-0.045072403
37	0x3f0a05f4	0.53915334
38	0x3ee64d61	0.4498091
39	0x3e78e4d0	0.24306035
40	0x3eda42a0	0.42628956
41	0x3efc0308	0.49221063
42	0xbe1d81ac	-0.15381497
43	0xbe96325c	-0.29335296
44	0x3db45d65	0.08806876
45	0xbe1abe61	-0.15111686
46	0x3f374f62	0.71605504
47	0x3da4e137	0.08050769
48	0x3bc9b9c3	0.0061561777
49	0x3ecc7fc6	0.39941233
50	0xbe20dd12	-0.15709332
51	0x3f417549	0.7556959
52	0x3e3f5a54	0.18686801
53	0xbdc247ef	-0.094863765
54	0x3e20a697	0.15688549
55	0x3f0469ec	0.51724124
56	0x3e126723	0.14297156
57	0xbeaf1453	-0.34195194
58	0xbe3db734	-0.18526918
59	0x3e221ab5	0.158305
60	0xbf1d10d2	-0.6135379
61	0x3e8bbf80	0.2729454
62	0xbe34bf66	-0.17651138
63	0x3ddf7379	0.109106965
64	0x3ea53b48	0.3227179
65	0x3ede8328	0.4345944
66	0x3e745d93	0.2386382
67	0xbe121a12	-0.14267758
68	0x3dfa062b	0.12208208
69	0x3e59cd3c	0.21269697
70	0xbd86cdb4	-0.065822035
71	0xbdc6731a	-0.09689923
72	0x3e801afc	0.25020587
73	0xbe986132	-0.29761654
74	0xbc1a68c8	-0.009424396
75	0x3e472f21	0.19451572
76	0x3e9d5449	0.30728367
77	0x3da0b672	0.07847299
78	0x3ea1c0cb	0.31592402
79	0xbc166eac	-0.00918166
80	0xbe218a7e	-0.15775487
81	0x3e1dc58a	0.15407386
82	0xbd788d99	-0.060681913
83	0x3f1a0321	0.60161024
84	0xbdbde72b	-0.092726074
85	0x3f180d0e	0.5939492
86	0x3e4ebbc7	0.20188819
87	0xbdc12a30	-0.09431875
88	0xbd693ae3	-0.056940924
89	0xbdc05d32	-0.093927756
90	0xbe0fb9e4	-0.14035755
91	0x3e3ec66b	0.18630378
92	0x3ea3418d	0.3188595
93	0x3d35efd7	0.044418182
94	0x3dc90aaa	0.09816487
95	0xbef8f72d	-0.4862608
96	0xbeb78967	-0.35847017
97	0xbec7c98f	-0.39020965
98	0x3de0daf9	0.10979266
99	0xbf0db3bc	-0.5535238
100	0x3e02e3e5	0.12782247
101	0x3e8da41f	0.27664277
102	0x3e9912f1	0.29897264
103	0x3e2e69ac	0.17032498
104	0x3f0eb10a	0.5573889
105	0x3e3bf0ec	0.18353623
106	0xbe0f8e9d	-0.14019246
107	0xbd8395a3	-0.06425025
108	0x3bd9944b	0.0066399924
109	0xbd99dd24	-0.07512882
110	0x3cd56adf	0.026051937
111	0xbe2a4f3a	-0.16631785
112	0xbcad451c	-0.021151118
113	0x3e32febc	0.17479986
114	0xbe7e397e	-0.24826619
115	0x3d8aa03b	0.06768843
116	0xbe1093fb	-0.1411895
117	0x3e1b211c	0.15149349
118	0xbe9dcbfd	-0.30819693
119	0x3ddd43fe	0.10803984
120	0x3daada63	0.08342435
121	0xbdd16e51	-0.10226119
122	0xbea3ef5a	-0.32018548
123	0x3cb079f9	0.021542536
124	0xbf1ac25c	-0.6045282
125	0x3ebf2d20	0.37339115
126	0xbce3d0a8	-0.027809456
127	0x3e067bed	0.13133211

temporal.rnn.bias_hh_l1 f4 [128]
0	0xbe15a394	-0.14613181
1	0x3c961164	0.01831884
2	0x3e007df4	0.12548047
3	0xbe7c5e2a	-0.24645296
4	0xbe46bbb5	-0.19407542
5	0xbeabe566	-0.33573455
6	0xbdca3e92	-0.098752156
7	0xbe8425ef	-0.2581019
8	0x3c5c2002	0.013435366
9	0x3d7b1587	0.061299827
10	0xbe07bbe2	-0.13255265
11	0x3b367cc6	0.0027845367
12	0x3cfda2e2	0.030961458
13	0xbeef1218	-0.46693492
14	0x3df6954d	0.120401956
15	0xbe0b0c53	-0.1357892
16	0xbe7289ca	-0.23685375
17	0x3e0f9e0b	0.14025132
18	0xbe117315	-0.14204057
19	0x3ee04b50	0.4380746
20	0xbe259643	-0.16170602
21	0xbdce01ca	-0.10058935
22	0xbe7b18e0	-0.24521208
23	0xbeac8556	-0.33695477
24	0x3e16db69	0.14732136
25	0xbe0b07c1	-0.13577177
26	0xbee8a684	-0.4543954
27	0x3e64ae8a	0.22332206
28	0xbefe855c	-0.4971112
29	0xbc69ff64	-0.014282081
30	0xbd351cdd	-0.04421698
31	0x3e33c4b2	0.17555502
32	0xbd7ced20	-0.061749578
33	0x3ccf1338	0.025277719
34	0x3d8e1c22	0.0693896
35	0xbe28e62e	-0.16494057
36	0xbd46d0fd	-0.04853915
37	0x3e8c5f6c	0.2741655
38	0x3e5ed5cb	0.21761243
39	0x3d346d8b	0.04404978
40	0x3ef616f5	0.4806439
41	0x3f066919	0.52504116
42	0xbdfbcef9	-0.12295336
43	0xbddbe672	-0.10737313
44	0xbe294a09	-0.16532148
45	0xbe0f15ca	-0.13973156
46	0x3f341da5	0.70357734
47	0x3e597fdb	0.21240179
48	0xbe40fcbf	-0.18846415
49	0x3e353ff8	0.17700183
50	0x3dcd8e67	0.10036927
51	0x3f29fd19	0.6640182
52	0x3e165d4b	0.14684026
53	0xbeadad63	-0.33921346
54	0xbd6bd51c	-0.057576284
55	0x3eb6f8be	0.3573665
56	0x3e9c6429	0.30545166
57	0xbe618d5f	-0.22026585
58	0xbec22765	-0.3792068
59	0x3ed227f5	0.4104611
60	0xbf197f31	-0.59959704
61	0x3e9fe777	0.3123128
62	0xbeb3eb0a	-0.35140258
63	0xbdff2aaa	-0.124593094
64	0x3e0db8c6	0.13840017
65	0x3e8e2b6a	0.27767497
66	0xbd5a581f	-0.053306695
67	0x3dabbda7	0.08385783
68	0xbd1e8083	-0.038696777
69	0x3d01a455	0.03165086
70	0x3e2cfcb1	0.16893269
71	0xbded7b34	-0.11595765
72	0x3e2e77f7	0.1703795
73	0xbefe3ac4	-0.4965421
74	0x3d98bf1a	0.07458325
75	0xbdaedac7	-0.08537822
76	0x3ed7fa0a	0.42182952
77	0xbe384dfb	-0.17998497
78	0x3da200cf	0.079103105
79	0x3e1b8155	0.15186055
80	0xbe538b6a	-0.20658651
81	0xbd9b7021	-0.07589746
82	0xbe0026fd	-0.12514873
83	0x3f29f36f	0.66387075
84	0xbe15b9aa	-0.14621606
85	0x3effd323	0.49965772
86	0xbe055462	-0.1302047
87	0x3d0d32cf	0.034472283
88	0x3d940490	0.07227433
89	0x3d1b92ad	0.037981678
90	0xbdb9c13e	-0.09070061
91	0x3de9cdb8	0.11416191
92	0x3e9594d8	0.2921512
93	0xbc256544	-0.010094944
94	0xbda91f46	-0.08257918
95	0xbef0e41e	-0.4704904
96	0xbebfa0ec	-0.3742746
97	0xbeab047d	-0.33401862
98	0x3e2a900b	0.1665651
99	0xbf1654a6	-0.58722913
100	0xbd4eb40a	-0.050464667
101	0x3effc2d2	0.49953324
102	0x3e759c85	0.23985489
103	0x3e20ab18	0.15690267
104	0x3f0f76ab	0.5604045
105	0x3e7e7f66	0.24853286
106	0xbe8888cd	-0.2666687
107	0xbcb4f375	-0.022088746
108	0xbe3dad15	-0.18523057
109	0xbdb07978	-0.08616918
110	0xbd846ef1	-0.06466473
111	0x3d6a76cc	0.0572422
112	0xbb03d904	-0.0020118365
113	0x3c8a4b19	0.016881512
114	0xbe03193e	-0.12802598
115	0x3e57f502	0.21089557
116	0x3c4ecd05	0.012622123
117	0xbdcc9589	-0.09989459
118	0xbec33cec	-0.38132417
119	0xbdcbd0fb	-0.09951969
120	0x3d91ff9c	0.07128832
121	0xbeb486ec	-0.35259187
122	0xbe49c8cb	-0.19705503
123	0x3e88bd48	0.2670691
124	0xbee37310	-0.44423723
125	0x3d6bdd61	0.05758417
126	0x3ce9dba3	0.028547114
127	0x3ec432e6	0.38320082
