notebook/output/rolling_models_dynamic/window_3.pth (torch, 479861 bytes, 99 tensors)

temporal.input_proj.weight f4 [32, 7]
0	0x3f5643ac	0.8369701
1	0x401d123d	2.4542382
2	0x40085205	2.130006
3	0xbe834c35	-0.2564408
4	0x3ca3e825	0.020008156
5	0xbe83bff0	-0.25732374
6	0xbd0254db	-0.031819206
7	0x3f3dff31	0.74217516
8	0x4029cb7e	2.6530452
9	0x400adf7e	2.1698909
10	0xbe8e3cb2	-0.27780682
11	0xbe302b9d	-0.17204137
12	0xbd3dcc07	-0.046337154
13	0xbd92396f	-0.07139861
14	0x3f6c6db2	0.9235488
15	0x3ecdc4e6	0.40189284
16	0xbdd02da1	-0.10164953
17	0xbe1f44b7	-0.15553556
18	0x3e5109e6	0.20413932
19	0xbe2c7d5d	-0.16844697
20	0x3ed424ae	0.41434234
21	0x3f9c8b16	1.2229946
22	0x4021841a	2.5236878
23	0x3fece333	1.8506836
24	0xbeae6903	-0.34064493
25	0xbdea257e	-0.11432932
26	0xbd4002da	-0.04687772
27	0xbc432b2a	-0.011912147
28	0x3f955e31	1.166937
29	0x3f599fa1	0.850092
30	0x3f631c2f	0.8871488
31	0x3e5026d0	0.20327306
32	0xbe5df041	-0.21673681
33	0xba5f3a51	-0.0008515465
34	0xbeb66056	-0.35620373
35	0x3c83420d	0.016022706
36	0x3f8b39ec	1.0877051
37	0x3fdd2f27	1.7280015
38	0x3ebcfb87	0.3691065
39	0xbe90c352	-0.28274018
40	0xbe0b57cd	-0.13607712
41	0xbe77afec	-0.24188203
42	0xbf9c06d6	-1.2189586
43	0xbf71c1a1	-0.9443608
44	0xbf609274	-0.8772347
45	0x3e5c8a1a	0.21537057
46	0xbd54c2f0	-0.05194372
47	0x3d0d30bd	0.03447031
48	0xbe0cd478	-0.13752925
49	0xbf469e7a	-0.77585566
50	0xbd8d7cb5	-0.069085516
51	0x3f4e4d00	0.8058624
52	0xbd83082e	-0.063980445
53	0xbc0ac0b8	-0.008468799
54	0xbe84937e	-0.25893778
55	0xbe91eaf8	-0.2849958
56	0xbfff0747	-1.9924096
57	0xbf834844	-1.0256429
58	0xbfc2093f	-1.5159072
59	0xbe2c19d7	-0.16806732
60	0x3e997474	0.2997166
61	0xbe499de3	-0.19689135
62	0x3d1ba57b	0.03799961
63	0x3f0f2f77	0.559318
64	0x3eb9e1c6	0.36305064
65	0x3e6f7535	0.23384555
66	0xbebbd07d	-0.366825
67	0x3d609c17	0.05483636
68	0xbea292a3	-0.317525
69	0x3e86efd8	0.2635486
70	0x3fac2310	1.34482
71	0x40233db0	2.55064
72	0x3ff06708	1.8781443
73	0x3e6d16cc	0.23153228
74	0xbd463248	-0.048387796
75	0xbe7dbbba	-0.24778643
76	0xbd0b023c	-0.033937678
77	0xbf735cae	-0.9506329
78	0xc01ba33c	-2.431838
79	0xbf91e267	-1.1397218
80	0xbe80331f	-0.25039002
81	0x3d405aa7	0.046961453
82	0x3e8beeec	0.2733072
83	0xbdae6e0d	-0.08517084
84	0xbf7eb9f0	-0.9950247
85	0xc03041d0	-2.7540169
86	0xc015bb82	-2.3395696
87	0xbdfd8ea6	-0.12380724
88	0xbe284e4b	-0.16436116
89	0x3eb42ae7	0.35188982
90	0x3b619de2	0.003442638
91	0xbf666aa4	-0.9000647
92	0xbfefffe9	-1.8749973
93	0xbfe3ff7c	-1.7812343
94	0xbd878bed	-0.066184856
95	0xbecbdfbf	-0.39819142
96	0x3f07cb57	0.53044647
97	0xbd857866	-0.06517105
98	0xbfcc5445	-1.5963217
99	0xc0035640	-2.0521393
100	0xc00e9f45	-2.228471
101	0x3dc61454	0.09671846
102	0x3d73939a	0.059466936
103	0x3dad270c	0.08454713
104	0x3de7ba93	0.11314883
105	0xbfdbe6c8	-1.7179804
106	0xc01ffb9f	-2.4997327
107	0xbfee7c08	-1.8631601
108	0xbdf281cc	-0.11841163
109	0x3d826897	0.06367605
110	0x3e536b2a	0.20646349
111	0xbd59606b	-0.053070467
112	0x3faf2908	1.3684397
113	0x3f1a90b8	0.60377073
114	0x3ecbf1b1	0.39832833
115	0x3c1edc08	0.009696014
116	0xbdf0fab7	-0.1176657
117	0xbc703bf3	-0.0146627305
118	0xbec1d088	-0.3785441
119	0x3f6b9fa7	0.92040485
120	0x3f6260c4	0.884289
121	0x3f3a501c	0.7277849
122	0xbeb31850	-0.34979486
123	0xbd4d9c7d	-0.050198067
124	0xbe4865c7	-0.19570075
125	0x3e10b13c	0.1413011
126	0xbf52e196	-0.82375467
127	0xc01adedf	-2.419853
128	0xbfcb45dc	-1.5880694
129	0x3e19bc3c	0.15013212
130	0xbdf11d53	-0.11773171
131	0x3eb1be9c	0.34715736
132	0xbd5f543e	-0.0545237
133	0x3f6e3bfc	0.9306028
134	0x3fc16d5d	1.51115
135	0x3ff6b7ed	1.927488
136	0xbe83b726	-0.2572567
137	0xbe6cc642	-0.23122504
138	0xbdc84355	-0.097784676
139	0xbc9af0c8	-0.018913642
140	0xbf30c4ff	-0.6905059
141	0xbfe3eb2c	-1.7806144
142	0xbfdeaf5e	-1.7397268
143	0x3bcd2d58	0.006261509
144	0x3ce91840	0.028453946
145	0x3e3ac286	0.18238267
146	0x3ddd8ef3	0.10818281
147	0xbed3983e	-0.4132709
148	0xbfc9ea10	-1.5774555
149	0xbfa756b5	-1.3073336
150	0xbae9a29c	-0.0017824951
151	0x3cb70062	0.02233905
152	0x3e94e9b7	0.2908456
153	0xbdea29a7	-0.11433726
154	0x3f451992	0.7699214
155	0x4012f978	2.2964764
156	0x3fc5a0de	1.5439718
157	0x3dd7b7ae	0.10533081
158	0xbdd76762	-0.105177656
159	0xbe57a912	-0.21060589
160	0x3ce98130	0.028503984
161	0xbf9d3fce	-1.2285097
162	0xbffc30da	-1.9702408
163	0xbfa31f3d	-1.2743908
164	0xbe0ba7c1	-0.13638212
165	0x3d8013f1	0.062538035
166	0x3c75ee52	0.015010433
167	0x3e9c0b5a	0.3047741
168	0xbfd94ad7	-1.6975964
169	0xbf93af28	-1.1537828
170	0xbfd04ba2	-1.6273081
171	0xbd663a69	-0.056208048
172	0x3e3b919d	0.18317266
173	0x3e7637bc	0.24044698
174	0xbe2d0c9e	-0.16899344
175	0x3ef8c7f7	0.4859006
176	0x4014b936	2.3238044
177	0x3f80e534	1.0069947
178	0x3e86340e	0.2621159
179	0x3d912d3c	0.07088706
180	0xbe6fabf0	-0.23405433
181	0xbe020dd1	-0.12700583
182	0xbf7bc8f0	-0.9835348
183	0xc001d94e	-2.0288882
184	0xbffbb744	-1.9665303
185	0x3e3def9b	0.18548433
186	0xbe882ac0	-0.26595116
187	0x3ebe0765	0.37115017
188	0x3c8774c5	0.016535172
189	0x3ebf1617	0.3732154
190	0xbf319daf	-0.6938123
191	0xbec66332	-0.38747555
192	0x3cbb18fb	0.02283906
193	0x3e7ebe48	0.24877274
194	0x3da4ff32	0.08056487
195	0xbe403962	-0.1877189
196	0x3f9a12ce	1.2036989
197	0x40239e5e	2.556541
198	0x3ffe8fc2	1.9887621
199	0x3e48f49a	0.19624558
200	0x3c52e8c7	0.012872881
201	0xbe5cd3db	-0.21565191
202	0xbc843ee1	-0.016143264
203	0xbf18ee3a	-0.59738505
204	0x3ebde9a7	0.37092325
205	0x3f0dcd77	0.5539164
206	0x3dc15458	0.094399154
207	0x3d8a623b	0.06757017
208	0xbeca8748	-0.39556336
209	0x3e500cdb	0.20317404
210	0x3fcba20f	1.5908831
211	0x3f81b2c7	1.0132684
212	0x3f7d43ee	0.9893178
213	0x3e37ca51	0.17948271
214	0xbe13eef3	-0.1444662
215	0xbd505639	-0.05086348
216	0xbe8b644e	-0.27224964
217	0x3f58d011	0.84692484
218	0xbdaa47b3	-0.08314457
219	0xbe43ae53	-0.19109468
220	0x3e5aeff3	0.21380596
221	0xbed19bc4	-0.40939152
222	0x3e924de8	0.28575063
223	0x3e68001b	0.2265629

temporal.input_proj.bias f4 [32]
0	0x3e28ecbe	0.1649656
1	0x3e5871b6	0.21137127
2	0xbedb8951	-0.42878202
3	0x3dfb3c58	0.12267369
4	0xbf545818	-0.8294692
5	0x3ec373f1	0.38174394
6	0x3e279a3e	0.16367432
7	0x3f29558d	0.66146165
8	0xbd4cdfad	-0.050018
9	0xbd271958	-0.040795654
10	0x3e71a477	0.23597895
11	0xbde43470	-0.11142814
12	0xbe6f8ded	-0.23393984
13	0xbe8214ab	-0.25406393
14	0xbeaf5530	-0.3424468
15	0xbea7956e	-0.32731193
16	0xbed81ab8	-0.42207885
17	0x3ebf702f	0.37390277
18	0xbec4b601	-0.38420108
19	0x3ec2bc63	0.38034353
20	0xbe7d4c60	-0.24736166
21	0xbedc1b4d	-0.4298958
22	0x3eb305c2	0.3496533
23	0xbe03c660	-0.12868643
24	0x3f1c64db	0.61091393
25	0xbe039aad	-0.12851973
26	0xbe017b47	-0.12644683
27	0xbee15707	-0.4401171
28	0xbc0711ea	-0.008244017
29	0x3f2c3691	0.6727076
30	0xbf198c3f	-0.59979624
31	0xbedb0163	-0.42774495

temporal.layer_norm.weight f4 [32]
0	0x3f971dd2	1.1805975
1	0x3f9a7229	1.2066089
2	0x3f2f559a	0.6848999
3	0x3f9d7396	1.2300899
4	0x3f3a53b9	0.72784
5	0x3f8201c0	1.0156784
6	0x3eeec76c	0.46636522
7	0x3f6b2322	0.91850483
8	0x3f929314	1.1451135
9	0x3ee038fc	0.43793476
10	0x3f924354	1.1426797
11	0x3f84158e	1.0319078
12	0x3faeac8a	1.3646405
13	0x3fb0e7fe	1.3820798
14	0x3f8809a9	1.0627948
15	0x3f833fac	1.0253806
16	0x3f7f6ec1	0.9977837
17	0x3f31af64	0.6940825
18	0x3f932268	1.1494875
19	0x3f9115ed	1.1334816
20	0x3f8509e2	1.0393641
21	0x3f9e6f6f	1.2377757
22	0x3f8d16e1	1.1022607
23	0x3f52b6e7	0.82310337
24	0x3eeec560	0.4663496
25	0x3f9f8b7d	1.2464443
26	0x3fb279c2	1.3943408
27	0x3f488a31	0.78335863
28	0x3fbd124d	1.477121
29	0x3f85e31f	1.0459937
30	0x3f346191	0.70461375
31	0x3f462d26	0.7741264

temporal.layer_norm.bias f4 [32]
0	0xbd57d6d5	-0.052695114
1	0xbe3be65f	-0.18349598
2	0x3ec86759	0.39141348
3	0x3d25a1b1	0.040437404
4	0x3ea76606	0.32695025
5	0xbe772c2b	-0.24137942
6	0xbe374b02	-0.17899707
7	0xbec5e696	-0.38652486
8	0xbe388b72	-0.18021944
9	0x3de0a620	0.10969186
10	0xbe01016f	-0.12598203
11	0xbe6e762e	-0.2328727
12	0xba8f6719	-0.001094076
13	0xbe2a5341	-0.16633321
14	0xbdb0105c	-0.0859687
15	0xbe2bc333	-0.16773681
16	0x3e373ddb	0.1789469
17	0x3e31e40b	0.17372148
18	0x3d0839a4	0.033258095
19	0xbe097efd	-0.13427348
20	0x3e51ed99	0.20500793
21	0xbccddc39	-0.025129424
22	0x3de7d868	0.11320573
23	0xbd7b1c84	-0.06130649
24	0xbf368152	-0.7129108
25	0x3de2c18c	0.110720724
26	0x3dfe8a3a	0.124287084
27	0x3d2da42b	0.04239289
28	0x3d15e201	0.036592487
29	0xbe3cd511	-0.18440653
30	0x3eb1b9c8	0.34712052
31	0x3eaa5944	0.3327123

temporal.rnn.weight_ih_l0 f4 [128, 7]
0	0xbeafa3e3	-0.34304723
1	0xbee55f6c	-0.44799364
2	0xbe39f3eb	-0.18159454
3	0xbe5a3a59	-0.2131132
4	0xbe8973bf	-0.2684612
5	0xbe8c9327	-0.27456018
6	0xbe4de46d	-0.20106669
7	0xbeeb0316	-0.45900792
8	0xbeaf1253	-0.34193668
9	0xbeca7f8c	-0.39550436
10	0xbeb5afcf	-0.35485694
11	0x3cc425bc	0.023943774
12	0xbc382848	-0.011240073
13	0x3de37a19	0.11107273
14	0xbecea817	-0.40362617
15	0xbee902c0	-0.4550991
16	0xbe9bfd5a	-0.3046673
17	0xbe517eb2	-0.20458487
18	0xbeac612f	-0.33667895
19	0xbebeef44	-0.3729192
20	0x3dc42872	0.09578027
21	0x3ee08335	0.43850103
22	0x3eee6e8e	0.46568722
23	0x3e9134e0	0.28360653
24	0x3e72bf76	0.23705849
25	0x3ed7308c	0.42029226
26	0x3e812737	0.2522523
27	0xbe5e7b8d	-0.21726818
28	0x3ec6a8a4	0.38800538
29	0x3e8a82c4	0.2705289
30	0x3ea06ea2	0.31334406
31	0x3e81c9d9	0.2534931
32	0x3e177d85	0.14793976
33	0x3d546f6c	0.051864073
34	0x3d83c871	0.064347155
35	0xbf547c86	-0.8300251
36	0xbf72d1a5	-0.9485114
37	0xbf27ca35	-0.6554292
38	0xbf59e749	-0.8511854
39	0xbd88505b	-0.066559516
40	0xbd1ca8d3	-0.03824694
41	0xbe8929b4	-0.2678963
42	0x3e6c4994	0.23074943
43	0x3c0e80e1	0.008697719
44	0x3da15be8	0.07878858
45	0x3d778364	0.06042804
46	0xbe3a2c20	-0.18180895
47	0x3d837027	0.06417876
48	0xbe6c04dc	-0.23048729
49	0x3e3e8a3f	0.18607424
50	0x3e819b3e	0.25313753
51	0x3d9d72b6	0.07687895
52	0x3e6a894e	0.2290394
53	0xbe952ef7	-0.29137394
54	0xbe6e7b1b	-0.23289149
55	0x3dfa4ae4	0.122213155
56	0xbecd3918	-0.40082622
57	0xbf1cb262	-0.6120969
58	0xbe9df136	-0.30848092
59	0xbf24ccd5	-0.6437505
60	0xbdd922d3	-0.10602345
61	0x3d4549df	0.048166152
62	0x3d8f22ed	0.069890834
63	0xbe872ce0	-0.26401424
64	0xbe8396fd	-0.25701132
65	0xbe6cbd3d	-0.23119064
66	0xbeeab05e	-0.45837682
67	0xbe9298d2	-0.28632218
68	0xbe671d03	-0.22569661
69	0xbdcf6319	-0.10126323
70	0xbe857906	-0.26068896
71	0xbe8ee322	-0.27907664
72	0xbeae9ec3	-0.341055
73	0xbeaa7987	-0.33295843
74	0xbe79a0e7	-0.24377786
75	0xbe2b325d	-0.16718431
76	0xbe6406d1	-0.22268225
77	0xbeda5884	-0.42645657
78	0xbe5c8107	-0.21533595
79	0xbe312917	-0.17300831
80	0xbe9ac57d	-0.30228797
81	0xbed411fe	-0.41419977
82	0xbef4fdc2	-0.47849852
83	0x3e1b77c9	0.15182413
84	0x3eccabc7	0.39974806
85	0x3e2abeb1	0.16674305
86	0x3ebd75ba	0.3700388
87	0x3efcd0bd	0.49378005
88	0xbe3ae51b	-0.1825146
89	0xbe86bf8c	-0.26318014
90	0x3e116d8b	0.14201944
91	0xbf164fbe	-0.58715427
92	0xbeeccc98	-0.46249843
93	0xbf07d631	-0.53061205
94	0xbecffd37	-0.40622875
95	0x3d24107f	0.040054794
96	0xbdeaec81	-0.11470891
97	0xbe8277a3	-0.254819
98	0xbf0041bc	-0.501003
99	0xbe4fb51d	-0.20283933
100	0xbead0392	-0.33791786
101	0xbe99f939	-0.30072954
102	0xbe95efc3	-0.29284486
103	0xbe5ee6d4	-0.21767741
104	0xbea64805	-0.32476822
105	0xbeec7479	-0.46182612
106	0xbee08350	-0.43850183
107	0xbe98bbd7	-0.2983081
108	0xbf19bcae	-0.6005353
109	0xbccfa788	-0.02534844
110	0xbe327e2e	-0.17430946
111	0xbe844cc4	-0.25839818
112	0x3b98a974	0.0046588723
113	0x3deb44d7	0.114877395
114	0x3e025319	0.12727012
115	0xbe04e944	-0.12979609
116	0x3e7e838a	0.24854866
117	0x3e3154e5	0.17317541
118	0xbe14e008	-0.14538586
119	0xbf114190	-0.56740665
120	0xbeb9c37f	-0.36281964
121	0xbec44c02	-0.3833924
122	0xbf10d381	-0.5657273
123	0xbe26f6b7	-0.16305052
124	0xbec90329	-0.39260224
125	0xbd94afe7	-0.07260113
126	0xbed061c5	-0.40699592
127	0xbf113a52	-0.56729615
128	0xbf20d0c6	-0.62818563
129	0xbf001b73	-0.50041884
130	0x3e0d809a	0.13818589
131	0xbcd9cff8	-0.026588425
132	0xbe70bb15	-0.23508866
133	0xbf25311a	-0.6452805
134	0xbf26e5a4	-0.65194154
135	0xbea6087a	-0.32428342
136	0xbeb817ce	-0.35955662
137	0xbc89eb22	-0.016835753
138	0xbc149f71	-0.009071217
139	0xbddf9bd4	-0.10918394
140	0x3dc1e037	0.09466594
141	0x3e285043	0.16436867
142	0x3da2cf27	0.079496674
143	0xbc65df83	-0.01403034
144	0xbedb552e	-0.42838424
145	0xbebfa241	-0.37428477
146	0x3e8bb6f4	0.2728802
147	0xbcf17b1c	-0.029477648
148	0xbe933578	-0.2875173
149	0xbe1ae8ee	-0.15127918
150	0xbe94ee67	-0.29088137
151	0xbded778d	-0.11595068
152	0xbe630d08	-0.2217294
153	0xbd244c20	-0.04011166
154	0xbecb47e9	-0.397033
155	0xbf06857a	-0.5254742
156	0xbee95195	-0.45570055
157	0xbe9fe3e7	-0.31228563
158	0xbe9fa3b3	-0.3117958
159	0xbdaa73ae	-0.083228454
160	0xbd417f4e	-0.047240548
161	0xbc954d80	-0.018225431
162	0xbe32715b	-0.17426054
163	0xbd645ce4	-0.05575265
164	0xbca726ad	-0.020404184
165	0xbee118ea	-0.4396432
166	0xbecb2946	-0.39679927
167	0x3eac030b	0.33596072
168	0xbe8ea971	-0.2786365
169	0xbe901f5e	-0.2814893
170	0xbe34f5e0	-0.17671919
171	0xbeaffa87	-0.34370825
172	0xbe34e876	-0.17666802
173	0xbdb87170	-0.090060115
174	0x3eb965ec	0.36210573
175	0xbf276b01	-0.6539765
176	0xbf102bfe	-0.56317127
177	0xbf431b52	-0.7621356
178	0xbf0afb25	-0.54289466
179	0x3d8dd27c	0.06924912
180	0x3e599ad9	0.21250476
181	0xbe27bba9	-0.1638018
182	0xbed9839a	-0.42483217
183	0xbea81245	-0.3282644
184	0xbed85c82	-0.42258078
185	0xbebeae14	-0.37242186
186	0x3ded2fcf	0.115813844
187	0x3dc1be0b	0.09460076
188	0xbedbfed9	-0.4296787
189	0xbedfd1aa	-0.43714648
190	0xbebb5b68	-0.36593175
191	0xbf1213b4	-0.57061315
192	0xbe83e412	-0.2575994
193	0x3e8f38ba	0.27972966
194	0x3d345c54	0.044033363
195	0xbdd2bee2	-0.10290314
196	0xbd1ec4d7	-0.03876194
197	0x3e2aeca2	0.16691831
198	0x3cd2aeaf	0.025718061
199	0x3e825c60	0.25461102
200	0xbe4461ef	-0.19177984
201	0xbe2e6007	-0.17028819
202	0xbeb8078a	-0.35943252
203	0xbe13b466	-0.14424285
204	0xbeb59cd1	-0.35471204
205	0xbcbf7cd2	-0.023374949
206	0xbea6ae4b	-0.3255485
207	0xbceb2640	-0.028704762
208	0x3e77b093	0.24188451
209	0x3da8619a	0.08221741
210	0x3e2c1e21	0.16808368
211	0x3e7f1ba4	0.24912888
212	0x3d854a95	0.06508366
213	0xbd231221	-0.03981221
214	0x3b25063c	0.0025180718
215	0x3cfdc56d	0.030977929
216	0xbeb75523	-0.35807142
217	0xbe7b9998	-0.2457031
218	0xbde99fa8	-0.11407405
219	0xbe6f307d	-0.2335834
220	0xbecbee92	-0.39830452
221	0xbe218a7d	-0.15775485
222	0xbe0e8107	-0.13916408
223	0x3e1132c4	0.14179522
224	0xbe4dea5f	-0.20108937
225	0xbeb1484c	-0.3462547
226	0xbe3c5f11	-0.1839564
227	0xbee34f54	-0.4439646
228	0xbdf4465c	-0.119274825
229	0xbe4374f8	-0.19087589
230	0xbdc069f7	-0.09395211
231	0xbe86cb56	-0.26327008
232	0xbeb98871	-0.3623691
233	0xbe83f7b5	-0.25774923
234	0xbebab3ff	-0.3646545
235	0xbd8af4b0	-0.06784952
236	0xbe613d0d	-0.21995945
237	0xbe2196a7	-0.15780126
238	0xbe595cea	-0.2122685
239	0xbec12bed	-0.37728825
240	0xbee3205b	-0.44360623
241	0xbee5a044	-0.44848835
242	0xbdb02de7	-0.08602505
243	0x3d5b0afe	0.05347728
244	0xbe60ca57	-0.21952187
245	0x3ef188b2	0.47174603
246	0x3e9f85fa	0.31156904
247	0x3eb41eed	0.35179844
248	0x3e2be011	0.16784693
249	0x3ea005b8	0.31254363
250	0x3e0f6fd2	0.140075
251	0xbe2e7802	-0.17037967
252	0x3e808c2b	0.2510694
253	0x3e196707	0.14980708
254	0x3e94dbb9	0.29073885
255	0x3d022b4a	0.031779565

temporal.rnn.weight_hh_l0 f4 [128, 32]
0	0x3e0f5043	0.13995461
1	0xbe84692f	-0.258615
2	0x3dcd70f1	0.100313075
3	0x3c8af17e	0.016960856
4	0xbd9b79e1	-0.07591606
5	0x3e998670	0.2998538
6	0x3dd0a1fa	0.101871446
7	0x3e5a2935	0.21304782
8	0x3ed9b71b	0.4252251
9	0xbd96214a	-0.07330568
10	0x3d0794b0	0.033100784
11	0x3db3ab27	0.08772879
12	0xbe2d6de4	-0.16936451
13	0xbe458dd7	-0.19292389
14	0x3ccc1853	0.024913942
15	0xbe3ead9e	-0.18620917
16	0x3e969791	0.2941251
17	0xbe0cde4a	-0.13756672
18	0xbd86ed43	-0.06588223
19	0xbecf18ef	-0.4044871
20	0xbe5ce85a	-0.2157301
21	0x3e766c4f	0.24064754
22	0xbcb99b0c	-0.02265694
23	0xbe0d6c5e	-0.1381087
24	0xbcd11af7	-0.025525553
25	0xbf00919a	-0.5022217
26	0x3db9378b	0.09043797
27	0xbe8897d9	-0.2667835
28	0x3d7fa054	0.06240876
29	0xbe59d9dd	-0.21274514
30	0xbe8dbb7c	-0.27682102
31	0xbe3ce8dd	-0.18448205
32	0xbd2e3de8	-0.042539507
33	0xbde6d7a7	-0.11271601
34	0x3dd9936b	0.10623821
35	0x3c8ed7a5	0.017436812
36	0x3dbd49a8	0.092425644
37	0xbd798154	-0.060914353
38	0x3e33139e	0.17487952
39	0x3dc198dc	0.09452984
40	0x3db4427d	0.08801744
41	0xbe2e9c83	-0.17051892
42	0x3e27fd73	0.16405277
43	0xbdd2174d	-0.102583505
44	0xbe68056e	-0.22658321
45	0xbe78e03c	-0.24304289
46	0x3cd8eaf3	0.02647922
47	0x3c0fefd4	0.008785207
48	0xbd3e36a5	-0.04643883
49	0xbdd911fb	-0.105991326
50	0xbdf0fa55	-0.11766497
51	0xbcbd0d08	-0.023077503
52	0x3d7696ed	0.060202528
53	0x3d8e276e	0.06941114
54	0xbdfae875	-0.12251369
55	0xbdfb5993	-0.12272944
56	0x3da3756a	0.07981379
57	0xbdb11008	-0.08645636
58	0xbcff0570	-0.031130522
59	0xbd38a9e3	-0.04508389
60	0x3e4533ea	0.19258085
61	0xbe4b8c13	-0.19877653
62	0xbe1876cd	-0.14889069
63	0x3e30213c	0.17200178
64	0xbe0861ef	-0.13318609
65	0xbdef93ab	-0.11698087
66	0x3c5bd50c	0.013417494
67	0xbe1de690	-0.15419984
68	0xbe1c1b27	-0.15244733
69	0xbd874a03	-0.066059135
70	0xbb5daa09	-0.0033823273
71	0x3e148d37	0.14506994
72	0xbc4e8c60	-0.01260671
73	0xbe40a699	-0.18813552
74	0x3e2fb012	0.17157009
75	0xbe8a77cb	-0.2704452
76	0xbe78f5d0	-0.2431252
77	0x3e15192f	0.14560388
78	0xbda38eb9	-0.079862066
79	0xbc62d083	-0.013843658
80	0xbc13fe87	-0.009032852
81	0xbde2bfe9	-0.1107176
82	0xbdad03c1	-0.084479816
83	0x3d730240	0.059328318
84	0xbe9fb0f8	-0.31189704
85	0x3e48c084	0.19604689
86	0x3ae54df8	0.001749455
87	0xbe5785eb	-0.2104718
88	0xbd557891	-0.052116934
89	0x3df56bfa	0.119834855
90	0x3d912eb2	0.070889845
91	0x3e5c96b4	0.21541864
92	0xbe1dc69b	-0.15407793
93	0xbe06b63b	-0.13155453
94	0xbdbc071c	-0.091810435
95	0x3e5df415	0.21675141
96	0xbc953a3d	-0.018216247
97	0x3dc37e57	0.09545582
98	0xbda8cbfe	-0.082420334
99	0x3ec372a8	0.38173413
100	0xbdca8a1e	-0.09889625
101	0x3cb134ba	0.021631587
102	0xbaf8972b	-0.001896595
103	0x3e40da05	0.18833168
104	0x3e2ac1d3	0.166755
105	0x3ddf38ff	0.10899543
106	0x3de0a4e5	0.10968951
107	0xbe6b55d8	-0.22981966
108	0x3dd6e03d	0.10491989
109	0xbe6f07fd	-0.23342891
110	0x3da160df	0.07879805
111	0x3d2e278c	0.042518184
112	0xbeb460fa	-0.35230237
113	0x3d965471	0.07340325
114	0x3e139cc9	0.14415278
115	0xbdf1e1b5	-0.11810628
116	0x3dab276e	0.0835713
117	0x3d640726	0.05567088
118	0x3e812257	0.25221512
119	0x3da8e89b	0.08247491
120	0xbe40efd5	-0.18841489
121	0xbd5d3ff6	-0.054016076
122	0x3e9e38a9	0.30902603
123	0xbdaa328c	-0.08310422
124	0xbc04c039	-0.00810247
125	0xbe04b8a0	-0.12961054
126	0x3e26c0da	0.16284505
127	0xbe9f77f9	-0.3114622
128	0x3d853086	0.06503396
129	0xbe11e7e5	-0.14248617
130	0x3d1644b2	0.036686607
131	0x3de94082	0.11389257
132	0xbe3b57ec	-0.18295258
133	0x3e9e365b	0.30900845
134	0xbdf4565a	-0.11930533
135	0xbdc3be04	-0.09557727
136	0x3e7c2cb8	0.24626434
137	0xbb98973d	-0.004656701
138	0x3cb87c32	0.022520158
139	0xbd9d73bc	-0.0768809
140	0xbd49a729	-0.049231682
141	0xbe6d790c	-0.23190707
142	0x3dc5e8e1	0.09663559
143	0xbd7c4987	-0.06159356
144	0x3d68dde5	0.05685224
145	0xbe9a940e	-0.30191082
146	0x3e02e19e	0.12781379
147	0xbe9bc472	-0.30423313
148	0xbead4a38	-0.33845687
149	0x3d3678b4	0.044548705
150	0xbe50bb55	-0.20383961
151	0x3da602bd	0.08105991
152	0xbe84e876	-0.25958604
153	0xbf00536f	-0.5012731
154	0xbce0b789	-0.027431266
155	0xbedbbf52	-0.42919403
156	0x3d87f6de	0.06638883
157	0x3e8e4476	0.27786607
158	0x3cbcdb36	0.023053747
159	0xbd6e2ca2	-0.058148034
160	0x3d87c5ff	0.06629562
161	0xbdce4d04	-0.10073283
162	0x3d1762b2	0.036959358
163	0xbec46ea7	-0.3836567
164	0x3eb85014	0.35998595
165	0x3e23d8fc	0.16000742
166	0xbc2de17f	-0.0106128445
167	0x3e375cc5	0.17906483
168	0x3d8dd242	0.06924869
169	0xbe0b09da	-0.13577977
170	0xbdbefa66	-0.093251035
171	0xbdabca3b	-0.08388182
172	0xbe325182	-0.17413905
173	0x3cd65c84	0.026167162
174	0x3e51f97f	0.20505331
175	0x3e1f58f3	0.15561275
176	0x3d5f5ee8	0.05453387
177	0x3d087b28	0.033320576
178	0x3d01f58b	0.03172831
179	0xbe885f4d	-0.2663521
180	0x3d902639	0.070385404
181	0x3d98a25c	0.074528426
182	0x3ce50c30	0.027959913
183	0xbd8a81a6	-0.0676301
184	0x3d748469	0.05969659
185	0xbdb678ac	-0.08909735
186	0xbc99c512	-0.018770728
187	0xbe0c988e	-0.1373007
188	0x3e1309e9	0.14359249
189	0xbe58ac65	-0.21159513
190	0xbeb8786a	-0.3602937
191	0x3e44c0a7	0.19214116
192	0x3ebde28c	0.37086904
193	0xbd27dcad	-0.040981937
194	0xbe4b7812	-0.19870022
195	0x3e34b4d9	0.17647113
196	0x3d6c6914	0.057717398
197	0x3e522ec4	0.20525652
198	0xbd09a32e	-0.033602886
199	0xbd154027	-0.036438134
200	0x3e2dc645	0.16970165
201	0x3e280d11	0.16411234
202	0x3e78b913	0.2428935
203	0xbdca0e27	-0.098659806
204	0xbd806393	-0.06268992
205	0xbec5cf98	-0.38634944
206	0xbd890117	-0.06689661
207	0x3e1d49e8	0.15360224
208	0x3d94cfce	0.07266198
209	0x3c93fc99	0.018064784
210	0xbe0a9107	-0.13531886
211	0xbe320a6b	-0.17386787
212	0xbd8c7760	-0.068587065
213	0x3e188efd	0.14898296
214	0xbb3ee98b	-0.0029130902
215	0x3e360714	0.17776138
216	0xbeb47491	-0.35245183
217	0xbe1a7e69	-0.15087284
218	0x3cd7968c	0.026316904
219	0xbe4721a4	-0.19446427
220	0x3ea31d9c	0.31858528
221	0xbe6033b9	-0.2189473
222	0x3c11d88c	0.008901726
223	0xbe5c90e8	-0.21539652
224	0xbe1367a8	-0.1439501
225	0xbe0b642c	-0.13612431
226	0xbc88c785	-0.0166967
227	0x3dbe99c4	0.09306672
228	0xbd459374	-0.048236325
229	0xbe151b2d	-0.14561148
230	0xbd862132	-0.065493
231	0xbd0128a4	-0.0315329
232	0xbe4895e2	-0.19588426
233	0x3cd2e64b	0.025744578
234	0xbc311e99	-0.010810518
235	0xbe89133c	-0.26772487
236	0x3ea80c2b	0.32821783
237	0x3e2f73b9	0.17133988
238	0xbddd19a9	-0.1079591
239	0x3de7f9f7	0.11326974
240	0x3d305a76	0.04305502
241	0xbda3f4f3	-0.08005705
242	0x3dbe0635	0.09278528
243	0x3df4efb4	0.11959782
244	0xbe361de3	-0.17784838
245	0x3d45df21	0.048308495
246	0xbe1d53e4	-0.15364033
247	0xbdc15efa	-0.094419435
248	0x3eae9f90	0.34106112
249	0x3edeb7f2	0.43499714
250	0x3e06989e	0.13144156
251	0x3eccfd5b	0.40037045
252	0xbe0aae5b	-0.13543074
253	0x3d25da2d	0.04049127
254	0x3d3c833a	0.046023585
255	0x3e675e42	0.2259455

temporal.rnn.bias_ih_l0 f4 [128]
0	0x3e9e0b91	0.308682
1	0xbe5e270e	-0.21694586
2	0xbe5f1bc4	-0.21787935
3	0x3ed83b2b	0.42232642
4	0xbda2cb5e	-0.079489455
5	0x3e6990f1	0.22809197
6	0x3dc7789e	0.09739803
7	0xbeb7fdce	-0.35935825
8	0x3d0b0aa3	0.03394569
9	0x3cd017bd	0.025401944
10	0xbe3e7acc	-0.18601531
11	0xbeafd3bc	-0.34341228
12	0xbd862333	-0.065496825
13	0xbd5c7f54	-0.053832367
14	0xbdd75c0a	-0.10515602
15	0xbddfe83c	-0.10932967
16	0x3e1257f0	0.14291358
17	0xbdf4c80c	-0.119522184
18	0xbce62f39	-0.02809869
19	0xbcdfddde	-0.027327474
20	0xbea55c60	-0.3229704
21	0xbdba9422	-0.09110285
22	0x3ddf0c70	0.10891044
23	0xbefc2603	-0.4924775
24	0xbe3d4f7b	-0.1848735
25	0x3e229cfa	0.15880194
26	0xbdc1725b	-0.0944564
27	0x3e35ceda	0.17754689
28	0xbe08237c	-0.13294786
29	0xbdc9d54d	-0.09855137
30	0xbb7ec3ab	-0.0038873951
31	0xbd832d1b	-0.064050876
32	0xbd7686b1	-0.060187045
33	0xbe300c8a	-0.17192283
34	0xbe212cc7	-0.15739737
35	0x3d8a6591	0.067576535
36	0x3bf47dd1	0.0074612875
37	0x3e9cc6b3	0.30620345
38	0xbe2ed794	-0.17074424
39	0xbe29c6b7	-0.1657971
40	0xbcf73366	-0.030175876
41	0x3cdd41d5	0.02700893
42	0x3e51dc60	0.20494223
43	0xbe28c001	-0.16479494
44	0xbda49f28	-0.08038169
45	0x3e01d1a2	0.12677625
46	0xbdce7d6a	-0.100825146
47	0xbdbbde75	-0.0917329
48	0x3ea0903f	0.3136005
49	0xbe4286a9	-0.18996681
50	0x3d1a97ac	0.0377423
51	0xbaac7252	-0.0013156629
52	0xbe2d9825	-0.1695257
53	0xbe44fece	-0.19237825
54	0x3e9297ab	0.28631338
55	0xbe819b82	-0.25313956
56	0xbcce76b6	-0.02520309
57	0x3e6a7d5b	0.22899382
58	0xbdea43f2	-0.11438741
59	0x3e952a9e	0.29134077
60	0x3d85c07b	0.06530853
61	0xbca6ecf4	-0.02037666
62	0x3b7c7550	0.0038522072
63	0xbe8b781f	-0.27240083
64	0x3e48d853	0.19613771
65	0xbe898973	-0.26862678
66	0x3e3f482a	0.18679872
67	0xbdd6a0d5	-0.10479895
68	0x3d5f0b46	0.05445411
69	0x3ea3f3ff	0.32022092
70	0x3e82f002	0.25573736
71	0x3dd3fb5a	0.10350676
72	0x3e043f30	0.12914729
73	0x3e271c55	0.16319402
74	0x3d89fdc4	0.06737855
75	0x3e803836	0.25042886
76	0xbb74d854	-0.0037360387
77	0xbe8a1eaf	-0.26976535
78	0x3e096617	0.1341785
79	0xbe8f3608	-0.2797091
80	0x3e51d829	0.20492615
81	0xbe928c75	-0.28622785
82	0xbc9939ec	-0.018704377
83	0xbe850425	-0.25979725
84	0xbc3929d3	-0.011301476
85	0xbcdb83ee	-0.026796307
86	0xbe33b2c1	-0.17548658
87	0x3db0ca58	0.08632344
88	0xbe98b2c5	-0.2982389
89	0xbe1397f5	-0.14413436
90	0xbddf1cb9	-0.1089415
91	0xbea61d66	-0.32444304
92	0x3e1812b9	0.14850892
93	0xbd46c937	-0.048531737
94	0xbe067714	-0.13131362
95	0xbdd72d24	-0.10506657
96	0x3e8497af	0.25896975
97	0xbe3f56be	-0.18685433
98	0xbe866d24	-0.26255143
99	0x3e525894	0.20541602
100	0x3d88a5f9	0.06672282
101	0x3e28777e	0.16451833
102	0x3dee7901	0.116441734
103	0xbe4a4cfb	-0.19755928
104	0x3c14fd45	0.009093587
105	0xbd7909cb	-0.060800355
106	0xbe2493cd	-0.16072007
107	0xbed4fa9a	-0.41597444
108	0xbd75fec0	-0.0600574
109	0x3e3427ad	0.1759326
110	0x3e2bb135	0.16766818
111	0xbd7e6f85	-0.062118072
112	0x3e724bd7	0.23661743
113	0xbcc330cc	-0.02382698
114	0x3dd3cc6e	0.10341726
115	0xbe1ea9ca	-0.15494457
116	0xbeb41f5e	-0.3518018
117	0xbbee5a62	-0.007273958
118	0xbc83b3fb	-0.016077032
119	0xbe8edd8c	-0.27903402
120	0xbe39184e	-0.18075678
121	0x3bb24198	0.0054399483
122	0x3ca50eef	0.020148722
123	0x3de78a76	0.11305706
124	0xbd973fc5	-0.0738521
125	0xbb7e5f55	-0.0038814147
126	0xbcaf67d5	-0.021411816
127	0xbe6710c4	-0.2256499

temporal.rnn.bias_hh_l0 f4 [128]
0	0x3d7b1a38	0.0613043
1	0xbdc1ccd1	-0.09462894
2	0xbea7108e	-0.32629818
3	0x3e063225	0.13105066
4	0xbd8a462c	-0.067516655
5	0x3e27c4a7	0.1638361
6	0xbd9e264e	-0.0772215
7	0xbe72c48a	-0.23707786
8	0x3d8c737e	0.06857966
9	0xbe83a2e6	-0.2571022
10	0x3da3267c	0.07966325
11	0xbee5c2be	-0.4487514
12	0xbe22212d	-0.15832968
13	0x3d5da779	0.054114792
14	0x3dd70666	0.10499267
15	0xbea3a5e7	-0.3196251
16	0x3ead34e8	0.33829427
17	0xbe8cb8e3	-0.27484807
18	0x3b99f0ab	0.0046978793
19	0xbb689c0b	-0.00354934
20	0xbe3ec502	-0.1862984
21	0xbe7dcd31	-0.24785306
22	0x3d5b79a5	0.053582806
23	0xbec70d85	-0.38877502
24	0x3dd22942	0.102617756
25	0x3e8d0383	0.27541742
26	0xbcd1e276	-0.02562068
27	0x3e60fa1e	0.21970412
28	0xbd3c70c4	-0.04600598
29	0xbe69b4c3	-0.22822861
30	0x3cb676df	0.022273479
31	0xbea45637	-0.32097027
32	0x3d8e884e	0.06959592
33	0xbe23e5e5	-0.16005667
34	0x3bf340fa	0.0074235173
35	0x3d1a1b84	0.037623897
36	0x3e339c84	0.17540175
37	0x3e5dc4fa	0.21657172
38	0xbd95abd0	-0.07308161
39	0xbd24f015	-0.040268023
40	0xbc7b938a	-0.015355
41	0xbe0ea8c8	-0.13931572
42	0x3d8b927f	0.06815051
43	0xbdd99e2a	-0.106258705
44	0xbc8de649	-0.017321723
45	0x3cfe1a1c	0.03101831
46	0x3dae3608	0.085063994
47	0xbc8b74c7	-0.017023457
48	0x3eab7fe2	0.33496004
49	0x3dc13ec1	0.094357975
50	0xb9d07205	-0.00039757803
51	0xbe545cc9	-0.2073852
52	0xbec0429d	-0.37550822
53	0xbd8890a3	-0.06668212
54	0x3e641fe3	0.22277789
55	0xbdba4b7d	-0.090964295
56	0x3c9b76b7	0.018977506
57	0x3e4519b3	0.19248085
58	0x3d4ce3fd	0.050022114
59	0x3d8c9f6a	0.06866343
60	0xbdb251ac	-0.08706984
61	0xbe3c110e	-0.18365881
62	0xbe1b4610	-0.15163445
63	0xbd9223a5	-0.07135705
64	0x3df614f3	0.120157145
65	0xbdc4ff85	-0.09619049
66	0x3d63926f	0.05555957
67	0x3d4ec8a4	0.050484315
68	0x3daaa610	0.08332455
69	0x3e6d098b	0.23148172
70	0x3e2d2505	0.16908653
71	0x3e49b442	0.19697669
72	0x3e0324b8	0.12806976
73	0xbb4032d0	-0.0029327162
74	0xbe6c5943	-0.23080926
75	0x3e1b95f1	0.15193917
76	0x3dfe9267	0.12430268
77	0xbe6051ed	-0.21906252
78	0x3db4aee0	0.08822417
79	0xbcae9973	-0.021313405
80	0x3e238535	0.15968783
81	0xbbdf1d40	-0.006808907
82	0xbe49dbc1	-0.19712736
83	0xbe5f7135	-0.21820529
84	0x3d9be4f5	0.076120295
85	0x3dc08f39	0.094023176
86	0xbdef7766	-0.11692695
87	0x3e1a1922	0.1504865
88	0xbdeb8b59	-0.11501188
89	0xbe893c96	-0.26804036
90	0x3bbf914c	0.005846178
91	0xbd2579df	-0.04039943
92	0x3dee94f5	0.11649505
93	0x3e0fd9ea	0.14047971
94	0xbe8be588	-0.27323556
95	0xbdbf9419	-0.09354419
96	0x3d2c7f59	0.042113636
97	0xbe56d634	-0.2098015
98	0xbdef4aeb	-0.11684211
99	0x3e639e53	0.22228365
100	0x3e83bb20	0.25728703
101	0x3a2803f2	0.00064092793
102	0xbe1fd981	-0.15610315
103	0xbe2819ae	-0.16416046
104	0xbd08a8e5	-0.033364195
105	0xbd653fed	-0.055969168
106	0xbddf2ef1	-0.10897625
107	0xbe88a8e6	-0.2669136
108	0xbd788ecb	-0.060683053
109	0xbdbfaefd	-0.09359548
110	0x3de13c45	0.109978236
111	0x3d0f5e57	0.03500208
112	0x3e9af65c	0.30266082
113	0xbe1dedc9	-0.15422739
114	0xbe032a64	-0.1280914
115	0x3d42c20b	0.047548335
116	0xbead417d	-0.33839026
117	0xbe7426e7	-0.23842965
118	0xbd98e6e6	-0.074659154
119	0xbecfae31	-0.40562585
120	0xbe59cfda	-0.21270695
121	0x3dceaaa0	0.10091138
122	0xbe006ddd	-0.1254191
123	0x3e03c917	0.12869678
124	0x3d99f273	0.07516947
125	0xbdc51130	-0.09622419
126	0x3d6b13b9	0.057391856
127	0xbd879330	-0.06619871

temporal.rnn.weight_ih_l1 f4 [128, 32]
0	0xbe834b30	-0.256433
1	0xbd36d4d3	-0.04463656
2	0x3ea9f062	0.3319121
3	0x3f07b3d2	0.5300876
4	0xbef9c3e0	-0.48782253
5	0xbd81b728	-0.063337624
6	0xbf0f775e	-0.56041515
7	0x3e8e6595	0.27811876
8	0xbba61c10	-0.0050692633
9	0xbe647d1e	-0.22313353
10	0x3dfd6650	0.1237303
11	0x3ee9df3f	0.45678136
12	0x3e88f488	0.26749063
13	0xbcadcc1e	-0.021215495
14	0xbe62cc72	-0.22148302
15	0x3c9acea3	0.01889736
16	0xbe006d31	-0.12541653
17	0x3c0967cd	0.008386564
18	0x3dcfe6d3	0.10151448
19	0x3da541ea	0.08069213
20	0x3dd0131f	0.10159897
21	0xbe90174c	-0.28142774
22	0xbe581bd8	-0.21104372
23	0x3dede137	0.11615222
24	0x3e40c09f	0.18823479
25	0x3cf6f704	0.030147083
26	0x3bfe1af6	0.007754679
27	0x3d716b4c	0.058940217
28	0xbe2e2e10	-0.17009759
29	0x3dfb26a6	0.12263231
30	0x3e922b98	0.28548884
31	0x3df200e0	0.11816573
32	0xbeb6adbe	-0.3567943
33	0x3e86c632	0.26323086
34	0x3abadaaa	0.0014255841
35	0x3ebcd7ea	0.3688348
36	0xbee683f6	-0.45022553
37	0xbeddb681	-0.43303302
38	0xbebe8e95	-0.37218156
39	0x3c01127d	0.007877943
40	0xbe6386db	-0.22219412
41	0xbb9abc78	-0.0047221743
42	0x3d8bda89	0.06828792
43	0xbd3d2fce	-0.04618817
44	0x3e76d10a	0.2410318
45	0x3e42c6c5	0.19021137
46	0xbe1874b5	-0.1488827
47	0x3e77dc15	0.24205048
48	0xbeda0a0f	-0.425858
49	0x3e206c3f	0.15666293
50	0x3e8f195e	0.2794904
51	0x3eab1eec	0.3342203
52	0x3ea45602	0.3209687
53	0xbe21e681	-0.15810587
54	0x3e8279fa	0.25483686
55	0xbdf1fc5b	-0.11815711
56	0x3e7bbac4	0.24582964
57	0x3e596b19	0.21232261
58	0x3e964050	0.29345942
59	0x3e8318f6	0.2560498
60	0xbdb28548	-0.08716828
61	0x3d96a149	0.073549815
62	0x3e17641a	0.1478428
63	0x3d37e195	0.044892866
64	0x3e441a2a	0.19150606
65	0xbeb3ceb8	-0.3511865
66	0x3e3ebf08	0.1862756
67	0xbdca75bb	-0.098857366
68	0x3ec397bb	0.382017
69	0x3dcc5f11	0.0997907
70	0xbe73576d	-0.23763819
71	0xbc8e0b35	-0.017339328
72	0x3e081f71	0.13293244
73	0xbcdbed64	-0.026846595
74	0xbe82fed6	-0.2558505
75	0x3f050a13	0.519685
76	0x3e842f24	0.25817215
77	0x3d5ded05	0.054181118
78	0x3e397969	0.1811272
79	0xbea2ef43	-0.31823167
80	0xbd48e72c	-0.049048588
81	0xbed2d325	-0.41176715
82	0xbe6ead9d	-0.23308416
83	0xbe543349	-0.20722689
84	0x3dd465b3	0.1037096
85	0x3c81f2c0	0.015862823
86	0xbd5dff3d	-0.054198492
87	0x3d949ba6	0.0725625
88	0xbe15e99a	-0.14639893
89	0xbe682485	-0.22670181
90	0xbdcd4f5e	-0.10024904
91	0xbecccac6	-0.39998454
92	0x3d88cb46	0.06679396
93	0x3d957f2a	0.07299645
94	0xb7dad7bc	-2.6088084e-05
95	0xbe3a57ef	-0.18197607
96	0xbe746288	-0.23865712
97	0xbd922542	-0.071360126
98	0x3edcb0a8	0.43103528
99	0x3e63cb11	0.22245432
100	0xbea31e03	-0.31858835
101	0xbca5ba0f	-0.020230321
102	0xbef8b066	-0.4857208
103	0xbe65bfc3	-0.22436433
104	0xbe015590	-0.12630296
105	0xbe0da255	-0.13831456
106	0xbddb7714	-0.10716072
107	0x3e2bcc43	0.16777138
108	0x3e3536a6	0.17696628
109	0x3e10d912	0.14145306
110	0xbe644475	-0.2229174
111	0x3e681ac4	0.2266646
112	0xbebdfb5f	-0.37105843
113	0xbdbc6de2	-0.09200646
114	0x3e8e23bb	0.27761635
115	0x3eb2b904	0.3490678
116	0x3f0f821d	0.5605791
117	0xbef20cc7	-0.47275373
118	0x3d1b6788	0.037940532
119	0x3d92fa00	0.0717659
120	0x3ed6d136	0.4195649
121	0xbdbd2f49	-0.092375346
122	0xbcc1099f	-0.023564158
123	0x3db8ec28	0.09029418
124	0xbe9ae055	-0.30249277
125	0x3e06d99d	0.1316895
126	0x3e84a9bf	0.25910756
127	0x3d9c17dd	0.07621739
128	0x3d1a576e	0.037681036
129	0xbe7a6abc	-0.24454778
130	0x3e830816	0.25592107
131	0xbec33dd8	-0.3813312
132	0x3eef0e51	0.4669061
133	0x3eba58f4	0.3639599
134	0x3f2d09c2	0.67593014
135	0x3e65a715	0.22427018
136	0x3e4769d5	0.19473965
137	0xbd9f4bcc	-0.07778129
138	0xbd90fac0	-0.07079077
139	0x3e451a72	0.1924837
140	0x3d69922f	0.057024177
141	0xbec3c0f1	-0.3823314
142	0x3db8cf73	0.09023943
143	0xbf08d4d0	-0.53449726
144	0x3eb65960	0.35615063
145	0xbd5d8cf3	-0.054089498
146	0xbe03d25a	-0.12873212
147	0xbf0af7c4	-0.5428431
148	0xbe501bde	-0.2032313
149	0x3e98fe46	0.29881495
150	0x3d92bf53	0.071653984
151	0x3e2d877b	0.16946213
152	0xbe095d08	-0.13414395
153	0xbe7adf37	-0.24499212
154	0xbdf99641	-0.12186862
155	0xbe87fa62	-0.26558214
156	0x3e942932	0.2893768
157	0x3d4599ff	0.048242565
158	0xbeadafcf	-0.33923194
159	0x3d9655a8	0.073405564
160	0xbeb349aa	-0.3501714
161	0xbea657ea	-0.32488948
162	0x3ea0c35a	0.3139904
163	0xbe18a3f3	-0.14906292
164	0x3d8d4aba	0.068990186
165	0x3e9f6aac	0.31136072
166	0x3e839026	0.25695914
167	0x3e6ea0ed	0.23303576
168	0x3e277dc7	0.16356574
169	0xbed4f94b	-0.41596445
170	0xbddbfa2c	-0.10741076
171	0x3e1856fe	0.14876935
172	0xbde9227b	-0.1138353
173	0xbe796532	-0.24355009
174	0x3ed72ffc	0.42028797
175	0xbe80bdb7	-0.2514474
176	0x3db80955	0.08986155
177	0xbed2f618	-0.4120338
178	0xbe12673f	-0.14297198
179	0xbf0b3277	-0.5437388
180	0x3e1303e1	0.14356948
181	0x3e86ac71	0.26303437
182	0xbe92c915	-0.28669038
183	0xbe491a78	-0.19639003
184	0xbdb36993	-0.08760371
185	0xbebbd478	-0.36685538
186	0xbe07c964	-0.13260418
187	0xbe43635b	-0.1908087
188	0x3e53d692	0.20687321
189	0x3e7d9837	0.24765097
190	0xbea2ca13	-0.31794795
191	0x3c2cb163	0.010540339
192	0xbe0097ef	-0.12557958
193	0xbe0a6ace	-0.13517305
194	0x3cef22b7	0.029191358
195	0xbe8be816	-0.27325505
196	0x3dff6a66	0.12471466
197	0x3e5fb2f4	0.21845609
198	0x3f166b48	0.5875745
199	0x3eb3f1e3	0.35145482
200	0x3db3b9f4	0.08775702
201	0x3d782df0	0.060590684
202	0xbe2c7c5f	-0.16844319
203	0x3ede3fe0	0.43408108
204	0xbd1eab86	-0.038737796
205	0xbef84dd1	-0.4849687
206	0x3e4c0a3c	0.19925779
207	0xbe811d8d	-0.25217858
208	0x3eb0edad	0.34556332
209	0xbe6f4435	-0.23365863
210	0xbe8cbf82	-0.2748986
211	0xbee47b9e	-0.44625562
212	0xbe9fedec	-0.31236207
213	0x3f071b1d	0.52775747
214	0xbdd4dfc6	-0.10394244
215	0x3f21149f	0.6292209
216	0xbed22e46	-0.4105093
217	0xbebfaa63	-0.37434682
218	0xbd6d30d0	-0.05790788
219	0xbe881074	-0.26575053
220	0x3f3bfb33	0.73430175
221	0x3eda13ab	0.4259313
222	0xbf62aaad	-0.8854168
223	0xbe7fcfd3	-0.24981622
224	0x3e970a28	0.29499936
225	0xbc02240c	-0.007943165
226	0x3e9bd9e7	0.30439684
227	0xbd5a6a7d	-0.05332421
228	0x3ec4caa4	0.38435853
229	0x3e69d258	0.22834146
230	0x3e6d10c9	0.23150934
231	0x3e8190c0	0.25305748
232	0x3e4406e9	0.19143261
233	0xbd5f2176	-0.05447527
234	0xbf02492b	-0.50892895
235	0x3e90d2d6	0.28285855
236	0x3d36022b	0.04443566
237	0xbd20102f	-0.039077934
238	0x3e903b2d	0.28170148
239	0x3ba7b24a	0.0051176893
240	0x3e819972	0.25312382
241	0xbecec8d6	-0.403876
242	0xbe921890	-0.28534365
243	0xbe84fbb3	-0.2597328
244	0x3e95142f	0.2911696
245	0xbe7496bb	-0.23885624
246	0xbe453aa3	-0.1926065
247	0x3dad437f	0.084601395
248	0xbdc436a3	-0.095807336
249	0xbf095209	-0.536408
250	0xbe862d5f	-0.2620649
251	0xbe8e3f23	-0.27782544
252	0x3d430b4d	0.0476182
253	0x3e45dd2a	0.19322649
254	0xbde9aed7	-0.11410301
255	0xbe965b74	-0.29366648

temporal.rnn.weight_hh_l1 f4 [128, 32]
0	0x3e4c19c5	0.19931705
1	0x3e2f4bf7	0.17118822
2	0x3e131c6e	0.14366314
3	0x3dde2bfb	0.10848232
4	0x3e416d7d	0.18889423
5	0xbe8812ec	-0.26576936
6	0x3e4d6fdf	0.20062207
7	0xbe86a511	-0.2629781
8	0x3e509517	0.20369373
9	0xbec1cb24	-0.37850296
10	0xbd923673	-0.071392916
11	0x3e10c36a	0.14137045
12	0x3ea9eaca	0.33186942
13	0x3e975bdc	0.2956227
14	0x3e2967da	0.16543522
15	0x3ebc9269	0.36830452
16	0xbd19341f	-0.037403222
17	0xbedd4c2d	-0.4322218
18	0xbef5236b	-0.47878584
19	0x3e1371c0	0.14398861
20	0x3e8b9749	0.2726386
21	0xbe06be57	-0.13158546
22	0xbe6e5cf3	-0.23277645
23	0xbf02b6ee	-0.5106038
24	0x3ee0c1dd	0.43897906
25	0x3db51b89	0.088431425
26	0xbe2e3689	-0.17012991
27	0x3ef17596	0.47160023
28	0x3e7e566b	0.24837653
29	0xbca6efe8	-0.020378068
30	0x3de02361	0.10944248
31	0xbc4fa921	-0.012674601
32	0x3e3a0407	0.18165599
33	0x3e86261d	0.26200953
34	0x3d650e99	0.055922125
35	0x3e8a9e5a	0.27073938
36	0x3ebb0066	0.3652374
37	0xbdc8b42e	-0.097999915
38	0x3e923161	0.28553298
39	0xbe63eff6	-0.22259507
40	0x3e155c39	0.14585961
41	0xbea5449d	-0.3227891
42	0x3dcc16a9	0.099652596
43	0xbe315e5d	-0.17321153
44	0x3e64e342	0.22352317
45	0x3e83bf33	0.2573181
46	0xbe38e0d8	-0.18054521
47	0xbe2f5f57	-0.17126213
48	0xbd358f4f	-0.044326123
49	0x3d8de02e	0.069275245
50	0xbeda8723	-0.42681226
51	0xbe0f3cc0	-0.13988018
52	0x3dfd0eb0	0.12356317
53	0x3ea8fbed	0.33004704
54	0xbe3e4aea	-0.18583265
55	0xbdfc6c12	-0.123253
56	0x3e221b25	0.15830667
57	0x3e078060	0.13232565
58	0xbec83342	-0.39101607
59	0x3d0f2d7f	0.034955498
60	0xbe391dd7	-0.18077789
61	0x3dc35eff	0.095396034
62	0xbce3f104	-0.027824886
63	0xbe77206e	-0.24133465
64	0xbe45b6fb	-0.19308083
65	0x3dd3e481	0.10346318
66	0xbd96db1c	-0.073660105
67	0xbe29101d	-0.16510053
68	0x3ca8d086	0.020607244
69	0xbdacac87	-0.084313445
70	0xbe1cb139	-0.1530198
71	0x3edf2226	0.4358074
72	0xbed57fd4	-0.41699088
73	0x3e435987	0.1907712
74	0x3ed43cb7	0.41452572
75	0x3e28da94	0.16489631
76	0xbe6fdc4c	-0.2342388
77	0xbd69a3d2	-0.057040997
78	0x3e07e2b4	0.13270074
79	0xbdb697c7	-0.08915668
80	0x3e75d5fe	0.24007413
81	0x3e9be184	0.30445492
82	0x3dd0b300	0.101903915
83	0x3e36fb3e	0.17869279
84	0xbe16c461	-0.1472335
85	0xbe0e52d1	-0.1389878
86	0x3e880618	0.2656715
87	0x3e3f16e1	0.18661071
88	0xbd986eae	-0.074429855
89	0xbdb1065d	-0.08643792
90	0xbcd2bc5f	-0.025724588
91	0xbe88714c	-0.2664894
92	0x3e4fa851	0.20279051
93	0xbdfdf545	-0.12400297
94	0x3c2bcbbd	0.010485587
95	0x3e83626d	0.2566103
96	0xbe9ad785	-0.30242553
97	0xbbc59351	-0.0060295244
98	0x3dbe7e25	0.09301404
99	0x3e9001ad	0.2812628
100	0x3e513af3	0.20432644
101	0xbda18932	-0.07887496
102	0x3eac57c8	0.33660722
103	0x3d84ccc4	0.064843684
104	0x3db0639f	0.08612751
105	0xbdea5997	-0.11442869
106	0x3d654ef5	0.055983502
107	0xba1b39c4	-0.00059213885
108	0xbd520bdd	-0.051280845
109	0x3d8efcb6	0.069817945
110	0xbdb80109	-0.089845724
111	0x3de54f28	0.111967385
112	0xbe10f66f	-0.14156507
113	0xbdf1aeb1	-0.11800898
114	0xbdcf4e5c	-0.10122368
115	0xbe6087db	-0.21926825
116	0xbde4e7eb	-0.11177047
117	0x3cb0969d	0.021556193
118	0xbe15417a	-0.14575759
119	0xbe42bb50	-0.19016767
120	0xbda0fb1d	-0.07860396
121	0x3edeac0a	0.4349063
122	0xbddcf5f4	-0.10789099
123	0x3e9f983a	0.31170827
124	0xbc82f4e1	-0.015985908
125	0x3da9b4b8	0.082864225
126	0x3dc6018c	0.09668264
127	0xbeb5f160	-0.35535717
128	0x3db5cd51	0.088770516
129	0xbe8b10ea	-0.27161342
130	0xbe6cca78	-0.2312411
131	0xbd4ced2b	-0.05003087
132	0xbdb1169d	-0.08646891
133	0xbc81d659	-0.01584928
134	0x3e606127	0.2191206
135	0xbb29eecd	-0.002592969
136	0x3e7271ed	0.23676272
137	0x3d210aea	0.03931705
138	0x3db494aa	0.08817418
139	0xbd3b9239	-0.045793746
140	0x3e288acc	0.16459197
141	0x3c40bbc7	0.01176352
142	0x3f0a3ece	0.5400208
143	0x3d27cfaf	0.040969547
144	0xbe15b3bd	-0.14619346
145	0x3e847674	0.25871623
146	0x3d8205ec	0.06348786
147	0x3cb14eb5	0.021643976
148	0x3ddc51d9	0.10757799
149	0xbe854fe1	-0.26037505
150	0x3c702ad5	0.014658649
151	0x3ecacd50	0.39609766
152	0x3ed47ac3	0.4149991
153	0xbe184897	-0.14871441
154	0x3e937b60	0.28805065
155	0xbbcbb926	-0.00621714
156	0xbd71b37c	-0.05900906
157	0xbe689fa2	-0.22717145
158	0x3e853729	0.26018646
159	0x3a895051	0.0010476207
160	0xbe9e0f5a	-0.30871087
161	0xbd974a09	-0.07387168
162	0xbf15844b	-0.5840499
163	0xbe2a39f0	-0.16623664
164	0xbe886d75	-0.2664601
165	0x3ed69c66	0.41916198
166	0xbe94c047	-0.29052946
167	0x3f1bae16	0.6081251
168	0xbefaafa0	-0.48962116
169	0x3e7c6472	0.24647692
170	0x3dd2a686	0.10285668
171	0xbddcb442	-0.10776569
172	0xbedca6cb	-0.43096003
173	0xbeb68bb0	-0.35653448
174	0x3ee5cabf	0.44881245
175	0xbeceb78d	-0.40374413
176	0x3ede4cba	0.43417913
177	0x3eb81414	0.35952818
178	0x3e04394a	0.12912479
179	0xbe31782b	-0.17330997
180	0xbdb35137	-0.08755725
181	0xbe7e4a63	-0.24833064
182	0x3e94898f	0.290112
183	0x3da26746	0.07929854
184	0x3e589a59	0.21152629
185	0xbcc57055	-0.024101416
186	0x3dd5dc23	0.10442378
187	0xbf07c840	-0.5303993
188	0xbe97a25a	-0.29616052
189	0x3e833658	0.25627398
190	0xbea2b873	-0.3178135
191	0x3ea06f0a	0.31334716
192	0xbd11d94b	-0.035607617
193	0xbde1e699	-0.11030311
194	0xbe355df1	-0.17711617
195	0xbe537c0c	-0.20652789
196	0x3dfb3275	0.12265483
197	0x3e2608e5	0.1621433
198	0x3ebcb5d9	0.3685749
199	0x3e8fa336	0.28054208
200	0xbd4c3dec	-0.04986374
201	0x3e210a13	0.157265
202	0xbe978d4b	-0.29599985
203	0x3e4e161d	0.20125623
204	0x3cdebc1e	0.02718931
205	0x3e524b8b	0.2053663
206	0x3e4f17fd	0.20223995
207	0x3e134573	0.14381962
208	0xbdeb063d	-0.11475799
209	0xbde0b466	-0.10971908
210	0x3e137cab	0.14403026
211	0x3e4a6251	0.19764067
212	0x3e86862d	0.26274243
213	0x3e2164d5	0.1576112
214	0xbf00febf	-0.5038871
215	0xbdd480d8	-0.103761375
216	0x3edf5488	0.4361918
217	0xbea81fb4	-0.32836688
218	0x3e786b0d	0.24259587
219	0xbd0469bc	-0.0323274
220	0xbb1087f3	-0.0022053688
221	0x3eb3ca54	0.35115302
222	0xbe649a01	-0.22324373
223	0xbd6027a7	-0.054725315
224	0xbe143968	-0.14475024
225	0xbc924855	-0.017856756
226	0xbe688d70	-0.22710204
227	0xbe14445a	-0.14479199
228	0x3dea6ff7	0.11447137
229	0xbe457c51	-0.19285704
230	0xbf1264cf	-0.5718507
231	0x3e85beab	0.2612203
232	0xbe114d94	-0.1418975
233	0x3eee7e7a	0.4658087
234	0x3e83d092	0.25745064
235	0x3e28b9d7	0.16477142
236	0xbf045413	-0.5169079
237	0xbeb0de2c	-0.34544504
238	0x3e95a964	0.29230797
239	0xbe5cff86	-0.2158185
240	0x3f35e571	0.71053225
241	0x3efe66f2	0.49687916
242	0x3ec5c3da	0.38625985
243	0x3e2e7643	0.17037301
244	0xbdc64c95	-0.096825756
245	0xbdfbaa74	-0.12288371
246	0x3f10ec42	0.566105
247	0x3e4b9c3a	0.19883814
248	0xbe23da92	-0.16001347
249	0xbdb0c9a9	-0.086322136
250	0x3de71b11	0.112844594
251	0xbf01b4ef	-0.5066671
252	0x3dabcba1	0.083884485
253	0xbe4a37c0	-0.1974783
254	0x3c853ae7	0.016263438
255	0x3ece2ec6	0.4027006

temporal.rnn.bias_ih_l1 f4 [128]
0	0x3e262bad	0.16227598
1	0xbe07b168	-0.13251269
2	0x3d37a963	0.044839274
3	0xbe54e37f	-0.20789908
4	0xbc32d703	-0.010915521
5	0xbe8dc2ee	-0.27687782
6	0x3dc2ecf6	0.09517853
7	0x3e10b377	0.1413096
8	0xbd20993f	-0.039208647
9	0x3c81a736	0.015826803
10	0xbdb19843	-0.0867162
11	0xbe8a8214	-0.27052367
12	0xbd80223f	-0.06256532
13	0xbd9b0051	-0.0756842
14	0x3d28d1b3	0.04121561
15	0xbe0eebdd	-0.13957162
16	0xbe4041a8	-0.18775046
17	0x3e74ce4d	0.23906823
18	0xbe1ac742	-0.15115073
19	0x3f04eebb	0.51926774
20	0xbdb90707	-0.090345435
21	0xbdf1c5b1	-0.11805285
22	0xbe62c579	-0.22145642
23	0xbb8f7103	-0.0043774857
24	0x3dc5d0a2	0.09658934
25	0xbe29da49	-0.16587175
26	0xbe80a377	-0.25124714
27	0x3e90e85f	0.28302285
28	0xbe949c2d	-0.29025403
29	0xbe0d33b6	-0.13789257
30	0xbcca80df	-0.024719654
31	0xbbdc8571	-0.0067297746
32	0xbce1f705	-0.027583608
33	0xbdbe107c	-0.09280488
34	0xbda6664b	-0.081249796
35	0xbe3d94f9	-0.1851386
36	0x3d4a3af9	0.049372647
37	0x3e87512b	0.26429114
38	0x3e8166d9	0.2527378
39	0x3ef21854	0.47284186
40	0x3e8c3bcc	0.2738937
41	0x3eaa8273	0.3330265
42	0xbe150257	-0.14551674
43	0xbe8a047c	-0.26956546
44	0x3c608e7d	0.013705847
45	0x3d8c88f2	0.06862058
46	0x3ebb7723	0.36614332
47	0xbdeeebf7	-0.116661005
48	0xbd2b857b	-0.041875344
49	0x3eabfd2e	0.33591598
50	0xbcd16438	-0.025560483
51	0x3ee41120	0.44544315
52	0x3d0449e8	0.032297045
53	0xbdde82ba	-0.10864778
54	0x3e2234c5	0.15840442
55	0x3ef7692d	0.4832243
56	0x3d77a70f	0.060462054
57	0xbece4294	-0.4028517
58	0xbe940e84	-0.28917325
59	0x3e8b1fe7	0.27172777
60	0xbebe86fd	-0.37212363
61	0x3e7b4072	0.24536303
62	0xbdbc1ef2	-0.0918559
63	0x3e847357	0.25869247
64	0x3e9fbf00	0.3120041
65	0x3eb68c3f	0.35653874
66	0x3e76b4e6	0.24092445
67	0xbdde54c1	-0.10856009
68	0xbca83895	-0.020534793
69	0x3dc782dc	0.09741756
70	0xbd110186	-0.035401843
71	0xbdbae6b3	-0.09126034
72	0x3e32baba	0.17454043
73	0xbe8f268c	-0.27959096
74	0xbd316e64	-0.043318167
75	0x3e2fc4e4	0.17164952
76	0x3e24ae49	0.1608211
77	0x3dc8e951	0.098101266
78	0x3e18a257	0.14905678
79	0xbd462292	-0.048372813
80	0xbe04bd94	-0.12962943
81	0xbd742b65	-0.059611697
82	0xbcc44fe1	-0.02396387
83	0x3eef74e6	0.46768874
84	0xbde27b51	-0.11058677
85	0x3eb0e42c	0.3454908
86	0x3e389045	0.18023784
87	0xbdaed6c4	-0.08537057
88	0x3d691fb6	0.056915008
89	0xbdbb1afa	-0.09136005
90	0xbde7f5d7	-0.11326187
91	0x3e3676b9	0.17818727
92	0x3ebbd2a6	0.3668415
93	0x3df31379	0.118689485
94	0xbd6bc570	-0.057561338
95	0xbe15965b	-0.14608137
96	0xbea952d3	-0.33071002
97	0xbecd8f2b	-0.4014829
98	0xbd80f274	-0.06296244
99	0xbe62b9c1	-0.22141172
100	0x3e5fb407	0.21846019
101	0x3de3aa41	0.11116458
102	0x3ecf6ffe	0.4051513
103	0x3ebfbd87	0.37449285
104	0x3ed45603	0.41471872
105	0x3da1c3fd	0.0789871
106	0xbe303567	-0.17207871
107	0xbe29904f	-0.16558956
108	0x3d5c2436	0.05374547
109	0xbdbfc1f8	-0.093631685
110	0x3d840cac	0.064477295
111	0xbe0d2fb0	-0.13787723
112	0x3c0bd441	0.008534492
113	0x3e3d2e17	0.18474613
114	0xbe8bc9d2	-0.27302414
115	0x3dd348da	0.1031663
116	0xbe60ec50	-0.21965146
117	0x3be1d452	0.0068917656
118	0xbe7fc0da	-0.24975911
119	0x3df4284b	0.11921748
120	0x3cf3246d	0.029680455
121	0xbe2e30e5	-0.1701084
122	0xbeede0fc	-0.46460712
123	0xbc6e83e0	-0.014557809
124	0xbeaf2854	-0.34210455
125	0x3ec72889	0.38898113
126	0xbebbfc26	-0.36715811
127	0x3e2b4b1e	0.16727874

temporal.rnn.bias_hh_l1 f4 [128]
0	0xbc8b35cd	-0.016993428
1	0x3d6e2fd3	0.058151077
2	0x3dcfd676	0.10148327
3	0x3d70fd97	0.058835592
4	0x3d1e06de	0.038580768
5	0xbe803065	-0.25036922
6	0x3db6f1d4	0.08932844
7	0xbdbb482d	-0.09144626
8	0x3d6f06e8	0.058356196
9	0x3d3d3250	0.04619056
10	0xbe23e01a	-0.16003457
11	0xbe2900cf	-0.16504215
12	0xbcaaeb69	-0.020864205
13	0xbe9d43d5	-0.30715814
14	0x3d65e87b	0.056129914
15	0xbe2e84b7	-0.17042814
16	0xbe8198f1	-0.25311998
17	0x3e3437e3	0.17599444
18	0xbdf4d12d	-0.119539596
19	0x3ef265d5	0.47343317
20	0xbe8734d5	-0.26407495
21	0xbe915177	-0.28382465
22	0xbea0ade0	-0.31382656
23	0xbdbb3a07	-0.09141927
24	0x3da8b521	0.082376726
25	0xbe4bcafc	-0.19901651
26	0xbf1041af	-0.56350225
27	0x3e8fe856	0.28106946
28	0xbe8fd68f	-0.28093383
29	0xbcfb411e	-0.030670699
30	0xbd062ffb	-0.0327606
31	0xbbd4151d	-0.0064722435
32	0x3d8df5ab	0.06931623
33	0xbd3f3b0d	-0.046687175
34	0xbd1b4cb8	-0.03791496
35	0x3bc80ba2	0.0061049024
36	0x3d3c07db	0.04590593
37	0xba34ebdf	-0.00069016026
38	0x3ca845c5	0.020541081
39	0x3e8c3377	0.27383015
40	0x3ea81033	0.3282486
41	0x3ebb51c7	0.3658583
42	0xbdead118	-0.11465663
43	0xbdab2e7a	-0.08358474
44	0xbe757013	-0.23968534
45	0x3da3d9fb	0.08000561
46	0x3eb5135f	0.3536634
47	0x3c798fee	0.015232069
48	0xbe722c18	-0.23649633
49	0x3de87822	0.113510385
50	0x3e6d7843	0.23190407
51	0x3eb5204a	0.35376197
52	0xbbfd52cc	-0.0077308174
53	0xbeb4bbe6	-0.35299605
54	0xbd659bd7	-0.056056824
55	0x3ea58e46	0.3233511
56	0x3e644a89	0.22294058
57	0xbe8ff506	-0.28116626
58	0xbef759eb	-0.4831079
59	0x3f061d65	0.523886
60	0xbeb763ea	-0.35818416
61	0x3e91c823	0.28473005
62	0xbe889351	-0.26674893
63	0x3cccbd4e	0.024992611
64	0x3e02bf83	0.12768368
65	0x3e4c68b4	0.19961816
66	0xbd50fcdc	-0.051022395
67	0x3df19d59	0.1179759
68	0xbe39aac3	-0.18131547
69	0xbdab45a4	-0.08362892
70	0x3e4c229f	0.19935082
71	0xbde1eef3	-0.11031904
72	0x3dc1f788	0.09471041
73	0xbef4feef	-0.4785075
74	0x3d26aa9a	0.040690042
75	0xbdddb00c	-0.10824594
76	0x3e8cfd3d	0.27536955
77	0xbe243424	-0.16035515
78	0xbdb3bcdb	-0.08776256
79	0x3de6bee0	0.11266875
80	0xbe36beb5	-0.17846186
81	0xbe9443f1	-0.28958085
82	0xbdb51aeb	-0.08843025
83	0x3f07aadb	0.5299508
84	0xbe2803e0	-0.16407728
85	0x3e809db9	0.25120333
86	0xbe1b7fde	-0.15185496
87	0x3d31d8ed	0.043419767
88	0x3e3e988f	0.18612884
89	0x3d261662	0.04054869
90	0xbd824438	-0.06360668
91	0x3dd92e5a	0.10604544
92	0x3eae25f1	0.34013322
93	0x3d836f01	0.06417657
94	0xbe74068b	-0.23830621
95	0xbe056f40	-0.1303072
96	0xbeb16a58	-0.34651446
97	0xbeb0ca19	-0.34529188
98	0xbbcad3dc	-0.0061898064
99	0xbe829ee4	-0.2551185
100	0x3d248cea	0.04017345
101	0x3eab0967	0.3340561
102	0x3eb12b02	0.34603125
103	0x3eb8de38	0.3610704
104	0x3ed5e18c	0.4177364
105	0x3e136fe8	0.14398158
106	0xbe98dcb2	-0.29855877
107	0xbdfcc77c	-0.12342736
108	0xbe0d70fe	-0.13812634
109	0xbdd65e33	-0.10467186
110	0xbcd6f36e	-0.026239123
111	0x3daf7b48	0.08568436
112	0x3ce2b400	0.027673721
113	0x3cdbc6a3	0.026828116
114	0xbe1c73ab	-0.15278499
115	0x3e7c48e1	0.24637176
116	0xbd86d578	-0.06583685
117	0xbe7a5d0b	-0.24449556
118	0xbea55163	-0.32288656
119	0xbdb4ec85	-0.08834175
120	0x3c8fb9f2	0.01754472
121	0xbed743cc	-0.42043912
122	0xbeaed5e5	-0.34147564
123	0x3e6c83fa	0.2309722
124	0xbe3a2ca1	-0.18181087
125	0x3d95dd68	0.073176205
126	0xbe9f211d	-0.3107995
127	0x3ed69a9d	0.41914836
