notebook/output/rolling_models_dynamic/window_14.pth (torch, 479802 bytes, 99 tensors)

temporal.input_proj.weight f4 [32, 7]
00000000: 70bb 82bf 051d d33f c47a 3140 354c 83be
00000010: ebf1 76bd 8d86 f03c 4d00 20bd 63da d13f
00000020: 85c7 fa3f 59c7 3640 b23c 8ebe ac34 5bbe
00000030: 8169 743e 01c5 92bc 8d3b 5a3f 1014 4cbe
00000040: f963 03c0 b744 1fbe 6840 a53e e218 85be
00000050: f007 4b3d de72 8340 2808 4d40 54b4 3840
00000060: 0369 aebe 7fd5 43be 17c4 933b a152 11bc
00000070: 2571 063f 2b37 833f 44ef e63e d026 503e
00000080: 69f6 42bd 6f57 463e 7d61 79be 8c5c efbf
00000090: d7f1 0e40 0920 5040 87fb bc3e 8d1a cabe
000000a0: e219 8f3e 49d2 8ebd 40d7 7cc0 d86b 94bf
000000b0: 4c32 0d3f 1a8a 5c3e 909c 74be 5067 19be
000000c0: 084b bbbd d14a 75c0 9d2b 3fbe 3aa1 1940
000000d0: 2e08 83bd 1602 d6bd 7564 693d 0454 b2bd
000000e0: 6d9d d0c0 1a29 24c0 fd8c 91bf d719 2cbe
000000f0: 82b8 8bbb 892b 14bf 461a 82bd e93f c03e
00000100: 1541 0ebf 9c1f 96bf 7dd0 bbbe 860c 7f3e
00000110: 62a8 9dbe 7716 a13e 1919 78bf 129f 8c3e
00000120: 974a dd3f cc16 6d3e db22 80bc 759d a1bc
00000130: 7bb7 a0bb 547b 6d3f e454 5bbf 492e c5be
00000140: 1f33 80be 66f9 853d 3ec4 72bd 870b 80bd
00000150: 190a 17c0 beda 0dc0 0d7e 5ec0 a68e fdbd
00000160: a5c0 12be f3e7 1e3e 0033 603b 2ee3 6d3f
00000170: 675c 82bf 43d1 17c0 ed8b 87bd d382 5abe
00000180: 4cc3 323e d70d 3bbd 53c9 80c0 fc54 15c0
00000190: d47d fbbf 5414 c63d 779a 6cbe 9563 5b3e
000001a0: 4571 d2bb 7664 51c0 e8df 1ec0 5bec 35c0
000001b0: cc81 f2bd dfad 023e 8020 773c 76bb 913b
000001c0: 58f6 2c40 cca1 a03d a3f6 9cbd 08dc 1e3c
000001d0: 30cd a2bd ec4f cbbd c0f2 70be e561 5ebf
000001e0: daf8 3fbf f2d7 383e 5018 b3be 19f9 35be
000001f0: 7172 0cbc be8d 163d d5d6 dd3f 921f f3bf
00000200: 2cc8 cfbf 3cbc 193e 9261 db3c 8e4b c6bd
00000210: 4546 42bc 2183 bf3f 0f34 2440 6a57 4040
00000220: 26b7 83be a59a 97be 5a98 113e 3b76 843b
00000230: 50c4 f73e 359f d0bf 5bdd 2ac0 582d cd3b
00000240: bfc7 19bd 7201 3cbd 2ab0 cd3c 5f57 1940
00000250: 7a0b c2bf 3f45 04c0 9ca2 e9ba 0a41 8a3d
00000260: 8887 c1bd 606f babc a204 c1be 889b ba3f
00000270: fa0e fa3f aeb7 d73d 9316 febd d488 debc
00000280: 1f56 68bd d7f0 55bf c316 e4bf 8630 3ac0
00000290: c1a7 0bbe 77b2 013e 7f44 a63e 4e36 e2bc
000002a0: 1178 31c0 0b8d 3abf 9eaa 11c0 693a 66bd
000002b0: 35f0 b93c 9be6 e13e 8a82 b2bd 91bb f9bf
000002c0: 8558 273f 504a af3f 0e34 863e d224 5dbd
000002d0: 420d 21bd 23e5 8cbb 9a97 a8bf f848 71be
000002e0: 7a64 adbf 9bef 3d3e a52a f4be a430 cf3e
000002f0: ecf4 1ebd 8ba2 0340 6269 f5be 0096 e1bf
00000300: fb18 bb3c 666c ea3e df8a 5e3e d160 85bd
00000310: bc84 6f40 bca0 2940 c12e 6040 9af4 483e
00000320: 21e1 ed3d 1bcf 93be b6df c9bc 49ee 59c0
00000330: fd7c 57bf 34ba 873f 5854 c13d 3d20 43bd
00000340: fc9c 39be c0c6 a53c 9818 8740 dcff 0540
00000350: 74e7 fabe 51ca 373e f165 803d 3fa8 85bd
00000360: 9aa7 10bd d7f9 7e3f 6fbf 48bc c1db 86bf
00000370: f3ef 5a3e 1994 8cbe be3f b83d ef1e 053d
-1.0213451 1.6493231 2.773118 -0.2564408 -0.060289305 0.029361034 -0.039062787 1.6394771
1.9592139 2.8559172 -0.27780682 -0.21406811 0.23868372 -0.017916204 0.8524712 -0.19929528
-2.0529768 -0.15553556 0.322757 -0.25995547 0.049568117 4.107772 3.2036228 2.8860064
-0.34064493 -0.19124411 0.0045094597 -0.008869798 0.52516395 1.0251211 0.4510442 0.20327306
-0.047598276 0.19369291 -0.24353595 -1.8700118 2.2335107 3.2519553 0.3691065 -0.39473382
0.27949435 -0.069737025 -3.9506378 -1.1595411 0.5515487 0.21537057 -0.23887849 -0.14980817
-0.091451705 -3.8326914 -0.18668981 2.4004655 -0.063980445 -0.104496166 0.05698057 -0.08707431
-6.519217 -2.5650086 -1.1371151 -0.16806732 -0.0042639384 -0.5787893 -0.063526675 0.3754876
-0.5556806 -1.1728396 -0.366825 0.24907121 -0.30792528 0.31462452 -0.96913296 0.2746511
1.7288388 0.23153228 -0.01564162 -0.019728402 -0.004904685 0.9276631 -0.8567641 -0.38511875
-0.25039002 0.065417096 -0.059269182 -0.06252199 -2.3599913 -2.216476 -3.4764435 -0.12380724
-0.143313 0.15518169 0.0034210086 0.92924774 -1.0184449 -2.3721473 -0.066184856 -0.21338968
0.17457312 -0.045667496 -4.0245757 -2.333312 -1.9647775 0.09671846 -0.23105799 0.21424706
-0.006422194 -3.2717566 -2.4824162 -2.842551 -0.11841163 0.12761639 0.015083432 0.004447396
2.7025356 0.0784336 -0.0766423 0.009696014 -0.07949293 -0.09927353 -0.23530102 -0.86868125
-0.7498909 0.18051127 -0.34979486 -0.17770804 -0.008572207 0.03675627 1.7331187 -1.899401
-1.6232963 0.15013212 0.026779924 -0.0968238 -0.011857574 1.4961892 2.5656774 3.0053353
-0.2572567 -0.29610172 0.14218274 0.0040424145 0.48391962 -1.6298586 -2.6697605 0.006261509
-0.03754401 -0.045899816 0.025108416 2.3959577 -1.5159752 -2.0667264 -0.0017824951 0.067506865
-0.09449679 -0.022758186 -0.37698847 1.4578714 1.953582 0.10533081 -0.124066494 -0.027164854
-0.056722756 -0.8357062 -1.7819446 -2.9092116 -0.13638212 0.12665735 0.32474133 -0.027613785
-2.7729533 -0.72871464 -2.2760386 -0.056208048 0.022697547 0.4412125 -0.087163046 -1.9510366
0.65369445 1.3694553 0.2621159 -0.053990193 -0.039319284 -0.004299776 -1.3171265 -0.23562992
-1.3546288 0.18548433 -0.47688785 0.40466797 -0.038807794 2.0567958 -0.47931963 -1.7623901
0.02283906 0.45785826 0.21732663 -0.06512607 3.7424765 2.6504354 3.5028536 0.19624558
0.116152056 -0.28868946 -0.024642807 -3.4051688 -0.8417509 1.06037 0.094399154 -0.047638167
-0.18126291 0.020236373 4.221752 2.0937414 -0.4900471 0.17948271 0.06269444 -0.06526231
-0.035316087 0.99599975 -0.012252673 -1.0535814 0.21380596 -0.2745674 0.08996533 0.032500204

temporal.input_proj.bias f4 [32]
00000000: 9828 b9bb 4c43 6c3c 0b08 12bf 5daf 453e
00000010: c4e3 82bf d2c8 c33e 402f 973e 1d22 4f3f
00000020: 4a71 a6be 91df 22be 9d42 83bc 345b 063d
00000030: a0de 82be 74ef 28be e270 e0be 53b4 d7be
00000040: 9778 e9be 60b1 ee3e 72bf 1dbe 2326 0b3f
00000050: fda2 0c3a 29a3 a1be 4f9f 273f 9a08 6a3c
00000060: 6711 103f a3a2 9bbe 0615 163e 6add 24bf
00000070: c298 0c3d 2081 e73e a62b 39bf 22b4 8cbe
-0.005650591 0.014420342 -0.5704352 0.19305177 -1.0225759 0.3823915 0.29528236 0.8091143
-0.32508308 -0.15905596 -0.016022975 0.03280182 -0.25560474 -0.16497594 -0.43836123 -0.42129764
-0.45599815 0.466197 -0.15405062 0.54355067 0.00053648633 -0.31569794 0.6547746 0.014284277
0.56276554 -0.3039752 0.14656457 -0.6440035 0.03432537 0.45215702 -0.7233223 -0.2748118

temporal.layer_norm.weight f4 [32]
00000000: 8cdb 893f d499 873f db1d 843f 0ade bb3f
00000010: 61c3 3f3f bb4f 6a3f 6906 143f d8dc 893f
00000020: 319d 973f b234 d83e d9b3 853f 6b86 8f3f
00000030: 1eb1 833f 2ff0 ad3f 4d64 9d3f c927 4f3f
00000040: ae51 4e3f 82a3 5d3f 4c56 ac3f 4b95 7d3f
00000050: f8f3 713f 7a54 0040 0184 a43f 2ee3 463f
00000060: fa2d 223f e193 b23f 18a8 8d3f 873e 633f
00000070: dd4e 973f a402 863f cc52 8d3f 2ac3 1a3f
1.0770125 1.059382 1.0321611 1.4677136 0.749075 0.9152791 0.5782228 1.0770521
1.1844846 0.42227703 1.044551 1.1212896 1.0288427 1.3588923 1.2296234 0.8092008
0.80593383 0.8657762 1.3463836 0.9905593 0.9451289 2.005156 1.2852784 0.776904
0.63351405 1.3951379 1.1066923 0.88767284 1.1820942 1.0469556 1.1040893 0.60454047

temporal.layer_norm.bias f4 [32]
00000000: c29c 21be c847 f0be b53c 083f 777f 80bb
00000010: 1c36 233f 704a 3dbf 6a0f 55be d054 2dbf
00000020: dd4c f2be d4fc 093f 2e41 7ebe 6533 2bbe
00000030: f8e1 84bc e4c2 98be 8d73 b8bc fb6d fabd
00000040: 14b7 c13e 4011 e63e a837 663e 12ac 10bf
00000050: 9b68 173f 5803 bd3c 66f3 663d 540d 16be
00000060: b76b 82bf 1fab 9c3e 3791 873e 332b cbbe
00000070: 7247 983d f333 fdbe 5490 fd3e de29 803f
-0.15782455 -0.46929765 0.5321763 -0.003921445 0.6375444 -0.7394171 -0.20806661 -0.6770754
-0.47324267 0.5390141 -0.24829552 -0.16718824 -0.016221032 -0.2983619 -0.022516036 -0.12228008
0.3783499 0.44935036 0.22482169 -0.5651256 0.5914399 0.023072883 0.056384467 -0.14653522
-1.0189122 0.30599305 0.26477978 -0.39681396 0.07435502 -0.49453697 0.49524176 1.0012777

temporal.rnn.weight_ih_l0 f4 [128, 7]
00000000: d431 97bf c4ad 95bf 616c acbf effc 95bf
00000010: f680 533e 6d04 8b3e 2fb1 58bf 5f8c 8bbf
00000020: 73c5 48bf d8ba 69bf 4444 4cbf a628 ccbe
00000030: 364c e7be 062e b93e 56b3 42bf 4230 43bf
00000040: 21dc 4ebf a4e6 25bf a385 2cbf 0a3c 67bf
00000050: 3fe7 a93e 5395 a43e d4f0 dd3e b686 5e3e
00000060: e8cb 903e ad63 7e3f 9323 133f 3dc5 2e3e
00000070: 9dad 9d3e 4f60 a83e c4c2 353e d4e5 533e
00000080: 536e 153e 16b2 b13e b898 443d c60a b9c0
00000090: 4e0c 9ac0 f28c afc0 180c c7c0 357f 01be
000000a0: ec1d 90be 448c ccbc 69a6 1ebe a24c 08be
000000b0: 851e eabd 51de 153e 8fb7 bd3d c48d 363d
000000c0: 1267 fb3d 7034 e13e 362b 353f 45fc b03e
000000d0: 0094 353f bea8 6abe 84c9 75be 7471 ac3d
000000e0: f7be b5bf 12fe e2bf 90de d2bf 8ecb 07c0
000000f0: 34ca 1bbf 9589 12bf a7f4 073e f20f 73bf
00000100: 17e9 32bf 4d08 bebf bdbe a8bf 11d8 2fbe
00000110: 2e17 91be 5162 803c be79 64bf 5bce 4dbf
00000120: 58b9 92bf 8a7c 85bf 500f 96bf 5f6b 7ebf
00000130: 2a2e 1e3d 4cbc 06bf 1025 bbbe f8a6 1ebe
00000140: cc6b b7be e373 f7be 1802 abbd 3b72 0c3f
00000150: 539c fe3e 2010 263e 00f7 0f3f 3494 123f
00000160: 9401 10bf 8d12 2ebf 2e55 773e d5c1 83bf
00000170: 4722 32c0 475d 3e3e 78a4 87bf 9f70 343e
00000180: 6659 2abf 444e 9d3e 1a46 3fbf 77be d0be
00000190: a414 45bf 714d 26bf ef94 2dbf 1a92 15bf
000001a0: e0c7 90be 0e53 5bbf 74bf 10c0 fe99 8f3f
000001b0: 110c 66bf 72ae 28bf 038b f1be f59c b03d
000001c0: 110e b5bd bfdc f73d 831a 45be 8aae afbe
000001d0: 28a0 e43e 1e86 8d3e 3864 703e d629 31bf
000001e0: 29ba e8be f809 2fbf d5b1 5bbf f5f9 53bf
000001f0: c7bd 8abf 112d 6f3e f13b 1fbf f3d3 92bf
00000200: b56b 3cbf 80ad 6cbf 7c10 453e 5ff9 5abd
00000210: 61da 6e3e c661 8ebf 48b2 14bf a39f 59be
00000220: eccd de3e 8ee1 2ebd cf82 423b c545 d1bc
00000230: 1862 4d3f 7293 033f 93b7 903f 51c7 3d3f
00000240: 2333 f1be 175e 32bf 6551 f93e fbc5 11bd
00000250: 86e9 303e 1624 dabe ec95 c53c dedc eb3e
00000260: 20de 8b3e 6e38 0b3e c52f acbf ad79 a1bf
00000270: 7524 c0bf da87 a1bf 2174 e6be 6847 d3bd
00000280: c331 0ebf 539c c8be 8abc f5be 18ee 30bf
00000290: 6179 1fbf 952d 96bf e8a4 8ebf 9212 ac3c
000002a0: c6bf 61be 91a6 57bf 2464 cc3c dbf5 27bf
000002b0: 63d7 9c3e bee0 033e 0c92 ad3e d302 0cbf
000002c0: 7421 0cbf 047f fbbe 9809 a7be ef5b 85bd
000002d0: 0ef3 c5bd f157 6c3e 13a4 2fbf 8a78 10bf
000002e0: 002e 34bf 858f 20bf 431a 4fbf c858 58bf
000002f0: ff5a 63be 2b58 6abf aade a33e 2000 87bf
00000300: c760 1a3e 0313 2d3e 9527 a7be 7ae7 d7bc
00000310: 10e9 123f 739f 6a3f f038 473f b4a2 833f
00000320: c3af febe 6622 bebe 15b5 963d 0449 f5bc
00000330: d659 f23e 3fdf 04bf 554b 70be 2074 82be
00000340: c853 783e 5126 303c e396 1bbe 8eeb 483c
00000350: 4b52 90be 0799 96be 06d8 0c3e e1aa 523e
00000360: 4e91 00bf 612d 29bf 3744 0ebf d7f4 31bf
00000370: 718d 52bf 969a 8ebd 5dc3 ccbd a073 1ebf
00000380: 40e6 bfbe 994c d4be e58c 5dbf d90c 80bf
00000390: a590 07bf f73b e4be e251 7d3e aad8 4cbf
000003a0: fe1b 3fbf 143b 3cbf 130e 43bf 21a9 97be
000003b0: 5f43 09bf fb41 31be 9bba 25bf 0903 4abf
000003c0: 0142 7dbf 9ae3 75bf f88b 4bbe 3d09 92be
000003d0: 07b3 9bbd 8fdc 0b3f d213 843e a29a 093f
000003e0: dd58 7f3e 319c 15be 9731 18bf f411 3c3d
000003f0: 19b3 e53e 4041 013f 40d7 28be 1a8d cabe
-1.1812081 -1.1693654 -1.3470575 -1.1717814 0.20654663 0.27151814 -0.8464536 -1.0902213
-0.78426284 -0.91300726 -0.79791665 -0.39874762 -0.45175332 0.36167926 -0.76054895 -0.7624551
-0.8080464 -0.64805055 -0.67391413 -0.9032599 0.3318424 0.32145175 0.433478 0.21731076
0.28280568 0.99370843 0.57476157 0.17067428 0.3079652 0.32885978 0.17750078 0.20693141
0.14592867 0.3470618 0.047997206 -5.782565 -4.814002 -5.485955 -6.2202263 -0.12646182
-0.2814783 -0.024969228 -0.15493168 -0.13310483 -0.114316024 0.14635588 0.09263527 0.044568792
0.122755185 0.4398532 0.7076906 0.34567466 0.70928955 -0.22915933 -0.24002653 0.08420077
-1.4198903 -1.7733786 -1.6474171 -2.121799 -0.6085541 -0.57241184 0.13276921 -0.94946206
-0.69886917 -1.4846283 -1.3183209 -0.17172267 -0.28337997 0.01567188 -0.89248264 -0.80393
-1.1462812 -1.0428631 -1.1723423 -0.99382585 0.038618244 -0.5263107 -0.36551714 -0.15493381
-0.3582443 -0.48330602 -0.08350009 0.548618 0.4972864 0.16217089 0.5623627 0.5725739
-0.5625241 -0.67997056 0.24153587 -1.0293528 -2.7833421 0.1859027 -1.0597067 0.17621087
-0.6654266 0.30723774 -0.7471634 -0.40770313 -0.7698462 -0.64961916 -0.6780538 -0.5842606
-0.28277493 -0.85673606 -2.2616854 1.121887 -0.8986216 -0.6589118 -0.4717637 0.08623687
-0.088405736 0.12102651 -0.19248395 -0.3431285 0.4465344 0.27641386 0.2347573 -0.6920446
-0.4545453 -0.68374586 -0.85818225 -0.8280328 -1.0839165 0.23357035 -0.6220084 -1.1470932
-0.7360185 -0.9245224 0.1924457 -0.053460475 0.23325492 -1.1123588 -0.58084536 -0.21252303
0.4351648 -0.042695574 0.0029680019 -0.025545964 0.80227804 0.5139686 1.1306022 0.7413226
-0.47109327 -0.6967482 0.48694912 -0.0355892 0.17276582 -0.42605656 0.02411934 0.46066946
0.27317905 0.13595745 -1.3452078 -1.2615258 -1.5011126 -1.2619584 -0.45010474 -0.10316354
-0.5554468 -0.39181766 -0.47995406 -0.691133 -0.62294585 -1.173266 -1.1144075 0.021004949
-0.22045812 -0.84238535 0.024950095 -0.6560952 0.30633077 0.12878701 0.33900487 -0.5469181
-0.54738545 -0.49120343 -0.32624507 -0.065116756 -0.096655 0.23080422 -0.6860973 -0.5643393
-0.7038269 -0.62718993 -0.8089945 -0.8451047 -0.22202681 -0.91540784 0.32005817 -1.0546913
0.1507598 0.16901784 -0.32647386 -0.026355494 0.57386875 0.9164955 0.77821255 1.0284028
-0.4974347 -0.3713562 0.073587574 -0.029942043 0.47334164 -0.51903147 -0.23466237 -0.2547922
0.2425071 0.010751323 -0.15194277 0.012263192 -0.28187785 -0.29413626 0.13754281 0.20572998
-0.5022172 -0.6608487 -0.5557284 -0.6951422 -0.8224707 -0.06963079 -0.099982 -0.6189518
-0.37480354 -0.4146469 -0.86543113 -1.0003921 -0.52955085 -0.44577 0.24738267 -0.80018103
-0.7465209 -0.73527646 -0.7619335 -0.29621223 -0.53618425 -0.17310326 -0.6473786 -0.7891088
-0.9892884 -0.9605042 -0.19877613 -0.28522673 -0.07602506 0.5463342 0.25796372 0.53751576
0.24936242 -0.14610364 -0.5945067 0.04591556 0.44863203 0.5049019 -0.16488361 -0.39560777

temporal.rnn.weight_hh_l0 f4 [128, 32]
00000000: 4dd7 05be 7452 c1bd 7b31 ecbd 04dd d1bd
00000010: 5a0d 0cbe a07b 503f ec0c b5be b14e 233f
00000020: 8aff 1a3e 2fa4 08bf f2e9 25bf 59f2 0e3f
00000030: 678d c4be cfe4 38bf 98e5 39be 8732 b8bf
00000040: 9d5b de3e dd00 79be 8ca7 553e 058c 87bf
00000050: 4fb8 76bf 20a2 aa3e 3d70 7b3e 219b 4bbf
00000060: ac88 4f3e 133e ebbe df36 843e 8301 cbbe
00000070: 1adc bc3e e00d 313f 270b cc3e c0d7 833e
00000080: fb5d b7be 6252 d2bd a596 d13c 09ad eb3e
00000090: b885 8e3e aa1a dcbd a2b9 693d e923 253f
000000a0: 5a82 723e fe7e 7fbe c700 2d3e d634 31bf
000000b0: b123 eabe 08bd 2cbf 867c 1dbf 0414 5ebd
000000c0: b6b0 a1be 8785 dd3e 9b7c dc3d 50f9 853d
000000d0: c4f1 503e 12a6 d6be 9084 ae3e 755d 103e
000000e0: cee5 8fbe cfeb 373e 6577 3e3f fd17 493f
000000f0: eb37 c33e da43 10bf f573 7dbc 0301 163f
00000100: 19cb 16bf efb8 46be 09c4 5d3e 5b2c 4cbf
00000110: dd8b d4be 9d03 8abe 2d1b 8f3e 0500 9bbe
00000120: 3d44 b9bd 8ab5 17be e32c f13e ec31 163e
00000130: 7eb8 fa3e 30db c73e 333f 88be 9b7c 3b3d
00000140: 9a02 eebd 024c 93bd ab5b 3cbd e9fb 083d
00000150: 8cde 6cbe eee0 aa3e 03ce edbc fbc4 d93b
00000160: ba45 5f3e c05c a0ba cf92 ef3b 4080 393e
00000170: 6ca7 223e 9adf df3d aca1 a4be 4f24 a13e
00000180: 1016 5ebf d74f 9c3e 0c87 1f3d c82c 1f3f
00000190: 10ff 59be 7ca4 8dbe c9f1 943d bd1e 903d
000001a0: 72fa c5be 4679 d2be 6dbe 263f 1529 1a3d
000001b0: 6d89 053f 4700 41be 1f06 27bf 8985 003e
000001c0: 61be 9abe ae84 4d3f 4999 06be 144e 883e
000001d0: b7b1 00bd b7ac 3fbf d2df 31be 1932 8e3e
000001e0: 8ed5 333e eca7 683e 5d08 b33d 0f62 08be
000001f0: 5bed 89bc 3ccc f63d 517a c63e 757b ae3e
00000200: e5b7 f6be 68e3 c1be 84e3 ed3d 2f6f aabe
00000210: 9663 1cbe 1ee5 313f 0d68 313e d814 db3d
00000220: 5fb3 473f c1d2 febe 516b 3abf 2c43 713e
00000230: 5730 fabd ac42 f5be ddba a9be 158f 69bf
00000240: ca8f c03e 5e6c 07bf 01fd e63e def0 96be
00000250: f991 2fbf 9f1c de3e 3663 91bc 9199 f5be
00000260: abbb 393f 630f a1be 2e74 d13d 1b47 09bf
00000270: 240e c63e 32d5 5c3f 699a 6cbe 5d80 b13e
00000280: 7035 5a3f dec9 fabd a3bb 4bbe d3ba 5dbe
00000290: fbb2 0740 debe 563f 5c9b 47bf 13ab 133f
000002a0: 4ec4 8b3d e8b7 e03e 158e 413d 02bb ba3e
000002b0: 4795 73bf 9373 c2be 583f 383e 6921 65bd
000002c0: f60f d43e 5cf7 47be 8524 d83d 3ff3 29be
000002d0: 5297 39be 4285 063d 1c3a 923e d7b9 e9be
000002e0: 6bb6 34bf b4d8 233e 5e06 c13e f0a8 05be
000002f0: 3ed3 193e 8e67 0fbf 17e0 5cbf 46ed 003e
00000300: 0404 d4be c2f8 593e 99e4 353e 1947 103e
00000310: a683 4c3e 8c76 243e 1ac3 3cbd b763 9dbf
00000320: 4580 0e3f a8a4 0dbf 1b5b 8d3e 51be bf3d
00000330: b4c0 c63e 8359 00be 78c7 2bbf da0c f33e
00000340: 1913 473e c785 edbd 0e28 18bf 1800 823e
00000350: 31d1 a43f fc70 17bf 8099 ebbb 19fd d7bd
00000360: 3627 ab3e 495a 8b3e 3577 7dbe bc85 10bf
00000370: 44ac d1be 2508 d5be f057 e83e 3065 51be
00000380: 758e 3a3f d48e 63be 72f4 013f 0626 f23c
00000390: a30d 063f dbe0 a03e f548 6ebe d03b bebd
000003a0: eb09 113f c184 e1bc d42f 713e e98a 2fbe
000003b0: 7080 bb3d d6e6 e9bd 0c63 ff3e 9b81 31bd
000003c0: 6fa9 083d 4f00 7cbe 4c03 793e ef00 19be
000003d0: 7598 92bd 74d9 a83e 5252 86be 888c 11bf
000003e0: 8218 e43e 9e53 d83f 6313 9e3e c48f a43f
000003f0: 5f2a 1e3e f99e 41be 1a13 453e cdb6 f9be
-0.13070412 -0.09439555 -0.11532875 -0.102472335 -0.13676968 0.81438637 -0.3536142 0.6379195
0.15136543 -0.53375524 -0.648101 0.55838543 -0.3838913 -0.72224134 -0.1815399 -1.439042
0.4342927 -0.24316736 0.20864695 -1.0589606 -0.9637498 0.33326817 0.24554534 -0.7953358
0.2026698 -0.45945796 0.25823113 -0.3964959 0.36886674 0.69161797 0.3985226 0.25750542
-0.3581389 -0.102696195 0.025584528 0.46030453 0.27836394 -0.10747273 0.0570618 0.6450792
0.23682538 -0.24950787 0.16894828 -0.69221246 -0.45730355 -0.6747594 -0.6151813 -0.054218307
-0.31580132 0.43265936 0.10765954 0.06541693 0.20404726 -0.41923577 0.34085512 0.14098151
-0.28105015 0.17961048 0.7440093 0.7855223 0.381286 -0.56353533 -0.015469541 0.58595294
-0.5890365 -0.19406484 0.21656813 -0.7975518 -0.41512957 -0.26955882 0.2795042 -0.30273452
-0.090462185 -0.14815345 0.47104558 0.14667481 0.4896888 0.39034414 -0.26610717 0.04577313
-0.1162159 -0.07192232 -0.04598586 0.033443365 -0.2313177 0.33374733 -0.029028898 0.0066457964
0.21803942 -0.0012234673 0.007311202 0.1811533 0.15884179 0.109313205 -0.32154596 0.31473014
-0.86752415 0.30529663 0.03894715 0.62177706 -0.21288705 -0.27664554 0.07272679 0.07037113
-0.38667637 -0.4110815 0.65134317 0.037636835 0.5216282 -0.18847762 -0.65243715 0.1255094
-0.30223373 0.8028058 -0.13144411 0.2662207 -0.031419482 -0.74872917 -0.17370537 0.27772596
0.17561933 0.22720307 0.087418295 -0.13318656 -0.016836813 0.12050673 0.38765195 0.34078565
-0.48187175 -0.3786881 0.11615661 -0.3328795 -0.15272364 0.6949023 0.17324848 0.10697335
0.78008074 -0.49770167 -0.7282 0.2356078 -0.12216251 -0.4790243 -0.33150378 -0.9123395
0.37609702 -0.5289973 0.45114902 -0.29480642 -0.6858211 0.4338121 -0.017747503 -0.47968724
0.72551984 -0.31457052 0.10227238 -0.53624123 0.38682663 0.8626281 -0.23105778 0.34668246
0.8523779 -0.12245534 -0.19895796 -0.21653299 2.120299 0.8388499 -0.77971435 0.57682914
0.068245515 0.4389031 0.04725464 0.364708 -0.95149654 -0.379788 0.17992914 -0.055940066
0.41418427 -0.19527954 0.105538405 -0.16596697 -0.1812413 0.03284193 0.2855996 -0.45649597
-0.7059085 0.16000634 0.3770017 -0.13052726 0.15021989 -0.56017387 -0.86279434 0.12590513
-0.41409314 0.212863 0.17762984 0.14089622 0.19972095 0.16060847 -0.0460845 -1.2296056
0.55664474 -0.5532937 0.2760857 0.09362472 0.38818896 -0.12534146 -0.6710124 0.47470742
0.19440879 -0.11597782 -0.5943612 0.25390697 1.287634 -0.59156775 -0.0071899295 -0.105463214
0.33428353 0.2721732 -0.24752505 -0.5645406 -0.4095174 -0.41607776 0.4537959 -0.20448756
0.7287362 -0.22222453 0.5076362 0.029559147 0.5236456 0.3142155 -0.23270018 -0.09288752
0.5665576 -0.027529122 0.23553401 -0.17142834 0.09155357 -0.114209816 0.49880254 -0.043336492
0.03336471 -0.24609493 0.24317664 -0.14941762 -0.07157985 0.32978404 -0.2623468 -0.5685506
0.44549948 1.6900518 0.30874166 1.2856374 0.15445851 -0.189083 0.19245568 -0.48772278

temporal.rnn.bias_ih_l0 f4 [128]
00000000: 8d0f 643f 8002 a6be ed86 de3d c65b 373e
00000010: 1811 043e 947a 43be 159b 9ebe 30ef 88be
00000020: b012 fabc e541 98bc 1285 dfbe 9eb7 bfbe
00000030: 89c2 03be baf9 18bf 25ae d73d 0b6c e7be
00000040: 791f acbe e533 83be 9b8b 16bf b000 f1be
00000050: 91f4 efbe 0bac 313e d22a 20be fea3 d8be
00000060: 64f0 26bf cfbd 36bd 605e 1cbf 8c4f dbbe
00000070: f998 8fbe 1d71 96be 817c d2be c27e e63e
00000080: c2ae 2bbf ffa4 b5be effe 1e3e b54a 03be
00000090: b753 90bd 9c5b e93c 2a99 053d 76d7 a8bc
000000a0: bcbc aa3c 941e d2bc 4abb 4a3e 3307 4e3b
000000b0: 3ee1 00be 3c8d 9c3e 3e73 1ebb 92c9 ad3e
000000c0: 053f 6b3d 43db e4bd ab08 db3e a3bd 13bf
000000d0: 42ac 333e 2105 cabe a969 7b3c 71ab a9be
000000e0: bfc6 943e ec0b e6bd 35c4 0fbf ed86 94be
000000f0: 59d3 e4bd f8fc 57be a48b 2bbd 12eb 19bf
00000100: 8b29 233d b63a d5be 42a8 823e 4642 0ebd
00000110: b835 b1bc 36f1 853e 5e21 3b3e c8d6 0e3e
00000120: 04b8 583e 98c1 aa3d 04f6 c7be 3a1d 8f3d
00000130: 0b42 98bd 9892 f5bc 381f 813e 41d4 54be
00000140: 1299 8a3d 673f bbbd 07a0 553e 79c7 73be
00000150: 1436 57bd b2eb 2e3c 0cf7 c7be 87fa 8abd
00000160: af26 e53d 1125 0f3e 5c35 64bd 21f6 a3bd
00000170: 54b4 b63e 0e41 743e 4e8a 5bbe eb88 003d
00000180: 11ae 693f ba0a 90be 268b 3a3c 04fe e83b
00000190: 9942 373e 50e7 0abe e7b2 953e ad39 82bd
000001a0: 592c 833e 3e41 3dbb ae15 c9be d45b a1be
000001b0: 3fdf 8d3c a3b0 c63e ee0e 9d3e bec1 303e
000001c0: 253d 2cbe d894 70ba 3541 07be 4c6f 08bf
000001d0: 514d 57be 2cee db3e 81dc eabe e723 acbe
000001e0: dc93 20be 96aa bdbe 2a30 75be ad5f c1be
000001f0: 5181 a03d e452 38bc 1919 8a3e ae7a 913e
0.8908623 -0.32423782 0.10865579 0.17906103 0.12897146 -0.19089729 -0.30977693 -0.26744986
-0.030526489 -0.018586108 -0.43656212 -0.37444776 -0.12867178 -0.5975605 0.10531262 -0.45199618
-0.33617762 -0.2562553 -0.5880677 -0.47070837 -0.46866277 0.17350785 -0.15641335 -0.42312616
-0.65210557 -0.04461461 -0.61081505 -0.42834127 -0.28046396 -0.29383174 -0.41110614 0.45018584
-0.67063534 -0.35477445 0.15526937 -0.12821467 -0.07047217 0.028486066 0.03261677 -0.020610552
0.020841949 -0.025649346 0.19798008 0.0031437397 -0.12585923 0.30576503 -0.0024177576 0.33942848
0.057433147 -0.11174633 0.4278005 -0.5771124 0.1754618 -0.39457038 0.015345016 -0.33138612
0.2905788 -0.11232743 -0.56158763 -0.2900919 -0.11173124 -0.21092594 -0.04188122 -0.60124314
0.03983454 -0.41646355 0.25518996 -0.034731172 -0.02163206 0.26160592 0.18274447 0.1394912
0.21163946 0.08337706 -0.39054883 0.069879964 -0.07434472 -0.029977128 0.2521913 -0.20784093
0.06767477 -0.091429524 0.20861827 -0.23806562 -0.052541807 0.010676311 -0.3905567 -0.067860655
0.11189019 0.13978983 -0.05571495 -0.0800593 0.35684454 0.23852941 -0.21439478 0.031380575
0.9128123 -0.28133184 0.011385715 0.007110359 0.17896499 -0.13564801 0.29238054 -0.06358657
0.25619772 -0.0028877999 -0.39274353 -0.31515372 0.017318366 0.38806638 0.30675453 0.17261407
-0.168202 -0.0009177453 -0.13208468 -0.53294826 -0.21025588 0.42955148 -0.45871356 -0.3362114
-0.15681404 -0.3704421 -0.23944154 -0.37768307 0.07837165 -0.011250231 0.26972273 0.2841391

temporal.rnn.bias_hh_l0 f4 [128]
00000000: b8bb 243f 13c5 4ebe d082 7639 e7ce e5bd
00000010: c553 103e 71a3 82be 4b02 f8be bca5 14be
00000020: 1a8b 863b a928 9abe 4cfd 2ebe 42a6 f5be
00000030: 1bd0 62be 68ae fabe fc83 a13e 828b 29bf
00000040: 162c 10be 07bb d2be a426 0ebf 74d4 e4be
00000050: cffa a9be 4454 893c e6d2 58be 4a8d a3be
00000060: ebad babe 2676 933d a2bf 0abf a0b9 c5be
00000070: 7429 46be 1ed6 d8be 7717 c5be 54e6 453e
00000080: 7475 0abf af91 afbe cae2 a33e 6cf6 21be
00000090: 439c c73d 4976 7abd 3f67 053e 5bdf d63d
000000a0: db13 123d 9695 44be a29f 7a3d 66a8 7c3d
000000b0: 1a9e 80bd 2d0c 573e eadf 3b3e eb09 d43e
000000c0: e65d a13d 55b8 303e 4581 c73e 227e 48bf
000000d0: 6a01 fabc 1caa 89be 6563 45bd f045 2dbe
000000e0: 2f65 ab3e 4f6a 18be 5159 cbbe 0a45 03bf
000000f0: a739 87be 2498 bfbe b21b 4abe 0ae6 ccbe
00000100: e610 14bd 60e4 79be e9db fd3d d8e3 f63d
00000110: a144 ed3b a505 313e b0cd c43d af8c 6e3e
00000120: 899d 573e 8777 a9bd 1550 30bf 9b62 eabc
00000130: 62ee 5b3d 97cd a93c 7630 533e f209 4f3d
00000140: 47ce b73c c97f 403e bd52 f73c 402f 49be
00000150: 3dde 0e3d a3a6 063e 3efb a9be 0468 72bb
00000160: 5819 973e 6324 823c 7ff5 713d 6ee0 503e
00000170: c74f a63e 9ce6 da3e ba6f b6be 5aba 2f3d
00000180: 502a 323f 79ca 9bbe 40dd 203e d46d c43c
00000190: 5332 bd3e a35b 99be 017f a23c b24b f7bc
000001a0: 9cde 5a3e e6b4 fe3a a397 aebe ab14 2abe
000001b0: 7abf 883c a7c4 f23d 9b0a 7f3e 3c1a 8a3e
000001c0: 8e38 d1bd 8d78 06be a328 babe ad31 a9be
000001d0: 4691 49be 8526 4b3e 566d 04bf 65f5 ecbe
000001e0: 7f4b 41be 85c8 8cbe ea1f c5be 015e b9be
000001f0: 68d9 683e dd28 d4bd 5971 b23e 4a1d e33e
0.64348936 -0.20192365 0.0002350912 -0.11221104 0.14094456 -0.2551532 -0.4843925 -0.14516348
0.0041059377 -0.30109146 -0.17088813 -0.47978407 -0.22149698 -0.48961186 0.3154601 -0.662285
-0.14079317 -0.41158316 -0.5552771 -0.4469334 -0.33199164 0.016763814 -0.21174201 -0.31943733
-0.36460814 0.072002694 -0.5419866 -0.38618183 -0.1935175 -0.42350858 -0.38494465 0.19326144
-0.5408547 -0.34290835 0.32008964 -0.15816659 0.097466014 -0.06114796 0.13027667 0.104918204
0.035663467 -0.19197688 0.061187394 0.061684035 -0.062801555 0.21000738 0.18347135 0.41413817
0.07879238 0.17257817 0.38965812 -0.78317463 -0.030518252 -0.26887596 -0.048190493 -0.1692121
0.33475634 -0.14884304 -0.3971658 -0.5127722 -0.26411173 -0.37420762 -0.19737127 -0.40019256
-0.036148928 -0.24403524 0.1239546 0.120551765 0.007240847 0.1728731 0.09609544 0.23295854
0.21056189 -0.08274751 -0.68872195 -0.028611472 0.053694136 0.020727916 0.20623955 0.050546594
0.022437228 0.18798746 0.03019082 -0.1964693 0.03487991 0.13149504 -0.33199495 -0.0036988268
0.29511523 0.015886491 0.059072014 0.20398113 0.3248274 0.42754066 -0.35632116 0.042902328
0.69595814 -0.30427912 0.157094 0.023978151 0.36952457 -0.29952726 0.01983595 -0.030187462
0.21373981 0.0019432574 -0.34100065 -0.16609447 0.016692866 0.11853915 0.2490639 0.2697314
-0.10215865 -0.13131924 -0.36359128 -0.33045712 -0.19684324 0.19838913 -0.51729333 -0.4628097
-0.18876456 -0.27496734 -0.3850091 -0.36204532 0.22739184 -0.103593566 0.34852102 0.44358283

temporal.rnn.weight_ih_l1 f4 [128, 32]
00000000: 92a7 7ebe aa7c 7c3f e618 06be 695f ac3d
00000010: 402c 76bf 7e61 49be c606 6ebe 510d a3be
00000020: 7137 44bf d4b5 98bf b350 5e3f 0067 8c3e
00000030: 9430 3b3f f34f 473e db7a 44bf 9ae8 03bd
00000040: df8e 96be 32b0 333f 5c71 eb3d 1c6b a83e
00000050: 6bff 2dbe 9787 e8be cd7a 993e 881e 573f
00000060: 3cb0 53be 878d ab3e d552 163e 11ec 2abf
00000070: a908 0f3e 43a4 9abe 82f0 8a3e a768 a23e
00000080: e50a 39be 4e49 103f ab4c a4be db21 f13e
00000090: 8d8f c3bf 33fd 83be 6237 a03d 3faa ddbe
000000a0: 55ee acbd f123 4abf f5c4 7abe 30c7 113f
000000b0: f545 9f3f df51 f93e 195c 02bf f53c dfbb
000000c0: 7b66 8cbf 1d3b 573f 823d 583f 7dab 04bf
000000d0: c05d cf3e 7fd1 2c3f 4e2b 083f 5e38 b8be
000000e0: fc3a 913e 4c66 903f dac2 803e 7028 e2be
000000f0: 2e5a 633f 2a27 22bd 5bee a6be c2c3 03bf
00000100: 0237 d93e d773 fcbd cae0 67bc 1391 66be
00000110: c601 4e3e 3cd3 9fbc 2c03 c83e cd75 9e3e
00000120: c956 dfbe effd 0abe f33f c1be 4eb0 7e3f
00000130: ddf8 1d3e 4a06 033e 1041 223e c632 41bd
00000140: 0f53 e53d 5571 41bf c67c 21bf f08d f7be
00000150: 0ffe 96bd 265b 633e 2c99 8abe 7890 cb3e
00000160: ded2 913e f263 8abe 4631 1fbf 0de2 d3be
00000170: 5616 cf3e 78a2 303f c343 2c3f e6c2 ebbe
00000180: 536e c63b 2473 02be d57b 0b3f 0a51 943f
00000190: 51e3 3ebf fbbc 0abd e993 18bf 78f8 693e
000001a0: 8977 bc3c 9f89 a3be 0b25 46be f9d5 9e3e
000001b0: 04d6 22be 146b 193f 942a d7be 7e7f 973e
000001c0: 2b32 85bf 8c35 233f cc9c 5c3f 1a04 993e
000001d0: f844 433e 6acb 1fbf cf43 70be 3367 65bd
000001e0: db46 5e3f dfea a83e 25cd cb3e 1502 1cbe
000001f0: d7c6 75be 07dc 763e 94e5 f63d 5436 b23e
00000200: 91f7 01be d2e9 24bf 3361 91bf 726b 10bf
00000210: 2919 5b3f 5d02 943e 08b8 123f 9128 353f
00000220: 9b9c 24be 843f 5fbf 446b 933e 68a3 1b3f
00000230: d2f6 cabf ed21 00be 3768 56bf d016 61bf
00000240: 8325 ccbe 5d02 263f ba2e e93e 389a 13bf
00000250: ce4a f8be ad91 64be e1ef 223f 969b 9b3f
00000260: 4887 bf3e aa6e 50bf 3f3a e33e 6fa6 c23e
00000270: 0a56 dc3e 887d 573e 82c7 59be 5b5f 4a3f
00000280: 093b 12bf 8906 a1be ecfd 8ebe 9091 8bbe
00000290: 9ee2 f73d beeb 723e a263 0a3b fed7 bbbd
000002a0: 2d15 243e 5ced f3be 3856 20be 1cf7 f3be
000002b0: a810 11bd 2a1c a0be 0801 833e 4397 01bf
000002c0: 2f68 b33e 977a d8bd fc6a 77be 374e 4abf
000002d0: fec9 383e 52df 113e 0c19 d8be 28f0 dcbe
000002e0: 8cd7 5f3d 492b 97bf fc8c 58be 43ef 1fbf
000002f0: 7afe 17bd 8c18 cebe ca9d 80be f26e 853b
00000300: 037e 83bd 6d59 1e3f 6262 66bd bb17 6fbe
00000310: b728 023e 450f 0c3c f0b1 353f 94a5 613e
00000320: e9dc 07bd 9008 ac3e 554a 10be 650b 8b3e
00000330: 395d 933e e3ed c03b 0a25 233e e3af cd3e
00000340: 6830 4abd 2588 e2be 941d b1be f143 1cb8
00000350: 53ea 07be db10 9e3d 7d9f 82be e71f 0b3f
00000360: 14a3 0dbf 76d5 583d 5a41 61be a7af a4bd
00000370: 34b8 fb3e 0cc2 4ebe 2458 bbbe 82d4 65bc
00000380: 061d f23f a4a6 dbbe 46fe c63d 51dd b73e
00000390: 419e cf3f 3572 e63d fe80 5f3f 6aa8 613f
000003a0: 41c5 953f cc1b 2cbf d79d 7dbf 9dca 333f
000003b0: c338 5dbe c91f dfbd 19f5 963e a6e6 1fbd
000003c0: ea32 483d e5df 8e3d e6a0 8cbe afab 73bf
000003d0: 8525 8fbe d92a f33e ebac 54bf 4b07 40bf
000003e0: 234d fe3c 47eb 59bf 6cb8 a7bc fbc6 31bf
000003f0: 0201 1b3f 3296 d3bd 7c4a 1ebf c346 5fbf
-0.2486861 0.9862772 -0.13095436 0.084166355 -0.9616127 -0.19666097 -0.23244771 -0.31846097
-0.76647097 -1.193049 0.8684189 0.27422333 0.73121 0.19464092 -0.7674996 -0.032204248
-0.29405877 0.7019073 0.11496231 0.32894218 -0.16991965 -0.45415947 0.29976502 0.8403096
-0.20672697 0.33506414 0.14680035 -0.6676646 0.13968147 -0.30203447 0.27136618 0.31720468
-0.18070562 0.56361854 -0.32089743 0.47096142 -1.5278183 -0.25779113 0.078230634 -0.4329395
-0.08443896 -0.7896109 -0.24489196 0.5694456 1.2443224 0.48695275 -0.5092178 -0.0068126866
-1.0968775 0.84074575 0.84468853 -0.5182417 0.40501213 0.67507166 0.5319108 -0.35980505
0.28365314 1.1281219 0.2514866 -0.44171476 0.8880948 -0.03958813 -0.32603726 -0.5147058
0.4242478 -0.12326782 -0.014152715 -0.22516279 0.20117864 -0.019509904 0.3906492 0.3094925
-0.436209 -0.1357343 -0.37744102 0.9948777 0.15426965 0.12795368 0.15845132 -0.047167562
0.11197483 -0.75563556 -0.63081014 -0.48350477 -0.073726766 0.22202739 -0.27069986 0.39758658
0.2848119 -0.27029377 -0.6218456 -0.413834 0.40446728 0.6899791 0.67290896 -0.46047133
0.006055632 -0.12739235 0.5448583 1.1587231 -0.7456561 -0.033871632 -0.59600693 0.2284869
0.023006218 -0.31940934 -0.19350068 0.31022623 -0.15901953 0.59929013 -0.42024672 0.29589456
-1.0405935 0.6375358 0.86176753 0.29885942 0.19069278 -0.6241976 -0.23463367 -0.05600662
0.86826867 0.32991692 0.3980495 -0.15235169 -0.24001633 0.24107371 0.12055507 0.34807074
-0.12692095 -0.6441928 -1.1357788 -0.5641395 0.85585266 0.28908053 0.5731206 0.70765024
-0.16075365 -0.8720629 0.28792775 0.60796213 -1.5856574 -0.12512942 -0.8375277 -0.87925434
-0.3987237 0.64847356 0.45543462 -0.57657194 -0.4849457 -0.22321196 0.63647276 1.2156856
0.374079 -0.8141886 0.44380376 0.38017604 0.43034393 0.2104398 -0.21267512 0.7905175
-0.5712133 -0.31450298 -0.27928102 -0.27259493 0.12103771 0.23722741 0.0021116515 -0.091720566
0.16023703 -0.47642028 -0.1565789 -0.47649467 -0.035416275 -0.31271487 0.25586724 -0.5062143
0.35040423 -0.10570257 -0.24161905 -0.79025596 0.18045804 0.14245346 -0.4220661 -0.43151975
0.05464892 -1.1810085 -0.21147531 -0.6247446 -0.037107922 -0.40253103 -0.25120384 0.0040720636
-0.06420519 0.618552 -0.05624617 -0.23348896 0.12710844 0.008548562 0.70974636 0.2203582
-0.03316966 0.33600283 -0.14090855 0.2715713 0.2878206 0.0058877333 0.15932098 0.40173253
-0.04936257 -0.44244495 -0.3459288 -3.7256574e-05 -0.13272981 0.07718059 -0.25512305 0.54345554
-0.5532696 0.052937947 -0.21997586 -0.080413155 0.49163973 -0.2019121 -0.36590683 -0.014027717
1.8915107 -0.42900574 0.097164676 0.3591104 1.622017 0.11252252 0.873062 0.88147604
1.1700822 -0.67229915 -0.9906897 0.7023104 -0.21603684 -0.108947344 0.2948387 -0.039038323
0.04887668 0.06976298 -0.27466506 -0.95183843 -0.27958313 0.47493628 -0.8307635 -0.7501113
0.031042641 -0.8512463 -0.020473681 -0.69444245 0.6054841 -0.10331382 -0.61832404 -0.8721735

temporal.rnn.weight_hh_l1 f4 [128, 32]
00000000: d50f 993e fa00 913f 2118 c03f 0978 a93d
00000010: ba18 603f d3d2 08be 9ea5 5f3e 6a2c 11bf
00000020: c341 d93e 077a 5fbe 72e1 aa3f 4f62 75be
00000030: 2013 c93d 5e8d 963e 7408 f03e b987 253e
00000040: 0f18 0a3f 4e89 a1be a691 0bbf 3ff7 09be
00000050: 6cae 4c3e 5338 91be 6b85 90be 2f25 e5bf
00000060: b725 573f 9c21 8d3f 1b45 93bf 04c6 8f3e
00000070: b372 e43d 18fe 123f f4ab 473e a644 3fbe
00000080: d43f b8bd 0343 99bc e5e5 6c3e fcda 293f
00000090: 5c90 873d 7a91 27bd 1ad2 853f 114e 93bf
000000a0: e9d3 d43e 8213 f1be 2018 763f 4b91 debe
000000b0: 105e 983e f712 7b3f 4b75 503e c9df a83e
000000c0: 2145 cf3e 465f 123d 45ea c23e 0fc2 bcbe
000000d0: 2076 0c3e 2ad8 273f a994 d2be 9325 9abe
000000e0: 31bf 873f 8dd1 993f a351 28bf d11c b23e
000000f0: 4f9c 12bf 0108 c93d 5ee9 b53f 67bc 6dbe
00000100: 78fa afbe aef3 f83e a0da b2bd c83a 72bf
00000110: 18d1 ca3e b4b8 3ebe 3b34 f23e c556 3e3e
00000120: ab3b b4be 2a52 153d d769 423f 7305 bdbe
00000130: f94e 6d3c 2035 243e 41d7 0fbe b2c5 d7be
00000140: 639d 2a3f dc58 dfbe e153 c23d b839 f93d
00000150: 97bf cfbe 772d 27be 2c80 8b3f 56ab d3be
00000160: 7004 69bd 6d68 423e c1bb 9bbe f566 87be
00000170: c3b5 563f d546 4ebe b52a 1bbd b137 153f
00000180: 545c 2bbf e709 d7be ad00 8d3e 4c3b 733f
00000190: bb21 f23e 15f9 30bf 066c 223e cee6 6d3e
000001a0: 2137 0bbf 36aa b33e ebd0 86bd 13de 443e
000001b0: fa66 83bf c1b1 d7be 3b2c 4dbf 5fbd 62bf
000001c0: d0fd dabe 94d4 583f 9cad d63e 86fb 42be
000001d0: 68ef c93e 50aa f0bd 1639 933f 6600 a5bd
000001e0: 1617 00bf e0e6 0cbd 6de9 253f 623e d6be
000001f0: 3cd6 4dbd d69f 78bf aa86 5cbe 7081 733d
00000200: f5dc a8be dffc a1be 165e babf 39a1 023f
00000210: d9fe 71be 2b50 2fbf 7b84 303e 03c9 0d3f
00000220: 36a0 c1bd 4b3c 553e cec0 42be 1b21 c0be
00000230: 4203 58bd 18e2 18be 73b9 b73e f33e 19be
00000240: 8634 473d cb52 123f d6c8 0fbf 3c75 c5be
00000250: 5d27 f53d ca5f 0abf 726e 4f3d 57ff 8d3f
00000260: 3869 913e b5d5 d0bd d993 d93e 91f7 13be
00000270: c0ad 9d3e 11f4 c8be 9641 903e 0c82 623d
00000280: 2146 51be a220 283e b3b5 1ebf 3bb3 d43e
00000290: 4067 46be 5b75 923e 8f04 04bf c0c8 743f
000002a0: 2b41 78bf fcd3 873f 7b5c 0ebd 37cc 63be
000002b0: 747e a5bb 69f3 e53e 130c dc3d cab0 b5be
000002c0: 8ad6 a33f 7281 a5be 4c67 39be 1c4e 55bf
000002d0: 86aa b13c e623 773e e9c6 17be 097e bfbe
000002e0: 2dc0 083f 0d0b 8e3d 17d0 81be 1116 a1bf
000002f0: f2a4 c73e 6f11 283f 7b20 443f b1a5 3e3f
00000300: 2eb1 babe e595 883e cd76 d13e 8343 1f3f
00000310: d781 353f 97d8 0dbe 4f8f 023e 3875 f73e
00000320: 887a 5abf 4fdb 633f 4544 ffbe 9016 e63d
00000330: 2d9d f5be 4521 40bd 5927 9dbe 4e0e b6be
00000340: e8a9 39bc 0a22 bb3e b106 a53d c711 fdbe
00000350: da9d bdbc ac6a 91be 5994 c7be 708e c9bc
00000360: e125 c53d c822 0cbf e3ed 573e 4000 4abf
00000370: 9105 99bc da73 dc3e 16dc f83e 0ebd c53e
00000380: 8f43 cf3d 1420 073f 5b36 aa3e 1b5b 9bbe
00000390: aeb9 523f 0155 e2be 8136 b1bf f6a0 903e
000003a0: d88d a0bd 1adc d93e 48d4 7a3f c47d 99be
000003b0: a16d 1cbf 2a44 8a3d 9e5d ee3e 4572 0e3e
000003c0: 78ac bd3e 658b 593f 43a4 d13d 9105 333d
000003d0: ba10 b33d 30e2 90bd 3830 e63e 4775 8ebf
000003e0: 5ae5 0d3f e012 0d3f 2c31 d4be 3fe2 13bf
000003f0: f0b9 c33e 8b75 6fbe 437a 183f 9b8a a13e
0.2989489 1.1328423 1.5007364 0.08274848 0.8753773 -0.13361673 0.21840522 -0.56708395
0.42432985 -0.21823893 1.335005 -0.23963283 0.09818101 0.2940473 0.4688145 0.16165055
0.5394296 -0.31550068 -0.54519117 -0.13473223 0.19988412 -0.28363284 -0.2822679 -1.7901973
0.84041923 1.1025882 -1.1505464 0.2808076 0.1115469 0.57418966 0.19499189 -0.18678531
-0.08996549 -0.018708711 0.23134573 0.6634977 0.06619331 -0.04091022 1.0454743 -1.1508199
0.41567925 -0.47085196 0.9613056 -0.43470225 0.29759264 0.98075813 0.20357244 0.32983235
0.4048243 0.03573539 0.38069358 -0.36866805 0.13716936 0.65564215 -0.41129044 -0.30106792
1.0605222 1.2017075 -0.6574957 0.3478761 -0.5726976 0.0981598 1.4211843 -0.23216401
-0.3437078 0.48623413 -0.08733106 -0.94620943 0.3961265 -0.18625146 0.47305474 0.18587787
-0.35201773 0.03645531 0.7594275 -0.3691822 0.014484161 0.1603589 -0.14046957 -0.42143017
0.66646403 -0.43622482 0.09488655 0.12169212 -0.4057586 -0.16325937 1.089849 -0.41341656
-0.056888998 0.18985148 -0.30416682 -0.26445737 0.83871096 -0.20144208 -0.037882525 0.58288103
-0.66937757 -0.41999742 0.27539578 0.95012355 0.4729136 -0.6913007 0.1586152 0.23232576
-0.54380995 0.35090798 -0.06582817 0.1922534 -1.0265801 -0.42127803 -0.80145615 -0.8857021
-0.4277177 0.8469937 0.41929328 -0.19041261 0.39440465 -0.117512345 1.1501796 -0.080567166
-0.50035226 -0.034399867 0.64809304 -0.4184447 -0.050253138 -0.9711889 -0.21535745 0.059449613
-0.32981077 -0.31638238 -1.4559963 0.51027256 -0.23632373 -0.684817 0.17238037 0.55384845
-0.09454386 0.20823781 -0.19018862 -0.37525257 -0.052737482 -0.14929998 0.35883674 -0.1496542
0.048634075 0.5715758 -0.56165826 -0.38566005 0.119703986 -0.5405241 0.05064244 1.1093549
0.28400588 -0.101970114 0.4249561 -0.14449908 0.30796623 -0.39248708 0.28175038 0.055299804
-0.20436908 0.16418698 -0.61996 0.41542992 -0.19375324 0.2860516 -0.51569456 0.9561882
-0.9697444 1.0611567 -0.034756165 -0.2224587 -0.005050475 0.4491227 0.107444905 -0.35486442
1.2799847 -0.3232532 -0.18105811 -0.8332231 0.021687757 0.24134788 -0.14821972 -0.37400845
0.53418237 0.069357015 -0.25354072 -1.2584859 0.3899303 0.656516 0.7661206 0.74471575
-0.36463302 0.2667686 0.4091095 0.6221239 0.70901245 -0.13852154 0.1274998 0.48331618
-0.8534322 0.89006513 -0.49856773 0.11234772 -0.47971478 -0.04690673 -0.30694082 -0.3555779
-0.011332013 0.36549407 0.08057917 -0.49427626 -0.023146559 -0.28401697 -0.38980368 -0.024604052
0.096263655 -0.5474057 0.2108684 -0.7890663 -0.018679412 0.43057138 0.48605412 0.386208
0.10120308 0.5278332 0.33244595 -0.30342945 0.82314575 -0.44205478 -1.3844758 0.28247803
-0.078395545 0.42550737 0.97980165 -0.29978764 -0.6110478 0.067512825 0.465558 0.13910778
0.37045646 0.84978324 0.102364086 0.04370648 0.08743425 -0.07074392 0.44958663 -1.112954
0.5542809 0.55106926 -0.41443765 -0.577671 0.38227797 -0.23384683 0.59561557 0.3155106

temporal.rnn.bias_ih_l1 f4 [128]
00000000: b0e2 8dbe 0c44 6d3b 44f9 0a3d efab db3e
00000010: a4e3 adbd 6fd5 1dbf 6470 dcbe 9e5c eb3d
00000020: 2a12 c0be e788 cabe 958a acbe 1e68 42bd
00000030: 4601 6dbe b7bf a8be 17ca 61be 99fa 3cbe
00000040: 7627 5f3f 12f7 b4bd ac60 6fbe 4df3 203f
00000050: 1406 b6be 8678 803e ad0f b4be b3ae 19bf
00000060: b94e 903e db75 14bd b7b6 dfbe f91c 423c
00000070: 0e50 aabe 22c4 8abe 102d 463d 5979 38bf
00000080: d73e 78be c6a9 4fbe 1225 033e 972f 7f3d
00000090: 5752 283e bf3b 443f 284a 423f bb15 833e
000000a0: 4149 bd3e a1dd 2c3f f151 f0bc 264f 1cbf
000000b0: 020e a43e 4f91 fabd 8a60 473f 7f77 d53e
000000c0: babd 153e ecbc 1b3f fdc0 18bf 978d b63f
000000d0: 4a72 8a3e fad5 1bbe af61 9a3e efbd 1d3f
000000e0: 8ddc f13d 7aaf 08bf 51d6 83be a8b5 6a3e
000000f0: 0e1f bfbe c12d 7d3e ceb6 99be ceaf c43e
00000100: 82d2 943e b375 fe3e 773f 993e 4394 113f
00000110: 1993 c33c 1a8e 353e 46e4 4abf b266 86be
00000120: fea4 af3e 6efa 68be 7173 953c e637 af3e
00000130: 9623 acbd cb09 873d 2932 213e 121d 26be
00000140: f04b 9cbe 2dfe cc3e 7115 2abd 7753 163f
00000150: fc59 1c3d 42bc 133f aee1 a33e 29a5 133e
00000160: fa5a e4bd e25c 0abf 1925 2bbe 0eef 03be
00000170: 2781 1a3f 7009 b1bd e066 49bd 4835 ab3c
00000180: e51f 9ebe 0879 bdbe aa75 853e 934a af3e
00000190: 3369 ab3e e082 e93d 2847 403f 5298 023f
000001a0: b01e f23e ca61 993e 3ced 78bd d320 323d
000001b0: d055 0c3d f755 48bd cb1f 633d b528 ecbd
000001c0: f6a9 153e e0d7 8b3e ceac e1bd 9b36 303e
000001d0: 69e7 4dbd d0e0 e33d 0671 42be 5a14 a53e
000001e0: 6f45 203d 91bf 9dbe 5d78 f8be c8a6 693e
000001f0: 7778 f9be c64a cf3e cf27 183d ec04 7c3e
-0.2771201 0.003620389 0.033929124 0.42904612 -0.08490685 -0.616538 -0.43054497 0.11492275
-0.37513858 -0.39557573 -0.3369948 -0.047462575 -0.23145017 -0.32958767 -0.22049747 -0.1845497
0.8716959 -0.088361874 -0.23376721 0.6287125 -0.35551512 0.25091952 -0.3516821 -0.60032195
0.2818506 -0.03624521 -0.43694088 0.011847728 -0.33264202 -0.27102762 0.04838282 -0.7206016
-0.24242721 -0.20279607 0.1280711 0.062301245 0.1643766 0.76653665 0.75894403 0.25602517
0.3696995 0.6752568 -0.029335948 -0.6105827 0.32041937 -0.12234747 0.7788168 0.4169273
0.14623156 0.60835147 -0.59669477 1.426196 0.2704032 -0.15218344 0.30152652 0.6161794
0.11809645 -0.53392756 -0.25749448 0.22920859 -0.3732838 0.24724485 -0.3002228 0.38415378
0.29066855 0.49699172 0.29931232 0.56866854 0.023873853 0.17729989 -0.7925457 -0.26250225
0.34305567 -0.22751781 0.018243523 0.34222335 -0.08405225 0.06593665 0.15741791 -0.16222027
-0.30526686 0.4003767 -0.041524354 0.5872111 0.038171753 0.57709134 0.32008117 0.14418472
-0.11150165 -0.5404798 -0.1671337 -0.12884161 0.6035332 -0.08644378 -0.049170375 0.02089943
-0.3088371 -0.37006402 0.26066333 0.34236583 0.33478698 0.114019156 0.75108576 0.5101367
0.47289038 0.2995742 -0.06077312 0.043488335 0.034261525 -0.048910107 0.055450242 -0.11531202
0.14615616 0.27313137 -0.11019288 0.1720833 -0.050269518 0.11126864 -0.18988428 0.3224209
0.039128717 -0.30810216 -0.4852933 0.22817528 -0.4872472 0.40486735 0.03714734 0.24611253

temporal.rnn.bias_hh_l1 f4 [128]
00000000: 15ab e9be 85f2 463e 8a7d b93d 491e 323f
00000010: 7d07 11bd 3a0c 17bf 4a6f dfbe 4151 f1bd
00000020: a31e 8ebe 07fd babe 0815 d2be d5a5 6d3d
00000030: 724d 42be e1a1 0fbf 6684 52be 6294 5cbe
00000040: 046b 4e3f fd12 1bbe 3001 4fbe 9237 153f
00000050: e17b 07bf 8c61 ae3d f95a e3be e9f6 2fbf
00000060: b307 893e 6b1b 8ebd a0ca 3fbf 921c 223c
00000070: 6e8a a5be 5fbd 27be 383e 253d 7768 38bf
00000080: 8705 15be 5c6f 20be 1384 2f3e bad0 813e
00000090: 9cc5 243e d864 003f ead8 063f 708e 693d
000000a0: a61d d93e 3245 353f f427 c83a d464 d9be
000000b0: 0f46 893d 1a40 e3bd cd2e 443f 9f7f 0c3f
000000c0: 4335 46bd 6f99 c53e 2daf adbe 7fd1 aa3f
000000d0: 1de7 6b3e db06 cbbe c24e b23d b49f e93e
000000e0: a2a8 8f3e 9110 d3be 7222 e7be 9b74 f63e
000000f0: b3fb b7be febe 923e f741 f3be 6811 1a3e
00000100: 2fd2 d93d 411e ae3e ec43 f13b c092 4b3f
00000110: 6530 0cbe 5880 75bb 50cb 0ebf ce28 90be
00000120: fac5 863e c956 dabe ae69 d13d e251 7f3d
00000130: afcf f93c 4c24 45be 969d a2bd 0359 9aba
00000140: 7f4c b5be 737f 2e3e f112 d9bd c543 263f
00000150: acf3 7abc 1731 f73e 81c6 44bc 98c3 8b3e
00000160: 1c1b 913c 2730 d1be 8d98 f0bd eece 4dbe
00000170: 04ab 133f e756 10be 526e 6bbe de32 163d
00000180: 5b37 a6be f6b3 a0be d186 a23e cc08 9e3e
00000190: 9041 203e 767e ac3e f824 313f 9e51 fe3e
000001a0: a2a9 f33e b0a8 ba3e 8dbe 3fbe 5969 af3d
000001b0: 8d63 21be 478f 75bd 4c73 10bd 3eb2 dd3d
000001c0: 1543 293e 0ff4 eb3d 149e 243c 406e a13e
000001d0: 5c0d d43d 967c 0fbe 23a9 86be 453c eb3d
000001e0: 3e20 dd3c a2f5 0ebf 796c b9be 1e89 f23e
000001f0: fd65 a7be 8467 b63d 657d bf3d 19f8 fe3e
-0.45638338 0.19428451 0.09057148 0.6957746 -0.035407532 -0.5900303 -0.43639594 -0.11783076
-0.2775775 -0.3652117 -0.4103167 0.058019478 -0.18974856 -0.5610638 -0.20558318 -0.21540979
0.8063204 -0.15143962 -0.20215297 0.5828792 -0.529234 0.08514699 -0.44405344 -0.6873613
0.26763687 -0.06938823 -0.74918556 0.009894507 -0.32332176 -0.16380833 0.04034254 -0.720344
-0.1455289 -0.1566748 0.17140226 0.25354558 0.16091007 0.50153875 0.52674735 0.057020605
0.42405432 0.7080871 0.0015270696 -0.42459738 0.06702816 -0.11096211 0.7663391 0.54882234
-0.048390638 0.38593623 -0.3392271 1.3345183 0.23037381 -0.39653668 0.08706428 0.45629656
0.28058344 -0.41223577 -0.45143467 0.48135838 -0.3593422 0.2866134 -0.47511265 0.15045702
0.106357925 0.34007457 0.0073628332 0.795208 -0.13690336 -0.0037460532 -0.5577898 -0.28156132
0.2632292 -0.42644337 0.10225235 0.06233395 0.030494539 -0.19252127 -0.079402134 -0.0011775795
-0.35409924 0.17040806 -0.10599316 0.6494716 -0.015316885 0.4827964 -0.012010218 0.27297664
0.017713122 -0.4085705 -0.11747847 -0.20098469 0.57682824 -0.1409565 -0.22991303 0.036669604
-0.32464108 -0.313873 0.31743482 0.30866086 0.1565001 0.33690232 0.69197035 0.49671644
0.47590357 0.36456823 -0.18725033 0.08565015 -0.15760632 -0.059951093 -0.035266206 0.108250126
0.16529496 0.1152116 0.010047454 0.31529427 0.103541106 -0.1401237 -0.26300916 0.11486105
0.026992913 -0.55843556 -0.3621557 0.47370237 -0.32694998 0.08906463 0.09350089 0.49798658
