notebook/output/rolling_models_dynamic/window_11.pth (torch, 479738 bytes, 99 tensors)

temporal.input_proj.weight f4 [32, 7]
0	0xbf638a69	-0.8888307
1	0x4009063d	2.1410058
2	0x402ed1f3	2.7315643
3	0xbe834c35	-0.2564408
4	0x3c08f9e0	0.008360356
5	0xbba389ce	-0.004990793
6	0xbcd9fe6c	-0.026610576
7	0x3fa869df	1.3157309
8	0x4017d4c5	2.3723614
9	0x404f58b7	3.2397897
10	0xbe8e3cb2	-0.27780682
11	0xbe2b4eeb	-0.16729324
12	0x3e0959af	0.13413118
13	0x3a221895	0.00061834726
14	0x3f461182	0.77370465
15	0x3bc0677e	0.005871712
16	0xbfd1b99b	-1.6384767
17	0xbe1f44b7	-0.15553556
18	0x3eb41c5e	0.35177892
19	0xbe6327a0	-0.22183084
20	0x3e11162e	0.14168617
21	0x4076091a	3.8443055
22	0x404ed107	3.231508
23	0x402b9478	2.6809368
24	0xbeae6903	-0.34064493
25	0xbe0df825	-0.13864191
26	0xbc7e6dde	-0.015529124
27	0x3ca76dad	0.02043804
28	0x3f25b823	0.64734095
29	0x3f36303c	0.7116735
30	0x3f115417	0.56768936
31	0x3e5026d0	0.20327306
32	0xbde85049	-0.11343438
33	0x3e1e467e	0.15456578
34	0xbe8afb2a	-0.27144748
35	0xbfac87b3	-1.3478912
36	0x400015fb	2.0013416
37	0x404603c7	3.0939806
38	0x3ebcfb87	0.3691065
39	0xbeb7affc	-0.35876453
40	0x3e758cb4	0.23979455
41	0xbe189b68	-0.14903033
42	0xc084c3ae	-4.1488867
43	0xbf7e1219	-0.99246365
44	0xbe74cd8b	-0.23906533
45	0x3e5c8a1a	0.21537057
46	0xbe436604	-0.19081885
47	0xbdec5eaf	-0.11541497
48	0xbe194655	-0.14968236
49	0xc07d60a5	-3.9590237
50	0xbd94dc29	-0.07268555
51	0x3fc64722	1.5490458
52	0xbd83082e	-0.063980445
53	0xbd8ca9a5	-0.068682946
54	0x3cb5cffd	0.022193903
55	0xbd966a65	-0.07344512
56	0xc0c6920d	-6.2053285
57	0xc029ffaf	-2.6562307
58	0xbfacfe63	-1.3515133
59	0xbe2c19d7	-0.16806732
60	0x3cef3a5a	0.029202629
61	0xbf027209	-0.50955254
62	0xbd52386f	-0.05132335
63	0x3eb42d32	0.3519073
64	0xbf1c2fe8	-0.610106
65	0xbf6c0161	-0.92189604
66	0xbebbd07d	-0.366825
67	0x3df6ab9e	0.12044452
68	0xbe9ec043	-0.3100606
69	0x3ea4adde	0.321639
70	0xbf7963d4	-0.9741795
71	0x3f891448	1.0709314
72	0x3feae57c	1.8351283
73	0x3e6d16cc	0.23153228
74	0x3ce708bd	0.028202409
75	0xbdd2ff13	-0.10302558
76	0xbca32fa5	-0.01992018
77	0x3f7077a0	0.93932533
78	0xbf979b66	-1.1844299
79	0xbf5e5bf6	-0.8685907
80	0xbe80331f	-0.25039002
81	0x3b0c98c1	0.0021453353
82	0xbc832aee	-0.016011681
83	0xbd919c13	-0.07109847
84	0xc014e829	-2.32667
85	0xc02b59d2	-2.6773572
86	0xc05631ae	-3.3467822
87	0xbdfd8ea6	-0.12380724
88	0xbe42fd9e	-0.1904206
89	0x3e844dea	0.25840694
90	0xbc896788	-0.016773
91	0x3f7300f8	0.94923353
92	0xbf95d0b0	-1.1704311
93	0xc0149d77	-2.322111
94	0xbd878bed	-0.066184856
95	0xbe8a26f7	-0.26982853
96	0x3e867bb0	0.2626624
97	0xbd0eed52	-0.034894295
98	0xc087aac1	-4.239594
99	0xc01dda56	-2.4664512
100	0xc0014231	-2.019665
101	0x3dc61454	0.09671846
102	0xbe3daa21	-0.1852193
103	0x3e4f3319	0.20234336
104	0x3c88be5f	0.016692339
105	0xc053c6d3	-3.3090103
106	0xc0295358	-2.645712
107	0xc03f8fad	-2.9931443
108	0xbdf281cc	-0.11841163
109	0x3d8d05ed	0.06885896
110	0x3d2a658b	0.041600745
111	0xbc8aac1c	-0.016927771
112	0x4022ad37	2.5418222
113	0x3ca9c993	0.020726
114	0x3dbcf922	0.09227206
115	0x3c1edc08	0.009696014
116	0xbdc7c498	-0.09754294
117	0xbdcec965	-0.10097007
118	0xbeae144a	-0.33999854
119	0xbf4ca060	-0.7993221
120	0xbec678ac	-0.3876394
121	0x3e739e36	0.23790821
122	0xbeb31850	-0.34979486
123	0xbdfaeb11	-0.122518666
124	0xbdbc5015	-0.09194962
125	0x3dbaded0	0.09124529
126	0x3fe42e85	1.7826697
127	0xc00ae28a	-2.1700768
128	0xbfdd1a0c	-1.7273574
129	0x3e19bc3c	0.15013212
130	0xbd1325b5	-0.035924632
131	0xbd283dc9	-0.041074548
132	0xbd2cb030	-0.042160213
133	0x3fc93831	1.5720273
134	0x40305f4a	2.755816
135	0x40328a34	2.7896852
136	0xbe83b726	-0.2572567
137	0xbe7f0ff0	-0.24908423
138	0x3da96e9f	0.082730524
139	0x3d2f5183	0.042802345
140	0x3f06c922	0.52650654
141	0xbfd393f3	-1.6529526
142	0xc02ad41f	-2.6691968
143	0x3bcd2d58	0.006261509
144	0xbd31a037	-0.043365683
145	0xbd0822b0	-0.033236206
146	0x3d9f7180	0.0778532
147	0x40175881	2.3647768
148	0xbfb43f47	-1.4081811
149	0xbfe1d12c	-1.7641959
150	0xbae9a29c	-0.0017824951
151	0x3ce1cc58	0.027563259
152	0xbd361bfb	-0.044460278
153	0xbd485ba2	-0.048915513
154	0x3dc17834	0.09446755
155	0x3fbc9201	1.4732057
156	0x40144d2f	2.317211
157	0x3dd7b7ae	0.10533081
158	0xbde1809f	-0.11010861
159	0xbda8e762	-0.08247258
160	0xbdfe4715	-0.124159016
161	0xbf523b6c	-0.8212192
162	0xc001ba98	-2.0270138
163	0xc01f5d0b	-2.490054
164	0xbe0ba7c1	-0.13638212
165	0x3deb46de	0.11488126
166	0x3eae8290	0.34083986
167	0xbd274b9b	-0.040843587
168	0xc03c85ae	-2.9456592
169	0xbf2b9ef0	-0.67039394
170	0xc00afeb6	-2.1717963
171	0xbd663a69	-0.056208048
172	0x3dbe1e95	0.09283177
173	0x3eee874f	0.46587607
174	0xbd9aa35e	-0.07550691
175	0xc003ff41	-2.0624545
176	0x3f8b07d4	1.0861764
177	0x3f97582b	1.1823782
178	0x3e86340e	0.2621159
179	0x3be140e5	0.006874191
180	0xbdad2c70	-0.084557414
181	0x3b15b5dc	0.0022843992
182	0xbf872913	-1.055941
183	0xbf8b9348	-1.0904322
184	0xbfc9e3b5	-1.5772616
185	0x3e3def9b	0.18548433
186	0xbebec2ad	-0.372579
187	0x3eba76d8	0.36418796
188	0xbcaa8b1c	-0.020818286
189	0x3ffc61dc	1.9717364
190	0xbebd031a	-0.3691643
191	0xbfbc5362	-1.4712946
192	0x3cbb18fb	0.02283906
193	0x3ec5d517	0.38639137
194	0x3e0c291e	0.1368756
195	0xbdd3e597	-0.10346525
196	0x4062492d	3.5357163
197	0x40328b7f	2.7897642
198	0x40496e19	3.1473448
199	0x3e48f49a	0.19624558
200	0x3d7b1c6c	0.061306402
201	0xbe882c33	-0.2659622
202	0x3c072dca	0.008250663
203	0xc05c0592	-3.43784
204	0xbf79abd2	-0.975278
205	0x3f759810	0.95935154
206	0x3dc15458	0.094399154
207	0x3cd2d0a0	0.025734246
208	0xbe4b5ba2	-0.19859174
209	0x3d1f9560	0.038960814
210	0x40733d61	3.8006213
211	0x3fef238e	1.8682725
212	0x3de8b525	0.113626756
213	0x3e37ca51	0.17948271
214	0x3d2ecf5d	0.042678226
215	0x3cc86651	0.02446285
216	0xbcb7aa52	-0.022420082
217	0x3faab0b8	1.333518
218	0xbe996d5a	-0.2996624
219	0xbf5df31d	-0.86699086
220	0x3e5aeff3	0.21380596
221	0xbea56f47	-0.3231146
222	0x3e263160	0.16229773
223	0x3d25c4dc	0.040470943

temporal.input_proj.bias f4 [32]
0	0xbd47fa2b	-0.048822563
1	0xbcc7c0bc	-0.024383895
2	0xbf18098c	-0.5938957
3	0x3e2c00ea	0.16797224
4	0xbf76cfb3	-0.96410674
5	0x3e9dd1d6	0.30824155
6	0x3ea0d169	0.31409767
7	0x3f4e88ba	0.8067738
8	0xbe982c06	-0.29721087
9	0x3d601743	0.054709684
10	0xbd5e99ed	-0.054346014
11	0x3d4aad68	0.04948178
12	0xbe3d65f8	-0.18495929
13	0xbe5a1501	-0.21297075
14	0xbee6b9a9	-0.45063522
15	0xbebe9fd0	-0.37231302
16	0xbed9ef17	-0.42565224
17	0x3f04f5d0	0.5193758
18	0xbdd5025a	-0.10400839
19	0x3eed7512	0.4637838
20	0x3d27e9d9	0.0409945
21	0xbe9bcb81	-0.304287
22	0x3f299532	0.6624328
23	0x3cdb08f6	0.026737671
24	0x3eed5f49	0.4636176
25	0xbe90b5fa	-0.28263837
26	0x3dfe6a27	0.12422591
27	0xbf33b382	-0.7019578
28	0x3d0c8aa5	0.03431191
29	0x3eed0ad4	0.46297324
30	0xbf3bda29	-0.7337976
31	0xbe8c1936	-0.27362984

temporal.layer_norm.weight f4 [32]
0	0x3f97058b	1.1798567
1	0x3f8978b9	1.0739967
2	0x3f705905	0.93885833
3	0x3fc9ba65	1.5760008
4	0x3f33df79	0.7026287
5	0x3f5c5164	0.8606169
6	0x3f011435	0.5042146
7	0x3f86687d	1.0500637
8	0x3f9410b8	1.1567602
9	0x3eb4e8f0	0.35333967
10	0x3f874407	1.0567635
11	0x3fa15d81	1.260666
12	0x3f8cdaaa	1.1004231
13	0x3fcba72a	1.591039
14	0x3fb022a0	1.3760567
15	0x3f827a40	1.0193558
16	0x3f23ffad	0.64062005
17	0x3f3dc924	0.7413504
18	0x3fb8dade	1.4441793
19	0x3f81b52d	1.0133415
20	0x3f67ab0b	0.90495366
21	0x400ac957	2.1685388
22	0x3f90cbff	1.1312255
23	0x3f3d6c68	0.7399354
24	0x3f19eb4f	0.6012468
25	0x3fb0b8d3	1.3806404
26	0x3f8e041c	1.1095004
27	0x3f6873b8	0.9080157
28	0x3faf618e	1.3701646
29	0x3f8884ae	1.0665491
30	0x3f8f70fd	1.1206356
31	0x3f1521b2	0.5825454

temporal.layer_norm.bias f4 [32]
0	0xbe12ba98	-0.14328992
1	0xbecc288c	-0.39874685
2	0x3f1062b2	0.564006
3	0xbbf6ff53	-0.0075377612
4	0x3f0abc7e	0.54193866
5	0xbf380e54	-0.71896863
6	0xbe563fc4	-0.20922762
7	0xbf1f53c7	-0.6223721
8	0xbee161d2	-0.44019943
9	0x3ef96705	0.4871141
10	0xbe3e8802	-0.1860657
11	0xbe818a79	-0.2530096
12	0x3cc982d3	0.024598515
13	0xbea10718	-0.31450725
14	0xbd2f2ac4	-0.042765394
15	0xbe03e299	-0.12879409
16	0x3e7a18f4	0.24423581
17	0x3eeee68c	0.46660268
18	0x3e3505c0	0.17677975
19	0xbefe85af	-0.49711367
20	0x3f0088d9	0.5020881
21	0xbcf505d0	-0.029909998
22	0x3e3311c4	0.17487246
23	0xbe1be098	-0.15222394
24	0xbf7d689a	-0.98987734
25	0x3e94ecbd	0.29086867
26	0x3e30c447	0.17262374
27	0xbeba02b2	-0.3633018
28	0x3d7eeda5	0.062238354
29	0xbede7e18	-0.43455577
30	0x3ee7ca61	0.4527159
31	0x3f656524	0.89607453

temporal.rnn.weight_ih_l0 f4 [128, 7]
0	0xbf768607	-0.9629826
1	0xbf7d0f9e	-0.98851955
2	0xbf839a3f	-1.0281447
3	0xbf694265	-0.91116935
4	0x3e890721	0.2676325
5	0x3e86c432	0.2632156
6	0xbf482d93	-0.7819454
7	0xbf63677b	-0.88829774
8	0xbf38f787	-0.72252697
9	0xbf3dd473	-0.74152297
10	0xbf2aa353	-0.66655463
11	0xbe9fbe4c	-0.31199872
12	0xbe8afc44	-0.27145588
13	0x3eb6ae59	0.35679892
14	0xbf3e6e5c	-0.74387145
15	0xbf3eab92	-0.74480546
16	0xbf32fd85	-0.6991809
17	0xbf0ff6ce	-0.5623597
18	0xbf39eeb0	-0.72629833
19	0xbf4acf01	-0.7922211
20	0x3e3d03a8	0.18458426
21	0x3e85a37b	0.26101288
22	0x3e558004	0.20849615
23	0x3e80bf4d	0.2514595
24	0x3e1822c9	0.1485702
25	0x3f00ba46	0.5028423
26	0x3e8470da	0.2586735
27	0x3ddd0fd4	0.107940346
28	0x3eac4b91	0.33651403
29	0x3e7a8fa3	0.24468856
30	0x3e81931b	0.25307545
31	0x3e3c62b6	0.1839703
32	0x3e27f6f7	0.16402803
33	0x3ebb7b96	0.36617726
34	0x3ca68124	0.02032525
35	0xc08f4ca1	-4.478104
36	0xc0764482	-3.8479314
37	0xc07e9014	-3.9775438
38	0xc0955b92	-4.667428
39	0xbd89adb8	-0.06722587
40	0xbe7e4c2c	-0.24833745
41	0xbd04175b	-0.032248836
42	0xbe2418bc	-0.1602506
43	0xbe947f7c	-0.29003513
44	0xbe025a00	-0.12729645
45	0xbd67e951	-0.056618992
46	0xbd203e45	-0.039121885
47	0xbd6ebcde	-0.058285587
48	0x3c21e01e	0.009880094
49	0x3eac402c	0.3364271
50	0x3ee09661	0.4386473
51	0x3e8e1f61	0.27758315
52	0x3eee5ba2	0.46554285
53	0xbeaae8b1	-0.33380654
54	0xbebd3e5b	-0.36961636
55	0x3e21fb45	0.15818508
56	0xbf9bfc3e	-1.2186353
57	0xbfb15968	-1.385541
58	0xbfa8174a	-1.3132107
59	0xbfccbab5	-1.5994478
60	0xbf214a48	-0.6300397
61	0xbed1f931	-0.4101043
62	0x3e2fd849	0.1717235
63	0xbf5b69f9	-0.85708576
64	0xbf3f8442	-0.74811184
65	0xbf8e3eba	-1.1112893
66	0xbf95266b	-1.1652349
67	0xbe188ff6	-0.14898667
68	0xbe8a2b66	-0.26986235
69	0x3c0d70f8	0.008632891
70	0xbf637c46	-0.888615
71	0xbf5b6931	-0.85707384
72	0xbf8b8ff2	-1.0903304
73	0xbf8350df	-1.0259055
74	0xbf76a838	-0.9635043
75	0xbf42cb02	-0.76091015
76	0xbd9e16e3	-0.07719209
77	0xbf1cf48b	-0.6131064
78	0xbe9e7291	-0.30946782
79	0xbeb44c1c	-0.35214317
80	0xbeceaba2	-0.4036532
81	0xbebae972	-0.3650623
82	0xbd5a3e6f	-0.053282198
83	0x3f3b60e9	0.7319475
84	0x3f04c50e	0.5186318
85	0x3e4b51f0	0.19855475
86	0x3f14a004	0.58056664
87	0x3f1a9703	0.60386676
88	0xbf0c0acf	-0.5470399
89	0xbf269bcd	-0.65081483
90	0x3e448d05	0.1919442
91	0xbf8e41ff	-1.111389
92	0xc01292a2	-2.2901998
93	0xbe554ce5	-0.20830114
94	0xbf8139d6	-1.0095775
95	0x3d612111	0.054963175
96	0xbf3d13e7	-0.73858494
97	0x3e698ac6	0.22806844
98	0xbf1668cd	-0.58753663
99	0xbe91e69f	-0.28496262
100	0xbf06928c	-0.5256736
101	0xbeeb988c	-0.46014822
102	0xbf19cef8	-0.60081434
103	0xbeb61f1f	-0.3557062
104	0xbe27729b	-0.16352312
105	0xbf53eba3	-0.8278143
106	0xbfbfcc5a	-1.4984238
107	0x3eb1052b	0.34574255
108	0xbf5c55be	-0.8606833
109	0xbebe7f7f	-0.37206647
110	0xbedf25b1	-0.43583444
111	0x3e1b8c95	0.15190347
112	0xbd6ad2ca	-0.05732993
113	0x3e0ba57b	0.13637345
114	0xbd2297c7	-0.039695527
115	0xbe6dbbc7	-0.23216163
116	0x3eb8c2b0	0.36086035
117	0x3e82b591	0.2552915
118	0x3e246a8f	0.16056274
119	0xbf360481	-0.7110062
120	0xbee698cf	-0.4503846
121	0xbf210985	-0.6290515
122	0xbf45b1de	-0.7722453
123	0xbf1d3562	-0.6140958
124	0xbf5bf725	-0.8592399
125	0x3dad4f45	0.08462385
126	0xbf811ec0	-1.0087509
127	0xbfad3d30	-1.3534298
128	0xbf87d5a9	-1.0612079
129	0xbf8c265a	-1.0949204
130	0x3e0a0ed6	0.13482222
131	0xbe2f317f	-0.17108725
132	0x3daab3bb	0.08335062
133	0xbf5e3f5c	-0.8681543
134	0xbf460168	-0.77345896
135	0xbd0b06f0	-0.033942163
136	0x3e363a0f	0.17795585
137	0x3c025b4d	0.007956338
138	0xbcf82080	-0.030288935
139	0x3d3370d4	0.043808773
140	0x3f63ef5a	0.89037097
141	0x3f38c664	0.7217772
142	0x3f8ef996	1.1169918
143	0x3f54128f	0.8284082
144	0xbee693bf	-0.45034596
145	0xbf1b256e	-0.6060399
146	0x3ee88dfb	0.45420823
147	0x3e0da51a	0.13832512
148	0x3ca72380	0.02040267
149	0xbd2d9b67	-0.04238453
150	0x3d7b1db5	0.061307628
151	0x3e4c9ffd	0.19982906
152	0x3dde5804	0.108566314
153	0x3d0bf3a1	0.03416789
154	0xbf92fece	-1.148401
155	0xbf9b799b	-1.2146486
156	0xbfa0b28a	-1.2554486
157	0xbf8ce6a9	-1.1007892
158	0xbf2b8a18	-0.6700759
159	0xbe73f402	-0.2382355
160	0xbe86b803	-0.26312265
161	0xbec59404	-0.3858949
162	0xbef99f84	-0.48754513
163	0xbf1e9f8a	-0.6196219
164	0xbf09aae7	-0.537764
165	0xbf76eedf	-0.9645824
166	0xbf5931f8	-0.8484187
167	0x3dea0562	0.11426808
168	0xbe8809e8	-0.26570058
169	0xbf2733ed	-0.6531361
170	0x3bc46705	0.005993726
171	0xbef024d8	-0.4690311
172	0x3e70eda2	0.2352815
173	0x3dee0182	0.11621381
174	0x3edf3b08	0.43599725
175	0xbf226e15	-0.6344922
176	0xbf19bd4e	-0.6005448
177	0xbf184af1	-0.5948935
178	0xbeca2328	-0.39479947
179	0xbdfd70f6	-0.12375061
180	0xbdc7afc2	-0.0975032
181	0x3e8ecf92	0.2789274
182	0xbf223d61	-0.63374907
183	0xbf049f1e	-0.51805294
184	0xbf29739b	-0.66192025
185	0xbf177d8e	-0.59175956
186	0xbecdd8b8	-0.40204406
187	0xbebcaddc	-0.36851394
188	0xbe9f948d	-0.31168023
189	0xbf40690c	-0.7516029
190	0xbe0d17ca	-0.13778606
191	0xbf535a44	-0.8255961
192	0xbdbf023d	-0.09326599
193	0x3e2c5172	0.16827944
194	0xbe7e8018	-0.24853551
195	0x3d691e26	0.056913517
196	0x3edb81a5	0.42872348
197	0x3f27ae4d	0.65500337
198	0x3f11f9ee	0.5702199
199	0x3f454231	0.77054125
200	0xbf07512d	-0.5285824
201	0xbec9b3f6	-0.39395112
202	0x3d359163	0.044328105
203	0x3c940408	0.018068328
204	0x3e4eb752	0.20187119
205	0xbe55547b	-0.20833008
206	0xbe630b16	-0.22172198
207	0xbe703e5e	-0.23461291
208	0x3e91be17	0.2846534
209	0x3d999d92	0.07500757
210	0xbc59392d	-0.013258261
211	0x3d3bd162	0.04585398
212	0xbddcd326	-0.10782461
213	0xbe699e83	-0.22814374
214	0xbbf742ca	-0.0075458037
215	0x3e109b2c	0.14121693
216	0xbf496ecc	-0.7868469
217	0xbf1159bc	-0.5677755
218	0xbeff6a79	-0.4988592
219	0xbf0fbc11	-0.5614634
220	0xbf41bf89	-0.75682884
221	0xbc6118f7	-0.013738862
222	0xbc54f2eb	-0.012997369
223	0xbedaed52	-0.42759186
224	0xbe477ba1	-0.19480754
225	0xbe855b7a	-0.26046354
226	0xbec389da	-0.3819111
227	0xbf0f1ad0	-0.5590029
228	0xbefad5c2	-0.4899121
229	0xbeda8f66	-0.4268753
230	0x3e6d8e60	0.23198843
231	0xbf26a116	-0.6508955
232	0xbf345950	-0.7044878
233	0xbf1c3487	-0.6101765
234	0xbf2f8f52	-0.68578064
235	0xbe503b6f	-0.20335172
236	0xbeaba6cd	-0.33525696
237	0xbe0d95d6	-0.13826689
238	0xbef7110d	-0.48255196
239	0xbf1a8b4c	-0.603688
240	0xbf425670	-0.75913143
241	0xbf3a76a9	-0.7283731
242	0xbe943d76	-0.2895314
243	0xbe34f224	-0.17670494
244	0xbe0b628c	-0.13611811
245	0x3f094409	0.5361944
246	0x3e7f663f	0.24941348
247	0x3f0430a2	0.5163671
248	0x3e52c245	0.2058192
249	0xbe0649c8	-0.13114083
250	0xbedc62fa	-0.43044263
251	0x3e095882	0.1341267
252	0x3ec6cbee	0.3882746
253	0x3eb815cd	0.35954133
254	0x3d94b765	0.07261542
255	0xbe640dee	-0.22270939

temporal.rnn.weight_hh_l0 f4 [128, 32]
0	0x3c0c5592	0.008565323
1	0xbf2dad74	-0.67842793
2	0xbe7acf65	-0.24493177
3	0xbd4a7f56	-0.049437843
4	0xbdba5a9d	-0.09099314
5	0x3f81a4f8	1.012847
6	0x3bfca2f3	0.0077098547
7	0x3e628a20	0.22123003
8	0x3f5cb9ab	0.86220807
9	0xbf194d87	-0.5988392
10	0xbec8a1cc	-0.3918594
11	0x3f157ebe	0.5839652
12	0xbe011626	-0.12606105
13	0xbf060399	-0.5234924
14	0xbe971d98	-0.29514766
15	0xbfa336a3	-1.2751049
16	0x3e839a6b	0.2570375
17	0x3e726f33	0.23675232
18	0xbd5405b0	-0.051763237
19	0xbf83d02b	-1.0297903
20	0xbed39ce2	-0.4133063
21	0x3ea864e1	0.32889464
22	0xbdefe68d	-0.11713896
23	0xbf4e8a8c	-0.80680156
24	0xbcff72f9	-0.031182753
25	0xbf21c614	-0.6319287
26	0x3e4f122f	0.2022178
27	0xbf380b24	-0.71892
28	0x3e22614f	0.15857433
29	0x3ec222b0	0.3791709
30	0x3e2952fc	0.16535562
31	0x3e82a8b0	0.25519323
32	0xbea71032	-0.32629544
33	0xbe3fcfae	-0.18731567
34	0xbea7de22	-0.3278666
35	0x3ecd29cb	0.40070948
36	0x3e53b1fc	0.20673364
37	0xbe5a4d3c	-0.21318525
38	0x3ea21d6a	0.31663066
39	0x3f2d51f3	0.6770317
40	0x3e8ab8c4	0.2709409
41	0xbe812eec	-0.2523111
42	0x3e84d17d	0.25941077
43	0xbee6b081	-0.45056537
44	0xbf2ce091	-0.6753016
45	0xbee0dc16	-0.43917912
46	0xbeaad666	-0.33366698
47	0x3d13f44e	0.03612166
48	0xbea1804c	-0.31543195
49	0x3efdf2c2	0.49599272
50	0x3e71c949	0.2361194
51	0x3e0a8119	0.1352581
52	0x3e9185c5	0.2842237
53	0x3e4524f9	0.19252385
54	0x3de47bab	0.111564
55	0x3d084777	0.03327128
56	0xbd443362	-0.047900565
57	0x3e83c8c3	0.25739107
58	0x3f0aa62f	0.54159826
59	0x3f1d8f39	0.61546665
60	0x3e90a58f	0.2825131
61	0xbed80f38	-0.4219911
62	0xbe2959fa	-0.1653823
63	0x3f087aa2	0.5331212
64	0xbe4e0621	-0.20119525
65	0xbe139f15	-0.14416154
66	0x3e1d5e70	0.15368056
67	0xbefcda4c	-0.49385297
68	0xbe7d24bf	-0.24721049
69	0xbe823083	-0.25427637
70	0x3cdc6543	0.026903754
71	0xbe8069d8	-0.25080752
72	0xbd709df1	-0.058744375
73	0xbd7117cc	-0.058860585
74	0x3edb97dd	0.428893
75	0x3e31a8ae	0.17349502
76	0x3e29121f	0.16510819
77	0x3ec2f5d9	0.38078192
78	0xbe5a191f	-0.21298645
79	0x3d3717f9	0.044700596
80	0x3cbe00a8	0.023193672
81	0xbe0bd63b	-0.13655941
82	0xbdc7c6ba	-0.09754701
83	0x3de9a0fc	0.114076585
84	0xbdda6ccb	-0.10665282
85	0x3cd419e3	0.02589125
86	0xbd05d9f3	-0.032678556
87	0xbccd2c92	-0.025045667
88	0x3e429cfb	0.19005196
89	0x3e828086	0.2548868
90	0x3d45108e	0.04811149
91	0x3eb2a5af	0.34892032
92	0xbdb6bfc1	-0.08923293
93	0xbef3bc4a	-0.4760459
94	0xbe8c155f	-0.27360055
95	0x3e6a0a74	0.2285555
96	0xbf215be4	-0.6303084
97	0x3e454c63	0.1926742
98	0xbe0aab10	-0.13541818
99	0x3eae76fa	0.34075147
100	0xbe1510b5	-0.14557154
101	0xbe78ab32	-0.24284056
102	0xbd71e32d	-0.059054542
103	0x3d07b025	0.03312697
104	0xbe71edd9	-0.23625888
105	0xbe8b8272	-0.2724796
106	0x3ef3c621	0.47612098
107	0xbe5f8ecf	-0.21831821
108	0x3d28527c	0.04109429
109	0xbe966368	-0.29372716
110	0xbf3f4734	-0.7471802
111	0x3dbf4b31	0.093405135
112	0xbed6363b	-0.4183825
113	0x3f1edfc3	0.62060183
114	0x3cc19d59	0.0236346
115	0x3e6ed0b0	0.23321795
116	0xbe8a68da	-0.2703312
117	0xbf458f4e	-0.7717179
118	0x3d305a8a	0.043055095
119	0x3e8fbeb1	0.28075173
120	0xbb730b1e	-0.0037085484
121	0x3dc8220b	0.09772118
122	0x3ea54fc9	0.32287434
123	0x3e880c7c	0.26572025
124	0xbe40ccc4	-0.18828112
125	0xbe9ab067	-0.3021271
126	0x3e6f07db	0.2334284
127	0x3ee356c8	0.44402146
128	0xbeffe4f0	-0.49979353
129	0xbf1638b1	-0.58680254
130	0x3caed855	0.02134339
131	0xbe2e02cf	-0.16993259
132	0xbe46195a	-0.19345608
133	0x3f5c5d21	0.86079603
134	0x3e8354fa	0.2565077
135	0x3e9b8840	0.30377388
136	0x3f3f102c	0.7463405
137	0xbefe906b	-0.49719557
138	0xbee90dfe	-0.45518488
139	0x3ef31cd1	0.47482923
140	0xbe54c1cf	-0.20777057
141	0xbf0448bb	-0.5167348
142	0xbdb9a4ca	-0.09064634
143	0xbf891c10	-1.0711689
144	0x3e9fb43f	0.31192204
145	0xbeb8ea0a	-0.36116058
146	0x3e48eaae	0.19620773
147	0xbf114eb3	-0.5676071
148	0xbf1d74e2	-0.61506474
149	0x3ef04e72	0.4693485
150	0xbf022572	-0.50838387
151	0xbec508d9	-0.38483313
152	0x3efd7b16	0.4950797
153	0xbf259a7e	-0.6468886
154	0xbe21502a	-0.15753236
155	0xbf3afda8	-0.730433
156	0x3ef32307	0.4748766
157	0x3f4c6f23	0.7985708
158	0xbe42e584	-0.19032866
159	0x3e588e83	0.21148114
160	0x3f902203	1.126038
161	0x3cc7fc88	0.024412408
162	0x3df5057d	0.119639374
163	0xbec2fc91	-0.38083318
164	0x40027690	2.0384865
165	0x3ef45ed7	0.47728607
166	0xbee6e8c3	-0.45099458
167	0x3f04d391	0.51885325
168	0x3e1a122c	0.15045995
169	0x3e9f51d6	0.31117123
170	0xbdb4c90c	-0.08827409
171	0x3e111de1	0.14171554
172	0xbf03a191	-0.51418406
173	0xbcd7ead0	-0.026357085
174	0x3e8581a0	0.2607546
175	0x3df39078	0.118927896
176	0x3e939ea9	0.28831986
177	0xbd907fbd	-0.07055614
178	0xbbdac3e7	-0.0066761854
179	0xbe43cb85	-0.19120605
180	0xbe5a0e76	-0.21294579
181	0x3e43b35a	0.19111386
182	0xbe149bfa	-0.14512625
183	0xbf2d965c	-0.67807555
184	0xbed7ea37	-0.4217088
185	0xbe89f974	-0.2694813
186	0x3e37956e	0.17928097
187	0xbe95732c	-0.29189432
188	0x3e998d24	0.29990494
189	0xbee4a391	-0.4465604
190	0xbf579f4e	-0.84227455
191	0xbea3922c	-0.31947458
192	0xbee3666e	-0.44414085
193	0x3e5a1abb	0.2129926
194	0xbd8321a8	-0.06402904
195	0xbe2ff75d	-0.17184205
196	0x3d615962	0.055016883
197	0x3d49a44a	0.049228944
198	0xbe8488ff	-0.2588577
199	0xbf46cbd7	-0.77654785
200	0x3ed94d7c	0.42441928
201	0xbee0551e	-0.4381494
202	0x3edd950f	0.43277785
203	0xbdb43359	-0.08798856
204	0x3db034e5	0.08603839
205	0xbecd0eac	-0.40050256
206	0xbee605ef	-0.44926402
207	0x3ed6020b	0.41798434
208	0x3d2d535c	0.042315826
209	0xbe966dd8	-0.2938068
210	0xbec9419b	-0.39307866
211	0x3eb3c769	0.35113075
212	0x3f5da883	0.86585253
213	0xbefac8f1	-0.4898143
214	0xbe332d1f	-0.17497681
215	0x3d14850f	0.036259707
216	0xbd936ac5	-0.07198099
217	0x3dc39e6f	0.09551703
218	0xbeda6203	-0.42652902
219	0xbebf586b	-0.37372145
220	0xbea0df86	-0.31420535
221	0xbe9fe8c2	-0.31232268
222	0x3ecb8f89	0.39757946
223	0xbe165ed3	-0.1468461
224	0x3e8e8ea2	0.27843195
225	0xbd8da3a5	-0.06915978
226	0x3e35ec55	0.17765935
227	0x3e469296	0.19391856
228	0x3e4ea672	0.20180681
229	0x3d500338	0.05078432
230	0xbe837fb2	-0.2568336
231	0x3e009585	0.12557037
232	0x3ed9a10a	0.42505676
233	0x3dca79ca	0.09886511
234	0xbd0f9174	-0.035050824
235	0xbf252a2d	-0.6451748
236	0x3e794499	0.24342574
237	0xbe805884	-0.25067532
238	0x3dbd7962	0.092516676
239	0x3d838478	0.06421751
240	0x3e9c6b84	0.30550778
241	0x3e3aa34b	0.18226354
242	0x3ee8187b	0.45331177
243	0x3df73fe6	0.120727345
244	0xbe81080a	-0.25201446
245	0x3eec587f	0.46161267
246	0x3cc0125f	0.02344626
247	0xbf132ef1	-0.574935
248	0x3c835d87	0.016035808
249	0x3fb7fc29	1.4373828
250	0x3e8c9ca9	0.27463272
251	0x3f8fd4e0	1.1236839
252	0x3c3b52cd	0.011433315
253	0xbd9ce7c0	-0.0766139
254	0x3dc5653e	0.09638451
255	0xbe98a68a	-0.2981456

temporal.rnn.bias_ih_l0 f4 [128]
0	0x3f5e5f79	0.8686443
1	0xbea64181	-0.3247185
2	0xbdf15568	-0.11783868
3	0x3e4676fc	0.19381326
4	0x3dd2fa03	0.10301592
5	0xbdff3c3d	-0.124626614
6	0xbe044e09	-0.12920393
7	0xbe96bf02	-0.29442602
8	0xbd05762c	-0.0325834
9	0xbd3f7199	-0.046739195
10	0xbee73b71	-0.45162538
11	0xbeb5d00f	-0.355103
12	0xbe76bf14	-0.24096328
13	0xbf03294e	-0.512349
14	0x3da2166e	0.079144344
15	0xbea7b407	-0.32754537
16	0xbe7df4a2	-0.24800351
17	0xbe46319e	-0.19354865
18	0xbeedc5e7	-0.4644005
19	0xbeed323a	-0.46327382
20	0xbea4b397	-0.32168266
21	0x3e0cbf5b	0.13744871
22	0xbd9c496d	-0.07631192
23	0xbec9377f	-0.39300153
24	0xbf003846	-0.50085866
25	0xbe8fcd11	-0.2808614
26	0xbf08f892	-0.5350429
27	0xbe75ceea	-0.24004713
28	0xbe848348	-0.2588141
29	0xbe9c4ec6	-0.3052885
30	0xbe4cfd0f	-0.20018409
31	0x3ec4f38c	0.38467062
32	0xbf091f17	-0.53563064
33	0xbe6bde73	-0.23034076
34	0xbd8fb736	-0.070173666
35	0xbe50d06b	-0.20392005
36	0xbe0e9c7e	-0.13926885
37	0xbd5450b4	-0.051834777
38	0x3be56b45	0.007001313
39	0xbd91b521	-0.07114626
40	0xbb02b2a4	-0.0019942904
41	0xbe01eb7e	-0.1268749
42	0x3d6d5d13	0.05795009
43	0xbe4f2594	-0.20229179
44	0xbe74b1d0	-0.23895955
45	0x3e85a959	0.26105765
46	0xbe855763	-0.26043233
47	0x3e822554	0.25419104
48	0x3d703022	0.058639653
49	0xbe5568f7	-0.20840822
50	0x3e2fa5ac	0.17153043
51	0xbf26d71c	-0.6517198
52	0x3df777f9	0.1208343
53	0xbeee5862	-0.46551806
54	0x3c9d1641	0.01917565
55	0xbe8dfa4c	-0.27730024
56	0x3e061a16	0.13095888
57	0xbdbdc4e2	-0.09266068
58	0xbf16c16a	-0.58888876
59	0xbe7416f3	-0.2383688
60	0xbd9cb884	-0.07652381
61	0xbe2651b9	-0.16242112
62	0x3ccf69aa	0.02531894
63	0xbf23a0d2	-0.6391727
64	0x3d954fd8	0.072906196
65	0xbecba468	-0.3977387
66	0x3e1bcd81	0.15215112
67	0xbdbab014	-0.091156155
68	0xbc118243	-0.0088811545
69	0x3f011bed	0.50433236
70	0x3e3bc2aa	0.18335977
71	0x3e26cad9	0.16288318
72	0x3e4d5102	0.20050433
73	0x3d91385e	0.07090829
74	0xbe821fbf	-0.25414845
75	0x3e1155f8	0.1419295
76	0x3a857d1b	0.0010184379
77	0xbcb47865	-0.022030065
78	0x3e544263	0.2072845
79	0xbe6e7df7	-0.2329024
80	0x3d91be6a	0.07116397
81	0xbdfb9fe9	-0.1228636
82	0x3e05cea4	0.13067108
83	0xbe9988b3	-0.29987106
84	0xbd34dc04	-0.044155136
85	0x3b8fb0ab	0.004385074
86	0xbeb89d34	-0.36057436
87	0xbdb25151	-0.08706916
88	0x3db064d3	0.08612981
89	0x3d0d3b64	0.034480467
90	0xbd5fc93f	-0.054635283
91	0xbe41933a	-0.18903819
92	0x3ec971b3	0.39344558
93	0x3e90fb37	0.28316662
94	0xbe56da80	-0.20981789
95	0x3c88d80f	0.016704587
96	0x3f422830	0.7584257
97	0xbe960461	-0.29300216
98	0xbe4d5f59	-0.20055903
99	0xbe09bed7	-0.13451706
100	0x3e8cb3d1	0.2748094
101	0xbe0663d9	-0.13124026
102	0x3e8c741c	0.27432334
103	0xbdc8569c	-0.097821444
104	0x3e04cf15	0.1296962
105	0xbd6600de	-0.05615317
106	0xbed00560	-0.406291
107	0xbedc59f3	-0.43037376
108	0xbe07cfe8	-0.13262904
109	0x3ea07607	0.31340048
110	0x3e3b7398	0.18305814
111	0x3e184829	0.14871277
112	0xbe1a4193	-0.15064077
113	0xbbf02586	-0.007328692
114	0xbe608a19	-0.2192768
115	0xbefebbca	-0.49752647
116	0xbe4af78b	-0.19820993
117	0x3e9bcea0	0.3043108
118	0xbeb2ebe8	-0.34945607
119	0xbe90e253	-0.28297672
120	0xbd60551b	-0.054768663
121	0xbf1707ee	-0.58996475
122	0xbeafbbd8	-0.34323
123	0xbe9a5796	-0.30144948
124	0x3db20565	0.08692435
125	0xbe081399	-0.13288726
126	0x3e351a0e	0.1768572
127	0x3e495deb	0.19664733

temporal.rnn.bias_hh_l0 f4 [128]
0	0x3f1f0ba4	0.6212714
1	0xbe4f420e	-0.20240042
2	0xbe67b099	-0.2262596
3	0xbdc7984f	-0.097458474
4	0x3deb7f8d	0.11498938
5	0xbe416a39	-0.18888177
6	0xbe9b8ec0	-0.30382347
7	0xbe304652	-0.17214325
8	0x3b064c33	0.0020492196
9	0xbea892fc	-0.3292464
10	0xbe3e69db	-0.18595068
11	0xbeebbeba	-0.4604395
12	0xbeaae6d0	-0.3337922
13	0xbecf0ddf	-0.4044027
14	0x3e941d7d	0.28928748
15	0xbf09af87	-0.5378346
16	0xbd578889	-0.052620444
17	0xbeb29fee	-0.34887642
18	0xbedcfb7a	-0.4316061
19	0xbee105a9	-0.4394963
20	0xbe3d7364	-0.1850105
21	0xbc9e145e	-0.019296821
22	0xbe06cca5	-0.13164003
23	0xbe9420cb	-0.2893127
24	0xbe5a7be6	-0.21336326
25	0xbe282fe4	-0.16424519
26	0xbeeeb282	-0.46620566
27	0xbe4aa35e	-0.19788882
28	0xbe2fff39	-0.17187203
29	0xbedeb3c7	-0.43496534
30	0xbe323316	-0.174023
31	0x3e02d12d	0.12775107
32	0xbecfcbc3	-0.40585145
33	0xbe5fb7d2	-0.21847466
34	0x3dc1d6c4	0.094647914
35	0xbe6f7c06	-0.23387155
36	0x3ceadbac	0.0286692
37	0xbe10dd3c	-0.14146894
38	0x3dd658c8	0.104661524
39	0x3d5ec0d3	0.05438311
40	0x3c522897	0.01282706
41	0xbe961e9b	-0.29320225
42	0xbda1785e	-0.07884286
43	0xbe133383	-0.14375119
44	0xbe341f96	-0.17590174
45	0x3e29450d	0.16530247
46	0xbd98a9ce	-0.07454263
47	0x3ea865b1	0.32890084
48	0x3da3d678	0.07999891
49	0x3d9b7a23	0.07591655
50	0x3e089761	0.13338996
51	0xbf5b979b	-0.85778207
52	0xbdae60e9	-0.08514578
53	0xbeadfe2a	-0.33982974
54	0xbd35b2ea	-0.04436008
55	0xbdebc7de	-0.11512731
56	0x3e33578d	0.17513867
57	0xbe0446ae	-0.12917587
58	0xbed954ec	-0.42447603
59	0xbeec0e67	-0.46104738
60	0xbe6a6578	-0.2289027
61	0xbea6c230	-0.32570028
62	0xbe054b17	-0.13016926
63	0xbee052b3	-0.43813094
64	0xbb49a41b	-0.003076798
65	0xbe66b77c	-0.22530931
66	0x3cab525e	0.0209133
67	0x3d83554b	0.06412753
68	0x3ca3c50e	0.019991424
69	0x3ed4c965	0.41559902
70	0x3dc60ef3	0.0967082
71	0x3e834072	0.25635105
72	0x3e4c3687	0.19942676
73	0xbdc300cc	-0.09521636
74	0xbf0d651c	-0.55232406
75	0x3d31eb13	0.043437075
76	0x3e0427bc	0.12905782
77	0x3ceae809	0.028675096
78	0x3e253414	0.16133147
79	0x3cd0c9a1	0.02548677
80	0x3cd462eb	0.025926074
81	0x3e204ff1	0.15655495
82	0xbd439b47	-0.047755506
83	0xbe843ca7	-0.25827524
84	0x3d313844	0.04326655
85	0x3e0035bb	0.12520497
86	0xbe9aa166	-0.30201262
87	0xbcbbaa19	-0.022908257
88	0x3e89e8ef	0.26935527
89	0xbdb72375	-0.0894231
90	0x3d766115	0.06015118
91	0x3dc2913f	0.0950036
92	0x3eb90d26	0.36142844
93	0x3ef1c179	0.4721792
94	0xbeb417ba	-0.35174352
95	0x3ce73aac	0.02822622
96	0x3f0aa46f	0.54157156
97	0xbea1c420	-0.31594944
98	0xbd60abf5	-0.05485149
99	0xbdf0f212	-0.11764921
100	0x3eee4557	0.46537277
101	0xbe9719fc	-0.29512012
102	0x3ae8ba38	0.0017755693
103	0xbd83eff8	-0.06442255
104	0x3db2aaa8	0.08723956
105	0xbd523700	-0.051321983
106	0xbeb58755	-0.35454813
107	0xbe900897	-0.28131554
108	0xbe0873dc	-0.13325447
109	0x3d33b663	0.04387511
110	0x3e00600c	0.12536639
111	0x3e7bbad9	0.24582995
112	0xbdad4183	-0.08459761
113	0xbe0d08fc	-0.13772959
114	0xbee6cd3b	-0.45078453
115	0xbe970f1a	-0.2950371
116	0xbe3d3b84	-0.18479735
117	0x3d95d057	0.07315128
118	0xbed0ea2e	-0.40803665
119	0xbed1b3d1	-0.40957502
120	0xbdb199af	-0.08671891
121	0xbefd2e96	-0.49449605
122	0xbefa43bf	-0.4887981
123	0xbe9255ea	-0.28581172
124	0x3e719b03	0.23594289
125	0xbe66a314	-0.22523147
126	0x3e82e540	0.2556553
127	0x3eb6521e	0.35609525

temporal.rnn.weight_ih_l1 f4 [128, 32]
0	0xbeecd493	-0.4625593
1	0x3f53363f	0.8250465
2	0xbea2eddb	-0.31822094
3	0x3f44e5ed	0.7691334
4	0xbf93ba29	-1.1541187
5	0xbe47fc80	-0.19529915
6	0xbed488b2	-0.4151054
7	0xbeddb4ff	-0.43302152
8	0xbf2ddd65	-0.67915946
9	0xbf6b0415	-0.91803104
10	0x3f791119	0.97291714
11	0x3e82af31	0.25524285
12	0x3e2457e9	0.1604916
13	0x3e804f03	0.2506028
14	0xbf1b835b	-0.6074731
15	0x3cc8375c	0.02444046
16	0xbeae9a38	-0.34102035
17	0x3eb99423	0.36245832
18	0x3de0c973	0.109759234
19	0x3eded053	0.43518314
20	0x3e4768c7	0.19473563
21	0xbf27a30d	-0.6548317
22	0x3ebed6e1	0.37273315
23	0x3f55616d	0.83351785
24	0xbe4cafff	-0.19989012
25	0xbdb204f4	-0.08692351
26	0x3e64a578	0.22328746
27	0xbed57f1e	-0.41698545
28	0x3d3e41fe	0.046449654
29	0x3e283c97	0.16429363
30	0x3eff0af7	0.49813053
31	0x3f0a8b31	0.5411864
32	0xbef4ffae	-0.47851318
33	0x3ed1c30f	0.4096913
34	0xbebbdd3e	-0.36692232
35	0x3f663212	0.8992015
36	0xbfd071ff	-1.6284789
37	0xbf2400e6	-0.6406387
38	0x3e2508f5	0.16116698
39	0xbf1b4d17	-0.60664505
40	0xbed9a578	-0.42509055
41	0xbf5aea31	-0.855136
42	0xbd50ad6c	-0.050946638
43	0x3c3a73a3	0.011380109
44	0x3f9ff324	1.2496076
45	0x3ecb2281	0.39674762
46	0xbf19efa7	-0.60131305
47	0x3e21af06	0.15789422
48	0xbfba1e71	-1.454054
49	0x3f25139c	0.64483047
50	0x3f4229ed	0.75845224
51	0x3e5f28e4	0.21792942
52	0x3f2cc48f	0.67487425
53	0xbecf6b95	-0.40511766
54	0x3f16f8a9	0.58973175
55	0xbcd230a7	-0.025657965
56	0x3f3bc8a7	0.73353046
57	0x3f1d6678	0.6148448
58	0x3f2afbc5	0.6679042
59	0x3eb9c706	0.36284655
60	0x3ea16fe9	0.31530693
61	0x3e053f08	0.13012326
62	0x3e4bb8d2	0.19894722
63	0x3e166eac	0.14690655
64	0x3e7f2afd	0.24918742
65	0xbe8bb21a	-0.27284318
66	0x3eb930a0	0.3616991
67	0xbed57650	-0.41691828
68	0x3e517ece	0.20458528
69	0x3d0deb34	0.034648135
70	0xbd3f8807	-0.046760585
71	0x3ea5a115	0.32349458
72	0xbe0379ca	-0.12839428
73	0x3d2306db	0.03980146
74	0xbf01d7b7	-0.5071978
75	0x3f6ddb59	0.9291282
76	0x3dc5da6a	0.096608
77	0xbdd2fea5	-0.10302476
78	0x3ec60b7f	0.38680646
79	0xbe50d663	-0.20394282
80	0x3e56a33c	0.20960706
81	0xbf699805	-0.9124759
82	0xbf0c8013	-0.54882926
83	0xbea3af52	-0.31969696
84	0xbe91d082	-0.2847939
85	0x3dc06889	0.093949385
86	0xbea2bee4	-0.31786263
87	0x3e136bba	0.14396563
88	0x3e0fcebe	0.1404371
89	0xbebee5d1	-0.3728471
90	0xbf2cdaab	-0.6752116
91	0xbec99ab6	-0.39375848
92	0x3e943293	0.28944835
93	0x3f07bf58	0.5302634
94	0x3f0f2fed	0.55932504
95	0xbebb765f	-0.36613747
96	0x3cb35897	0.021892829
97	0xbe86e884	-0.2634927
98	0x3ec27a96	0.3798415
99	0x3f752fa0	0.95775795
100	0xbf48c963	-0.7843229
101	0xbe19d773	-0.15023594
102	0xbf229ca3	-0.6352026
103	0x3e1b73b6	0.15180859
104	0xbd6411e6	-0.05568113
105	0xbef70179	-0.4824331
106	0xbda5e52e	-0.08100353
107	0x3f17ce5e	0.59299266
108	0xbe700838	-0.23440635
109	0x3f3711eb	0.71511716
110	0xbee95865	-0.45575252
111	0x3ec309f0	0.3809352
112	0xbf8bff3e	-1.0937269
113	0x3ed88acb	0.4229339
114	0x3f1c6b98	0.61101675
115	0x3e9dc689	0.30815533
116	0x3eb9466a	0.36186534
117	0xbf0b1e89	-0.5434347
118	0xbe59f639	-0.21285333
119	0x3d8ffa7f	0.070302
120	0x3f29c669	0.66318375
121	0x3e18733a	0.14887705
122	0x3ee29bab	0.4425939
123	0xbca62e15	-0.020285645
124	0xbe63f887	-0.22262774
125	0x3e8da914	0.2766806
126	0x3e505dbd	0.20348258
127	0x3ecf121d	0.40443507
128	0xbd22410a	-0.039612807
129	0xbf008a4d	-0.5021103
130	0xbe8d3664	-0.2758056
131	0xbef59460	-0.47964764
132	0x3f588568	0.8457856
133	0x3e1a5665	0.1507202
134	0x3f1e02d9	0.61723095
135	0x3f34ac6a	0.70575583
136	0xbd9c6c1e	-0.07637809
137	0xbeef5c45	-0.46750084
138	0x3d745366	0.059649847
139	0x3f08703b	0.5329625
140	0xbf794d49	-0.9738355
141	0xbe3d2b43	-0.18473534
142	0xbf15eedb	-0.5856759
143	0xbf4aa606	-0.7915958
144	0xbcdb0401	-0.026735308
145	0x3ebea4b4	0.37235034
146	0x3e61b61e	0.22042128
147	0xbefb181a	-0.49041826
148	0xbeabc227	-0.33546564
149	0xbe8b6707	-0.2722704
150	0x3f014f82	0.50511944
151	0x3f704a6f	0.93863577
152	0x3cb1d278	0.021706805
153	0xbeda5c61	-0.42648605
154	0x3d95a838	0.07307476
155	0x3e60888b	0.21927087
156	0x3e1abbc3	0.15110688
157	0x3e4f1aef	0.20225118
158	0xbeb4a3d7	-0.3528125
159	0x3f2e12c5	0.6799739
160	0xbf120264	-0.570349
161	0xbeb34a1f	-0.35017487
162	0xbdbeac11	-0.09310163
163	0xbe7119aa	-0.23544946
164	0x3e3fa6a7	0.18715917
165	0x3e954886	0.29156893
166	0x3d72c1aa	0.059266724
167	0xbde57036	-0.11203043
168	0x3e73f6cd	0.23824616
169	0xbe943cc3	-0.28952608
170	0xbe75e580	-0.24013329
171	0xbd982635	-0.074291624
172	0xbd07d4d2	-0.033161946
173	0xbebbf132	-0.36707455
174	0x3e94eff9	0.29089335
175	0xbf07f189	-0.5310293
176	0x3eaa434e	0.33254474
177	0xbee9404f	-0.45556876
178	0xbf358e4a	-0.7092024
179	0xbf66dae3	-0.90177745
180	0x3e1cf006	0.15325937
181	0x3e596327	0.2122923
182	0xbea3ba5b	-0.31978115
183	0xbf0838f9	-0.53211933
184	0x3d3d5350	0.04622203
185	0xbf8a6cce	-1.0814455
186	0xbebfe53d	-0.37479582
187	0xbf0e93cf	-0.5569429
188	0xbd20a22e	-0.039217167
189	0xbd99219e	-0.07477115
190	0xbe91052c	-0.28324258
191	0xbd73a55a	-0.059483863
192	0xbd802683	-0.062573455
193	0x3f1d4980	0.6144028
194	0xbe524869	-0.20535435
195	0xbeb91377	-0.36147663
196	0x3df822ee	0.12116037
197	0xbd667062	-0.05625952
198	0x3f310813	0.69152945
199	0x3e4da3a9	0.20081963
200	0xbd7555cb	-0.05989627
201	0x3e5a6577	0.21327768
202	0xbdf3f360	-0.119116545
203	0x3eaaa4b9	0.33328798
204	0xbcd03355	-0.025415102
205	0xbda5bb7c	-0.080924004
206	0xbc84810b	-0.016174814
207	0x3f004a1a	0.5011307
208	0x3d4ce00a	0.050018348
209	0xbed07eba	-0.40721685
210	0xbe9932b3	-0.29921493
211	0xbcff4c08	-0.031164184
212	0xbe227fcf	-0.15869068
213	0x3e18de2c	0.14928502
214	0xbe09c5f9	-0.13454427
215	0x3f373298	0.71561575
216	0xbf24fca2	-0.6444799
217	0xbdab9596	-0.08378141
218	0xbdb28596	-0.08716886
219	0xbda327ec	-0.07966599
220	0x3eff5107	0.49866506
221	0xbd720a2d	-0.059091736
222	0xbeb8ce4e	-0.36094898
223	0xbdd1e984	-0.10249618
224	0x3fe65cab	1.799703
225	0xbeac8886	-0.3369791
226	0x3f36f357	0.7146506
227	0x3eb22f51	0.34801725
228	0x3fc36a32	1.5266783
229	0x3df327bb	0.11872812
230	0x3f3e7a4b	0.74405354
231	0x3f56bc2f	0.83880895
232	0x3f9766ec	1.1828284
233	0xbe96161b	-0.2931374
234	0xbf91f030	-1.1401424
235	0x3f39cb5e	0.7257594
236	0xbe5eda62	-0.21762994
237	0x3d030811	0.031990115
238	0x3eb39cdb	0.3508061
239	0x3d92e343	0.07172253
240	0x3ddcae1e	0.10775398
241	0xbe9f3040	-0.310915
242	0xbefb37b8	-0.49065948
243	0xbf39d490	-0.7258997
244	0xbe81f4f8	-0.2538221
245	0x3ec24933	0.37946472
246	0xbf63e524	-0.89021516
247	0xbf61adf6	-0.8815607
248	0x3d7afdc6	0.061277173
249	0xbf3dfa9f	-0.7421054
250	0xbebb6dcf	-0.36607215
251	0xbee24b0e	-0.44197887
252	0x3eba569f	0.36394212
253	0xbd5f528f	-0.054522093
254	0xbf1d71b3	-0.61501616
255	0xbf23c191	-0.63967234

temporal.rnn.weight_hh_l1 f4 [128, 32]
0	0x3e89f782	0.26946646
1	0x3f305a45	0.6888774
2	0x3f8fdd09	1.123933
3	0x3d5e65b3	0.054296207
4	0x3f231910	0.6371012
5	0xbdafda40	-0.0858655
6	0x3e009197	0.12555538
7	0xbebdf8d2	-0.37103897
8	0x3ed2cd2a	0.41172153
9	0xbe7e8f23	-0.2485929
10	0x3f783f38	0.96971464
11	0xbde65bf3	-0.11248007
12	0x3d6a9b24	0.05727686
13	0x3e9933da	0.29922372
14	0x3f15a269	0.58450943
15	0x3e223228	0.15839446
16	0x3ea0be66	0.31395262
17	0xbe98ebc2	-0.2986737
18	0xbf05ab01	-0.52214056
19	0xbe60dceb	-0.21959274
20	0x3e313588	0.17305577
21	0xbea961ac	-0.3308233
22	0xbec66538	-0.387491
23	0xbfb7be7f	-1.435501
24	0x3f7d44d0	0.98933125
25	0x3f70afeb	0.9401843
26	0xbf67add0	-0.9049959
27	0x3ead79da	0.33882028
28	0xbebbde08	-0.36692834
29	0x3eb0395b	0.3441876
30	0x3e45a389	0.19300665
31	0xbedc76ee	-0.43059486
32	0x3da80dd4	0.082057625
33	0x3e3a6698	0.18203199
34	0x3ebd2bbf	0.36947438
35	0x3ef61533	0.4806305
36	0x3e84e29b	0.25954136
37	0xbd91fe87	-0.07128625
38	0x3f7640a7	0.961924
39	0xbf2bc2ce	-0.67094123
40	0x3e5f5f3a	0.2181367
41	0xbe9f97b4	-0.31170428
42	0x3f78de46	0.9721416
43	0xbf04edaa	-0.51925147
44	0x3c0f8397	0.008759401
45	0x3f155c6f	0.5834417
46	0x3de74698	0.112927616
47	0xbc742757	-0.0149019575
48	0x3ef4162c	0.47673166
49	0x3dccd22a	0.10001023
50	0x3d1ccc3f	0.03828072
51	0xbf1af30c	-0.6052711
52	0x3d82ee03	0.063930534
53	0x3ea8fb5b	0.3300427
54	0xbebf1a1a	-0.373246
55	0xbf21d406	-0.6321415
56	0x3f405780	0.75133514
57	0x3f7909d6	0.97280633
58	0xbf3b76f4	-0.73228383
59	0x3c4c4745	0.012468164
60	0xbeea6da5	-0.45786777
61	0x3deb90fe	0.115022644
62	0x3f483f62	0.78221714
63	0xbe99e976	-0.3006093
64	0xbedd7318	-0.43251872
65	0x3eea72a6	0.45790595
66	0xbe353c0e	-0.1769869
67	0xbf3313b6	-0.6995195
68	0x3e935f2e	0.28783554
69	0xbe5319f8	-0.20615375
70	0x3ebe358b	0.37150225
71	0x3e1b4b74	0.15165502
72	0xbea57596	-0.32316273
73	0x3d40c979	0.04706714
74	0x3f385ae4	0.7201369
75	0xbe6369f4	-0.22208387
76	0x3d693eb5	0.056944568
77	0x3e21ca79	0.15799893
78	0xbc5b4413	-0.013382929
79	0xbdfedbb8	-0.12444252
80	0x3f15dc39	0.5853916
81	0xbea3aefe	-0.31969446
82	0x3e1047c0	0.1408987
83	0x3d838f29	0.0642379
84	0xbef004fd	-0.46878806
85	0xbe179022	-0.14801076
86	0x3f3005c4	0.687588
87	0xbe152dd8	-0.14568269
88	0xbd9ac19d	-0.0755646
89	0x3e3ad422	0.18244985
90	0xbe8849b3	-0.26618728
91	0xbe56defa	-0.20983496
92	0x3f1777a6	0.59166944
93	0xbdb14b7c	-0.086569756
94	0x3e3dd389	0.18537726
95	0x3f1318f8	0.57459974
96	0xbf2e607e	-0.68115985
97	0xbeafbc61	-0.3432341
98	0x3ea0c0eb	0.31397185
99	0x3f7b2aa6	0.9811195
100	0x3eeff355	0.46865335
101	0xbf51a9cb	-0.8189971
102	0x3d392091	0.045197073
103	0x3e8ef03e	0.27917665
104	0xbed67138	-0.41883254
105	0x3e9e9e61	0.3098021
106	0xbd8af6b1	-0.06785334
107	0x3d70d616	0.05879792
108	0xbf68175e	-0.90660655
109	0xbee1f752	-0.44134003
110	0xbf2b74e2	-0.66975224
111	0xbf36d999	-0.7142578
112	0xbea5591f	-0.32294556
113	0x3f1b5adc	0.60685515
114	0x3d541fac	0.051788017
115	0xbe533add	-0.20627923
116	0x3f00c836	0.503055
117	0xbe71677b	-0.23574631
118	0x3f3437f7	0.70397896
119	0xbd88073b	-0.06642004
120	0xbeb7bdec	-0.35887086
121	0x3d9e141d	0.0771868
122	0x3ec36913	0.38166103
123	0xbe8ec363	-0.27883443
124	0xbe06021d	-0.13086744
125	0xbf1775b9	-0.59164006
126	0xbea43650	-0.32072687
127	0xbd67e82f	-0.056617912
128	0xbe07a976	-0.13248238
129	0xbf003be2	-0.50091374
130	0xbfa60706	-1.2970893
131	0x3e6a67d2	0.22891167
132	0xbe25498a	-0.16141334
133	0xbf2e9331	-0.68193346
134	0x3de7dc8d	0.113213636
135	0x3eeee3d6	0.466582
136	0xbdaf6768	-0.08564645
137	0x3e56b02a	0.20965639
138	0xbe9baea5	-0.3040668
139	0xbe78c962	-0.24295571
140	0xbd866181	-0.06561566
141	0xbe0c45ae	-0.13698456
142	0x3ea3e67e	0.3201179
143	0xbe5c8701	-0.21535875
144	0x3e119010	0.14215112
145	0x3eecad5c	0.46226013
146	0xbed5e7ff	-0.4177856
147	0xbe9b9755	-0.30388895
148	0x3e81ebb5	0.25375143
149	0xbf1cb6e5	-0.61216575
150	0x3de15c98	0.11003989
151	0x3f9781fc	1.1836543
152	0x3e263663	0.16231684
153	0xbe135d2a	-0.14391008
154	0x3edea409	0.43484524
155	0xbe32b80b	-0.1745302
156	0x3ddc4a4c	0.107563585
157	0xbf348079	-0.70508534
158	0x3e3e1246	0.18561658
159	0x3e13845e	0.14405963
160	0xbe582c57	-0.21110664
161	0x3e12b094	0.14325172
162	0xbf0245f0	-0.50887966
163	0x3ea2ffc5	0.31835762
164	0xbe3d6399	-0.18495025
165	0x3eb9b3db	0.3627003
166	0xbf41afd1	-0.756589
167	0x3f33969a	0.70151675
168	0xbf61c4fb	-0.88191193
169	0x3f76b3ac	0.9636791
170	0x3cf6ff74	0.030151106
171	0xbe50099c	-0.20316166
172	0x3c56f4ca	0.013119886
173	0x3e9e1651	0.308764
174	0x3e0e4525	0.13893564
175	0xbeb6dae9	-0.3571389
176	0x3f9518d6	1.1648204
177	0xbe29c25e	-0.16578051
178	0xbd58c14f	-0.05291873
179	0xbf20c5bf	-0.62801737
180	0xbdd0357e	-0.10166453
181	0x3e6e4c7a	0.23271361
182	0xbdfcc274	-0.123417765
183	0xbede563b	-0.43425164
184	0x3efa5fcd	0.48901215
185	0x3d8c2d64	0.06844595
186	0xbe3de072	-0.1854265
187	0xbf81d116	-1.0141933
188	0x3ea06342	0.31325728
189	0x3f1bbc74	0.6083443
190	0x3f6a7f75	0.91600734
191	0x3f295c3c	0.66156363
192	0xbf0755f8	-0.5286555
193	0x3dc37468	0.09543687
194	0x3edcbb1d	0.43111506
195	0x3ed2fef1	0.4121013
196	0x3f45be8f	0.77243894
197	0xbe9521f7	-0.29127476
198	0x3d6a1190	0.057145655
199	0x3ee3a48f	0.44461486
200	0xbf5231fe	-0.8210753
201	0x3f6f5f36	0.93504655
202	0xbedefdc8	-0.43552995
203	0x3e8c5245	0.27406517
204	0xbee8cefc	-0.45470417
205	0xbd96c6f9	-0.0736217
206	0xbea7cd82	-0.32773978
207	0xbe9f9b12	-0.31172997
208	0x3cb06a19	0.021534966
209	0x3ece7c0c	0.40329015
210	0x3ea1d71a	0.31609422
211	0xbed3ac94	-0.41342604
212	0x3de653cd	0.112464525
213	0xbe0ae9b3	-0.13565712
214	0xbef905b5	-0.48637167
215	0xbe06a58c	-0.13149089
216	0x3e34f6ae	0.17672226
217	0xbf135cb7	-0.57563347
218	0x3ec0cec9	0.37657765
219	0xbf42d7d5	-0.76110584
220	0x3e4fe48d	0.20302029
221	0x3e9f2713	0.310845
222	0x3ed33618	0.41252208
223	0x3ebe6fff	0.3719482
224	0x3e1f0b55	0.15531667
225	0x3f0c0ce7	0.5470719
226	0x3e98251a	0.29715806
227	0xbe0c08b0	-0.13675189
228	0x3f3935f5	0.72347957
229	0xbea42f5a	-0.32067376
230	0xbf9d7185	-1.2300268
231	0x3deb48bb	0.114884816
232	0xbd9f91e4	-0.07791498
233	0x3ee09332	0.438623
234	0x3f66fa49	0.90225655
235	0xbdf53cf6	-0.11974518
236	0xbef384ef	-0.47562358
237	0x3e0e411f	0.13892029
238	0x3f22c113	0.6357586
239	0x3dd6ef00	0.104948044
240	0x3f04b342	0.51836026
241	0x3f5582e6	0.8340286
242	0x3e588476	0.2114428
243	0x3c4475fd	0.011991021
244	0x3d226356	0.039645515
245	0xbd05099e	-0.032479875
246	0x3f0087f9	0.5020748
247	0xbf38eb19	-0.7223373
248	0x3ece0778	0.40240073
249	0x3f03dd4c	0.5150955
250	0xbe93c445	-0.2886068
251	0xbf0f3a39	-0.55948216
252	0x3e4536f1	0.1925924
253	0xbe72a56f	-0.2369592
254	0x3f2f7d9a	0.6855103
255	0x3eba890c	0.36432683

temporal.rnn.bias_ih_l1 f4 [128]
0	0xbe5d234b	-0.21595494
1	0xbdf7d88a	-0.121018484
2	0x3d25a2ab	0.040438335
3	0x3e972c36	0.29525918
4	0xbe2bb4cb	-0.16768186
5	0xbf0b327b	-0.543739
6	0xbede6852	-0.43438965
7	0x3df65c14	0.12029281
8	0xbe6eb5fb	-0.23311608
9	0xbe819c98	-0.25314784
10	0xbe41259b	-0.18862002
11	0xbd93d5aa	-0.072184876
12	0xbdbdec34	-0.09273568
13	0xbe97a3e2	-0.2961722
14	0xbe216e92	-0.15764835
15	0xbe33a8cc	-0.1754486
16	0x3ecf7e11	0.4052587
17	0x3c61366e	0.013745887
18	0xbe647d1f	-0.22313355
19	0x3f1bb5be	0.6082419
20	0xbe85db1c	-0.2614373
21	0x3e533da0	0.20628977
22	0xbea44d5b	-0.32090268
23	0xbf083519	-0.5320602
24	0x3dcf8d8d	0.101344205
25	0xbdf4b245	-0.11948065
26	0xbebe8a06	-0.3721468
27	0x3da460ea	0.080262974
28	0xbed357a2	-0.41277796
29	0xbe1daff3	-0.1539915
30	0x3d02121a	0.031755544
31	0xbf1095d7	-0.5647864
32	0xbe61ee3b	-0.22063534
33	0xbe30d6b1	-0.17269398
34	0x3e080461	0.1328292
35	0x3d80e12f	0.0629295
36	0x3e223722	0.15841344
37	0x3f305b56	0.6888937
38	0x3f250f3b	0.64476365
39	0x3e929a2f	0.28633258
40	0x3ef0e17e	0.47047037
41	0x3f2fdb68	0.6869416
42	0xbd770401	-0.060306553
43	0xbf0abe5b	-0.5419671
44	0x3e421f03	0.18957143
45	0xbe556d9f	-0.20842598
46	0x3f31b9aa	0.69423926
47	0x3ea0ef6d	0.31432667
48	0x3d95ebd2	0.0732037
49	0x3f06f4bc	0.52717185
50	0xbedfa36d	-0.4367937
51	0x3fb27ee9	1.394498
52	0x3e8d7588	0.27628732
53	0xbe1462bf	-0.14490794
54	0x3e933f2f	0.28759143
55	0x3f145041	0.5793496
56	0x3e044221	0.12915851
57	0xbef7a1f4	-0.48365748
58	0xbeb6645a	-0.35623437
59	0x3e93d5cc	0.28874052
60	0xbee81be7	-0.45333788
61	0x3e8f5ab4	0.27998888
62	0xbe882978	-0.26594138
63	0x3eaceb01	0.33773044
64	0x3e9c75cf	0.3055863
65	0x3eeae842	0.45880324
66	0x3ea243f1	0.3169246
67	0x3f1b7457	0.60724396
68	0x3c25e77b	0.01012599
69	0x3e7b5699	0.24544753
70	0xbf2d6045	-0.6772502
71	0xbe954c62	-0.29159838
72	0x3ea965ae	0.33085388
73	0xbe330b47	-0.1748477
74	0x3d928a6a	0.07155307
75	0x3e9cbe6d	0.30614033
76	0xbdba6205	-0.09100727
77	0x3db88325	0.09009389
78	0x3dc74a84	0.097310096
79	0xbe2650e9	-0.16241802
80	0xbe5d3a8b	-0.21604364
81	0x3ebd4b7c	0.36971653
82	0xbd77c177	-0.060487237
83	0x3f17f25f	0.59354204
84	0xbcd67935	-0.026180843
85	0x3f10fe7a	0.566383
86	0x3ea269f1	0.31721452
87	0x3dc7e9bc	0.09761378
88	0xbde08f41	-0.109648235
89	0xbeb0578b	-0.3444179
90	0xbe3e8f3f	-0.18609332
91	0x3c5cec12	0.013484018
92	0x3f01c9b2	0.5069839
93	0xbb7c1954	-0.0038467245
94	0xbd225b97	-0.039638128
95	0xbcd05488	-0.025430933
96	0xbe853439	-0.26016405
97	0xbed40004	-0.41406262
98	0x3e89482d	0.26812878
99	0x3e5b3196	0.21405634
100	0x3eb81fca	0.35961753
101	0x3e30ca54	0.17264682
102	0x3f530945	0.8243602
103	0x3ee2198b	0.44160113
104	0x3f02aa30	0.51040936
105	0x3e7ed841	0.24887182
106	0xbe1b3670	-0.15157485
107	0xbcfad430	-0.030618757
108	0x3cd3ea33	0.02586851
109	0xbd86db94	-0.0658485
110	0x3dad2f26	0.084562585
111	0xbdb4e5d4	-0.08832899
112	0x3deeb08e	0.11654769
113	0x3e674e36	0.22588429
114	0xbe35a160	-0.17737341
115	0x3e2582c6	0.16163167
116	0xbdb22197	-0.08697813
117	0x3e2d62d8	0.16932237
118	0xbe03c93e	-0.12869737
119	0x3e7157bf	0.23568629
120	0x3d89c6d3	0.06727376
121	0xbe93d1f4	-0.2887112
122	0xbf109d34	-0.5648987
123	0x3e5bf1cd	0.21478958
124	0xbf0094fe	-0.50227344
125	0x3eac1aa3	0.33614072
126	0x3d630dad	0.055432964
127	0x3e1fd611	0.15609004

temporal.rnn.bias_hh_l1 f4 [128]
0	0xbeca5a5b	-0.3952206
1	0x3d8ea2dd	0.069646575
2	0x3dc6d2d3	0.0970818
3	0x3f0fde1e	0.561983
4	0xbdf20988	-0.11818224
5	0xbf046942	-0.5172311
6	0xbee16738	-0.44024062
7	0xbde65207	-0.11246114
8	0xbe0acdaa	-0.13555017
9	0xbe642172	-0.22278383
10	0xbe861d4a	-0.2619422
11	0x3d086323	0.03329767
12	0xbd5109b3	-0.05103464
13	0xbf0713d0	-0.52764606
14	0xbe1228e1	-0.14273407
15	0xbe534242	-0.20630744
16	0x3eae0519	0.33988264
17	0xbd4a0e63	-0.049330126
18	0xbe441e6a	-0.19152227
19	0x3f0ffa03	0.5624086
20	0xbedece00	-0.4351654
21	0x3d25f4e3	0.040516745
22	0xbed398a7	-0.41327402
23	0xbf1e7d4f	-0.61909956
24	0x3db27201	0.08713151
25	0xbe1c49ab	-0.15262477
26	0xbf2f3481	-0.6843949
27	0x3da060ea	0.07830985
28	0xbece9202	-0.4034577
29	0xbd3f919c	-0.046769723
30	0x3cc2460c	0.023715042
31	0xbf1084f5	-0.56452876
32	0xbdfd6872	-0.12373437
33	0xbe019c3a	-0.12657252
34	0x3e3463b6	0.17616162
35	0x3e822368	0.25417638
36	0x3e1eaa67	0.15494691
37	0x3ed9093c	0.42389858
38	0x3ed33b4a	0.4125617
39	0x3db2d6a5	0.087323464
40	0x3f065afc	0.5248258
41	0x3f3842f9	0.7197719
42	0xbcf133d1	-0.029443653
43	0xbeb643bf	-0.3559856
44	0xbd82b31e	-0.0638182
45	0xbe49c512	-0.19704083
46	0x3f2e87ed	0.68176156
47	0x3ee47716	0.44622105
48	0xbdf8a99f	-0.12141728
49	0x3e9c086a	0.3047517
50	0xbe37a232	-0.17932966
51	0x3fa6c2d1	1.3028203
52	0x3e71edf1	0.23625924
53	0xbec74cb7	-0.38925716
54	0x3d95c60c	0.07313165
55	0x3ed6c444	0.41946614
56	0x3e955230	0.29164267
57	0xbeb95451	-0.3619714
58	0xbf0cd811	-0.5501719
59	0x3f0a77ff	0.5408935
60	0xbee0f88c	-0.43939626
61	0x3ea382aa	0.31935626
62	0xbee1b4aa	-0.44083148
63	0x3dd50ea4	0.10403183
64	0x3df85d92	0.12127222
65	0x3e9a9084	0.30188382
66	0x3ccca254	0.024979748
67	0x3f5572d4	0.8337834
68	0xbe1a4452	-0.15065125
69	0x3d83e67a	0.06440444
70	0xbee28e9e	-0.44249433
71	0xbe9f0e69	-0.31065682
72	0x3e8086ae	0.25102752
73	0xbebf5f12	-0.3737722
74	0x3e1f4b24	0.15556008
75	0x3cd71199	0.026253508
76	0x3cc0d5ff	0.023539541
77	0xbe2c67cc	-0.1683647
78	0xbe0edb52	-0.13950852
79	0xbab4644c	-0.0013762801
80	0xbe879df2	-0.2648769
81	0x3e0f1980	0.13974571
82	0xbdffe910	-0.12495625
83	0x3f27e2ad	0.65580255
84	0xbda32a60	-0.07967067
85	0x3ef1b548	0.4720862
86	0xbc73ca82	-0.014879825
87	0x3e67d685	0.22640426
88	0x3ca04b2b	0.019567093
89	0xbe599c68	-0.2125107
90	0xbe0bb600	-0.13643646
91	0xbd704278	-0.05865714
92	0x3ef5e6dc	0.48027694
93	0xbd6f0ad3	-0.058359932
94	0xbe61abd9	-0.22038211
95	0xbc1e4996	-0.009661099
96	0xbe8d4baf	-0.27596804
97	0xbeb73af2	-0.3578716
98	0x3ea65967	0.32490084
99	0x3e38ae56	0.18035254
100	0x3e39ae51	0.18132903
101	0x3eca82f6	0.3955304
102	0x3f43e715	0.7652448
103	0x3edb3a54	0.42817938
104	0x3f036fac	0.5134227
105	0x3ea0b31d	0.31386653
106	0xbe8e5c80	-0.27804947
107	0x3c3d1dd1	0.011542753
108	0xbe29fc17	-0.16600071
109	0xbd9d781e	-0.07688926
110	0xbbc9a443	-0.0061536147
111	0x3e0a7a7e	0.1352329
112	0x3e0af177	0.13568674
113	0x3d8b30be	0.06796406
114	0xbd6a0562	-0.05713404
115	0x3e9c1407	0.3048403
116	0x3d88df49	0.06683213
117	0xbda813c5	-0.08206896
118	0xbe4eaab4	-0.20182306
119	0x3ce66b16	0.028127234
120	0x3d61d81d	0.055137742
121	0xbf09fea7	-0.53904194
122	0xbee22ec0	-0.44176292
123	0x3eebae97	0.4603164
124	0xbeaf1788	-0.3419764
125	0x3ca69482	0.020334486
126	0x3de4f0d8	0.1117875
127	0x3ed0e0b8	0.40796447
