notebook/output/rolling_models_dynamic/window_10.pth (torch, 479802 bytes, 99 tensors)

temporal.input_proj.weight f4 [32, 7]
000000 51 6e 50 bf 73 fc 0f 40 3b 33 2e 40 35 4c 83 be
       -0.8141833 2.2497833 2.7218769 -0.2564408
000010 2d 09 dd 3c c1 a3 c8 bc ce 42 f8 bc 1a 12 9f 3f
       0.026981914 -0.024492146 -0.030305292 1.2427399
000020 6d a2 1e 40 19 84 53 40 b2 3c 8e be 80 66 1a be
       2.4786637 3.3049376 -0.27780682 -0.15078163
000030 43 47 e1 3d 0d e2 d3 bb 85 dd 41 3f 74 4c 73 3d
       0.1099992 -0.0064661563 0.75728637 0.059399083
000040 c7 c9 c3 bf b7 44 1f be 9f c8 b4 3e fa 22 4e be
       -1.5295953 -0.15553556 0.35309312 -0.2013053
000050 8f e9 26 3e 93 40 6d 40 dd 62 4f 40 8c 44 24 40
       0.16300033 3.7070663 3.2404091 2.5666838
000060 03 69 ae be 69 bf 04 be 13 31 da bc 1d 4c d6 3c
       -0.34064493 -0.12963642 -0.026634729 0.02615934
000070 8e 80 34 3f d4 fc 1a 3f ef a1 19 3f d0 26 50 3e
       0.7050866 0.60542035 0.60012716 0.20327306
000080 75 06 0c be 17 31 14 3e 8e f9 8f be 8c 46 a4 bf
       -0.13674338 0.14471851 -0.28120083 -1.2834029
000090 dc 01 fa 3f 57 9b 40 40 87 fb bc 3e d1 04 b2 be
       1.9531817 3.0094812 0.3691065 -0.347693
0000a0 51 9d 62 3e 03 b9 3a be c2 d7 82 c0 65 73 6d bf
       0.22130324 -0.18234639 -4.0888376 -0.92754203
0000b0 08 38 c8 be 1a 8a 5c 3e 4e 7c 3a be 0d cc f4 bd
       -0.39105248 0.21537057 -0.18211481 -0.11952982
0000c0 ae 68 38 be aa cb 79 c0 7e 34 48 bd aa 5e b5 3f
       -0.18008682 -3.9030557 -0.048878185 1.4169514
0000d0 2e 08 83 bd 03 8e 32 bd 88 04 0c 3c b8 05 b0 bd
       -0.063980445 -0.043592464 0.008546002 -0.08594841
0000e0 a0 b9 c2 c0 a6 dd 27 c0 2e 93 b5 bf d7 19 2c be
       -6.0851593 -2.6229033 -1.4185541 -0.16806732
0000f0 5f 2d 03 3d f9 20 ff be 01 47 68 bd 36 f0 ae 3e
       0.03202569 -0.49829844 -0.05670834 0.3416764
000100 e4 d0 1c bf d5 b0 64 bf 7d d0 bb be c6 8e b9 3d
       -0.6125624 -0.89332324 -0.366825 0.09060435
000110 2f ac 9d be 3a df 94 3e c1 5c 80 bf 9f 2f a1 3f
       -0.30795428 0.29076558 -1.0028306 1.2592658
000120 a4 c3 e8 3f cc 16 6d 3e e4 a5 5e 3d 19 2a f7 bd
       1.8184705 0.23153228 0.054357424 -0.12068576
000130 20 e2 4e bc 5e 01 62 3f 64 bb a5 bf e1 78 78 bf
       -0.012627155 0.88283336 -1.2947812 -0.97059447
000140 1f 33 80 be 6e d7 cb bc 99 d2 61 bb d9 31 5a bd
       -0.25039002 -0.024882998 -0.0034457801 -0.053270195
000150 31 e7 0f c0 74 ad 34 c0 03 b2 4d c0 a6 8e fd bd
       -2.2484858 -2.8230867 -3.21399 -0.12380724
000160 84 45 54 be af 0f 8a 3e 1b b0 5a bc a3 be 70 3f
       -0.20729643 0.2696509 -0.013347651 0.9404089
000170 ce ba a2 bf e7 74 14 c0 ed 8b 87 bd 33 d6 8a be
       -1.2713258 -2.3196352 -0.066184856 -0.27116546
000180 fd d0 96 3e cf a0 11 bd 2d 08 89 c0 db b2 26 c0
       0.2945632 -0.03555375 -4.282248 -2.6046665
000190 a4 ea 02 c0 54 14 c6 3d 1d e7 33 be cf b8 31 3e
       -2.0455713 0.09671846 -0.17568631 0.17355655
0001a0 0c 21 6a 3c 96 e1 4e c0 2f c4 2a c0 f2 19 3b c0
       0.014290106 -3.2325187 -2.668224 -2.9234586
0001b0 cc 81 f2 bd 20 b6 65 3d 41 76 22 3d 62 3b bd bc
       -0.11841163 0.05608189 0.039663557 -0.023099605
0001c0 94 02 21 40 25 4d ea 3c cb 2f 4c 3e 08 dc 1e 3c
       2.5157824 0.028601239 0.19940107 0.009696014
0001d0 e3 33 fc bd 72 39 e5 bd 54 47 ad be 0c d4 50 bf
       -0.12314584 -0.111925974 -0.33843482 -0.8157356
0001e0 0c 17 9c be 62 8e 7a 3e 50 18 b3 be 25 2f 07 be
       -0.30486333 0.24468377 -0.34979486 -0.13201578
0001f0 f6 5a 05 be ca 21 9e 3d 8f 78 e2 3f d2 31 0d c0
       -0.1302298 0.077212885 1.7693042 -2.2061658
000200 c0 3b e2 bf 3c bc 19 3e c8 70 6f bd cc 94 cb bb
       -1.7674484 0.15013212 -0.058457166 -0.0062128063
000210 75 c3 20 bd a5 cd c2 3f 17 6a 35 40 36 29 2c 40
       -0.039248902 1.5219008 2.8346002 2.6900153
000220 26 b7 83 be 89 c9 82 be b2 72 47 3d 15 a5 b2 3c
       -0.2572567 -0.25544384 0.048693366 0.021807233
000230 3c d9 1b 3f 58 a7 dc bf 21 e7 28 c0 58 2d cd 3b
       0.6087835 -1.7238569 -2.639107 0.006261509
000240 ea 6c 02 bd 9a cf 12 bc e5 29 6f 3d 65 9f 1a 40
       -0.03184215 -0.008960629 0.058389563 2.4159787
000250 da d3 ab bf 97 d2 d4 bf 9c a2 e9 ba 1d 0d a4 39
       -1.3424027 -1.6626767 -0.0017824951 0.00031290288
000260 d5 27 e7 bc 48 69 14 bd 5a 80 b2 3d 2f d0 c3 3f
       -0.028217236 -0.036233217 0.08715887 1.5297908
000270 d7 02 15 40 ae b7 d7 3d 88 f0 cf bd 6d 9a bc bd
       2.3282983 0.10533081 -0.101532996 -0.09209142
000280 bd 00 ba bd 7e 0f 49 bf 79 63 06 c0 08 66 17 c0
       -0.09082172 -0.78539264 -2.0998213 -2.3656025
000290 c1 a7 0b be ef 54 08 3e 78 e0 b1 3e ce 40 d4 bc
       -0.13638212 0.1331365 0.3474157 -0.025909808
0002a0 58 97 3b c0 3a 94 24 bf a3 60 08 c0 69 3a 66 bd
       -2.9311123 -0.64288676 -2.1308982 -0.056208048
0002b0 c7 2a 1f 3e a2 40 f8 3e f8 90 54 bd a4 31 04 c0
       0.15543662 0.4848681 -0.051896065 -2.0655298
0002c0 7a 32 9b 3f 93 bf 98 3f 0e 34 86 3e 3d 03 d8 3c
       1.2124779 1.1933464 0.2621159 0.026368732
0002d0 a6 ee ca bd 44 34 8c bc 11 09 68 bf 86 bc a5 bf
       -0.099088 -0.017114766 -0.90638834 -1.2948158
0002e0 01 df d1 bf 9b ef 3d 3e 85 80 b0 be 5c bd b7 3e
       -1.639618 0.18548433 -0.34473053 0.35886657
0002f0 3f 0b 70 bc dc d0 fd 3f bc 9f b3 be e4 b3 ac bf
       -0.014651119 1.9829364 -0.35082805 -1.3492398
000300 fb 18 bb 3c 8e da c8 3e fb fa ed 3d b8 90 9d bd
       0.02283906 0.39229244 0.11620136 -0.076936185
000310 91 ff 59 40 7f 11 36 40 5e b8 3c 40 9a f4 48 3e
       3.4062235 2.8448179 2.9487529 0.19624558
000320 f0 a4 af 3d 88 03 5e be 1c f2 8a bb c6 76 5f c0
       0.08576381 -0.21681035 -0.0042402875 -3.4916244
000330 8a a8 78 bf a8 1b 6a 3f 58 54 c1 3d 76 6f da 3c
       -0.9713217 0.9144845 0.094399154 0.026664477
000340 d8 b1 5e be 75 c7 23 3d ff 53 69 40 dc b7 e3 3f
       -0.2174753 0.03998514 3.6457517 1.7790484
000350 12 00 78 3e 51 ca 37 3e 04 9e 52 3d 5e ac 38 3d
       0.24218777 0.17948271 0.051420227 0.045086257
000360 db 7a c4 bc 7a e1 b4 3f d8 d0 be be 1e 98 52 bf
       -0.023984363 1.413131 -0.3726871 -0.8226336
000370 f3 ef 5a 3e 0e 8e aa be 25 dc 53 3e a2 40 ab 3c
       0.21380596 -0.33311504 0.20689447 0.020904843

temporal.input_proj.bias f4 [32]
000000 69 5f 8e bd 94 62 94 bc dc 22 10 bf 15 de 1b 3e
       -0.06951792 -0.018113412 -0.5630319 0.15221436
000010 ab 9f 72 bf a3 67 92 3e 6b 47 96 3e b8 53 4d 3f
       -0.94774884 0.28594694 0.29351363 0.8020587
000020 91 62 93 be 77 90 c1 3d b1 87 7a bd f5 90 40 3d
       -0.28786138 0.094513826 -0.06116456 0.04701324
000030 8c ba 34 be ce 3e 50 be b8 81 e4 be ac b0 b4 be
       -0.17649287 -0.20336458 -0.44630218 -0.3529104
000040 bc a8 da be 47 45 0c 3f 45 bf 9f bd 0e 88 eb 3e
       -0.4270686 0.5479321 -0.07800154 0.4600224
000050 c5 92 9e 3d 87 8a 9f be 11 a0 20 3f 97 8e cf 3c
       0.07742838 -0.31160375 0.6274424 0.025336547
000060 9a c4 e7 3e 19 fd 8f be 39 e0 fc 3d 58 22 3a bf
       0.45267183 -0.28122786 0.123474546 -0.72708654
000070 85 12 29 3d dd 41 e2 3e 75 17 39 bf 93 99 83 be
       0.041277427 0.44190875 -0.7230142 -0.25703105

temporal.layer_norm.weight f4 [32]
000000 cf 5d 97 3f 1b 8e 8f 3f 57 bc 60 3f 1f fc c4 3f
       1.1825503 1.1215242 0.87787384 1.5389441
000010 20 50 33 3f 92 27 57 3f 07 c5 f1 3e b4 a0 82 3f
       0.70044136 0.84044755 0.47220632 1.0205293
000020 a0 1b 91 3f 1a e0 b1 3e b1 71 8d 3f 49 a6 ad 3f
       1.1336555 0.34741288 1.1050321 1.3566371
000030 ae 8e 8b 3f 03 f4 d5 3f 5c 86 b9 3f 91 29 84 3f
       1.0902917 1.6715091 1.4494128 1.0325185
000040 82 17 2d 3f db e7 3e 3f 5a 25 bf 3f 76 20 84 3f
       0.67613995 0.74572533 1.4933274 1.0322406
000050 c1 2e 66 3f 92 52 0a 40 2b 72 8c 3f 66 50 41 3f
       0.8991509 2.1612897 1.0972341 0.75513303
000060 69 71 18 3f 8b 24 b7 3f 92 92 8e 3f de e9 6e 3f
       0.5954805 1.4308027 1.113848 0.93325603
000070 99 c6 a8 3f aa 59 86 3f 1f 1b 8d 3f bb 11 13 3f
       1.3185607 1.0496113 1.1023902 0.5744893

temporal.layer_norm.bias f4 [32]
000000 7c 7d 1d be d3 b7 c0 be a0 08 15 3f a3 4b 63 bc
       -0.153799 -0.37640247 0.58216286 -0.013873014
000010 fd 5f 03 3f bd 43 35 bf 14 4e 53 be ca 17 1c bf
       0.5131834 -0.70806485 -0.20635253 -0.609738
000020 81 5e d5 be 37 e1 ed 3e 4e 9b 2a be ed f4 8a be
       -0.41673663 0.46460888 -0.16660807 -0.2713999
000030 e5 0c e0 3c 78 a8 97 be ec 79 27 bd 17 dc 03 be
       0.027349899 -0.2962072 -0.040887758 -0.12876926
000040 78 8d 56 3e b9 b5 f3 3e 06 ce 36 3e 17 01 ee be
       0.20952404 0.4759958 0.17852029 -0.46485206
000050 dc a4 fa 3e 7e 36 68 bd 97 35 3b 3e 61 cf 2a be
       0.48953903 -0.056692593 0.18282162 -0.16680671
000060 d1 f8 7a bf 63 00 92 3e cf df 23 3e 13 34 c1 be
       -0.98035914 0.2851592 0.16003345 -0.37735042
000070 a2 29 9a 3d 1a c5 df be 7c f3 e5 3e 3a 64 61 3f
       0.07527472 -0.43705064 0.44912326 0.8804356

temporal.rnn.weight_ih_l0 f4 [128, 7]
000000 37 46 78 bf 09 bc 7f bf de c4 80 bf c3 1c 66 bf
       -0.9698214 -0.99896294 -1.0060079 -0.89887637
000010 e3 49 63 3e 09 aa 59 3e 85 1b 48 bf 75 c6 61 bf
       0.22196154 0.2125627 -0.7816699 -0.88193446
000020 a2 2c 3a bf 4d fe 3d bf 66 13 2b bf a4 3a 85 be
       -0.72724354 -0.7421616 -0.66826475 -0.26021302
000030 44 e2 63 be 99 d8 98 3e 3a 34 3f bf b0 bb 3f bf
       -0.22254282 0.2985275 -0.74689066 -0.74895763
000040 f2 82 32 bf d8 f7 0f bf 10 e9 2a bf 15 d0 38 bf
       -0.69731057 -0.56237555 -0.66761875 -0.7219251
000050 c5 b5 2b 3e b9 1e 6f 3e 38 3c 2d 3e 6c 2b 65 3e
       0.16768558 0.23351564 0.16917503 0.22379845
000060 3e 11 d6 3d 10 3b cc 3e 61 9f 06 3e aa 21 96 3d
       0.104525074 0.3988881 0.13146736 0.0733064
000070 c1 48 9b 3e 50 65 4a 3e 62 84 6a 3e fa 4e 18 3e
       0.30328944 0.1976521 0.22902063 0.14873877
000080 87 57 07 3e 76 fe ab 3e fd 1d be bc b7 4c 89 c0
       0.13216983 0.33592576 -0.023207659 -4.2906146
000090 15 cf 6d c0 2f bb 6d c0 d6 05 8d c0 6c f2 8e bd
       -3.7157643 -3.7145498 -4.4069624 -0.06979832
0000a0 03 b9 71 be 4f ec 6b bd 4e 55 0e be 02 d3 9c be
       -0.23605733 -0.05759841 -0.13899729 -0.30629736
0000b0 df 26 fb bd 77 7b ad bd b0 9f 9b bd a3 57 88 bd
       -0.122632734 -0.08470815 -0.07598817 -0.066573404
0000c0 0c 65 31 bd db 11 c4 3e f9 03 ec 3e 34 16 a8 3e
       -0.043309256 0.38294873 0.4609678 0.3282944
0000d0 af fc f8 3e 7d a5 ac be d9 26 c0 be 4f c2 1f 3e
       0.48630282 -0.33720008 -0.37529638 0.15601467
0000e0 4d 06 95 bf 04 85 a8 bf ee 42 9c bf 19 38 be bf
       -1.1642548 -1.3165593 -1.2207925 -1.486087
0000f0 07 a1 1a bf 48 82 b9 be 05 da 33 3e ea 86 53 bf
       -0.6040196 -0.3623221 0.17563637 -0.8262774
000100 6b b0 3e bf 6e 02 84 bf fe 59 8f bf 0e ee 29 be
       -0.7448794 -1.0313241 -1.1199338 -0.16594717
000110 22 a5 90 be 3f 92 87 bc 6d ae 5e bf d5 b0 57 bf
       -0.28250986 -0.016549228 -0.869849 -0.842542
000120 bc 45 87 bf 41 b2 7e bf 1e 7c 6a bf 92 7c 32 bf
       -1.0568156 -0.99490744 -0.9159564 -0.6972133
000130 f9 6b c3 bd 74 b0 16 bf c2 6e 99 be 56 27 a9 be
       -0.095420785 -0.58862996 -0.29967314 -0.33037823
000140 b1 e6 c8 be dd fd cc be 82 d7 05 be 8e 76 35 3f
       -0.39238504 -0.40037432 -0.13070491 0.70884025
000150 fd 85 00 3f 8a b2 3f 3e e4 4e 0f 3f ca e4 16 3f
       0.5020445 0.18720451 0.5597975 0.58942854
000160 25 d6 0e bf 8d d7 21 bf cf c3 81 3e d7 d4 90 bf
       -0.5579551 -0.6321953 0.25344703 -1.1314954
000170 89 b5 09 c0 c9 8f a4 be cb 70 82 bf 9e e6 06 3d
       -2.151705 -0.3214095 -1.0190672 0.032934777
000180 6b 2b 39 bf f5 80 6b 3e 64 6d 20 bf df 9b a5 be
       -0.72331876 0.22998412 -0.62666917 -0.32345483
000190 d1 3f 10 bf 1b 7d fe be 43 bd 1c bf fe ec b4 be
       -0.56347376 -0.49704823 -0.6122629 -0.3533706
0001a0 64 7c 2f be 82 0a 58 bf ed af b6 bf 81 16 5a 3e
       -0.17137295 -0.84391034 -1.4272438 0.21297647
0001b0 17 b1 65 bf 82 02 98 be 4f 97 d8 be 5d 21 19 3e
       -0.8972334 -0.29689413 -0.4230294 0.14954133
0001c0 33 c6 dd bd eb 37 99 3d 26 1a 8e bd 59 25 8b be
       -0.10828819 0.07481369 -0.06938581 -0.27176932
0001d0 1b 73 ad 3e 47 f1 6d 3e b6 d6 ac 3d 1e ec 3b bf
       0.3387688 0.23236571 0.0843939 -0.7340716
0001e0 00 6d ef be 10 a5 25 bf 85 1f 48 bf cc af 08 bf
       -0.46762848 -0.6470499 -0.78173095 -0.53393245
0001f0 ec 3c 46 bf 53 67 e2 3d 88 09 84 bf 9e ef ac bf
       -0.7743671 0.11054864 -1.0315409 -1.3510625
000200 a8 d3 8c bf a0 e9 8d bf fc 12 dc 3d eb 22 3d be
       -1.1002092 -1.1086922 0.107458085 -0.18470351
000210 b8 8d 58 3c f2 db 55 bf 35 14 48 bf 5b e1 f5 bc
       0.013217382 -0.83538735 -0.78155833 -0.030014684
000220 1a 25 0b 3e d2 62 81 3b 6e ad 40 bd 88 9b 92 bb
       0.13588372 0.003948548 -0.047040395 -0.004474107
000230 f2 8a 53 3f 99 1e 37 3f 28 ad 80 3f ca 0b 42 3f
       0.8263389 0.71531063 1.0052843 0.7579924
000240 d0 b3 ed be 04 7f 1b bf 04 f1 ee 3e df 29 f8 3d
       -0.4642625 -0.60740685 0.46668255 0.12117361
000250 38 54 fe bc c7 cd 48 bd 75 30 48 3c c2 cf 0e 3e
       -0.031046018 -0.04902437 0.012218584 0.13946441
000260 0e dc a2 3d 62 80 94 bc 40 1a 90 bf 4d 65 99 bf
       0.07952128 -0.018127624 -1.1258011 -1.198404
000270 3d 33 9e bf 78 7e 89 bf 2c 10 2a bf e7 d8 7c be
       -1.2359387 -1.074172 -0.66430926 -0.24692117
000280 ee 2b 50 be 8b 7f ce be c1 76 01 bf bc 1a 1f bf
       -0.20329258 -0.40331683 -0.5057183 -0.6215017
000290 0e 68 09 bf e6 6d 64 bf 8e 3c 44 bf 04 7e f3 3d
       -0.536744 -0.8923019 -0.766549 0.1188927
0002a0 f0 7d 92 be e6 10 1f bf b1 ca e1 bc 79 df ea be
       -0.28611708 -0.6213516 -0.027562471 -0.4587362
0002b0 64 37 4b 3e 1e 1b d1 3d 81 cf e3 3e fb 60 21 bf
       0.19845349 0.1021025 0.4449425 -0.63038605
0002c0 ae 4e 16 bf 18 dc 17 bf 2f 9e c4 be f2 57 04 be
       -0.58713806 -0.5932021 -0.38401935 -0.12924173
0002d0 89 e8 dd bd 0d 56 8a 3e 49 f3 28 bf 1f 6a 09 bf
       -0.10835368 0.27018777 -0.65996224 -0.5367755
0002e0 65 b9 31 bf da b8 1e bf 85 62 9a be b3 c9 7d be
       -0.69423515 -0.6200081 -0.3015329 -0.24783973
0002f0 f9 27 a2 be 5b fc 30 bf 9c 64 45 be 3c b2 43 bf
       -0.31671122 -0.69135064 -0.1927666 -0.7644384
000300 08 1d ef bd 35 d1 5c 3e ae a0 2d be 08 38 a7 3d
       -0.11675459 0.21564181 -0.16955826 0.08164984
000310 8f 73 e9 3e 74 43 29 3f f6 fa 13 3f 94 3e 46 3f
       0.45595977 0.6611855 0.5780481 0.77439237
000320 a9 55 fe be 51 1c c4 be af b8 13 bd 7c 23 e3 bc
       -0.4967473 -0.38302854 -0.0360648 -0.027726881
000330 01 a8 d2 3d eb 17 4c be 32 80 82 be 41 88 85 be
       0.102859505 -0.19930999 -0.2548843 -0.26080516
000340 17 b5 8d 3e 2d 7b 83 3d aa 94 9a bc 98 d9 07 3d
       0.27677223 0.06419978 -0.018869717 0.033166498
000350 b9 09 da bd 9c 7d 70 be 54 2b 28 bd 33 74 f4 3d
       -0.10646386 -0.23485416 -0.041056946 0.11936226
000360 f8 8a 49 bf 62 9d 12 bf d3 44 03 bf 27 91 0e bf
       -0.78727674 -0.572714 -0.5127689 -0.55690235
000370 be 26 44 bf 62 78 0b bd 16 9c d5 bb dc 75 ba be
       -0.76621616 -0.034050353 -0.006518851 -0.36418045
000380 f8 f6 3c be e3 1f 86 be 62 a2 a5 be d1 19 03 bf
       -0.18453586 -0.26196203 -0.3235045 -0.5121127
000390 5d 9c f8 be 69 00 d7 be a5 04 5d 3e d0 01 17 bf
       -0.48556796 -0.419925 0.21583803 -0.5898714
0003a0 51 ac 26 bf 01 45 0f bf f5 7a 22 bf 9e 00 2c be
       -0.65106684 -0.55964667 -0.6346887 -0.1679711
0003b0 d6 20 98 be 82 38 1f be 4d 71 f0 be 22 f2 17 bf
       -0.29712552 -0.155489 -0.46961442 -0.5935384
0003c0 7d 53 3e bf f2 ff 36 bf a5 40 82 be 2a 2b 01 be
       -0.74346143 -0.7148429 -0.25439945 -0.12614122
0003d0 3e ab 0e be 05 d0 e7 3e 93 40 2c 3e f8 79 da 3e
       -0.13932511 0.45275894 0.16821508 0.4267118
0003e0 5e 26 e9 3d e8 78 28 be c4 7c d9 be f9 3e 1a 3e
       0.11384271 -0.16452372 -0.42478 0.15063085
0003f0 c4 4d ba 3e 45 cc ab 3e 9c 99 eb 3d bb 3a 2b be
       0.36387455 0.33554283 0.11503908 -0.16721623

temporal.rnn.weight_hh_l0 f4 [128, 32]
000000 6f dd fa 3c e6 48 67 bf 4c 95 33 be a5 6e a5 3c
       0.030623166 -0.9034561 -0.17537421 0.020194361
000010 f0 92 4e bd 09 67 80 3f 27 f0 a3 3d 7f fb 29 3e
       -0.0504331 1.0031444 0.0800479 0.16599844
000020 60 ba 8a 3f 2f 1a 21 bf d9 a1 ec be d9 6c ff 3e
       1.0838127 -0.6293058 -0.4621723 0.49887732
000030 d9 a6 f3 bd c6 96 00 bf 3a cf 8c be ea e2 97 bf
       -0.11897058 -0.5023006 -0.2750185 -1.1866124
000040 8b 3a 8e 3e ba 83 93 3e d8 7b c1 bd 0d d4 82 bf
       0.2777904 0.28811437 -0.094474494 -1.0220963
000050 4c fb db be 18 b2 c7 3e b2 67 97 be 68 af 71 bf
       -0.42965162 0.39003062 -0.295713 -0.94408274
000060 69 d6 0a bd cd f2 25 bf e0 ca 31 3e cd fe 26 bf
       -0.033895884 -0.6482361 0.17362547 -0.65232545
000070 d3 9b b2 3d 65 d9 c2 3e 30 b7 99 3d f4 90 81 3e
       0.08721127 0.38056484 0.07505643 0.25305903
000080 b2 b8 82 be b4 69 ef bd 93 30 9a be 3b 00 bd 3e
       -0.25531536 -0.11690083 -0.30115184 0.36914238
000090 f0 88 78 3e c8 6e 4f be fe 9f b0 3e 3d 20 23 3f
       0.24270988 -0.20257103 0.34497064 0.63721067
0000a0 95 19 97 3e 2c 33 5d be 9a d3 68 3e 94 9c f9 be
       0.29511705 -0.21601552 0.2273697 -0.48752272
0000b0 34 a5 45 bf ab 2b cc be 9d dc 78 be 5a c3 1b 3d
       -0.77205205 -0.39877066 -0.24302907 0.0380281
0000c0 24 21 9e be 59 9b f4 3e 61 04 80 3e 62 73 d8 3d
       -0.3088466 0.4777477 0.2500334 0.105688825
0000d0 80 b1 85 3e d8 8f a1 3e 31 08 07 3e 9e 34 14 3b
       0.26111984 0.31555057 0.13186719 0.002261437
0000e0 94 a2 c5 bc ed 60 95 3e 6c 39 e9 3e af c7 18 3f
       -0.024125375 0.2917551 0.45551622 0.59679693
0000f0 4e 24 81 3e b7 2c d3 be f2 b8 51 be b5 bc e6 3e
       0.2522301 -0.41245052 -0.20480707 0.45065847
000100 47 d9 29 be 99 ab 3d be cb 5f 03 3e 00 4d fe be
       -0.16586791 -0.1852249 0.12829511 -0.4966812
000110 94 1e 73 be bb d1 80 be 3e 05 92 3d 0e fb 5e be
       -0.23742133 -0.25160012 0.07129906 -0.21775457
000120 d3 3a 58 bd 68 d2 ce bd 90 3d da 3e e9 82 1f 3e
       -0.052790474 -0.100987256 0.42625093 0.15577282
000130 fd 6f a1 3d fb 26 bc 3e 63 d6 5d be 20 0e 6d 3d
       0.07882688 0.3674849 -0.21663813 0.0578748
000140 15 03 ce 3c fc 21 96 bd 30 09 fe bd 7b 10 cf 3d
       0.025147954 -0.07330701 -0.12404096 0.10110565
000150 26 fc 7f bd d6 16 81 3d e5 c1 bb bc 45 b0 e1 bc
       -0.062496327 0.06303184 -0.022919605 -0.027549872
000160 6b d0 3e 3e 9b 98 6f 3e 1a b6 a5 3d c1 fe b5 3e
       0.18634193 0.23398058 0.08091374 0.35545924
000170 cb 2b a9 bd 2e 53 e0 be 69 04 96 be 0d 0e 53 3e
       -0.08260306 -0.4381346 -0.2930024 0.20610829
000180 03 41 1a bf ed e3 77 3e 59 ad 46 bd 3f 8f 9b 3e
       -0.6025545 0.2420804 -0.04850516 0.30382726
000190 f0 48 ef bd 0c 2c 84 be 00 73 67 bd c7 21 12 3e
       -0.116838336 -0.25814855 -0.056506157 0.14270698
0001a0 16 23 49 be 61 6e cf bd 91 ce d6 3e 22 95 3d be
       -0.1964229 -0.10128475 0.41954473 -0.18513921
0001b0 08 84 93 bd ea 23 8c be 14 76 15 bf e9 80 ae 3d
       -0.07202917 -0.2737115 -0.583833 0.085206814
0001c0 02 05 cd be 4e 76 ed 3e f2 24 48 3c 43 22 6c 3e
       -0.40042883 0.46379322 0.01221584 0.23059945
0001d0 eb b4 ca be be 60 3f bf 07 b5 93 3d 6b e0 85 3e
       -0.39591154 -0.7475699 0.072122626 0.2614778
0001e0 08 28 88 3c 0b 3e 95 3d de 4d 74 3e 7b be a6 3e
       0.01662065 0.072872244 0.23857829 0.325672
0001f0 ec 20 8a be be ff cb be 6c c9 97 3e ad 1d cc 3e
       -0.26978242 -0.39843553 0.2964586 0.3986639
000200 e7 a5 01 bf 63 91 2c bf 26 7b 4e 3d 97 f0 06 be
       -0.5064377 -0.6740934 0.050410412 -0.13177715
000210 cf 09 43 be 7b d2 69 3f d5 c2 49 3e 3b 2b c9 3e
       -0.1904671 0.9133679 0.19703229 0.39290795
000220 cd 10 40 3f b6 60 f6 be 4e b7 dc be 3c 8b e2 3e
       0.75025636 -0.4812066 -0.431086 0.44246852
000230 ce c5 94 be c8 36 21 bf 07 34 03 3d 08 49 91 bf
       -0.29057163 -0.62974215 0.03203204 -1.1350412
000240 0f b2 cd 3e 71 2f c0 be b7 a7 00 3e af 01 1c bf
       0.4017491 -0.37536195 0.12563978 -0.6094007
000250 28 4a 36 bf 48 c5 fe 3e 1b 45 0d bf 6c 9d ba be
       -0.71206903 0.4975989 -0.5518357 -0.36448228
000260 1d c9 bb 3e e0 bb 29 bf a2 5c 7a be 4c 3b 35 bf
       0.36676875 -0.663023 -0.24449399 -0.70793605
000270 d8 0e 08 3f 89 ec 52 3f 3c fd 01 be 09 e1 65 3e
       0.5314765 0.82392174 -0.12694257 0.22449125
000280 cd e8 85 3f 76 17 51 3d 23 c9 a2 3d 4b 7d a2 be
       1.046167 0.051047765 0.0794852 -0.31736216
000290 9a a4 fa 3f ff 66 dd 3e b6 59 ef be 37 b9 06 3f
       1.9581482 0.43242642 -0.46748132 0.52626365
0002a0 cf a1 0c 3e 30 ed 80 3e f0 53 cf bd 43 15 6a 3d
       0.137336 0.2518096 -0.10123432 0.057149183
0002b0 7a 16 df be 03 1e 24 bd f7 94 6a 3e 82 24 e1 3d
       -0.43571836 -0.040067684 0.22908388 0.109932914
0002c0 97 73 8b 3e 84 02 3e bd 8e 25 70 3c 70 1d 31 be
       0.27236626 -0.046389118 0.014657391 -0.17296386
0002d0 ae f0 84 be 44 0b 3b 3d 13 66 69 be 02 db 2e bf
       -0.25964874 0.04566504 -0.22792844 -0.6830293
0002e0 d0 e6 ad be 18 2f 6c be 15 6b 34 3e 65 53 5e be
       -0.33965158 -0.2306484 0.17618974 -0.217115
0002f0 a3 b7 a4 3e 48 75 ee be 9b 6a 2c bf 5b e8 94 be
       0.32171354 -0.46573853 -0.6735017 -0.29083523
000300 15 8e d0 be 3e ee 36 3e 83 66 2d be cf 5d 26 be
       -0.407334 0.1786432 -0.16933636 -0.16246723
000310 77 e8 07 3d 73 ba 18 3d 01 15 95 be 7e 3d 15 bf
       0.03318068 0.037287187 -0.29117587 -0.58296955
000320 0e 5b c8 3e 1c e6 d0 be 87 40 ed 3e ed 66 e3 bd
       0.3913197 -0.4080056 0.46338293 -0.11103616
000330 04 c8 26 3d ef d9 d0 be a8 24 e1 be 1c 44 bc 3e
       0.040718094 -0.4079127 -0.4397328 0.36770713
000340 c0 4a d0 3b ae 2e 88 be 32 5b d0 be 01 49 aa 3e
       0.006356567 -0.26598114 -0.40694577 0.33258823
000350 33 64 43 3f 63 16 dd be 10 7d 0e be 21 3e cb 3d
       0.76324767 -0.43181142 -0.13914895 0.099239595
000360 84 7a 2e be e1 b8 6d 3d f2 41 d7 be 88 62 b8 be
       -0.17038924 0.058037642 -0.420425 -0.36012673
000370 59 55 85 be 1f b5 98 be 3a 07 c0 3e 4f 29 12 be
       -0.26041678 -0.29825684 0.37505513 -0.1427357
000380 c4 cf b4 3e f9 cd 0c be c6 be b8 bd c2 6a 46 3e
       0.35314763 -0.13750447 -0.09020762 0.19376662
000390 c8 9f 16 3e e5 73 18 3d 21 fa 69 be 9c 5a b9 3d
       0.14709389 0.0372199 -0.22849323 0.090504855
0003a0 0b bf c3 3e a3 c2 c2 3d c0 8e 76 bd b6 89 1c bf
       0.38231692 0.0950978 -0.06019473 -0.6114763
0003b0 77 59 96 3e c4 58 7d be 37 e3 18 bd 72 56 0c 3c
       0.2936513 -0.24740893 -0.037326064 0.008565532
0003c0 91 e6 62 3e a3 39 86 3e 53 36 11 3f 5d f6 2c 3d
       0.22158267 0.26215848 0.5672352 0.042227138
0003d0 7e 66 5b be 36 28 0b 3f d6 55 7c 3e 33 25 07 bf
       -0.21425816 0.5435823 0.24642119 -0.52791137
0003e0 3d 6d 31 bd f2 18 af 3f 2f 8c c6 3e 63 cf 8d 3f
       -0.04331707 1.3679488 0.38778827 1.1078914
0003f0 4d ba df bd 71 12 82 bd 20 f0 a4 3d ba 2c 9a be
       -0.10924206 -0.06351174 0.08053613 -0.3011225

temporal.rnn.bias_ih_l0 f4 [128]
000000 82 17 58 3f 1d d4 a5 be 87 34 03 be 90 fb 26 3e
       0.8441087 -0.32388392 -0.12813006 0.16306901
000010 5c 3b c6 3d ac 4c e0 bd 96 0f a9 bd 6a 49 7d be
       0.09679291 -0.10952124 -0.08254926 -0.24735036
000020 a3 2f 2e bd 14 70 13 bd 3d 02 f0 be e7 c9 cc be
       -0.0425259 -0.035995558 -0.46876708 -0.3999779
000030 08 91 8d be 36 5d fe be 21 1f 78 3d be 3d 9f be
       -0.27649713 -0.4968049 0.06057656 -0.31101793
000040 65 0c 56 be e7 74 3a be 36 0d de be 84 e5 c2 be
       -0.20903166 -0.18208657 -0.43369454 -0.38065732
000050 52 6a 92 be a0 86 00 3e ff 97 89 bd 7b 8b cd be
       -0.2859674 0.12551355 -0.06718444 -0.40145478
000060 5a 9b f2 be 07 47 8c be 83 5d e8 be 0a 21 32 be
       -0.4738415 -0.2739794 -0.45383844 -0.17395416
000070 8a f4 86 be ee ea 91 be a6 54 09 be 8c 7f b6 3e
       -0.26358443 -0.2849955 -0.13411197 0.35644186
000080 e2 f5 f6 be c6 3b 6e be 22 0c b4 bd e5 7d a6 be
       -0.4823447 -0.2326499 -0.08791377 -0.32517925
000090 ef b3 09 be 25 73 07 bd 9f 62 a8 3b 52 62 94 bd
       -0.13447545 -0.033068795 0.0051387097 -0.072453156
0000a0 00 53 98 3c ae 24 d0 bd f1 10 a9 3c 6a 44 8b be
       0.018594265 -0.10163246 0.020637961 -0.27200633
0000b0 76 47 85 be 7f 96 85 3e b1 d2 82 be 0c 76 82 3e
       -0.26031083 0.26091382 -0.2555137 0.25480688
0000c0 2f 5b 74 3d 7f 48 58 be db bd bb 3d ab 15 13 bf
       0.059657272 -0.21121405 0.091670714 -0.5745494
0000d0 fc 75 14 3e c7 fc f1 be 17 0b fc 3c a2 3b 9b be
       0.14498132 -0.47263166 0.030767007 -0.30318934
0000e0 87 66 ef 3d 1c 59 05 be 92 76 f3 be 9d 01 5d be
       0.116894774 -0.13022274 -0.475514 -0.21582647
0000f0 e8 c4 79 bd 9a 77 05 be 22 72 0c 3d 15 b6 19 bf
       -0.0609788 -0.13033906 0.034288533 -0.6004346
000100 9d fe 9f 3d 9c 2b a4 be 87 92 48 3e e9 59 a7 bd
       0.078122355 -0.3206452 0.19587146 -0.08171446
000110 30 5b 46 bc c6 c7 08 3f 7d 83 45 3e 9b f4 25 3e
       -0.012106702 0.5342983 0.1928844 0.16206591
000120 df 01 33 3e 6a 19 c6 3d 99 c4 50 be 58 08 04 3e
       0.17481183 0.09672816 -0.20387496 0.12893808
000130 40 9e a7 bc 1f 76 43 bd cc e0 45 3e 8d b0 7e be
       -0.020461202 -0.04772007 0.19324034 -0.24872036
000140 bc 53 a2 3d 56 a4 29 be 29 11 d0 3d 61 16 9d be
       0.07926127 -0.16566595 0.10159523 -0.30681136
000150 f1 0f 81 3c 04 6b 7a 3c 47 94 bc be 1e ed 9c bd
       0.015754672 0.015284304 -0.36831877 -0.07662414
000160 18 15 94 3d 76 32 be 3c d8 30 a4 bd dd 37 53 be
       0.07230586 0.023217421 -0.08017129 -0.20626779
000170 02 9e b8 3e a0 12 9e 3e 06 0c 57 be 17 00 38 bc
       0.3605805 0.30873585 -0.2100068 -0.01123049
000180 d8 2e 3f 3f fb cd 9e be 1e c8 40 be a2 3a 38 be
       0.7468085 -0.31016526 -0.18826339 -0.17991117
000190 5b 44 8d 3e 25 6f c6 bd 6c 27 92 3e 8a 90 cc bc
       0.27591214 -0.09689168 0.28545702 -0.024971265
0001a0 c8 3e dd 3d 96 46 4d bd 33 a2 da be 40 9d ee be
       0.1080299 -0.050116144 -0.42701873 -0.46604347
0001b0 9f ff 53 be 7f 0c 93 3e 57 d7 5c 3e 84 2f 2d 3e
       -0.2070298 0.2872047 0.2156652 0.16912657
0001c0 65 4b 1d be bb e5 e7 bc 6b 20 6e be 28 fc d8 be
       -0.15360792 -0.028307786 -0.23254554 -0.4237988
0001d0 c9 a2 71 be 32 c3 81 3e ab b4 a8 be 70 fb 98 be
       -0.23597254 0.25344235 -0.3295034 -0.29879332
0001e0 d5 0a 8f 3c 69 ef 15 bf 8a d9 aa be f1 34 61 be
       0.01746122 -0.58568436 -0.33369094 -0.21992852
0001f0 bb a3 40 3d 3d 7d d7 bd 41 44 32 3e 21 64 2e 3e
       0.047031146 -0.10521934 0.1740885 0.17030384

temporal.rnn.bias_hh_l0 f4 [128]
000000 ad c3 18 3f 55 67 4e be 32 3a 72 be d8 47 03 be
       0.5967358 -0.20156606 -0.23655012 -0.12820375
000010 d3 c0 de 3d 7f f2 31 be a2 ab 83 be 5d 12 00 be
       0.10876622 -0.17377661 -0.25716883 -0.12507005
000020 40 53 01 bc c6 12 a3 be 66 f7 4f be 4a 5c 01 bf
       -0.0078933835 -0.3185026 -0.20309219 -0.50531447
000030 4d 18 bd be c5 18 c7 be e7 9b 8a 3e 6e 74 05 bf
       -0.36932603 -0.38886085 0.2707207 -0.5213078
000040 7d a1 5f bc 95 c1 ac be c9 42 cd be f3 b8 b6 be
       -0.013649342 -0.3374144 -0.40090016 -0.3568798
000050 49 e0 18 be b3 d9 ff bc bb e7 fa bd c7 74 98 be
       -0.14929308 -0.031231737 -0.1225123 -0.29776594
000060 91 d1 3e be e3 23 21 be dc 1e c5 be 7d f5 06 be
       -0.1863463 -0.15736346 -0.38500106 -0.13179584
000070 9d e1 34 be ef 4f d4 be a8 15 dd bd 29 d2 cb 3d
       -0.1766419 -0.41467234 -0.10795146 0.09952194
000080 90 83 b4 be 24 15 62 be ce 81 9d 3d b5 d3 b5 be
       -0.35256624 -0.22078377 0.07690774 -0.35513082
000090 64 10 09 3d 70 4b fb bd 3e 88 d2 3d d3 66 59 3d
       0.033462897 -0.12270248 0.102798924 0.053076576
0000a0 c3 de 08 3d 05 32 89 be 20 e3 ed bd 1f 97 5a be
       0.033415567 -0.26795974 -0.11615586 -0.2134671
0000b0 9e fc 49 be 59 1f 29 3e 4c 96 8e bd 5f b6 a8 3e
       -0.19725272 0.16515864 -0.069622606 0.32951638
0000c0 f0 eb a5 3d d2 bb 95 3d b0 42 5b 3d 2a d6 47 bf
       0.08101642 0.073112145 0.053530395 -0.78061163
0000d0 56 d9 79 bd 8f a2 b1 be bf 38 06 bd fe 66 10 be
       -0.060998283 -0.34694335 -0.03276896 -0.14101788
0000e0 a3 f0 24 3e 4e bd 2a be c9 48 9f be a6 83 e0 be
       0.1610742 -0.16673777 -0.31110218 -0.4385044
0000f0 35 7a 5a be 33 55 96 be b0 37 f8 bd cf 7d cc be
       -0.21335681 -0.29361877 -0.121199965 -0.39939734
000100 1a 39 0c 3b ad c5 17 be b7 5e 84 3d 75 ab 96 3d
       0.002139634 -0.14821501 0.06463378 0.073569216
000110 ab 58 89 3c 55 20 e4 3e e5 90 d9 3d 19 d5 82 3e
       0.016765913 0.44555917 0.106233396 0.25553206
000120 64 e7 31 3e fc 1f 8e bd c7 86 00 bf 41 69 f9 3c
       0.17373425 -0.06939694 -0.50205654 0.030445697
000130 4c 52 dc 3d 22 9b 43 3b 7c d2 16 3e ac 63 1e 3c
       0.107578844 0.0029847105 0.14728731 0.009667318
000140 3b 5c 0b 3d 4a f7 e8 3d c4 59 9d bd 9c ca 87 be
       0.034023505 0.11375292 -0.07683137 -0.26521766
000150 ef 4d d3 3d 0c 5f 0b 3e 79 98 9e be 4b 33 4c bc
       0.10317599 0.13610476 -0.30975702 -0.012463401
000160 09 d5 82 3e 4a 34 ce bd c8 c8 0d 3d 67 47 9f 3d
       0.25553158 -0.10068567 0.034615308 0.07777291
000170 75 39 a8 3e 7e d8 fe 3e 2c 30 b4 be 35 ad 98 39
       0.32856336 0.49774545 -0.35193002 0.00029120749
000180 17 ab 07 3f ba 8d aa be 55 4f 2e bd e8 f4 26 be
       0.5299544 -0.33311254 -0.042556126 -0.16304362
000190 e4 d5 ee 3e bf 83 85 be a6 7f 53 3c 19 14 0a 3c
       0.4664756 -0.26077077 0.012908852 0.008427643
0001a0 32 4b 86 3d d5 7c 39 bd 28 24 c0 be e4 4b a2 be
       0.06557311 -0.045285065 -0.37527585 -0.31698525
0001b0 93 a3 54 be 6f d1 90 3c cc c3 21 3e 0e 51 88 3e
       -0.20765524 0.01767799 0.15797347 0.2662434
0001c0 56 55 b3 bd 85 84 22 be 0e 98 ed be f7 9e 62 be
       -0.08756511 -0.15870865 -0.4640507 -0.22130953
0001d0 c2 e6 63 be d7 8b b6 3c f1 b2 c6 be ee cc d9 be
       -0.22255996 0.022283478 -0.38808396 -0.4253916
0001e0 a3 63 6d bc b0 fd fa be 71 61 f5 be 74 31 51 be
       -0.014489087 -0.49021673 -0.47925904 -0.20429021
0001f0 80 c1 48 3e e7 4d 4a be 76 7a 81 3e 1f d5 a8 3e
       0.19605064 -0.1975628 0.25288743 0.32975098

temporal.rnn.weight_ih_l1 f4 [128, 32]
000000 72 1e 00 bf 01 f4 4b 3f 45 67 9d be 27 80 34 3f
       -0.50046456 0.79669195 -0.3074285 0.70508045
000010 7a 4b 99 bf 5d f7 6a be 56 52 08 bf e8 23 e9 be
       -1.1976159 -0.22945924 -0.53250635 -0.45535207
000020 81 3f 2d bf a9 28 53 bf 36 03 80 3f 61 17 7d 3e
       -0.67675024 -0.8248392 1.000098 0.2471595
000030 e7 c0 21 3d 8f 1d 54 3e b9 99 17 bf f7 1d bf 3c
       0.039490607 0.207144 -0.5921894 0.023329718
000040 56 ab b1 be 50 8c 84 3e 25 29 99 3d 57 80 e7 3e
       -0.3470103 0.258883 0.07478551 0.45215103
000050 80 41 8b 3e aa fc 23 bf 2a e1 a2 3e 62 a9 4f 3f
       0.2719841 -0.6405741 0.31812412 0.8111783
000060 7c fb 4a be c0 94 1b be 62 2f 20 3e 4d d0 c8 be
       -0.19822496 -0.15193462 0.15643075 -0.3922142
000070 d0 db 5f 3d f7 bf 6d 3e a0 0d 03 3f c6 ba 0d 3f
       0.05465299 0.2321776 0.51192665 0.5536312
000080 ec 1b 16 bf e5 16 bf 3e 3d eb ca be 0d da 71 3f
       -0.58636355 0.37322155 -0.39632598 0.94473344
000090 b5 51 d5 bf 59 f2 40 bf 53 ed 37 3e 33 7a 24 bf
       -1.666556 -0.75369793 0.17961626 -0.6424896
0000a0 ec 5e 17 bf 3b 8a 4c bf 89 7b 6c 3d 58 18 d0 bd
       -0.59129214 -0.7989842 0.057735 -0.10160893
0000b0 37 46 b0 3f 46 88 c8 3e 64 2c 36 bf 5c fc 52 3e
       1.3771428 0.39166468 -0.71161485 0.2060408
0000c0 c5 2b ba bf c1 e2 22 3f f3 7c 45 3f b2 65 b8 3e
       -1.4544607 0.6362725 0.7714378 0.36015087
0000d0 1b 24 1d 3f e7 6b 0f bf 0f 4d 14 3f d4 eb 25 3e
       0.6138322 -0.5602402 0.5793008 0.16203243
0000e0 95 bc 56 3f 1a 08 e7 3e 9a e0 43 3f a9 2b 17 3f
       0.83881503 0.45123369 0.7651459 0.59050995
0000f0 79 55 8c 3e 3a 6a 85 3e e4 68 cd 3e 8a 8d a8 3e
       0.2740896 0.26057607 0.40119088 0.32920486
000100 52 da 17 3e ca 43 a8 be ce 37 b4 3e f9 3e aa be
       0.14829376 -0.3286422 0.35198826 -0.3325117
000110 a4 8a 5c 3e e6 41 85 3d 08 08 ba bd 8e 83 a6 3e
       0.21537262 0.0650671 -0.09083563 0.32522243
000120 ec c1 19 be 04 53 97 3d b6 00 fc be 49 18 64 3f
       -0.15015382 0.07388881 -0.49219292 0.89099556
000130 18 14 b8 3d dd c8 b6 bd b7 67 cd 3e 0f c3 6f be
       0.089882076 -0.089250304 0.4011819 -0.23414253
000140 9a fe 46 3e 36 22 63 bf 71 89 04 bf cc f5 87 be
       0.1943306 -0.88724077 -0.5177222 -0.26554716
000150 93 9d 9a be 4a b4 23 3b 72 9b a8 be aa c3 0c 3e
       -0.30198345 0.0024979287 -0.32931095 0.13746515
000160 06 44 ae 3d 41 b6 de be 1f 56 20 bf 90 f7 c3 be
       0.08509068 -0.43498424 -0.6263141 -0.38274813
000170 de 6f 7f 3e 54 1f f4 3e 20 ac 0a 3f a8 39 98 be
       0.24945018 0.4768015 0.5416889 -0.29731488
000180 f0 c8 c7 3d 3a ad b3 be ef 28 8d 3e 62 55 48 3f
       0.09755123 -0.350931 0.27570292 0.78255284
000190 fa e2 36 bf b4 83 10 be 4f d2 39 bf ea e8 d3 3d
       -0.7144009 -0.14112741 -0.7258653 0.10347159
0001a0 a3 59 e6 bd 98 8b 0b bf f1 5a 45 bd 0b ee 0f 3f
       -0.112475656 -0.5450988 -0.04818243 0.562226
0001b0 89 61 3f be 11 44 35 3f 08 f2 fd be 4e 78 b8 3e
       -0.1868955 0.70806986 -0.49598718 0.36029285
0001c0 0a a4 91 bf 8c 7a bf 3e 17 24 07 3f 58 85 73 3e
       -1.1378186 0.37398183 0.52789444 0.23781335
0001d0 32 05 b0 3e 13 49 f6 be 46 27 38 be 5e e9 0e 3e
       0.34378964 -0.48102626 -0.17983732 0.1395621
0001e0 0e 64 fb 3e a7 b1 0a bb ae 46 f2 3e ab 29 1e be
       0.49099773 -0.0021163018 0.4731955 -0.15445583
0001f0 ac a1 68 be cc b0 9a 3e 11 cd 52 3e fc 38 b7 3e
       -0.22717923 0.3021301 0.20586039 0.35785663
000200 cb f1 ab 3a 05 63 f0 be 45 0b 43 be cc 97 07 bf
       0.0013118325 -0.46950546 -0.19047268 -0.52966
000210 46 4c 57 3f ea 2a 15 3e dd 5a 1f 3f 3f bb 28 3f
       0.8410076 0.14567152 0.6224802 0.65910715
000220 58 c4 b7 bd f3 ba b9 be 24 5e a4 3d 0d a6 0d 3f
       -0.089729965 -0.36275443 0.080257684 0.553315
000230 32 b7 5d bf 31 86 f6 bd 7d 83 ee be c3 d5 53 bf
       -0.8660766 -0.12037314 -0.46584693 -0.8274805
000240 4c ce ed 3b 9a 8f 83 3e 29 ea 1c 3e 7d 52 03 bf
       0.0072572585 0.25695497 0.153237 -0.5129774
000250 d8 70 ae be 19 6d 5c be 01 b4 03 3f 8f 87 6a 3f
       -0.34070468 -0.21525992 0.5144654 0.91613096
000260 1b b0 cf bd 21 0b d5 be b1 0f 3e 3d b8 8c 11 3e
       -0.10141011 -0.41610053 0.046401683 0.14213836
000270 71 01 01 3e 88 44 25 3e 6a e2 e3 be 37 4a 2e 3f
       0.12598206 0.16139424 -0.44508678 0.6808199
000280 7e a2 1a bf 82 08 a2 be 81 54 d3 bd 64 4e 5b be
       -0.60404193 -0.31647116 -0.10318852 -0.21416622
000290 e9 3b 16 3e 99 c4 8c 3e 7d dd d4 3d 9f 4a 03 be
       0.14671291 0.27493742 0.10393808 -0.12821434
0002a0 90 45 60 3e 58 b0 83 be 91 b4 6a be 7b 93 92 bd
       0.21901536 -0.25720477 -0.22920443 -0.07157036
0002b0 7d 78 26 ba cd b8 b2 be ee cc 92 3e 9f 32 04 bf
       -0.00063503516 -0.34906617 0.28671974 -0.5163974
0002c0 4b 75 a2 3e aa 82 e4 be ad e7 43 bf bd d9 63 bf
       0.31730112 -0.4463094 -0.76525384 -0.8900412
0002d0 5c 16 2e 3e 0d 28 4e 3e e5 74 b5 be d9 0b 05 bf
       0.17000717 0.20132466 -0.35440746 -0.51971203
0002e0 64 8f 2d 3d 34 0b 89 bf b8 0d cd be 49 69 22 bf
       0.042373076 -1.0706544 -0.4004953 -0.634419
0002f0 26 12 16 bd fb 62 c9 bc d3 1f 8b be e3 4a 27 bd
       -0.0366384 -0.02458333 -0.27172717 -0.040842902
000300 aa 73 57 bd 56 7e 10 3f 94 1f 75 be ba 88 9a be
       -0.05260054 0.56442773 -0.23937827 -0.3018244
000310 07 71 0e 3e fb 0c 95 bd a3 93 34 3f 15 a9 52 3e
       0.13910304 -0.072778665 0.70537776 0.20572312
000320 1c 38 63 bd 1f b3 4e 3e 92 dc dd bd 6b e9 b0 3e
       -0.055473432 0.20185517 -0.10833086 0.34553084
000330 92 aa c1 bd fa 47 ab bd c2 d5 70 bd c5 59 08 3f
       -0.09456362 -0.08363338 -0.058797605 0.5326198
000340 35 c3 e5 3d 52 58 c7 be 9e 84 85 be d3 3f 80 bc
       0.112188734 -0.3893457 -0.2607774 -0.015655434
000350 f4 c4 41 be 3c 81 40 3e 42 20 25 be 2a 09 3f 3f
       -0.18922788 0.18799299 -0.16125587 0.7462336
000360 77 29 28 bf 50 35 ad bd 38 af d7 bc b9 94 99 bd
       -0.6568827 -0.08457434 -0.026328668 -0.0749907
000370 a4 b0 ed 3e 69 2b a3 bd 83 37 e7 be 5a 9c ea bd
       0.4642383 -0.07967264 -0.4515954 -0.11455603
000380 7b 6d df 3f a3 39 9f be e0 ab 1f 3f 0c 99 b8 3e
       1.7455286 -0.3109866 0.62371635 0.36054265
000390 4b c6 c1 3f 2b c7 06 3e 87 32 2b 3f 6f c4 45 3f
       1.5138639 0.13161914 0.66873974 0.7725286
0003a0 0f 9e 8b 3f 02 18 71 be 16 3d 94 bf da 38 20 3f
       1.0907611 -0.23544315 -1.1581142 0.6258675
0003b0 4c 5a 38 be a3 63 a4 3c c7 e1 87 3e cc 2b 97 3d
       -0.18003196 0.020067042 0.26539442 0.073814005
0003c0 bf 43 a8 3d cd 7f bc be 1b de 00 bf d1 2a 35 bf
       0.082160465 -0.36816254 -0.50338906 -0.7076846
0003d0 2f 99 59 be e2 2e b1 3e c1 43 4b bf 68 d8 4c bf
       -0.21249841 0.3460608 -0.7940026 -0.8001771
0003e0 ea 97 dd 3c 91 8d 25 bf c7 b8 9b be 93 22 da be
       0.027049977 -0.6466914 -0.3041441 -0.42604503
0003f0 f8 f8 5d 3e 6a 1d 8a bd 63 0a 13 bf 1a 30 1d bf
       0.21677005 -0.067438915 -0.57437724 -0.6140152

temporal.rnn.weight_hh_l1 f4 [128, 32]
000000 fa 3d 9b 3e 06 84 0e 3f 5a 6d 86 3f 9c 90 ed 3c
       0.30320722 0.556702 1.0502121 0.02899962
000010 a4 9c 15 3f cf 50 9e bd 92 e8 5f 3d 09 c7 a7 be
       0.5844214 -0.07730257 0.054665156 -0.3276904
000020 be c4 cd 3e ed 62 85 be 00 a3 62 3f 1d 4e 05 be
       0.40189165 -0.26052037 0.8852997 -0.13018079
000030 0a c4 f3 3c e3 54 9b 3e 06 8e 00 3f ca f9 0e 3e
       0.029756565 0.303382 0.5021671 0.13962474
000040 33 b3 6a 3e 34 41 93 be 91 79 03 bf fa fb 6b be
       0.22919922 -0.28760684 -0.5135737 -0.2304534
000050 6e 39 22 3e 9a 9d a8 be fd d1 b9 be 48 10 ac bf
       0.1584222 -0.3293274 -0.3629302 -1.3442469
000060 c4 77 7e 3f 0c 10 49 3f 11 d3 36 bf f7 bf b2 3e
       0.994015 0.7854011 -0.7141581 0.34912083
000070 f4 43 d8 be ca 8c ae 3e a9 b6 1c 3e 1c 9c e2 be
       -0.42239344 0.3409179 0.15304054 -0.44259727
000080 3e c9 31 3e e5 b0 88 3e 27 32 b0 3e c1 60 b9 3e
       0.17361924 0.2669746 0.34413263 0.3620663
000090 b2 c8 98 3e 59 c3 42 bd c1 e8 63 3f 78 5a 04 bf
       0.29840618 -0.04754958 0.8902703 -0.51700544
0000a0 5d 72 50 3e 86 d0 99 be 72 5f 5c 3f 69 64 09 bf
       0.20356126 -0.30041903 0.8608314 -0.5366884
0000b0 6d 0c b7 bd 99 57 f8 3e 0d 5b 2d 3e e9 3e 46 bd
       -0.08937917 0.48504332 0.16929264 -0.04839984
0000c0 b1 a8 de 3e 72 ee e2 3d a7 58 b8 bd ac b4 19 bf
       0.43488076 0.11080636 -0.09001284 -0.6004131
0000d0 b6 83 43 3c 4c 4b 83 3e ff 49 c1 be 45 04 04 bf
       0.011933258 0.25643384 -0.37751767 -0.51569015
0000e0 ec 58 17 3f 18 1b 5f 3f 7d df 34 bf 11 a9 20 bd
       0.5912006 0.87150717 -0.70653516 -0.039223734
0000f0 5a 78 ba be 84 2a 03 3e 55 09 11 3f 70 ba b2 be
       -0.36419946 0.12809187 0.56654865 -0.34907866
000100 62 5f e3 be 57 68 df 3e 0b ec 81 be 46 de 2b bf
       -0.4440871 0.43634292 -0.253754 -0.6713604
000110 f8 04 72 3e 48 b8 30 be 6a 4b e9 3e 4e 10 42 3e
       0.23634708 -0.17257798 0.4556535 0.18951532
000120 05 d0 a7 be 02 75 57 3d ad 71 2e 3f a2 4c 31 be
       -0.32775894 0.05260182 0.68142205 -0.1731439
000130 cf d1 2f 3d be 52 15 3e 92 c8 01 3d 2f 17 95 bd
       0.0429247 0.14582345 0.03168542 -0.072798125
000140 1f c6 10 3f c1 0c 91 be 01 6c f1 3d e6 cc 17 3d
       0.5655231 -0.28330043 0.11788178 0.03706064
000150 8e dc ea be 56 5e 27 be 69 c6 0f 3f 48 fb 7b bd
       -0.45871395 -0.1634458 0.56162125 -0.061518937
000160 87 38 ac bd 5b ae 3f 3e 81 55 90 be 16 54 68 be
       -0.08409219 0.18718855 -0.28190234 -0.22688326
000170 10 b3 01 3f 6a 69 a5 bd d1 52 70 3e 5f 93 15 3f
       0.5066385 -0.08076747 0.23469092 0.58427995
000180 6a 4b 28 bf 3f 91 b1 be 3f f2 8a 3e e9 c7 79 3f
       -0.6574007 -0.34681126 0.27137944 0.97570664
000190 ed d1 d4 3e 97 f1 50 bf 31 bd 85 bd fb 80 82 3e
       0.4156641 -0.81618637 -0.06530226 0.2548903
0001a0 78 66 ba be 4e b7 8c 3e 7d 8e 8f bd a9 bb 8c 3d
       -0.36406302 0.274836 -0.07009599 0.06871731
0001b0 89 c8 6f bf c8 95 d9 be 58 31 25 bf ac f1 1f bf
       -0.9366537 -0.42497087 -0.6452842 -0.62478137
0001c0 3c 94 8b be 5d c0 0e 3f 8c 58 dc 3c 23 a1 2d be
       -0.2726153 0.55762273 0.026897691 -0.16956
0001d0 a9 ba f0 3e 94 be 69 be 5a ef 2f 3f a3 31 95 bd
       0.4701741 -0.22826606 0.68724597 -0.07284858
0001e0 25 7b b3 be 4f 3f 58 3d e1 88 c5 3e ed ba 85 be
       -0.3505489 0.05279475 0.38580993 -0.26119176
0001f0 1e a8 b6 bd 33 50 f6 be da 61 c8 be 40 3b c9 bd
       -0.089187846 -0.48108062 -0.39137155 -0.09825754
000200 03 62 2c be ec 96 0f bf a6 36 9f bf c6 c0 a9 3d
       -0.16834264 -0.56089664 -1.2438552 0.08288722
000210 e9 e1 47 be 30 e9 2a bf d8 82 e0 3d 8d aa c8 3e
       -0.19519772 -0.66762066 0.109624565 0.3919262
000220 17 81 95 bd 07 12 52 3e 22 b3 96 be be 4d 42 be
       -0.073000126 0.2051469 -0.29433542 -0.18974969
000230 c0 4a e8 bc 47 70 03 be b8 81 9e 3e c7 34 55 be
       -0.028355956 -0.12835799 0.30958343 -0.20820914
000240 4d 97 55 3e 63 21 e2 3e 46 ac a9 be e1 56 83 be
       0.20858498 0.44166097 -0.33139247 -0.2565222
000250 a1 46 7b 3e 05 0d 17 bf 4e 71 f8 3d f7 c8 96 3f
       0.24538662 -0.5900424 0.12130986 1.178008
000260 b7 86 1f 3e 4d dc 0e be b3 0a ad 3e 27 7b 27 be
       0.15578733 -0.13951226 0.33797225 -0.16355573
000270 63 43 05 3e a8 09 35 bf ec 72 59 3e 1d 85 32 3e
       0.13013987 -0.7071786 0.21235245 0.17433591
000280 1b 2b 44 be ff 42 26 3e 93 16 ee be ea f2 9e 3e
       -0.19157068 0.16236494 -0.46501598 0.31044704
000290 d3 38 28 be f8 f9 b7 3e e2 c8 41 bf f1 38 32 3f
       -0.16427927 0.359329 -0.7569715 0.69618136
0002a0 97 81 51 bf f8 2a 71 3f 22 a8 63 3d dc f1 62 be
       -0.81838363 0.9420619 0.055580266 -0.22162575
0002b0 e7 93 88 bc 8b 2c 90 3e f0 46 2f 3e 11 eb aa be
       -0.016672088 0.28158984 0.17116904 -0.33382466
0002c0 e9 a7 8f 3f 7c df 0b be e3 bb 38 bd eb 69 16 bf
       1.1223117 -0.13659471 -0.045101058 -0.5875537
0002d0 a8 82 14 be 82 db 62 3e 96 ca 92 bd f7 e8 db be
       -0.14502966 0.22154048 -0.071675465 -0.42951176
0002e0 89 1d 01 3f 95 64 a6 3d ce 53 38 be e3 92 72 bf
       0.5043569 0.08124653 -0.18000719 -0.9475538
0002f0 eb 21 8a 3e 83 72 1b 3f a6 be 6c 3f c4 e3 1f 3f
       0.26979002 0.60721606 0.92478406 0.6245692
000300 d2 5b 1f bf 34 ef 04 bd 44 bd c0 3e 9d da 97 3e
       -0.6224948 -0.032454684 0.37644398 0.29658976
000310 9d e4 49 3f 5c 9c b6 be b2 0d 13 3d ed f9 dd 3e
       0.7886446 -0.35666168 0.035901733 0.4335474
000320 e8 f5 51 bf ac 05 6f 3f d1 90 ee be 49 ab a4 3e
       -0.8201585 0.9336803 -0.4659486 0.3216193
000330 28 c7 ee be 58 78 34 bd 8a ab ac be 17 3a 94 be
       -0.4663632 -0.04406008 -0.33724624 -0.2895057
000340 79 dc 15 3d 60 9f c8 3e d5 f5 c2 3e 2a cd d3 be
       0.036587212 0.39184093 0.3807818 -0.41367465
000350 ed 7f 1f 3e f0 3a d8 bd fe dc 04 bf 68 69 25 be
       0.15576144 -0.105581164 -0.5189971 -0.1615349
000360 37 bb 3d 3e 47 fd 1e bf af 92 f8 3e 84 a0 42 bf
       0.18528448 -0.6210522 0.4854941 -0.7602618
000370 7b e5 5b 3e 72 83 9e 3e 31 6d c8 3e dd f0 c7 3e
       0.21474259 0.3095966 0.39145806 0.39050952
000380 97 36 30 3e 08 9b 09 3f 45 02 ae 3e b7 bc 70 bd
       0.17208324 0.53752184 0.33986107 -0.058773722
000390 68 4e 33 3f a9 db 9b be 41 6e 98 bf f2 22 f9 3d
       0.70041513 -0.30441025 -1.1908647 0.121648684
0003a0 58 99 c5 bd 64 34 e6 3e 0c 0a 5e 3f e2 02 b4 bd
       -0.096483886 0.44961846 0.8673408 -0.08789612
0003b0 b2 63 ec be 64 76 0a 3e 0e 3c 26 3f 37 86 c1 3d
       -0.4616981 0.13521725 0.64935386 0.094494276
0003c0 6d c6 0b 3f 21 19 55 3f 6e 4d 75 3e 3e a7 0d 3a
       0.5459965 0.8324147 0.23955318 0.0005403644
0003d0 68 69 27 3d b2 f3 c2 bc cb 40 01 3f ac 1b 1f bf
       0.040872008 -0.023797844 0.5048949 -0.621516
0003e0 67 9a bd 3e 81 6d fa 3e 79 67 7e be 6f 6a 13 bf
       0.37031862 0.4891167 -0.24844159 -0.5758428
0003f0 ac 36 1c 3e 72 69 82 be 83 07 31 3f 30 63 c4 3e
       0.1525523 -0.25471073 0.69152087 0.38356924

temporal.rnn.bias_ih_l1 f4 [128]
000000 28 c4 53 be 84 fc 12 be b0 26 c0 3c 42 e6 9b 3e
       -0.20680296 -0.1435414 0.023455948 0.3044911
000010 f8 43 30 be ee 3e f4 be e4 8f e9 be e7 32 f3 3d
       -0.17213428 -0.47704262 -0.45617592 0.11874943
000020 08 15 3f be d8 64 72 be e0 1c 10 be 29 72 ec bc
       -0.18660367 -0.23671281 -0.14073515 -0.02886303
000030 fd 44 85 bd 19 c8 93 be 25 cd 1e be 97 dd 61 be
       -0.06507299 -0.288636 -0.15507944 -0.22057186
000040 47 1f 97 3e 98 38 8f 3b fd 08 45 be ff f6 1d 3f
       0.2951605 0.00437076 -0.1924171 0.6170501
000050 ce 75 5e be 3a d7 46 3e e2 aa 93 be 71 f8 02 bf
       -0.21724626 0.1941804 -0.2884131 -0.5116034
000060 43 f0 81 3d eb 17 08 be e1 e5 a2 be 31 61 28 3e
       0.063446544 -0.13290374 -0.3181601 0.16443326
000070 ab 45 d8 be e3 18 c2 bd f9 51 05 3d b3 16 fd be
       -0.42240652 -0.09477403 0.03254888 -0.4943138
000080 a9 d0 46 be 9f 8c 20 be a1 a8 f6 3d 8c 65 a3 3d
       -0.19415535 -0.15678643 0.12043882 0.07978353
000090 72 a1 29 3e 45 44 2b 3f 1b ba 23 3f 45 65 90 3e
       0.16565493 0.66901046 0.6395585 0.28202263
0000a0 92 62 e1 3e 1e d6 25 3f 60 f7 04 be f2 c1 07 bf
       0.44020516 0.6477984 -0.12984991 -0.5303031
0000b0 dc 4b 22 3e 90 d3 42 be 63 a8 2e 3f 39 30 89 3e
       0.1584925 -0.19026017 0.6822569 0.26794603
0000c0 d8 dd 9d 3d 52 63 06 3f 10 d6 b6 be 41 12 b2 3f
       0.07708329 0.524953 -0.35710192 1.3911821
0000d0 b2 f2 7e 3e 0c 6d 13 be 77 65 94 3e c2 5d 0e 3f
       0.24897268 -0.14397067 0.28983662 0.55611813
0000e0 62 ae 12 3e 9a a9 f8 be c9 35 b3 be 29 4e b0 3e
       0.14324334 -0.48566896 -0.35001972 0.3443463
0000f0 4a d2 f5 be b3 fb 88 3e 2f 0a 8c be 24 a4 b2 3e
       -0.48012 0.2675453 -0.2735152 0.34890854
000100 02 3b 9f 3e c5 cb dc 3e 43 71 a5 3e dd 85 1f 3f
       0.31099707 0.43124214 0.32312974 0.62313634
000110 55 95 20 bc e8 e7 85 3e 14 92 31 bf 7b c5 a3 be
       -0.0098012285 0.26153493 -0.6936352 -0.31986603
000120 0d de ab 3e 90 b1 7b be c2 63 7a 3d 76 b5 9a 3e
       0.3356785 -0.24579453 0.061130293 0.3021657
000130 37 57 a2 bd 0c 1d fd 3d d5 fa c2 3d c7 6f 02 be
       -0.07926791 0.12359056 0.09520499 -0.12737952
000140 a6 95 42 be 40 d0 bb 3e 66 b9 a7 bd 93 b9 2e 3f
       -0.19002399 0.3668232 -0.08189659 0.68251914
000150 eb 0f 10 bd 32 e2 0c 3f 4f d5 a1 3e 2f d5 db 3d
       -0.03517143 0.55032647 0.31608054 0.10734021
000160 c5 3a d6 bd 6a 48 84 be e9 c2 4c be 7c c0 23 3d
       -0.10460428 -0.25836498 -0.19996227 0.03997849
000170 6a f2 ea 3e 95 a0 96 3c a1 e9 09 bd 55 51 24 bd
       0.45888072 0.018387118 -0.03367007 -0.040116627
000180 dd 37 8a be 76 2f cf be 1d 53 70 3e 33 75 3d 3e
       -0.26995745 -0.40465897 0.23469205 0.18501739
000190 75 26 b2 3e bb 71 3b 3e b4 b1 4a 3f a7 7d de 3e
       0.34794965 0.18305103 0.79177403 0.4345524
0001a0 d3 0c 05 3f 3b 98 9c 3e d3 cf 29 be 3d 65 3a bd
       0.51972693 0.30584893 -0.16583185 -0.045506705
0001b0 5a 6e 21 3d e5 5a 38 bd 62 77 c7 3d 44 fb ab bd
       0.03941188 -0.04500856 0.09739567 -0.083975345
0001c0 81 96 9e 3d c6 b2 6b 3e 57 d8 1e be cb 20 28 3e
       0.0774355 0.23017415 -0.15512215 0.1641876
0001d0 a1 b2 07 be 46 c5 3a 3e 95 d6 f8 bd ae 8c 78 3e
       -0.13251735 0.18239316 -0.12150303 0.24272415
0001e0 cf ad 88 3d 20 1a 85 be cc 93 08 bf 6f 37 4a 3e
       0.06673776 -0.25996494 -0.5335052 0.19747709
0001f0 f7 49 02 bf 34 1c a3 3e 97 b4 95 3d 5c 3e 1d 3e
       -0.5089411 0.31857455 0.073098354 0.1535582

temporal.rnn.bias_hh_l1 f4 [128]
000000 ee aa c5 be d8 04 41 3d 3a 0b a4 3d 29 3b 12 3f
       -0.38606972 0.04712376 0.08009954 0.5712152
000010 c9 27 fb bd 74 ac e6 be ca 8e ec be 69 7b e9 bd
       -0.12263448 -0.45053446 -0.4620269 -0.11400492
000020 d3 59 b6 bd 04 4d 53 be c1 31 5b be c6 ea 9c 3d
       -0.08903851 -0.20634848 -0.21405698 0.07661967
000030 f0 75 bf bc 0d 26 05 bf 72 87 0f be 6e bb 80 be
       -0.023371667 -0.52011186 -0.14016512 -0.25142998
000040 93 4c 6b 3e e7 74 70 bd 48 aa 24 be 44 3b 12 3f
       0.2297843 -0.058705237 -0.16080582 0.5712168
000050 c1 2d c8 be 19 b6 e8 3c 2e f6 c2 be a7 40 19 bf
       -0.39097407 0.028407143 -0.38078445 -0.59864277
000060 92 a9 49 3d 6d 08 2a be 37 62 21 bf 39 61 26 3e
       0.04923398 -0.16604777 -0.6304049 0.16248025
000070 0b 80 d3 be 38 ee 4b 3c 7b c5 c8 3c eb f4 fc be
       -0.41308627 0.0124469325 0.024508229 -0.49405608
000080 77 2d c7 bd c4 a4 e2 bd b5 b3 27 3e 7b c4 8a 3e
       -0.097254686 -0.11066583 0.16377147 0.27103028
000090 b9 14 26 3e 31 db ce 3e d9 90 d0 3e 7a 02 aa 3d
       0.16218843 0.40401605 0.4073551 0.083012536
0000a0 01 37 fd 3e af 3d 2e 3f ff b9 ca bd 05 4b b0 be
       0.49456027 0.6806287 -0.09898757 -0.34432235
0000b0 92 59 c2 bd 03 2b 37 be a6 76 2b 3f da b7 cc 3e
       -0.094897404 -0.17887501 0.6697792 0.39984018
0000c0 97 b7 f0 bd 7a e5 9a 3e ff 0e cc bd 29 56 a6 3f
       -0.11753767 0.30253202 -0.09963798 1.2995044
0000d0 86 f5 55 3e df d1 c6 be f0 5e 9a 3d b9 df ca 3e
       0.20894441 -0.38831994 0.07537639 0.39623812
0000e0 02 88 9c 3e e9 5b ba be 93 40 0b bf f5 b3 18 3f
       0.30572516 -0.36398247 -0.5439541 0.5964959
0000f0 ef ae ee be aa 23 9d 3e 61 95 e5 be 3f f3 eb 3d
       -0.4661784 0.30691272 -0.4484053 0.11521005
000100 be b8 01 3e 07 74 8c 3e 2d 74 ff 3c 5a 84 59 3f
       0.1266813 0.27432272 0.031183327 0.8496758
000110 44 ac 2e be 9a d8 a4 3d d1 f1 ea be 82 87 ad be
       -0.17057902 0.08049126 -0.45887616 -0.33892447
000120 27 ff 82 3e 7d b2 e3 be 0c 9f 14 3e a8 80 b6 3c
       0.2558529 -0.44472113 0.14513797 0.022278145
000130 98 80 10 3d e1 1a 0a be 24 03 11 be 3b e1 09 3d
       0.035278887 -0.13486816 -0.14161354 0.033662062
000140 cd 96 74 be 3a 23 0c 3e d0 e0 15 be e1 a9 3e 3f
       -0.23885651 0.13685313 -0.1463654 0.74477965
000150 42 94 b5 bd 1a 7d e9 3e 78 31 83 bc 38 cc 71 3e
       -0.088661686 0.45603257 -0.0160148 0.2361306
000160 3f 9e c9 3c 33 7e 01 be a7 e9 19 be f4 bc 03 bd
       0.02461159 -0.12645797 -0.15030538 -0.03216262
000170 b4 45 dd 3e 0d f9 13 bd 76 8f 5b be 2b 73 c7 bc
       0.43217242 -0.036126185 -0.21441445 -0.024346909
000180 4e 4f 92 be 64 6a b2 be e4 3a 95 3e f2 f1 1a 3e
       -0.2857613 -0.34846795 0.29146492 0.15131357
000190 f6 bb 2d 3e aa d6 cf 3e 84 8f 3b 3f 70 9e d7 3e
       0.16966233 0.40593463 0.7326586 0.42113066
0001a0 4f d2 05 3f 5e df bd 3e 3d a9 95 be b6 3d 5b bb
       0.5227403 0.37084478 -0.2923068 -0.003345353
0001b0 e3 1d 1c be 16 94 65 bd ac dd da 3b 64 ef 0e 3e
       -0.15245776 -0.05604943 0.0066792574 0.13958508
0001c0 d6 c8 c5 3d 05 fa 93 3d 6b e0 0e bd ee 62 9d 3e
       0.09657447 0.07225422 -0.03488199 0.3073954
0001d0 60 6e ae 3c 6b 4e 8d bd e0 4c 47 be 91 08 10 3d
       0.021292865 -0.06899723 -0.19462919 0.03516442
0001e0 92 a6 5f 3d a3 a2 02 bf 3a 1c d2 be 6e d1 e2 3e
       0.054602213 -0.51029414 -0.4103716 0.44300407
0001f0 c4 81 b2 be ea 99 35 3b 58 8f 04 3e b3 94 cf 3e
       -0.34864628 0.0027710148 0.12945306 0.40543136
