notebook/output/rolling_models_dynamic/window_13.pth (torch, 479802 bytes, 99 tensors)

temporal.input_proj.weight f4 [32, 7]
-1.0093262 1.7974981 2.7239861 -0.2564408 -0.030795742 0.024511864 -0.04011617 1.5405777
2.0970678 2.9788563 -0.27780682 -0.21489799 0.19402035 -0.0070919134 0.89125896 -0.098959275
-1.9538448 -0.15553556 0.3160226 -0.24499315 0.053742576 4.0523925 3.2250652 2.8399878
-0.34064493 -0.1662295 0.019400932 0.015178985 0.5541869 0.9703379 0.4804918 0.20327306
-0.043356437 0.20817515 -0.2678321 -1.6895725 2.1792476 3.2146204 0.3691065 -0.38597128
0.24434464 -0.084307425 -4.0755067 -1.1503476 0.3130155 0.21537057 -0.18807542 -0.14447825
-0.10388326 -3.8427575 -0.15714447 2.162878 -0.063980445 -0.07755493 0.049529493 -0.09187055
-6.422225 -2.6288617 -1.1818055 -0.16806732 0.012806125 -0.552237 -0.07740245 0.3749789
-0.5500657 -1.0673608 -0.366825 0.204795 -0.3204596 0.30132905 -0.9659484 0.47439525
1.754765 0.23153228 -0.015621088 -0.060116883 -0.009659412 0.9971852 -0.9503961 -0.47936106
-0.25039002 0.03643474 -0.06512723 -0.046966393 -2.388282 -2.3341308 -3.4422314 -0.12380724
-0.16027753 0.18161018 -0.003538406 0.89397323 -1.0647378 -2.3937619 -0.066184856 -0.22787832
0.21342395 -0.055224612 -4.1211677 -2.2407846 -1.9362558 0.09671846 -0.20227188 0.20960534
-0.0136157395 -3.3043966 -2.5503461 -2.8680089 -0.11841163 0.098991916 -0.0027118162 -0.0036767144
2.6750846 0.055705618 -0.04616491 0.009696014 -0.10314686 -0.15036814 -0.24246596 -0.839139
-0.63928354 0.20472816 -0.34979486 -0.1464198 -0.03167842 0.037562117 1.7629653 -1.9865088
-1.6689293 0.15013212 0.009918919 -0.078657806 -0.021096278 1.5103565 2.5183659 2.910555
-0.2572567 -0.29360765 0.12538314 0.030279668 0.44048554 -1.5433394 -2.663114 0.006261509
-0.030303799 -0.03785033 0.03733939 2.3371072 -1.5296123 -2.0053043 -0.0017824951 0.046362665
-0.07102674 -0.04070457 -0.13445622 1.4139357 2.106703 0.10533081 -0.1403909 -0.042499814
-0.07671032 -0.83401287 -1.8248571 -2.793893 -0.13638212 0.11115179 0.33851483 -0.03759484
-2.8138905 -0.7202892 -2.2249608 -0.056208048 0.02259295 0.4427445 -0.07628746 -1.9732579
0.79805285 1.3380998 0.2621159 -0.026639823 -0.053581376 0.00036605896 -1.3131651 -0.4995445
-1.4322056 0.18548433 -0.4479968 0.4159493 -0.031905413 2.0108926 -0.47664556 -1.707401
0.02283906 0.4129389 0.19120815 -0.06974054 3.7134786 2.677378 3.4175994 0.19624558
0.09619084 -0.2891088 -0.0081429565 -3.3712547 -0.91515285 1.0404335 0.094399154 -0.014442219
-0.17506337 0.031045115 4.1282506 2.0965126 -0.32514125 0.17948271 0.081033766 -0.022492541
-0.019948734 1.0565819 -0.075110145 -1.0061841 0.21380596 -0.28962964 0.107028954 0.009747755
00000000: 9a31 81bf 6b14 e63f ca55 2e40 354c 83be
00000010: 5a47 fcbc 1bcd c83c da50 24bd a631 c53f
00000020: 5c36 0640 95a5 3e40 b23c 8ebe 380e 5cbe
00000030: 45ad 463e 4863 e8bb 8c29 643f 29ab cabd
00000040: 9617 fabf b744 1fbe b7cd a13e 7cdf 7abe
00000050: 2d21 5c3d 33ad 8140 7867 4e40 5cc2 3540
00000060: 0369 aebe 1138 2abe b4ee 9e3c 47b1 783c
00000070: 31df 0d3f 1168 783f 0503 f63e d026 503e
00000080: 8596 31bd de2b 553e 4a21 89be e943 d8bf
00000090: cb78 0b40 57bc 4d40 87fb bc3e 079e c5be
000000a0: 7b35 7a3e 5fa9 acbd 8d6a 82c0 973e 93bf
000000b0: 9143 a03e 1a8a 5c3e d896 40be 1bf2 13be
000000c0: bfc0 d4bd bdef 75c0 7bea 20be 986c 0a40
000000d0: 2e08 83bd 1ed5 9ebd 70df 4a3d a026 bcbd
000000e0: de82 cdc0 453f 28c0 6745 97bf d719 2cbe
000000f0: c8d0 513c 675f 0dbf 2d85 9ebd 3cfd bf3e
00000100: 1bd1 0cbf 479f 88bf 7dd0 bbbe c8b5 513e
00000110: 4813 a4be cd47 9a3e 6548 77bf efe3 f23e
00000120: 249c e03f cc16 6d3e 98ef 7fbc 1f3d 76bd
00000130: 8342 1ebc 8747 7f3f 294d 73bf d06e f5be
00000140: 1f33 80be 983c 153d 6d61 85bd d55f 40bd
00000150: 9dd9 18c0 6662 15c0 854d 5cc0 a68e fdbd
00000160: cb1f 24be 05f8 393e 9ae4 67bb 6edb 643f
00000170: 5449 88bf 6533 19c0 ed8b 87bd ef58 69be
00000180: cf8b 5a3e 3433 62bd 9be0 83c0 0469 0fc0
00000190: 3bd7 f7bf 5414 c63d 5c20 4fbe c8a2 563e
000001a0: 8d14 5fbc 3c7b 53c0 df38 23c0 758d 37c0
000001b0: cc81 f2bd 46bc ca3d bab8 31bb 08f5 70bb
000001c0: 9634 2b40 932b 643d 6b17 3dbd 08dc 1e3c
000001d0: a93e d3bd 1bfa 19be ff48 78be d0d1 56bf
000001e0: 16a8 23bf 42a4 513e 5018 b3be 12ef 15be
000001f0: 3bc1 01bd bcda 193d d9a8 e13f ec45 febf
00000200: 7a9f d5bf 3cbc 193e f682 223c 5817 a1bd
00000210: 1ad2 acbc 5d53 c13f e82c 2140 8846 3a40
00000220: 26b7 83be be53 96be 7064 003e 110d f83c
00000230: 5287 e13e 258c c5bf 7670 2ac0 582d cd3b
00000240: ac3f f8bc f308 1bbd 30f1 183d 2a93 1540
00000250: 56ca c3bf e856 00c0 9ca2 e9ba c7e6 3d3d
00000260: 7876 91bd d6b9 26bd e4ae 09be d8fb b43f
00000270: 39d4 0640 aeb7 d73d a2c2 0fbe 4914 2ebd
00000280: 4d1a 9dbd de81 55bf eb94 e9bf 25cf 32c0
00000290: c1a7 0bbe 8da3 e33d d151 ad3e 0cfd 19bd
000002a0: c816 34c0 df64 38bf c265 0ec0 693a 66bd
000002b0: da14 b93c 68af e23e 9a3c 9cbd b793 fcbf
000002c0: 314d 4c3f db46 ab3f 0e34 863e c23b dabc
000002d0: 2578 5bbd 9aeb bf39 cb15 a8bf 4cc4 ffbe
000002e0: 8352 b7bf 9bef 3d3e d65f e5be 4ff7 d43e
000002f0: 40af 02bd 77b2 0040 e30a f4be 1e8c dabf
00000300: fb18 bb3c ba6c d33e 12cc 433e 21d4 8ebd
00000310: a2a9 6d40 295a 2b40 f3b9 5a40 9af4 483e
00000320: b4ff c43d 1206 94be 096a 05bc a3c2 57c0
00000330: 7547 6abf ed2c 853f 5854 c13d 0f9f 6cbc
00000340: d043 33be 5352 fe3c a11a 8440 432d 0640
00000350: ea78 a6be 51ca 373e 08f5 a53d 4742 b8bc
00000360: 876b a3bc 133e 873f 59d3 99bd a4ca 80bf
00000370: f3ef 5a3e 564a 94be ff31 db3d 0cb5 1f3c

temporal.input_proj.bias f4 [32]
-0.019781526 -0.0027138903 -0.5593407 0.19237363 -1.0191064 0.3381664 0.30683225 0.80545515
-0.31261185 -0.10540454 -0.010091049 0.020651363 -0.24372517 -0.13747327 -0.4416343 -0.42084846
-0.49243632 0.4797538 -0.1222124 0.5466379 0.005948736 -0.29415777 0.68238163 0.002839338
0.5394275 -0.31217602 0.1421544 -0.66144836 0.03348206 0.44682482 -0.7433298 -0.28054115
00000000: de0c a2bc 86db 31bb f430 0fbf 98fd 443e
00000010: 1472 82bf 2524 ad3e 1e19 9d3e 4f32 4e3f
00000020: a90e a0be 56de d7bd ed54 25bc 0c2d a93c
00000030: 1793 79be cbc5 0cbe e41d e2be 7379 d7be
00000040: 9d20 fcbe 4aa2 f53e 7f4a fabd 76f0 0b3f
00000050: 9ded c23b d99b 96be 90b0 2e3f 3014 3a3b
00000060: ec17 0a3f 89d5 9fbe ec90 113e ae54 29bf
00000070: 7c24 093d 39c6 e43e dd4a 3ebf 17a3 8fbe

temporal.layer_norm.weight f4 [32]
1.1253066 1.0060091 0.99289644 1.5012645 0.73781383 0.87108886 0.5723013 1.0887969
1.1606674 0.394412 1.001959 1.1182721 1.0374348 1.4399986 1.2026759 0.8575081
0.8062915 0.8151156 1.409675 0.99607515 0.9005686 2.0942252 1.157563 0.78744197
0.6371215 1.3999496 1.1627951 0.8939933 1.2248099 1.0574 1.1114113 0.60486615
00000000: 0c0a 903f e8c4 803f 762e 7e3f 6f29 c03f
00000010: 5ee1 3c3f aeff 5e3f 5782 123f b25d 8b3f
00000020: c090 943f 5ff0 c93e 3140 803f 8a23 8f3f
00000030: aaca 843f e051 b83f 49f1 993f a785 5b3f
00000040: 1f69 4e3f 6aab 503f 3b70 b43f c8fe 7e3f
00000050: aa8b 663f c907 0640 062b 943f cc95 493f
00000060: 651a 233f 8c31 b33f 78d6 943f bfdc 643f
00000070: 92c6 9c3f e258 873f ba42 8e3f 82d8 1a3f

temporal.layer_norm.bias f4 [32]
-0.1480813 -0.4592217 0.5701913 0.0036852667 0.61965704 -0.7659357 -0.1878613 -0.65804213
-0.4583942 0.5360096 -0.223396 -0.19981456 -0.0011609076 -0.2619159 -0.018150179 -0.12741278
0.31649762 0.46060348 0.23344399 -0.5337647 0.5881647 0.03681352 0.09864271 -0.15295778
-1.0032011 0.29330572 0.25331953 -0.3826648 0.07790117 -0.48744598 0.48436084 0.9773459
00000000: a0a2 17be 1b1f ebbe 0ff8 113f 8484 713b
00000010: d8a1 1e3f 5d14 44bf b65e 40be 7375 28bf
00000020: a5b2 eabe ed37 093f ecc1 64be 309c 4cbe
00000030: 9829 98ba d719 86be afaf 94bc 7f78 02be
00000040: fa0b a23e 38d4 eb3e f10b 6f3e cea4 08bf
00000050: f691 163f c6c9 163d 3005 ca3d f7a0 1cbe
00000060: e568 80bf 2b2c 963e 19b3 813e a4ec c3be
00000070: a68a 9f3d 8592 f9be 25fe f73e 5733 7a3f

temporal.rnn.weight_ih_l0 f4 [128, 7]
-1.0678233 -1.068284 -1.2113929 -1.0512265 0.24739641 0.30192515 -0.9054295 -1.008678
-0.757033 -0.82565147 -0.72809947 -0.41003016 -0.46114692 0.34021464 -0.7388685 -0.72758514
-0.74856293 -0.58989817 -0.6683316 -0.84203076 0.3073782 0.26864392 0.32516548 0.19717981
0.20352723 0.84615475 0.48797995 0.19767967 0.29096717 0.2632903 0.17730823 0.16937494
0.12510599 0.3223933 0.07237709 -5.400908 -4.5822086 -4.9814954 -5.7664104 -0.11031285
-0.2862748 -0.03689606 -0.15620674 -0.17609419 -0.113575846 0.09589403 0.06913762 0.026926
0.0820374 0.39954463 0.62603474 0.31755888 0.643787 -0.22750352 -0.24765453 0.087306134
-1.3490201 -1.6546332 -1.5544987 -1.9784955 -0.6082719 -0.5429931 0.12290747 -0.92707366
-0.7146303 -1.3902918 -1.279954 -0.18168733 -0.31139234 0.0008228342 -0.84361815 -0.7796904
-1.0920933 -1.0046238 -1.1195338 -0.9587792 0.011387664 -0.573035 -0.307506 -0.26340142
-0.3883524 -0.37849662 0.0010551653 0.62575716 0.49402994 0.16428706 0.560851 0.5736849
-0.5222797 -0.65517354 0.22589251 -1.0395226 -2.6021566 0.08040192 -1.021547 0.18499562
-0.6792673 0.26685137 -0.66596615 -0.34731153 -0.65950763 -0.55997866 -0.6190788 -0.473386
-0.30815852 -0.8404814 -1.9600425 0.87378424 -0.8394015 -0.63356656 -0.502888 0.09772442
-0.0797441 0.12149474 -0.15144743 -0.30877635 0.43791384 0.28522047 0.21695043 -0.70526445
-0.46293154 -0.66039395 -0.8370204 -0.785269 -1.0607919 0.13377339 -0.6350053 -1.1005231
-0.7308991 -0.8757366 0.20908354 -0.043153323 0.25085792 -0.98355156 -0.62863404 -0.090310626
0.3716262 -0.07596907 -0.04873495 0.03801627 0.8743637 0.616993 1.1810211 0.8155805
-0.4296075 -0.6111604 0.49164215 0.054253608 0.13735957 -0.25828892 0.072553664 0.40633819
0.23677896 0.10485654 -1.3351363 -1.2939941 -1.4679847 -1.2604103 -0.5025755 -0.13158037
-0.4978198 -0.37575328 -0.46959835 -0.6548584 -0.58455753 -1.110197 -1.0544411 0.0716634
-0.26707092 -0.8287499 -0.0019048186 -0.62219775 0.30565444 0.15205804 0.34072995 -0.55935395
-0.5425983 -0.5064409 -0.32970864 -0.10071381 -0.12988982 0.23585054 -0.6686575 -0.55074817
-0.68353415 -0.6120612 -0.6904028 -0.7327657 -0.24866404 -0.89404225 0.17426884 -1.0327724
0.027377916 0.1448021 -0.31912202 -0.008139662 0.61322737 0.90206087 0.8073802 1.0135353
-0.48693267 -0.34230655 0.017028857 -0.001980063 0.41806266 -0.43727732 -0.23321913 -0.26339042
0.20466535 0.03848352 -0.11699547 0.0071649444 -0.24103497 -0.29195306 0.11089313 0.20162268
-0.6010052 -0.6056448 -0.5038036 -0.63765985 -0.776696 -0.03864111 -0.08366349 -0.62327665
-0.30052513 -0.34040236 -0.72345424 -0.8752135 -0.44902083 -0.38182315 0.19241074 -0.8067888
-0.78899336 -0.7402404 -0.78352773 -0.26536414 -0.48457715 -0.21958981 -0.6017014 -0.716178
-0.927954 -0.88221204 -0.15211101 -0.17657115 -0.120758496 0.4986658 0.21127352 0.48047853
0.18106392 -0.14145821 -0.55964166 0.09068084 0.39792183 0.4160932 -0.16182739 -0.43676907
00000000: 6fae 88bf 88bd 88bf ec0e 9bbf 978e 86bf
00000010: 7c55 7d3e ef95 9a3e 3aca 67bf 5c1c 81bf
00000020: eacc 41bf e55d 53bf ba64 3abf 79ef d1be
00000030: 731b ecbe 9d30 ae3e 7c26 3dbf 0543 3abf
00000040: d2a1 3fbf 9103 17bf c817 2bbf 548f 57bf
00000050: ad60 9d3e b28b 893e 177c a63e 81e9 493e
00000060: 7169 503e 999d 583f 82d8 f93e 8a6c 4a3e
00000070: a6f9 943e fccd 863e 4a90 353e a070 2d3e
00000080: c91b 003e bc10 a53e 713a 943d 3dd4 acc0
00000090: 74a1 92c0 6968 9fc0 6f86 b8c0 b4eb e1bd
000000a0: 9c92 92be 5320 17bd a9f4 1fbe 0952 34be
000000b0: 749a e8bd 1764 c43d 0698 8d3d ea93 dc3c
000000c0: 3903 a83d 1d91 cc3e d043 203f 1497 a23e
000000d0: 3acf 243f aff6 68be 2699 7dbe 8fcd b23d
000000e0: b1ac acbf 05cb d3bf d0f9 c6bf 573f fdbf
000000f0: b5b7 1bbf 9901 0bbf e9b6 fb3d b354 6dbf
00000100: 03f2 36bf 15f5 b1bf 88d5 a3bf 3e0c 3abe
00000110: d16e 9fbe 78b3 573a 5cf7 57bf ca99 47bf
00000120: b7c9 8bbf 8397 80bf e24c 8fbf 8e72 75bf
00000130: 5393 3a3c 6cb2 12bf 6d71 9dbe 8ddc 86be
00000140: 20d6 c6be 4fca c1be 794d 8a3a 9f31 203f
00000150: 7ef1 fc3e de3a 283e ee93 0f3f 03dd 123f
00000160: 1fb4 05bf 74b9 27bf 5e50 673e 140f 85bf
00000170: bc89 26c0 c3a9 a43d 0dc2 82bf 7e6f 3d3e
00000180: 76e4 2dbf bea0 883e c27c 2abf d1d2 b1be
00000190: 7ed5 28bf c35a 0fbf f37b 1ebf a65f f2be
000001a0: f4c6 9dbe ca29 57bf ace2 fabf 53b0 5f3f
000001b0: 04e3 56bf 6b31 22bf 45bd 00bf be23 c83d
000001c0: e050 a3bd 3cd2 f83d 0915 1bbe ef17 9ebe
000001d0: 3e36 e03e 6b08 923e 4128 5e3e 368c 34bf
000001e0: 5d05 edbe 940f 29bf f846 56bf 6407 49bf
000001f0: 07c8 87bf e4fb 083e b58f 22bf f1dd 8cbf
00000200: 341c 3bbf 4630 60bf ff19 563e 8ac1 30bd
00000210: 7370 803e 09ca 7bbf 29ee 20bf c7f4 b8bd
00000220: ca45 be3e ac95 9bbd 4d9e 47bd f3b6 1b3d
00000230: 4dd6 5f3f 41f3 1d3f b32b 973f e2c9 503f
00000240: 84f5 dbbe 0275 1cbf 85b8 fb3e 0839 5e3d
00000250: fda7 0c3e 723e 84be 0497 943d 8f0b d03e
00000260: 2f76 723e 07bf d63d bfe5 aabf 99a1 a5bf
00000270: ece6 bbbf 2055 a1bf caa8 00bf 01bd 06be
00000280: 3de2 febe bc62 c0be 326f f0be cda4 27bf
00000290: 90a5 15bf ef1a 8ebf edf7 86bf 43c4 923d
000002a0: 85bd 88be f428 54bf 1bab f9ba 5a48 1fbf
000002b0: bd7e 9c3e 1ab5 1b3e 2874 ae3e d231 0fbf
000002c0: b9e7 0abf 1ca6 01bf 92cf a8be 0b43 cebd
000002d0: d601 05be ce82 713e 232d 2bbf d5fd 0cbf
000002e0: 18fc 2ebf 0bb0 1cbf 3dbe 30bf 8896 3bbf
000002f0: c9a1 7ebe f4df 64bf 8873 323e e331 84bf
00000300: a747 e03c 0047 143e f663 a3be 385c 05bc
00000310: 78fc 1c3f 76ed 663f 78b0 4e3f 86bb 813f
00000320: 3d4f f9be ce42 afbe 1a80 8b3c f2c3 01bb
00000330: 4f0c d63e d0e2 dfbe ffd0 6ebe 1cdb 86be
00000340: cb93 513e e5a0 1d3d 529b efbd e9c7 ea3b
00000350: dfd1 76be df7a 95be f01b e33d 2d76 4e3e
00000360: 7adb 19bf 8a0b 1bbf 46f9 00bf ad3d 23bf
00000370: 8dd5 46bf 2446 1ebd c457 abbd 0f8f 1fbf
00000380: 6ede 99be 3849 aebe 4c34 39bf fe0d 60bf
00000390: 0fe6 e5be 537e c3be 5207 453e b689 4ebf
000003a0: 78fb 49bf 6580 3dbf 4695 48bf cfdd 87be
000003b0: 7f1a f8be 27dc 60be 1a09 1abf 7157 37bf
000003c0: 658e 6dbf a6d8 61bf fdc2 1bbe 11cf 34be
000003d0: 3b50 f7bd 2051 ff3e 1658 583e 4801 f63e
000003e0: d268 393e 6cda 10be ad44 0fbf e0b6 b93d
000003f0: 69bc cb3e 2b0a d53e 14b6 25be 32a0 dfbe

temporal.rnn.weight_hh_l0 f4 [128, 32]
-0.08747203 -0.17200983 -0.32688084 -0.118994884 -0.1955558 0.82359153 -0.2771006 0.4833818
0.34600526 -0.55868924 -0.53243726 0.611251 -0.24560012 -0.6005241 -0.22432783 -1.3598278
0.3527755 -0.0670032 0.269377 -1.0902396 -0.7501058 0.29393646 0.27062976 -0.7342235
-0.021684391 -0.42652962 0.286988 -0.54736704 0.28644633 0.6260371 0.4357593 0.26581803
-0.35010022 -0.16015373 -0.052440938 0.47438002 0.24538852 -0.16603018 0.17610632 0.58800936
0.22738788 -0.27768645 0.1599079 -0.60898775 -0.43381986 -0.6145551 -0.5669918 -0.027400268
-0.34442523 0.45877436 0.1676461 0.12883908 0.2661702 -0.32011828 0.31921262 0.061142933
-0.14421703 0.31680453 0.7550466 0.8354426 0.33600754 -0.54873496 -0.026927609 0.6012703
-0.5130756 -0.18213445 0.22315641 -0.8137321 -0.39035493 -0.28891948 0.19824465 -0.28742617
-0.14224705 -0.13300864 0.43574637 0.19288236 0.40059114 0.40172455 -0.19732349 0.054668408
-0.09713801 -0.12763698 -0.04179042 0.043339126 -0.2056308 0.25912476 0.0037940876 -0.01880916
0.22591127 0.08208516 0.044648446 0.26411292 0.0588535 0.07733498 -0.313065 0.32293656
-0.8636629 0.27690077 -0.16295943 0.49530953 -0.25151554 -0.30622607 0.07547885 0.100790985
-0.40119597 -0.50298214 0.72467136 -0.072543435 0.42580873 -0.23267724 -0.7556742 0.12965018
-0.41065544 0.8556925 -0.109552704 0.24522771 -0.028718444 -0.8057642 -0.10648241 0.5430984
0.19118828 0.1632048 0.21387815 -0.03245216 0.094306864 0.026071163 0.28920132 0.3823713
-0.4931725 -0.41094232 0.009246748 -0.2873683 -0.09914094 0.70415217 0.2589905 0.12793994
0.9066784 -0.4746878 -0.6257936 0.28129926 -0.12922277 -0.4455911 -0.29368228 -0.90160555
0.33068556 -0.41793582 0.43523568 -0.34656715 -0.65927374 0.4676353 -0.2692546 -0.48009074
0.6771893 -0.44400588 -0.08369794 -0.5825757 0.43598405 0.82085 -0.28363124 0.27699476
0.9321184 -0.07568761 -0.052399624 -0.25931016 2.157496 0.7739753 -0.6849668 0.5580253
0.12797311 0.45231265 0.053730294 0.35128865 -0.80138904 -0.27615866 0.2311767 -0.02490155
0.37048534 -0.1396577 0.09513368 -0.19442233 -0.17151296 0.1719917 0.05943051 -0.47120768
-0.6949251 -0.0006558659 0.2817139 -0.264904 0.18660174 -0.53623366 -0.953659 -0.010695665
-0.42949367 0.1550517 0.0744001 0.058009334 0.17477462 0.111327715 -0.072352886 -1.2416178
0.5600749 -0.541876 0.29351258 0.08033234 0.25836682 -0.16292381 -0.5929012 0.46945402
0.12918155 -0.19318183 -0.49167183 0.271976 1.1811097 -0.5781141 -0.09045847 -0.12635337
0.36081582 0.119812444 -0.18461101 -0.50988454 -0.2813415 -0.4041141 0.47923675 -0.20876355
0.71008843 -0.2158849 0.48900062 0.05873409 0.48303065 0.28040022 -0.26765823 0.0041416385
0.5860381 -0.037748918 0.13369936 -0.23331566 0.1501284 -0.18263435 0.42432183 -0.058839448
0.15567142 -0.14692587 0.27202898 -0.122995295 -0.07980294 0.2848756 -0.29068086 -0.6188666
0.32891053 1.6122478 0.2630028 1.2441212 0.15464924 -0.25667536 0.19067618 -0.4733113
00000000: 8924 b3bd 5823 30be ed5c a7be 97b3 f3bd
00000010: c83f 48be e5d6 523f 21e0 8dbe d27d f73e
00000020: 9a27 b13e 4206 0fbf cf4d 08bf f27a 1c3f
00000030: 997e 7bbe f3bb 19bf 32b6 65be d60e aebf
00000040: fe9e b43e f938 89bd c8eb 893e f98c 8bbf
00000050: ef06 40bf d77e 963e fc8f 8a3e 12f6 3bbf
00000060: 77a3 b1bc 1762 dabe 17f0 923e 3f20 0cbf
00000070: 18a9 923e f843 203f d81b df3e 4d19 883e
00000080: 5640 b3be 57ff 23be 4fcc 56bd f0e1 f23e
00000090: 2147 7b3e d103 2abe 3755 343e c887 163f
000000a0: 5ed8 683e eb2c 8ebe e6be 233e 9fe6 1bbf
000000b0: a31d debe 7c53 1dbf 6026 11bf 8776 e0bc
000000c0: 8158 b0be 79e4 ea3e 6bab 2b3e 64ee 033e
000000d0: 7647 883e 8be6 a3be d66f a33e 0371 7a3d
000000e0: a1ad 13be 3434 a23e bc4a 413f 91df 553f
000000f0: 2e09 ac3e e579 0cbf 4a97 dcbc daec 193f
00000100: ec58 03bf 7481 3abe 1d83 643e bf50 50bf
00000110: 9adc c7be 41ed 93be a500 4b3e 8629 93be
00000120: 36a9 11be 6b33 08be 261a df3e f482 453e
00000130: 481a cd3e d7ae cd3e 2b0f 4abe fbeb 5f3d
00000140: 4bf0 c6bd 45b3 02be 6e2c 2bbd 5e84 313d
00000150: e190 52be 00ac 843e 3aa6 783b ab15 9abc
00000160: 4955 673e 441c a83d 4ae1 363d cf39 873e
00000170: 5e10 713d cd61 9e3d 0e4a a0be f157 a53e
00000180: 0319 5dbf f0c5 8d3e d6de 26be 3699 fd3e
00000190: a5c6 80be aac9 9cbe a894 9a3d 816b ce3d
000001a0: 8f69 cdbe 70c3 00bf 1084 393f a791 94bd
000001b0: 9a03 da3e f142 6ebe dd73 41bf 04c3 043e
000001c0: 6e41 d2be aa0e 5b3f 2b5d e0bd f91c 7b3e
000001d0: f142 ebbc 9046 4ebf 7313 dabd 7f08 0b3f
000001e0: dcc6 433e 291f 273e e002 5b3e 8eec 04bd
000001f0: f523 c13d 3193 d53c 3212 943e 2cc6 c33e
00000200: 1b81 fcbe 0867 d2be ac7f 173c f021 93be
00000210: 680a cbbd 5143 343f 679a 843e b002 033e
00000220: 131c 683f 480a f3be 0234 20bf 7506 903e
00000230: f952 04be 8424 e4be 865d 96be 9fcf 66bf
00000240: 9e4f a93e affb d5be 36d7 de3e 4071 b1be
00000250: 2ac6 28bf e56d ef3e bddb 89be 74ce f5be
00000260: 475c 2d3f bd54 e3be d369 abbd ae23 15bf
00000270: 4d39 df3e 3a23 523f 1d38 91be 42d2 8d3e
00000280: 509f 6e3f 1b02 9bbd fda0 56bd 4dc4 84be
00000290: 6a14 0a40 3f23 463f fc59 2fbf bfda 0e3f
000002a0: 620b 033e 8695 e73e 4c14 5c3d 1bdc b33e
000002b0: d527 4dbf ab64 8dbe 96b9 6c3e 56fe cbbc
000002c0: 41b0 bd3e 6e02 0fbe 72d5 c23d a616 47be
000002d0: 18a1 2fbe 981e 303e 686d 733d 2242 f1be
000002e0: 9de6 31bf 6aee 2bba ce3c 903e 7fa1 87be
000002f0: 8714 3f3e 9c46 09bf ff22 74bf df3c 2fbc
00000300: 98e6 dbbe dfc5 1e3e 145f 983d 329b 6d3d
00000310: 1ef8 323e c9ff e33d c02d 94bd 55ed 9ebf
00000320: 1261 0f3f 63b8 0abf 4847 963e 4885 a43d
00000330: a848 843e 80d5 26be 5fc8 17bf 475c f03e
00000340: 2b48 043e 75d1 45be 69bc fbbe 7040 8b3e
00000350: 9a2e 973f 49ff 13bf 4a42 b9bd c762 01be
00000360: dabc b83e 3a60 f53d ab0a 3dbe cb87 02bf
00000370: fe0b 90be 0be8 cebe 855e f53e 1dc6 55be
00000380: 5bc8 353f ee10 5dbe 4a5e fa3e 2893 703d
00000390: cb4f f73e 9e90 8f3e 800a 89be 95b6 873b
000003a0: 9806 163f 9c9e 1abd 7ce8 083e 4dea 6ebe
000003b0: 42bb 193e 8004 3bbe b640 d93e a201 71bd
000003c0: 5468 1f3e bc73 16be 6247 8b3e f5e4 fbbd
000003d0: b96f a3bd 37db 913e 1fd4 94be 0b6e 1ebf
000003e0: f666 a83e 235e ce3f 4ea8 863e 5d3f 9f3f
000003f0: 5f5c 1e3e f46a 83be 9e40 433e dc55 f2be

temporal.rnn.bias_ih_l0 f4 [128]
0.9058651 -0.32788742 0.06805963 0.1605625 0.07711432 -0.16272515 -0.28366238 -0.27712184
-0.011987975 -0.036822725 -0.44039765 -0.34374398 -0.14780548 -0.574016 0.12302745 -0.42328778
-0.31500724 -0.23213924 -0.52026534 -0.5064454 -0.43133715 0.17185648 -0.12245203 -0.40991327
-0.6130596 -0.10768951 -0.5782776 -0.33972487 -0.2898218 -0.2976439 -0.3600571 0.47416386
-0.58544886 -0.29381308 0.20025586 -0.122640334 -0.07995089 0.018348984 0.013652868 -0.079677254
0.0073704645 -0.09426682 0.16379662 -0.085624106 -0.17999817 0.29441553 -0.011587486 0.31344968
0.06082443 -0.14278704 0.41312447 -0.64580476 0.11819662 -0.33861828 0.010218453 -0.2941477
0.23375781 -0.06014739 -0.51936704 -0.27954873 -0.10905807 -0.22397894 -0.05467474 -0.63002175
0.052846268 -0.429034 0.19992092 -0.055929042 -0.02071229 0.3260201 0.20370486 0.17155899
0.1916218 0.06600083 -0.3777997 0.065847665 -0.059301376 -0.024910364 0.21905714 -0.25678512
0.03131195 -0.11871461 0.17934343 -0.26058742 -0.04357529 0.0015043706 -0.37025082 -0.09604788
0.12010161 0.08881046 -0.008290875 -0.11759999 0.3777727 0.24145599 -0.20587748 0.024402795
0.88998973 -0.29626793 0.001862968 -0.045589782 0.21382545 -0.1641825 0.2779471 -0.1128829
0.23527208 -0.03095571 -0.3925881 -0.33699024 0.0030782258 0.3574701 0.27569848 0.14312929
-0.13336751 0.020982947 -0.1103055 -0.52854633 -0.17411481 0.41359603 -0.4087203 -0.31767952
-0.1735248 -0.40126702 -0.20225368 -0.32296497 0.040652554 -0.032537878 0.24750102 0.29583868
00000000: c6e6 673f dce0 a7be d962 8b3d 7f6a 243e
00000010: 1dee 9d3d 6ca1 26be 323c 91be eae2 8dbe
00000020: 3669 44bc 6dd3 16bd cd7b e1be 36ff afbe
00000030: 525a 17be b6f2 12bf d1f5 fb3d 2db9 d8be
00000040: a148 a1be e9b5 6dbe 1c30 05bf 68a6 01bf
00000050: 39d8 dcbe 25fb 2f3e 21c8 fabd 27e0 d1be
00000060: 79f1 1cbf 518c dcbd 000a 14bf 6bf0 adbe
00000070: 8663 94be c864 98be 6759 b8be 9bc5 f23e
00000080: fadf 15bf ab6e 96be df0f 4d3e db2a fbbd
00000090: 4bbd a3bd 9c50 963c 47b0 5f3c d42d a3bd
000000a0: f083 f13b f60e c1bd 4dba 273e b15b afbd
000000b0: 7151 38be a2bd 963e 70d9 3dbc 7a7c a03e
000000c0: 0a23 793d c436 12be 0d85 d33e 7653 25bf
000000d0: 1211 f23d 605f adbe 4c6b 273c 879a 96be
000000e0: 355e 6f3e 1c5d 76bd 3df5 04bf 0321 8fbe
000000f0: d659 dfbd bc5a 65be 9ff2 5fbd 1b49 21bf
00000100: 5475 583d 58aa dbbe 12b8 4c3e da15 65bd
00000110: d2ac a9bc 1bec a63e 0298 503e 29ad 2f3e
00000120: 8138 443e 712b 873d f66e c1be 24db 863d
00000130: 00e6 72bd d210 ccbc 8450 603e 5779 83be
00000140: f640 003d a520 f3bd cea5 373e b76b 85be
00000150: 017c 32bd 4d2e c53a 8491 bdbe c0b4 c4bd
00000160: d5f7 f53d 42e2 b53d 73d6 07bc 43d8 f0bd
00000170: 6c6b c13e 3d40 773e 8cd1 52be 5fe8 c73c
00000180: 5ed6 633f 6eb0 97be d52e f43a 5abc 3abd
00000190: 0ff5 5a3e 751f 28be 154f 8e3e 262f e7bd
000001a0: 2aeb 703e d496 fdbc 4f01 c9be fc89 acbe
000001b0: 0fbc 493b 5206 b73e 5a28 8d3e 7c90 123e
000001c0: 7e91 08be 6ee4 ab3c dae7 e1bd d04e 07bf
000001d0: 274b 32be dcc2 d33e ca43 d1be e4a6 a2be
000001e0: 7cb0 31be df72 cdbe 971b 4fbe aa5b a5be
000001f0: 4b83 263d 7046 05bd e870 7d3e 2b78 973e

temporal.rnn.bias_hh_l0 f4 [128]
0.65849215 -0.20557176 -0.040361207 -0.13070948 0.089087754 -0.22698025 -0.4582779 -0.15483792
0.022644434 -0.31932873 -0.17472227 -0.44908035 -0.24063095 -0.466066 0.33317322 -0.6335754
-0.119621426 -0.3874662 -0.48747316 -0.48266837 -0.29466602 0.015111796 -0.1777809 -0.30622444
-0.32556406 0.008928066 -0.5094491 -0.29756543 -0.20287788 -0.42732075 -0.3338956 0.2172403
-0.45566696 -0.281947 0.3650759 -0.15259215 0.08798733 -0.07128502 0.11131286 0.04585191
0.02219192 -0.26059362 0.027003469 -0.027084075 -0.116941296 0.19865806 0.17430075 0.38815936
0.082183346 0.14153728 0.3749821 -0.851867 -0.08778341 -0.212925 -0.05331726 -0.13197355
0.2779372 -0.0966629 -0.35494953 -0.50222707 -0.26143816 -0.38726038 -0.21016459 -0.4289727
-0.02313704 -0.25660473 0.068685845 0.09935393 0.008160556 0.23728669 0.11705519 0.26502743
0.19054422 -0.10012375 -0.6759722 -0.032643974 0.06873746 0.025794677 0.17310466 0.0016026865
-0.013925898 0.16070388 0.00091558386 -0.21899188 0.043846287 0.12232306 -0.31168908 -0.0318863
0.30332738 -0.035092875 0.10649612 0.16644165 0.34575555 0.43046826 -0.34780428 0.035924587
0.6731356 -0.3192152 0.14757133 -0.028721666 0.40438643 -0.32806093 0.005401152 -0.079483844
0.19281471 -0.02612462 -0.34084523 -0.18793258 0.002452721 0.08794338 0.21800697 0.24024646
-0.06732441 -0.10941816 -0.3418122 -0.32605666 -0.16070217 0.18243472 -0.4673009 -0.44427782
-0.20547532 -0.30579227 -0.3478211 -0.3073272 0.18967287 -0.1248813 0.32629928 0.45528278
00000000: f192 283f 6781 52be cb51 25bd b5d8 05be
00000010: a473 b63d 836d 68be 67a3 eabe d58d 1ebe
00000020: d280 b93c 0e7f a3be 65ea 32be dced e5be
00000030: f667 76be 34a0 eebe ae95 aa3e ff31 22bf
00000040: 14fc f4bd f861 c6be 1596 f9be 4f20 f7be
00000050: 77de 96be 7797 773c 320c 36be 73c9 9cbe
00000060: 55b0 a6be 0647 123c 426b 02bf 7f5a 98be
00000070: 38bf 4fbe c9c9 dabe 5df4 aabe 3e74 5e3e
00000080: 2e4d e9be 5b5b 90be 3aeb ba3e 1e41 1cbe
00000090: b432 b43d e1fd 91bd fff7 e33d 36cf 3b3d
000000a0: d4cb b53c 876c 85be 6136 dd3c 6cdf ddbc
000000b0: eb7e efbd 056d 4b3e e57b 323e d3bc c63e
000000c0: be4f a83d 26ef 103e a7fd bf3e f513 5abf
000000d0: cac7 b3bd 0309 5abe 3363 5abd 1324 07be
000000e0: c94d 8e3e 33f7 c5bd f2bb b5be f491 00bf
000000f0: 39db 85be fe46 c6be 6335 57be 4fa2 dbbe
00000100: e489 bdbc b261 83be 2aab 8c3d 137a cb3d
00000110: dab3 053c 48fb 723e a2ba ef3d adb1 873e
00000120: 061e 433e ae0d cdbd 840c 2dbf b0b5 05bd
00000130: 3ac6 8c3d 5c4f d33c 5942 313e 3c11 d23a
00000140: 7329 64bc 8f8f 243e cb03 703a 683f 60be
00000150: 2a98 333d 8384 fa3d b695 9fbe 359b 02bd
00000160: ba4d 9b3e 8cbd 0fbd a31a da3d ae6f 2a3e
00000170: df06 b13e 5666 dc3e 6713 b2be a925 133d
00000180: 9d52 2c3f 2d70 a3be f01c 173e b349 ebbc
00000190: bd0b cf3e 9af7 a7be 26fc b03b 6dc8 a2bd
000001a0: 3871 453e 4d03 d6bc 4483 aebe 6671 40be
000001b0: d4bd 203b a91b b43d 383d 5f3e 2b03 763e
000001c0: 61e1 89bd a116 e0bd 0202 afbe e6f0 a6be
000001d0: 1c8f 24be 2bd0 3a3e 1042 efbe 6278 e3be
000001e0: 1f68 52be ce90 9cbe 9b15 b2be fe59 9dbe
000001f0: 9b39 423e c4c1 ffbd b310 a73e d31a e93e

temporal.rnn.weight_ih_l1 f4 [128, 32]
-0.36710298 0.96690357 -0.21636875 0.25520262 -1.0587466 -0.24910647 -0.23789653 -0.32093626
-0.7731259 -1.2475334 0.96443707 0.37395602 0.509058 0.28843457 -0.6264722 0.011522338
-0.37938616 0.592611 0.039361462 0.4321389 -0.05748058 -0.5301371 0.3242367 0.8860924
-0.20060575 0.23404233 0.17465028 -0.5395934 0.057339557 -0.1397942 0.4435728 0.43298015
-0.27494094 0.59707564 -0.2228323 0.4904287 -1.5798334 -0.38166636 0.24574077 -0.35303736
-0.1595053 -0.89451724 -0.20979263 0.37001157 1.1938848 0.53047824 -0.38974938 0.05933321
-1.2397037 0.61596334 0.78690135 -0.2830964 0.62820554 0.35727084 0.5022531 -0.339754
0.3459046 1.0679369 0.21845269 -0.3209739 0.7376574 0.020589927 -0.26805696 -0.3591942
0.37425432 -0.20097265 0.19198608 -0.28408712 0.2192501 -0.025043828 0.30736566 0.34376326
-0.36420903 -0.0637878 -0.39654076 1.0286424 0.13519292 -0.00092678866 0.2030417 -0.11707368
0.15619877 -0.80995375 -0.57717556 -0.49563015 -0.14247337 0.22168665 -0.24994975 0.3724333
0.26416394 -0.2727908 -0.65311396 -0.48915517 0.36910033 0.6515502 0.64640176 -0.44204202
-0.02229614 -0.1674731 0.51859903 1.0935903 -0.7964327 -0.059276234 -0.55838513 0.20876749
0.029394027 -0.41625088 -0.16929057 0.3730114 -0.25312468 0.63091815 -0.34505677 0.3130491
-1.0047336 0.536713 0.9155157 0.31705302 0.16126882 -0.64358735 -0.2124888 -0.040654544
0.8646446 0.31726357 0.40006483 -0.12413943 -0.2162916 0.37665352 0.18660147 0.35388404
-0.08654448 -0.5653118 -1.0722442 -0.38193935 0.83879274 0.24378835 0.5254212 0.6008591
-0.112282544 -0.80263054 0.20586368 0.5686119 -1.3351707 -0.1417472 -0.85532576 -0.82643723
-0.26963374 0.58171964 0.46419317 -0.5207228 -0.42431813 -0.28377897 0.6362808 1.1395303
0.35064694 -0.74047333 0.39699677 0.36110207 0.29346496 0.13040544 -0.22190271 0.738433
-0.58793855 -0.3166961 -0.26556435 -0.24020734 0.15596892 0.23925722 -0.028321326 -0.09406343
0.13868836 -0.44430175 -0.16649657 -0.3709504 -0.03929073 -0.33198455 0.25516883 -0.48804837
0.30919248 -0.1757175 -0.30734798 -0.82232004 0.1686179 0.15128572 -0.3683492 -0.44204193
0.0935895 -1.133518 -0.22198915 -0.54650104 -0.05768473 -0.2932474 -0.23244588 0.006229029
-0.052223828 0.63484013 -0.103425875 -0.29749423 0.12133299 0.0038390988 0.71040547 0.18336773
-0.040790975 0.29779276 -0.12142994 0.3524724 0.14243704 0.0017288572 0.1367082 0.4033547
-0.0835824 -0.45452008 -0.32325584 -0.045006253 -0.11668352 0.12690957 -0.19697192 0.58973944
-0.59025383 -0.00039838348 -0.16000447 -0.09828552 0.4837267 -0.14084068 -0.3633758 -0.04713583
1.8871332 -0.41425097 0.35913506 0.37880614 1.5918516 0.10643174 0.81721723 0.8561363
1.2234024 -0.5640417 -1.024536 0.82711214 -0.17161374 -0.058039855 0.31051907 0.008365412
0.0634849 -0.04410491 -0.30555207 -0.8708734 -0.24411634 0.43391868 -0.8204505 -0.79620486
0.0957379 -0.9348977 -0.16797413 -0.57654744 0.57079095 -0.07239641 -0.61664736 -0.8136961
00000000: ecf4 bbbe fe86 773f c58f 5dbe eba9 823e
00000010: 0285 87bf c415 7fbe 269b 73be c251 a4be
00000020: 94eb 45bf 2daf 9fbf 59e5 763f 2a77 bf3e
00000030: a051 023f b2ad 933e 7b60 20bf 30c8 3c3c
00000040: e73e c2be 5bb5 173f 7c39 213d 4f41 dd3e
00000050: c270 6bbd 11b7 07bf 5a02 a63e f4d6 623f
00000060: 986b 4dbe cba8 6f3e 86d7 323e cb22 0abf
00000070: e2dc 6a3d 3626 0fbe f91b e33e 93af dd3e
00000080: 0fc5 8cbe f3d9 183f 272e 64be 7819 fb3e
00000090: fb37 cabf c669 c3be 78a3 7b3e 50c1 b4be
000000a0: 5b55 23be 15ff 64bf e1d3 56be 2872 bd3e
000000b0: 38d1 983f 6ccd 073f 3b8d c7be 6107 733d
000000c0: 9cae 9ebf c6af 1d3f 5e72 493f 03f2 90be
000000d0: 14d2 203f 34ec b63e a993 003f 3cf4 adbe
000000e0: 681a b13e 28b2 883f 10b2 5f3e b156 a4be
000000f0: 1ed7 3c3f 35ac a83c c33e 89be 4de8 b7be
00000100: 439e bf3e c6cb 4dbe 0098 443e de73 91be
00000110: 1983 603e b728 cdbc 085f 9d3e bd01 b03e
00000120: 9b79 babe 2ea3 82bd 6407 cbbe 8eaa 833f
00000130: 0370 0a3e bcf3 72ba 2aea 4f3e 53c4 efbd
00000140: 92f2 1f3e 2159 4fbf c7c1 13bf 3cc3 fdbe
00000150: 8ae4 11be d301 633e d4f2 7fbe 94af be3e
00000160: 7f40 873e 3cab 8bbe 7a32 27bf 8c72 fabe
00000170: b8fa bc3e fecb 263f 967a 253f 5553 e2be
00000180: 65a6 b6bc 117e 2bbe e8c2 043f c4fa 8b3f
00000190: 03e3 4bbf a3cb 72bd 54f2 0ebf 25c7 553e
000001a0: becb f03c d61e d5be 825a 2dbe 5afb be3e
000001b0: 8f99 81be da83 213f 48ab b0be f947 a03e
000001c0: 1c9b 80bf 0666 093f 3d5f 6a3f c654 a23e
000001d0: a723 253e 24c2 24bf aa96 59be 6185 26bd
000001e0: 5959 5d3f 5f70 a23e 4cd5 cc3e d03c febd
000001f0: 8c7b 5dbe bbd8 c03e 7514 3f3e 4a30 b53e
00000200: 3b3e b1bd 46b8 10bf 4c3f 89bf 8e8d c3be
00000210: 1fbb 563f a7a3 793e 0182 063f e7d1 193f
00000220: 64f4 e5bd 3279 4dbf eecd 523e 8d90 113f
00000230: e0e6 aabf 2e26 11be a1f6 5abf 6491 53bf
00000240: 6f0d 8abe 94eb 143f baaa ed3e 174e 05bf
00000250: 3a40 d9be 7a4b 91be 4ce3 223f 21dc 913f
00000260: ff87 b33e a98f 3dbf 2943 cb3e 5fe2 b83e
00000270: 0a41 963e 0189 053e 773a 63be f209 3d3f
00000280: 2483 16bf fe25 a2be 0df8 87be eaf8 75be
00000290: 51b6 1f3e d8ff 743e 2002 e8bc 54a4 c0bd
000002a0: 5204 0e3e 857b e3be 147e 2abe 36ed bdbe
000002b0: 51ef 20bd e1f9 a9be 7da5 823e 7ae1 f9be
000002c0: 7a4e 9e3e 4aef 33be b75c 9dbe 9183 52bf
000002d0: 2caa 2c3e a5ea 1a3e 4498 bcbe 5253 e2be
000002e0: daab bf3d 1e17 91bf 2051 63be 7ee7 0bbf
000002f0: d346 6cbd 8624 96be 4b06 6ebe e21c cc3b
00000300: a7e8 55bd e284 223f f2d0 d3bd 2a51 98be
00000310: 6e7d f83d 6499 7b3b 22dd 353f c0c4 3b3e
00000320: 7014 27bd 4b78 983e 43b0 f8bd 4377 b43e
00000330: 04db 113e d29a e23a 3cfd 0b3e 8284 ce3e
00000340: 402d abbd dbb6 e8be ca81 a5be 7a58 38bd
00000350: c5f7 eebd 95f4 013e 02b3 49be 2af9 163f
00000360: e01a 17bf 20de d0b9 36d8 23be eb49 c9bd
00000370: 07ab f73e 8a38 10be 650c babe 8011 41bd
00000380: 958d f13f b418 d4be 8de0 b73e e1f2 c13e
00000390: cbc1 cb3f e2f8 d93d 2635 513f c02b 5b3f
000003a0: 7398 9c3f 0965 10bf ff23 83bf 9fbd 533f
000003b0: 83bb 2fbe 33bb 6dbd 5bfc 9e3e 150f 093c
000003c0: 5f04 823d 5aa7 34bd 5271 9cbe 8ff1 5ebf
000003d0: a2f9 79be 972a de3e 0b09 52bf 15d4 4bbf
000003e0: 3b12 c43d 7555 6fbf 6901 2cbe 9d98 13bf
000003f0: 5b1f 123f 9244 94bd 9adc 1dbf 634e 50bf

temporal.rnn.weight_hh_l1 f4 [128, 32]
0.30332768 1.069852 1.4587084 0.060063366 0.8615849 -0.16706371 0.20568216 -0.49955463
0.41771558 -0.20832372 1.2260864 -0.19507419 0.076819524 0.30653727 0.48599035 0.14121874
0.49904993 -0.30574968 -0.52155304 -0.12580632 0.22165132 -0.2906171 -0.28257766 -1.6900326
0.8577817 1.0976087 -1.1496348 0.26884577 -0.031364042 0.46297374 0.15823495 -0.16985552
-0.071126744 -0.007953609 0.31503123 0.6651812 0.15869471 -0.10113345 0.9970577 -1.0263351
0.3257129 -0.393664 0.9870582 -0.5118382 0.19498669 0.88008314 0.076470606 0.11906732
0.4136073 0.030480348 0.35409918 -0.42472148 0.15932618 0.58666223 -0.3210014 -0.5559529
1.1002138 1.1154693 -0.6799604 0.2429695 -0.5481158 0.06831141 1.2793745 -0.17059043
-0.34499764 0.484889 -0.0937797 -0.99307716 0.3751503 -0.20814826 0.29557666 0.14906494
-0.34386674 0.035801206 0.76675236 -0.35386592 0.014151896 0.16018757 -0.13696797 -0.33387095
0.6495475 -0.42638406 0.11280643 0.117629975 -0.45628545 -0.15023597 0.9711195 -0.38883787
-0.021171443 0.1890493 -0.28371742 -0.2246883 0.7764669 -0.11748584 0.03365778 0.5802785
-0.70387524 -0.4012606 0.28328806 0.95150775 0.48957595 -0.7268401 0.12588342 0.2734199
-0.51820374 0.34429413 -0.06983709 0.12692513 -1.003284 -0.43343356 -0.79162824 -0.90703964
-0.42732415 0.7144584 0.37344572 -0.23728167 0.3760242 -0.1552205 0.94429034 -0.036844756
-0.45905507 -0.024657508 0.5538124 -0.3841492 -0.024917377 -0.9802057 -0.27137065 0.034637425
-0.3091914 -0.3695315 -1.3999416 0.5414035 -0.17287426 -0.7429847 0.22254458 0.5545736
-0.1155722 0.20117725 -0.26301515 -0.33080703 -0.02533457 -0.10859541 0.37056354 -0.11767613
0.09452921 0.57735705 -0.52699745 -0.407779 0.18447766 -0.56273186 0.062302705 1.137503
0.26645437 -0.0634027 0.47884047 -0.18502563 0.26054224 -0.4731497 0.31032217 0.10181968
-0.20245196 0.149738 -0.57382363 0.33570695 -0.18995263 0.32970414 -0.630022 0.8898603
-0.9689894 1.0504073 -0.014155985 -0.21484242 -0.035335988 0.34253266 0.10510125 -0.3824975
1.2693814 -0.24250841 -0.13452011 -0.82006043 -0.029450094 0.21142231 -0.13629322 -0.4233535
0.5020241 0.07529088 -0.23518828 -1.207204 0.40534794 0.66470224 0.8131246 0.7191321
-0.42711902 0.25374374 0.42141673 0.5910879 0.7223079 -0.18343574 0.11577212 0.4689115
-0.84220004 0.9445403 -0.4686079 0.16178654 -0.4642258 -0.09423739 -0.31830153 -0.35802382
0.02045947 0.38239425 0.14956258 -0.45477304 0.0053198463 -0.2240199 -0.40861323 -0.07792585
0.106384955 -0.57309246 0.20428921 -0.7813287 0.030321728 0.42233464 0.46620843 0.3850981
0.10383735 0.5589372 0.33726868 -0.15543929 0.8114216 -0.3816398 -1.3443325 0.20970216
-0.057972968 0.41592476 0.98020685 -0.23404503 -0.5485993 0.08586494 0.54802454 0.11394158
0.39417127 0.86378103 0.1385979 0.022918005 0.056660816 -0.072523974 0.46865714 -0.98446405
0.5144048 0.5613121 -0.44214237 -0.55853343 0.31551042 -0.2395747 0.6376774 0.30870476
00000000: c44d 9b3e e9f0 883f f5b6 ba3f 0105 763d
00000010: d490 5c3f c012 2bbe 589e 523e a0c5 ffbe
00000020: d1de d53e d052 55be 66f0 9c3f 87c1 47be
00000030: 8e53 9d3d 74f2 9c3e bad3 f83e a59b 103e
00000040: 7983 ff3e 398b 9cbe 8084 05bf 5fd3 00be
00000050: 90f8 623e c4cb 94be 05ae 90be fd52 d8bf
00000060: 9597 5b3f 717e 8c3f 3c27 93bf 27a6 893e
00000070: 9577 00bd e50a ed3e 5808 223e 9bee 2dbe
00000080: e6aa 91bd db4f 02bc c64b a13e 5149 2a3f
00000090: de80 223e 0e1f cfbd 2c3f 7f3f f35e 83bf
000000a0: d7c3 a63e 548e c9be d9af 7c3f d407 03bf
000000b0: 97aa 473e 214d 613f 9f9c 9c3d 91d9 f33d
000000c0: 56c4 d33e ecb1 f93c 7d4c b53e 1875 d9be
000000d0: 6726 233e 7f2f 163f 4c5a a4be ee52 0ebf
000000e0: ced3 8c3f b3c7 8e3f e311 2ebf ffcc 783e
000000f0: 5151 0cbf dae6 8b3d 8bc2 a33f 42af 2ebe
00000100: 88a3 b0be 5f43 f83e 920f c0bd 4e3a 7ebf
00000110: b313 c03e d124 55be d355 973e 7ba4 183e
00000120: 4d0f b0be 49a4 123d e249 443f ea2d b5be
00000130: 5bdd 673c 3608 243e 5541 0cbe 22f1 aabe
00000140: bf48 263f 034f dabe 0f07 e73d fce7 f03d
00000150: 3f9e e9be 75d7 19be 4a9b 783f c215 c7be
00000160: bc6f adbc 2496 413e 6943 91be b114 66be
00000170: 89c6 463f 6b9c f0bd bedc 093d 228d 143f
00000180: 2b31 34bf 0872 cdbe 220b 913e 0396 733f
00000190: b3a9 fa3e 3112 3abf 95e7 003e b1fd 8b3e
000001a0: 00a9 04bf 5247 b03e c006 8fbd a9f8 013e
000001b0: 9c6b 80bf 01eb ddbe 26a8 4abf c033 68bf
000001c0: 3bca dabe bfe6 363f 4734 bf3e f7f9 72be
000001d0: 3e86 c03e 1ff2 1ebe 03bd 713f 87ea 16bd
000001e0: 4409 ebbe 8bfe c9bc a6c6 0d3f 34af c4be
000001f0: 871f ccbc c3ee 7abf 18f1 8abe f9df 0d3d
00000200: 564e 9ebe 3c33 bdbe 4931 b3bf 6b99 0a3f
00000210: f305 31be 3f34 3ebf bae2 633e 89f8 0d3f
00000220: 1eb1 ecbd 6901 4e3e eca9 86be 8a5f a9be
00000230: 728a cfbc 4567 debd 81ba bd3e 2f00 f1bd
00000240: 8898 c13d accd 133f 4ee9 06bf 69c8 d0be
00000250: b6e7 3c3e 320f 10bf 1f31 7f3d b399 913f
00000260: b56c 883e 46d9 81bd 942a f53e 5c77 3dbe
00000270: cb65 853e ad40 f2be 8ce2 9e3e d686 d03d
00000280: 914f 4fbe eb54 193e 1be6 12bf c8e1 ab3e
00000290: f182 42be fbce a83e 1f49 21bf e2cd 633f
000002a0: b00f 78bf bf73 863f 81ee 67bc a7ff 5bbe
000002b0: 78bc 10bd 7160 af3e 533f d73d b6d6 c3be
000002c0: 177b a23f 2054 78be a4bf 09be 7bef 51bf
000002d0: 5341 f1bc 177f 583e 7390 0bbe cac1 d8be
000002e0: a784 003f 1b32 9a3d 32d5 70be a985 9abf
000002f0: c489 cf3e ed29 2a3f ef28 503f 0b19 383f
00000300: 58af dabe b3ea 813e efc3 d73e 8951 173f
00000310: 2ce9 383f 94d6 3bbe ef19 ed3d 2b15 f03e
00000320: 6c9a 57bf 65cd 713f 60ed efbe 5fab 253e
00000330: 01af edbe 88ff c0bd 6bf8 a2be e64e b7be
00000340: 9e9a a73c 2ec9 c33e ef26 193e 03d8 e8be
00000350: 1b52 ae3b 7965 65be c135 d1be 9797 9fbd
00000360: 5be0 d93d 30b6 12bf 3131 513e 2805 48bf
00000370: 4665 f83c 3f3c d83e dfb2 ee3e 942b c53e
00000380: ada8 d43d 8216 0f3f 7bae ac3e 7a2b 1fbe
00000390: 53b9 4f3f 4b66 c3be 1613 acbf 2abc 563e
000003a0: 1075 6dbd 17f4 d43e d6ee 7a3f 80a9 6fbe
000003b0: 0171 0cbf f5d9 af3d 564b 0c3f 345a e93d
000003c0: d1d0 c93e c120 5d3f 9cec 0d3e 8abe bb3c
000003d0: 2c15 683d 7387 94bd d4f3 ef3e d605 7cbf
000003e0: 08b0 033f 26b2 0f3f 7c60 e2be 0cfc 0ebf
000003f0: 958a a13e 1253 75be d33e 233f 8d0e 9e3e

temporal.rnn.bias_ih_l1 f4 [128]
-0.27005643 -0.0550678 0.039873537 0.3865594 -0.118929386 -0.6102691 -0.41747984 0.13093096
-0.29611036 -0.36991495 -0.28057945 -0.05905519 -0.20153244 -0.32360053 -0.21909145 -0.15276645
0.786272 -0.046935726 -0.2555483 0.667987 -0.3568117 0.23891647 -0.33786625 -0.5725105
0.2478454 -0.0924116 -0.40325114 0.09612736 -0.3653391 -0.26311633 0.044250455 -0.7038137
-0.24730793 -0.18600798 0.10636966 0.07483176 0.15694584 0.7701221 0.71591616 0.27674899
0.4286817 0.742179 -0.02942929 -0.6059953 0.22912437 -0.2086375 0.7476705 0.35288364
0.12868771 0.55490285 -0.51387846 1.6354096 0.28051478 -0.12437663 0.29457718 0.5963207
0.10511964 -0.5286705 -0.2619786 0.28981826 -0.38468054 0.2553539 -0.2887329 0.36563393
0.2883761 0.47995847 0.3019091 0.6027061 0.016071828 0.21446574 -0.76712716 -0.25277883
0.36473298 -0.2208396 0.046601895 0.31853878 -0.089983456 0.079301916 0.1423216 -0.18234742
-0.30091414 0.3831559 -0.051491756 0.60298073 0.04047129 0.5712176 0.2869156 0.11703864
-0.09585864 -0.53064233 -0.1772128 -0.10331643 0.60626155 -0.07925107 -0.035517186 -0.021783354
-0.28611064 -0.3740126 0.26618907 0.3360702 0.3235957 0.10097172 0.8231527 0.4993506
0.5045946 0.3103195 -0.07432858 0.023815203 0.02652703 -0.062558874 0.06400294 -0.09313434
0.1314346 0.23748767 -0.11379028 0.17640544 -0.05632076 0.13280627 -0.17138262 0.32489792
0.060475558 -0.31582934 -0.5032054 0.23731875 -0.4718541 0.3944046 0.044347238 0.20919774
00000000: d644 8abe c68e 61bd 6f52 233d 1deb c53e
00000010: 4091 f3bd 993a 1cbf ebbf d5be c412 063e
00000020: c79b 97be 7e65 bdbe 1ca8 8fbe dbe3 71bd
00000030: 855e 4ebe f8ae a5be 8259 60be cf6e 1cbe
00000040: 1f49 493f ad3f 40bd 3ad7 82be 3201 2b3f
00000050: 06b0 b6be 85a6 743e cefc acbe 0c90 12bf
00000060: 2fcb 7d3e 4b42 bdbd ef76 cebe 6cde c43d
00000070: ba0d bbbe 2fb7 86be f73f 353d 222d 34bf
00000080: 4a3e 7dbe e078 3ebe 56d8 d93d 6541 993d
00000090: 69b6 203e b926 453f 4846 373f 0bb2 8d3e
000000a0: 2b7c db3e 71ff 3d3f b215 f1bc 8222 1bbf
000000b0: 949f 6a3e 12a5 55be 5567 3f3f 2aad b43e
000000c0: b6c6 033e 1d0e 0e3f 8a8d 03bf 1a55 d13f
000000d0: a29f 8f3e 2db9 febd d2d2 963e 79a8 183f
000000e0: f748 d73d f356 07bf 0f22 86be 0f63 943e
000000f0: d9f4 c4be bfbd 823e ccd4 93be 5f34 bb3e
00000100: 08a6 933e 1ebd f53e d493 9a3e f24a 1a3f
00000110: 11a9 833c e89c 5b3e 7262 44bf 3a6c 81be
00000120: 48be ba3e c723 62be a1e1 3e3d 8417 a33e
00000130: 3f49 b8bd 0b69 a23d c1bc 113e 48b9 3abe
00000140: 6b11 9abe 032d c43e 05e9 52bd f25c 1a3f
00000150: 39c5 253d 513b 123f 9ae6 923e f4b1 ef3d
00000160: 8951 c4bd 2dd8 07bf 4677 35be 9097 d3bd
00000170: f533 1b3f 634e a2bd 787a 11bd 0173 b2bc
00000180: 187d 92be 947e bfbe ef49 883e 6511 ac3e
00000190: 56ae a53e 43ca ce3d 23ba 523f e2aa ff3e
000001a0: 1d2d 013f 33e2 9e3e 9539 98bd 1a18 c33c
000001b0: 374f d93c de1e 80bd f913 833d 38bd bebd
000001c0: cb96 063e f82f 733e e10a e9bd a1a3 343e
000001d0: 99b0 66bd 5efe 073e ed7e 2fbe 0559 a63e
000001e0: 38b5 773d 62b4 a1be 12d2 00bf b003 733e
000001f0: dc96 f1be 66ef c93e 73a5 353d ef37 563e

temporal.rnn.bias_hh_l1 f4 [128]
-0.44931948 0.13559748 0.09651585 0.6532845 -0.06943008 -0.58376145 -0.4233308 -0.101822466
-0.19854577 -0.3395509 -0.35390136 0.046426557 -0.15983121 -0.55507517 -0.20417716 -0.18362655
0.72089654 -0.110013 -0.22393693 0.6221537 -0.53053504 0.073143356 -0.4302376 -0.65954983
0.2336326 -0.1255549 -0.7155015 0.09417417 -0.35601884 -0.15589544 0.03621021 -0.70355606
-0.15041004 -0.1398867 0.14970067 0.26607704 0.15347931 0.5051257 0.48371664 0.07774423
0.48303616 0.7750093 0.001433735 -0.4200129 -0.024266336 -0.19725235 0.7351928 0.48478067
-0.06593384 0.3324843 -0.25641128 1.5437319 0.24048601 -0.3687277 0.080115214 0.43643877
0.26760414 -0.40698227 -0.45591846 0.5419699 -0.37073892 0.294722 -0.463623 0.13193749
0.104063585 0.32303935 0.009960375 0.8292455 -0.14470497 0.03342151 -0.5323713 -0.27183723
0.28490618 -0.4197667 0.13061003 0.038650602 0.024563111 -0.17915574 -0.094497 -0.021305028
-0.34974653 0.15318847 -0.11596069 0.66524124 -0.013017854 0.47692627 -0.045175985 0.24583028
0.033356346 -0.39873582 -0.12755701 -0.17545912 0.5795566 -0.1337642 -0.21625969 -0.006013292
-0.30191463 -0.31782156 0.32296157 0.30236524 0.14531076 0.32385534 0.7640373 0.48592898
0.5076084 0.37531355 -0.20080484 0.06597715 -0.1653409 -0.07359971 -0.026713472 0.13042714
0.15057322 0.07956923 0.0064501283 0.31961492 0.09749009 -0.11858606 -0.24450795 0.11733734
0.04833968 -0.56616527 -0.3800681 0.4828468 -0.31155688 0.07860075 0.10070079 0.4610728
00000000: 340d e6be 11da 0a3e 1aaa c53d a73d 273f
00000010: 5c31 8ebd 6471 15bf d1be d8be 4c88 d0bd
00000020: 954f 4bbe 9ed9 adbe 8f32 b5be c629 3e3d
00000030: cbaa 23be 6819 0ebf d113 51be 9908 3cbe
00000040: ad8c 383f 7f4e e1bd b94f 65be 7745 1f3f
00000050: 25d1 07bf 2fcc 953d 1a48 dcbe 42d8 28bf
00000060: 623d 6f3e 7791 00be 1b2b 37bf 63de c03d
00000070: 1a48 b6be 0ea3 1fbe 2851 143d 401c 34bf
00000080: 1705 1abe 763e 0fbe 224b 193e 403b 883e
00000090: ae29 1d3e eb4f 013f b5a9 f73e 5e38 9f3d
000000a0: 8450 f73e 0267 463f 2aec bb3a ee0b d7be
000000b0: 32ca c6bc 85fc 49be 9835 3c3f 2c35 f83e
000000c0: 5208 87bd 623b aa3e 5748 83be 0299 c53f
000000d0: f741 763e e1c9 bcbe 7213 a43d e774 df3e
000000e0: 6903 893e fb5f d0be 256e e9be 8abe 0a3f
000000f0: 7ed1 bdbe cde5 963e fe5f edbe 9f1a 073e
00000100: 4a1f d53d 6a65 a53e d730 233c 6f49 543f
00000110: 8a2d 14be fee4 083d 7c49 08bf 402e 8bbe
00000120: 39df 913e a9eb d6be a3be 053e 1850 1e3d
00000130: 9438 c93c 9a74 37be a587 c1bd e287 aebc
00000140: fa11 b3be 70dd 1c3e cc7c edbd 404d 2a3f
00000150: d648 55bc ae2f f43e 740a 39bd efba 7b3e
00000160: aaa0 083d 1a27 ccbe 4e9e 02be 8eab 33be
00000170: d25d 143f 7cf9 08be 2e73 5dbe 260b c5bb
00000180: 8e94 9abe 82b9 a2be 385b a53e 9ecf 9a3e
00000190: 58cc 143e 5ed0 a53e f397 433f afcb f83e
000001a0: a0f2 013f 1929 c03e c99f 4dbe 071f 873d
000001b0: 204f 29be 72bb 96bd 36d6 dabc b18e 053e
000001c0: de2f 1a3e 31f5 a23d 995b d33b 91a4 a33e
000001d0: e2a8 c73d 40dd f2bd 4b60 7abe 8f4e f03d
000001e0: d4ff 453d 35f0 10bf 4998 c2be b237 f73e
000001f0: 6284 9fbe 6ef9 a03d 373c ce3d bc11 ec3e
