notebook/output/rolling_models_dynamic/window_9.pth (torch, 479605 bytes, 99 tensors)

temporal.input_proj.weight f4 [32, 7]
000000 17 a2 0b bf 0f 25 22 40 82 ab 29 40 35 4c 83 be
       -0.54544204 2.5335119 2.651093 -0.2564408
000010 64 60 90 3d f7 3e a5 bd e6 52 6d bc 84 a6 98 3f
       0.07049635 -0.0806865 -0.014485097 1.1925817
000020 69 c0 30 40 0a e7 4f 40 b2 3c 8e be 61 5e fb bd
       2.7617438 3.2484765 -0.27780682 -0.12273861
000030 b4 bf 94 3d ef 5a a1 3b f5 e2 68 3f 25 53 8f 3e
       0.07263127 0.00492417 0.9097131 0.27993122
000040 f7 4d a1 bf b7 44 1f be 65 f2 ad 3e 9b 5b 26 be
       -1.2601918 -0.15553556 0.33973995 -0.16245882
000050 6e b3 92 3e 91 d8 5e 40 92 48 55 40 9e 23 1a 40
       0.2865252 3.4819682 3.3325543 2.408424
000060 03 69 ae be 6d 97 d3 bd b5 98 a6 bc 8a 9b 20 3c
       -0.34064493 -0.103316166 -0.020336488 0.009802708
000070 90 25 6a 3f d2 5f 04 3f 64 dd 25 3f d0 26 50 3e
       0.91463566 0.5170871 0.6479094 0.20327306
000080 ef 41 30 be f2 e3 0e 3e 48 aa 84 be c5 1f 87 bf
       -0.17212652 0.13954142 -0.25911164 -1.055657
000090 7d 54 f6 3f 4b e1 36 40 87 fb bc 3e 79 40 ae be
       1.9244534 2.8575008 0.3691065 -0.34033564
0000a0 38 4c 15 3e d9 8a 46 be 9b d2 7a c0 bd 97 62 bf
       0.14579856 -0.19388904 -3.9191043 -0.88512784
0000b0 67 e2 08 bf 1a 8a 5c 3e 46 96 3e be ed 6d dc bd
       -0.5347046 0.21537057 -0.18612012 -0.10763154
0000c0 7c 47 80 be fd 18 6e c0 14 6b bd bd 1b 9e 9d 3f
       -0.25054538 -3.7202752 -0.09248939 1.2313875
0000d0 2e 08 83 bd 7b 88 00 bd a9 24 50 bd 56 f3 10 be
       -0.063980445 -0.031380158 -0.05081621 -0.14155325
0000e0 62 e6 ba c0 3b 13 23 c0 51 22 c9 bf d7 19 2c be
       -5.840623 -2.5480487 -1.5713598 -0.16806732
0000f0 ab 8b 3d 3d b8 4f f2 be 7a c3 3c bd 21 b2 bc 3e
       0.046275776 -0.47326446 -0.04608486 0.36854652
000100 b6 45 0b bf 5d e8 4b bf 7d d0 bb be 3c 25 2b 3d
       -0.54403245 -0.79651433 -0.366825 0.041783556
000110 84 0e 93 be 7a 45 a2 3e 5a cf 41 bf b7 28 e2 3f
       -0.28722012 0.3169363 -0.7570702 1.7668675
000120 12 f6 f0 3f cc 16 6d 3e bf 9d a7 3d 50 a0 1f be
       1.8825095 0.23153228 0.081843846 -0.15588498
000130 8e c8 75 bc 88 16 fe 3e 21 36 db bf 45 7e 8a bf
       -0.015001429 0.49626565 -1.7125894 -1.0819784
000140 1f 33 80 be f7 bb 3e bd 84 3a 4d 3d 3d 44 89 bd
       -0.25039002 -0.046565976 0.050104633 -0.067024685
000150 36 25 01 c0 b4 ae 45 c0 e9 50 3f c0 a6 8e fd bd
       -2.0178962 -3.088788 -2.9893134 -0.12380724
000160 13 e9 59 be d6 6d 98 3e 1a 49 11 bc 64 94 56 3f
       -0.21280317 0.29771298 -0.008867526 0.83820176
000170 37 a4 c0 bf 3c 14 0e c0 ed 8b 87 bd f2 f1 95 be
       -1.5050114 -2.219985 -0.066184856 -0.29286152
000180 3b f8 9d 3e 0a f9 4f bd 8b 3a 86 c0 51 1d 34 c0
       0.30853447 -0.05077461 -4.1946464 -2.8142893
000190 d2 99 0a c0 54 14 c6 3d ef 41 14 be 38 8c 02 3e
       -2.1656384 0.09671846 -0.14478277 0.12748802
0001a0 bc 24 81 bc e7 fe 4e c0 5b 1c 37 c0 52 dc 32 c0
       -0.015764587 -3.234308 -2.8611057 -2.7946973
0001b0 cc 81 f2 bd 23 11 49 3d 81 d8 a4 3d bf 0f 54 3c
       -0.11841163 0.04908861 0.08049107 0.012943207
0001c0 87 b6 22 40 0a 85 17 3e 1f e9 e5 3e 08 dc 1e 3c
       2.5423906 0.14796844 0.4490442 0.009696014
0001d0 fe e8 10 be 95 ae cc bd fb e1 cd be 50 ef 22 bf
       -0.1415138 -0.099942364 -0.40211472 -0.6364641
0001e0 ac 1e b2 bd 35 1e 4e 3e 50 18 b3 be 13 6f 29 be
       -0.086972564 0.2012871 -0.34979486 -0.16546278
0001f0 7c fa 32 be dc 59 cf 3d 86 ac c4 3f 63 f7 17 c0
       -0.17478365 0.10124561 1.536515 -2.3744743
000200 b9 1b f1 bf 3c bc 19 3e 02 21 ab bd 4a 0f 40 3d
       -1.8836585 0.15013212 -0.08355905 0.04688958
000210 a8 8f 64 bd 8a f9 b6 3f f1 ef 3e 40 73 1c 20 40
       -0.055801064 1.4294903 2.9833949 2.5017364
000220 26 b7 83 be c4 7d 6f be 6a 72 fe 3c 11 f8 03 3d
       -0.2572567 -0.2338782 0.031060416 0.032218996
000230 09 22 1a 3f ba 3d ec bf c8 ac 26 c0 58 2d cd 3b
       0.60208184 -1.8456337 -2.6042957 0.006261509
000240 db c8 59 bd f5 55 24 3c 45 b0 2c 3c 38 97 13 40
       -0.053170066 0.010030259 0.010540073 2.3061047
000250 14 97 ac bf d3 77 c0 bf 9c a2 e9 ba 20 3a 08 bd
       -1.3483605 -1.5036567 -0.0017824951 -0.033258557
000260 95 0f e9 3c 31 c9 37 bd 23 54 5b 3e 2e 1a e5 3f
       0.028449813 -0.044869605 0.21418814 1.7898614
000270 1a f5 0f 40 ae b7 d7 3d 4b b9 ad bd 96 03 cb bd
       2.2493348 0.10533081 -0.084826075 -0.09912793
000280 df 4c 66 bd 96 5d 4b bf 8e 55 10 c0 78 e3 07 c0
       -0.056225654 -0.79439676 -2.2552218 -2.1232586
000290 c1 a7 0b be db 2e 2b 3e 15 4e a6 3e 54 73 f9 bc
       -0.13638212 0.16717093 0.32481447 -0.0304505
0002a0 5c 45 35 c0 91 b6 1f bf 38 2f f4 bf 69 3a 66 bd
       -2.8323584 -0.6238795 -1.907691 -0.056208048
0002b0 26 96 94 3e 3f ed fd 3e cd 11 be bc a3 ed ec bf
       0.29020804 0.49595067 -0.023201847 -1.8510021
0002c0 9d 91 c4 3f 3b ce 99 3f 0e 34 86 3e 03 cd 62 3d
       1.5356938 1.2016062 0.2621159 0.055371296
0002d0 79 12 f2 bd 67 50 41 bc fb 07 44 bf e8 1a dc bf
       -0.1181993 -0.011798955 -0.7657468 -1.7195711
0002e0 ce 77 e4 bf 9b ef 3d 3e 88 e2 97 be 23 d0 a9 3e
       -1.7849061 0.18548433 -0.29665017 0.33166608
0002f0 70 f7 ae bc 67 7a fe 3f 32 a1 b9 be 45 4f 84 bf
       -0.021358222 1.9881104 -0.36255795 -1.0336691
000300 fb 18 bb 3c 65 24 cf 3e 08 60 96 3d c7 1f 9b bd
       0.02283906 0.40457454 0.07342535 -0.075744204
000310 52 02 48 40 a8 89 3e 40 69 a0 2c 40 9a f4 48 3e
       3.1251416 2.9771519 2.6972907 0.19624558
000320 9d b0 14 3d 3f 0f 61 be 7b dd e6 bb 70 9d 5f c0
       0.036301244 -0.21978472 -0.0070454455 -3.4939842
000330 0d c4 65 bf 84 3a 53 3f 58 54 c1 3d b8 7f 3d 3d
       -0.89752275 0.8251116 0.094399154 0.04626438
000340 cf 6a 81 be 54 1d 8f 3d 4b 0c 57 40 a3 3e d4 3f
       -0.252768 0.06988016 3.3601253 1.6581615
000350 9a ca f4 3e 51 ca 37 3e f1 23 d8 3c 85 b9 89 3d
       0.47810823 0.17948271 0.026384326 0.06724838
000360 ee 40 e1 bc b4 88 b5 3f ec 6a e2 be 22 ba 4b bf
       -0.027496781 1.4182343 -0.442222 -0.7958089
000370 f3 ef 5a 3e d8 8a c0 be 96 e9 7d 3e 3e 67 95 3d
       0.21380596 -0.3760593 0.24796137 0.072950825

temporal.input_proj.bias f4 [32]
000000 aa c8 83 bd 71 b7 0b bd c7 21 f5 be 78 22 f8 3d
       -0.06434758 -0.03411049 -0.47877333 0.121159494
000010 42 f3 67 bf c2 48 83 3e 26 16 93 3e d5 2a 4c 3f
       -0.90605557 0.25641447 0.28727835 0.79752856
000020 98 88 93 be b8 17 e4 3d 9a 34 66 bd 10 82 2b 3d
       -0.2881515 0.111373365 -0.05620251 0.041872084
000030 bf 37 29 be dc a6 5e be 7c 0f e5 be a8 47 a9 be
       -0.16525172 -0.2174334 -0.44738376 -0.33062482
000040 4a 69 ca be 6f 27 0c 3f 45 58 8f bd 1a dc d6 3e
       -0.39533454 0.5474767 -0.06999258 0.419648
000050 8e 96 e6 3d e5 62 96 be 0c f2 18 3f 04 46 e3 3c
       0.11259185 -0.29372326 0.59744334 0.027743347
000060 4c a8 e8 3e 36 35 8a be bf 60 fb 3d 48 68 36 bf
       0.454409 -0.26993722 0.12274312 -0.7125287
000070 5c 6d a6 3c eb 11 e2 3e 04 1e 32 bf f2 6c 80 be
       0.020315818 0.44154295 -0.6957705 -0.2508312

temporal.layer_norm.weight f4 [32]
000000 98 e1 9d 3f e8 4e 95 3f 9a 60 51 3f 4a 5c ca 3f
       1.2334471 1.1664705 0.8178803 1.5809414
000010 2d 9d 31 3f be 45 41 3f 56 27 d6 3e 5c d0 80 3f
       0.69380456 0.75497043 0.41826886 1.0063586
000020 a3 47 8f 3f 93 89 a6 3e bc a9 92 3f a4 42 b3 3f
       1.1193737 0.32526836 1.1458049 1.4004712
000030 0d b6 8a 3f 53 bf d1 3f c9 40 c3 3f d0 14 94 3f
       1.0836807 1.6386513 1.5254146 1.1568851
000040 5e 40 29 3f 60 82 2b 3f fe f7 c0 3f df 93 87 3f
       0.6611384 0.6699581 1.5075681 1.0592002
000050 aa 9c 67 3f 28 2f 03 40 ad 34 92 3f 56 6e 3e 3f
       0.90473425 2.0497532 1.1422325 0.7438711
000060 be f1 19 3f f9 01 b8 3f 07 a5 86 3f 47 00 70 3f
       0.60134494 1.4375602 1.0519112 0.93750423
000070 ac 56 b0 3f 39 6a 8a 3f 12 1b 80 3f 2c 8b 11 3f
       1.377645 1.0813667 1.0008261 0.56852984

temporal.layer_norm.bias f4 [32]
000000 a8 5e 20 be d9 41 bf be 2d 42 18 3f 88 6c 18 bd
       -0.15661108 -0.37354925 0.59475976 -0.03721288
000010 81 9e f2 3e 39 aa 2d bf 1f 94 6b be 94 c4 17 bf
       0.47386554 -0.67837864 -0.23005722 -0.5928433
000020 c8 c4 c9 be ce 7d d1 3e 68 a7 33 be 60 b2 8f be
       -0.39407945 0.40916294 -0.17544329 -0.28065777
000030 4b ff 17 3d 85 f8 8c be 14 aa ac bc 04 54 02 be
       0.0371087 -0.27533355 -0.021077193 -0.12727362
000040 a1 15 23 3e b0 50 db 3e 7b 89 2d 3e b0 84 e1 be
       0.1592622 0.42834997 0.16946976 -0.44046545
000050 09 a2 df 3e 06 b4 6e bd 68 ac 4a 3e 72 ab 1b be
       0.4367831 -0.058277152 0.1979233 -0.1520212
000060 f9 e8 75 bf 91 8c 8b 3e 4e 99 20 3e 0d ff b1 be
       -0.96058613 0.2725568 0.15683481 -0.347649
000070 ef 16 30 3d 4c 56 d5 be f1 b5 e4 3e 1b 66 56 3f
       0.04299062 -0.41667402 0.4467006 0.8374955

temporal.rnn.weight_ih_l0 f4 [128, 7]
000000 10 d9 7a bf 6c ac 81 bf 63 47 76 bf 11 b5 61 bf
       -0.9798746 -1.0130744 -0.9620268 -0.8816691
000010 2b c2 26 3e 99 77 14 3e 8a 73 18 bf f3 ce 47 bf
       0.16285007 0.14498748 -0.595513 -0.78050154
000020 db ab 29 bf aa c7 27 bf 8a c1 1b bf e5 0f 12 be
       -0.66277856 -0.6553904 -0.6084219 -0.14263876
000030 2b 98 3e be 54 df 99 3e ad 4a 29 bf 89 8b 2a bf
       -0.18612735 0.30053198 -0.6612957 -0.66619164
000040 85 82 1a bf 83 f7 f1 be 98 c3 28 bf 1a b7 34 bf
       -0.60355407 -0.4725915 -0.6592345 -0.7059189
000050 0c a0 85 3e 57 4f 72 3e 13 be 2f 3e 3f 43 38 3e
       0.2609867 0.23663078 0.17162351 0.17994402
000060 fc ca 62 3d fc 8d a0 3e d4 36 32 3d 78 94 cb bd
       0.055369362 0.31358325 0.04350932 -0.099404275
000070 4b 3b a1 3e eb 39 4c 3e b7 c2 7e 3e d6 22 29 3e
       0.3149055 0.19943969 0.24878965 0.16517195
000080 eb 96 31 3e cf 91 ce 3e 46 f0 b4 bb e9 d8 70 c0
       0.17342727 0.40345618 -0.005521807 -3.7632391
000090 db 36 5f c0 86 16 4b c0 c0 f2 79 c0 84 d8 7f bd
       -3.487723 -3.1732497 -3.9054413 -0.062462345
0000a0 5b b4 37 be e4 12 13 be 89 26 a1 bd 19 f1 96 be
       -0.17939894 -0.14362675 -0.07868678 -0.29480818
0000b0 fe 90 b7 bd 2e 12 c5 bd 39 18 13 be 26 c9 6f bd
       -0.08963202 -0.09622608 -0.14364709 -0.05854144
0000c0 30 46 1e be 9f 8f b5 3e f8 0f d0 3e c4 02 8d 3e
       -0.15456462 0.35461137 0.40637183 0.27541173
0000d0 64 a4 d2 3e a0 d9 b5 be 44 f3 c3 be 9c da 73 3e
       0.41141045 -0.35517597 -0.38271534 0.23813862
0000e0 46 b2 8e bf ac 14 a2 bf 95 24 8e bf 5d d1 af bf
       -1.1148155 -1.2662559 -1.1104914 -1.3735768
0000f0 a7 42 e8 be 12 5d 6d be 13 ec 04 3e cc 8c 38 bf
       -0.45363352 -0.23180035 0.1298068 -0.7208984
000100 f5 11 2f bf ae 0e 52 bf af 52 7a bf 14 39 5f be
       -0.68386775 -0.8205365 -0.97782415 -0.21799117
000110 1f 3f a0 be 92 e3 e1 bc 45 41 5b bf ce 4c 57 bf
       -0.31298158 -0.027574334 -0.8564647 -0.8410157
000120 22 a1 81 bf 4c eb 77 bf 66 e5 39 bf 3c 89 02 bf
       -1.0127299 -0.9684341 -0.7261566 -0.50990653
000130 cb e5 4a be 3d 50 0f bf 89 68 9b be 43 0f 98 be
       -0.19814222 -0.5598181 -0.30353191 -0.29699144
000140 0f 8d c5 be f4 67 d2 be 59 d8 91 be 9f 62 12 3f
       -0.38584182 -0.41094935 -0.28485373 0.57181734
000150 f4 87 fe 3e 35 fd 47 3e dd 06 08 3f c1 c1 14 3f
       0.497131 0.19530185 0.5313547 0.58108145
000160 46 1b 05 bf 14 e1 08 bf 0c 25 89 3e ea c3 90 bf
       -0.5199474 -0.5346844 0.26786077 -1.1309788
000170 c2 b0 e8 bf 8c 88 03 bf 39 9a 82 bf 21 73 25 bd
       -1.8178942 -0.5138023 -1.0203315 -0.040393
000180 c8 01 26 bf 9f f8 6f 3e 9f cb 15 bf 4b 63 91 be
       -0.6484647 0.23434685 -0.58513826 -0.28396067
000190 89 78 02 bf 36 b2 e6 be 4b 90 0a bf ba 59 94 be
       -0.5096517 -0.4505784 -0.54126424 -0.28974706
0001a0 0e 07 2f be 64 b2 89 bf 4d 55 bf bf 37 f2 a1 be
       -0.17092535 -1.0757565 -1.4947907 -0.31630108
0001b0 9e c7 99 bf 22 84 0c be 97 99 bd be e8 41 f0 3d
       -1.2014043 -0.1372228 -0.37031242 0.117313206
0001c0 92 e8 93 bd 79 4c 9b 3d 5b bf 35 3c 5e 2b 64 be
       -0.07222094 0.075829454 0.011092986 -0.22282168
0001d0 7c 61 79 3e 2c c7 09 3e 6c 03 87 bd b8 26 30 bf
       0.24353594 0.13454884 -0.065924495 -0.6880908
0001e0 08 89 d7 be 36 b2 16 bf d1 64 39 bf 06 45 e8 be
       -0.42096734 -0.5886568 -0.7241946 -0.4536516
0001f0 0f 90 27 bf 6c 6f e5 3d 3a 76 82 bf 24 92 a8 bf
       -0.6545419 0.11202893 -1.019233 -1.3169599
000200 f8 48 8f bf 47 b5 8c bf a1 23 ad 3d a4 61 33 be
       -1.1194143 -1.0992821 0.08454061 -0.17517716
000210 6d 4a f6 bd 92 7c 5a bf ab 11 71 bf 09 b1 18 be
       -0.12025914 -0.8534633 -0.94167584 -0.14911284
000220 c6 7b 1f be 78 23 27 bc a2 07 0f be a5 23 00 bd
       -0.1557456 -0.0102013275 -0.13967755 -0.031283993
000230 f9 fb 2a 3f dd 46 2d 3f de a7 38 3f df 40 13 3f
       0.6679073 0.67686254 0.72131145 0.5752086
000240 cd ad fd be c0 c4 14 bf a0 3e 03 3f 1b 20 34 bd
       -0.49546662 -0.58112717 0.51267433 -0.04397593
000250 85 f0 67 be a0 46 54 be 52 3e 4c be 1b 59 74 bc
       -0.22650345 -0.20730066 -0.19945648 -0.0149138225
000260 3f 45 51 bd 43 9a 6b bc 45 59 79 bf 13 eb 85 bf
       -0.05109143 -0.014380041 -0.9740184 -1.0462364
000270 4f e9 8a bf 68 9f 69 bf 56 58 3b bf 65 34 aa be
       -1.085245 -0.9125886 -0.73181665 -0.332431
000280 28 c4 b4 3b 54 68 d7 be d3 e7 06 bf 36 25 1a bf
       0.0055165477 -0.42071784 -0.52697486 -0.6021303
000290 be 7d 04 bf 28 a0 37 bf 19 d9 1c bf 89 b9 0e 3e
       -0.5175437 -0.71728754 -0.61268765 0.13937964
0002a0 82 99 9b be 49 02 0d bf 03 f2 7d bd cb 19 db be
       -0.30390555 -0.5508161 -0.06199838 -0.42793116
0002b0 4f f2 f8 3d 38 65 a3 3d 40 9a e2 3e d5 53 3b bf
       0.12155592 0.0797829 0.44258308 -0.7317479
0002c0 9f 66 2f bf 98 e7 33 bf a4 e1 fa be 2d 3c 2f be
       -0.6851596 -0.7027526 -0.49000275 -0.17112799
0002d0 70 18 10 be 88 a2 9a 3d 23 1f 3b bf be 2c 1a bf
       -0.14071822 0.075505316 -0.73094386 -0.6022452
0002e0 5a 25 45 bf 9e 26 31 bf 52 49 62 be a0 42 24 be
       -0.7701012 -0.6919955 -0.22098282 -0.1604104
0002f0 56 e7 8f be c7 95 30 bf de f0 ce be 88 c3 3f bf
       -0.28106183 -0.6897854 -0.40418142 -0.7490773
000300 6f 29 8b be 79 2b 3e 3e 2a 2a 2d be 92 64 2b 3e
       -0.2718005 0.18571271 -0.16910616 0.16737583
000310 71 51 ad 3e b1 98 07 3f da fc db 3e 99 14 24 3f
       0.33851197 0.52967364 0.42966348 0.6409393
000320 fb 66 00 bf aa 29 e0 be ab 6e 3d be 19 28 1d bd
       -0.50157136 -0.43781787 -0.18499248 -0.03836832
000330 d3 e1 a1 3c 4d 38 ba bd 15 a9 48 be 75 0d 22 be
       0.019761002 -0.0909277 -0.1959575 -0.15825446
000340 8a 18 c9 3e fa 05 25 bd b9 da b2 bc 46 21 fa 3c
       0.39276534 -0.040288903 -0.02183281 0.030533444
000350 51 80 e2 bd 0a ed 73 be b0 ce 89 bd 87 92 d0 3d
       -0.11059631 -0.23820892 -0.06728876 0.10184198
000360 66 5d 3d bf ac b3 0e bf 8d c8 02 bf 90 25 07 bf
       -0.7397064 -0.5574291 -0.51087266 -0.5279169
000370 ca ba 44 bf 2c cf 89 bd 6a 7e cf bc 28 90 89 be
       -0.7684752 -0.06728968 -0.025328834 -0.26867795
000380 dc 9c 86 be a8 da c8 be e2 aa 9a be 06 3d 0f bf
       -0.2629155 -0.3922932 -0.30208498 -0.5595249
000390 65 11 13 bf 9c 31 08 bf 3c 62 16 3e 74 af 05 bf
       -0.57448417 -0.532007 0.14685911 -0.52220845
0003a0 8f 59 1d bf fa 15 00 bf b3 14 19 bf fc 46 c5 bd
       -0.6146478 -0.50033534 -0.5979721 -0.0963268
0003b0 6b ff 8f be 8e 70 f3 bd fa 2e c8 be 4e 03 05 bf
       -0.28124556 -0.118867025 -0.3909834 -0.5195817
0003c0 f5 89 29 bf 4b 0a 23 bf fd d1 a9 be 70 fb 3e be
       -0.6622613 -0.6368758 -0.3316802 -0.18650603
0003d0 3d 24 ae bd df ae c7 3e 26 7c ee 3d 14 fc ae 3e
       -0.08503006 0.39000604 0.11644773 0.34176695
0003e0 f1 cc 27 3d 79 5a 5f be 04 be ca be fa de cb 3d
       0.04096693 -0.21811856 -0.39598095 0.09954639
0003f0 d6 a6 b0 3e 93 92 9f 3e 65 98 70 3e 0a 18 72 bc
       0.34502286 0.31166515 0.23495634 -0.014776239

temporal.rnn.weight_hh_l0 f4 [128, 32]
000000 5c b9 d3 3d 0c 69 82 bf 4f 66 17 3d b5 cd c8 bd
       0.10338089 -1.0188308 0.036962803 -0.098048605
000010 f8 ca 5d 3c 4a da 89 3f 10 ea 8c bd 86 2a f0 3d
       0.013537161 1.0769742 -0.068805814 0.11726861
000020 18 ca 8a 3f 5f 09 05 bf 5b a1 0d bf 4d 99 05 3f
       1.0842924 -0.51967424 -0.55324334 0.52187043
000030 36 8d c0 bd f0 df 19 bf 1f 8d fc bd b6 ae 9a bf
       -0.09401934 -0.60107327 -0.12331604 -1.2084568
000040 65 e4 c2 3e 30 ff bd 3d 6a 7b 84 be f8 e1 8b bf
       0.38064876 0.09277189 -0.25875407 -1.0928335
000050 a3 92 05 bf a9 04 fc 3e 52 1c e4 be 61 8d 5d bf
       -0.52176875 0.49222305 -0.44552857 -0.8654385
000060 41 f6 24 be 7b c1 3f bf 68 ee 67 bd 0a 8d 36 bf
       -0.16109563 -0.749046 -0.056623846 -0.7130896
000070 d5 3a 97 3d e7 04 98 3e f6 d6 28 bc 72 e8 4e 3e
       0.07384268 0.2969124 -0.010305157 0.20205858
000080 6a 46 19 be f2 45 2c 3d 14 49 5b be f9 3c 7f 3e
       -0.14968267 0.042058893 -0.21414596 0.24925603
000090 54 a9 9a 3e d0 b9 4a be b2 d6 bd 3e 11 b9 fc 3e
       0.30207312 -0.19797444 0.37077862 0.49359944
0000a0 57 e7 10 3e f9 6a ca bd 82 3c a3 3e 77 00 a6 be
       0.14150749 -0.09883685 0.318821 -0.3242223
0000b0 43 b4 7b bf 6d 0c 96 be 81 99 04 be cf 07 f9 3b
       -0.9832193 -0.29306355 -0.12949182 0.007599808
0000c0 74 6d a9 be 73 61 5f 3e df 19 40 3e 88 82 12 3d
       -0.3309132 0.21814518 0.18759869 0.035769016
0000d0 d0 49 72 3e 49 68 eb 3e 7b ea 2c 3e e5 ed 02 3e
       0.2366097 0.45978 0.16886322 0.12786062
0000e0 32 a6 5b 3d b3 46 66 3e 23 1b 84 3e 27 11 e2 3e
       0.053625293 0.22487907 0.25801954 0.4415371
0000f0 2d 14 3b 3e 01 c9 dc be 8d 7e 9d be c2 a8 af 3e
       0.18269415 -0.43122104 -0.30760613 0.3430844
000100 60 1e f8 bd 8d a6 75 be da 30 bf 3d d1 b7 85 be
       -0.121151686 -0.23989315 0.093354896 -0.26116803
000110 9c 2c 3b be 4d 69 84 be 05 fa ab 3d 6d 5b 2e be
       -0.18278736 -0.25861588 0.08397297 -0.17027064
000120 d7 89 99 bd 54 35 0f be dd dc e3 3e b9 99 c2 3d
       -0.07496994 -0.13985187 0.44504443 0.095019765
000130 b4 2b bb 3d e8 9f 9d 3e 51 78 55 be b5 5c a6 3d
       0.09139195 0.3078606 -0.20846678 0.08123151
000140 b3 d2 1b 3d c0 ce 1d be 78 1e e5 bd 6c 0e 0b 3e
       0.038042735 -0.154109 -0.11187452 0.1357972
000150 96 c6 0f be fd b9 e8 3c e2 c7 87 3b f2 c1 de bc
       -0.14040598 0.028408999 0.004143701 -0.02719209
000160 70 22 01 3e 0d 8d d7 3d 36 66 17 3e bd e8 90 3e
       0.12610793 0.1052495 0.14785084 0.28302565
000170 d4 4d b4 bd 58 6c d5 be f8 35 80 be b3 af 6e 3e
       -0.08803907 -0.41684222 -0.25041175 0.23309211
000180 d0 b4 a2 be c3 2d 68 3e ae f2 67 be 64 2b b8 3e
       -0.31778574 0.22673707 -0.22651169 0.35970604
000190 ab 69 9d bc f9 a3 40 be 6e 60 cd bc 66 5c 38 3e
       -0.019215425 -0.1881255 -0.025070395 0.18003997
0001a0 39 59 c1 bd 45 a8 da 3d 99 2d af 3e 4e be af be
       -0.09440846 0.10676626 0.34214476 -0.34324878
0001b0 ea 76 d5 bd 24 d8 6d be 40 f0 fc be bd 11 eb 3d
       -0.10423072 -0.23226982 -0.49402046 0.11477993
0001c0 7b f3 f9 be dc 76 b7 3e 13 bc 7f 3e 34 fc 90 3d
       -0.48818573 0.3583287 0.24974088 0.07079354
0001d0 42 25 c0 be 63 06 bc be a0 0c 8d 3e 65 c0 7a 3e
       -0.37528425 -0.36723623 0.27548695 0.24487455
0001e0 f0 51 56 bd 56 a4 ec 3d b8 e8 93 3e 78 4e 86 3e
       -0.052324235 0.11554782 0.28888488 0.26231742
0001f0 f7 2f 92 be ec f5 06 bf 63 f6 48 3e 68 b6 bd 3d
       -0.2855222 -0.52718997 0.19625239 0.09263307
000200 e1 8c e2 be c5 e5 28 bf ff d6 03 3e 90 8e 57 be
       -0.44248107 -0.659756 0.12874983 -0.21050477
000210 85 7c 59 be dd a9 6a 3f db c5 db bc d5 00 f6 3e
       -0.21238907 0.9166544 -0.026827743 0.4804751
000220 9e 5d 18 3f 2f f7 a4 be d6 88 91 be 98 35 d3 3e
       0.5951785 -0.32219836 -0.2842471 0.41251826
000230 36 d7 ba be 5f 56 46 bf b0 f1 1a 3e 7b b6 98 bf
       -0.36492318 -0.7747554 0.15131259 -1.1930689
000240 7c ca 00 3f b1 1b 0a bf d9 3c 54 bd c0 03 1c bf
       0.50308967 -0.53948504 -0.05181584 -0.6094322
000250 53 8b 4e bf 9b ff da 3e 78 f2 1e bf 4f 75 1c be
       -0.8068134 0.42773136 -0.6208873 -0.15279125
000260 b6 e8 b5 3d f8 08 3e bf 48 31 b9 be 31 54 2d bf
       0.08882277 -0.74232435 -0.3617041 -0.6770659
000270 3d 31 11 3f 31 a1 4f 3f 03 8c 82 bb d2 7d 76 3e
       0.56715757 0.81105334 -0.003983976 0.24071434
000280 55 33 3f 3f 63 11 2b 3e 42 ae fe bc 20 1c aa be
       0.746877 0.16705851 -0.031088952 -0.33224583
000290 d7 0c cd 3f 15 b4 b0 3e 3e 8d df be f4 45 eb 3e
       1.6019543 0.34512392 -0.43662447 0.45951807
0002a0 af a8 25 3d 0e 2b 12 3e 92 33 d0 bd 6f ce 0a be
       0.040444072 0.14274237 -0.10166086 -0.1355531
0002b0 7b 88 cd be b4 ec b7 bd f5 d0 4c 3d 6a 70 de 3d
       -0.4014319 -0.089806944 0.050003964 0.10861285
0002c0 06 cc cd 3d 10 8a 9c 3a de 62 0b 3d eb ef 18 be
       0.1004868 0.0011943001 0.034029834 -0.14935271
0002d0 4e 12 91 be 21 ad af bd 01 44 0c be 16 f5 15 bf
       -0.28334278 -0.085779436 -0.13697816 -0.58577096
0002e0 4b 8b 76 be b3 ee 2c be 4d ec 72 3e 46 66 04 be
       -0.24076574 -0.16887932 0.23722954 -0.12929639
0002f0 fd 86 7e 3e 6d 48 c7 be 88 98 fb be 7d 93 c7 bd
       0.24856181 -0.38922444 -0.4913981 -0.09744928
000300 b0 e4 94 be 23 3a 9b 3d 2a 17 50 be ce 82 bd bb
       -0.29080725 0.07579448 -0.20321336 -0.0057834154
000310 56 5e e0 3c 6c 7b ab 3d a0 07 90 be 47 42 e4 be
       0.027388733 0.0837315 -0.28130817 -0.44581816
000320 6b a6 b3 3e 43 0c 9d be 1d 75 dc 3e 2a 44 21 be
       0.35087904 -0.30673417 0.430581 -0.15748659
000330 a0 92 70 bd 04 ee e8 be 2f cd 01 bf f4 b8 75 3e
       -0.058733582 -0.45494092 -0.5070371 0.23996335
000340 73 13 ec bc 47 bd 65 be e8 f0 b7 be b4 77 5e 3e
       -0.028817868 -0.22435485 -0.35925984 0.2172535
000350 28 87 12 3f 3b be 9a be 25 b1 ef bd 40 3a ff 3d
       0.5723748 -0.3022326 -0.117037095 0.12462282
000360 4a 4f 84 be 17 10 d7 3c c2 27 97 be c8 53 8b be
       -0.25841743 0.02625279 -0.2952252 -0.27212358
000370 60 fc 4e be bb 04 a7 be 0c e0 6a 3e a2 c7 33 be
       -0.20213461 -0.32620797 0.2293703 -0.17556623
000380 db b9 0b 3e 26 e7 38 be f1 5f 19 be c4 f0 51 3e
       0.13645117 -0.18056926 -0.14978005 0.20502001
000390 0a 25 cb 3d 93 e3 71 bd 0f 8f ac bd 4a f2 02 3d
       0.09919174 -0.059054922 -0.08425724 0.031969346
0003a0 7a 21 5c 3e e8 87 d4 3c 1f a3 fc 3d 77 72 06 bf
       0.21497145 0.025943711 0.123358004 -0.5251841
0003b0 0d 58 b2 3e e4 93 4f bd 9c 47 1b be f7 cc 8b 3d
       0.34832802 -0.05067815 -0.15164036 0.06826203
0003c0 b9 fc bb 3d cf 81 23 3e 3b 36 0e 3f b7 e1 04 3e
       0.091790624 0.15967487 0.555515 0.12976728
0003d0 b2 36 08 be 25 93 e0 3e 6d ec 7a 3e 33 43 c5 be
       -0.13302115 0.43862262 0.24504252 -0.3852783
0003e0 ec 93 a0 3d 25 44 92 3f d4 3f b4 3e 32 28 83 3f
       0.07840714 1.1427046 0.35204947 1.0246642
0003f0 49 af 44 be 5d a5 66 bc 55 da 8d 3d d1 7b 17 be
       -0.19207491 -0.014077512 0.06926409 -0.14793326

temporal.rnn.bias_ih_l0 f4 [128]
000000 04 52 42 3f 8d f0 bf be 8f da 4f be bd 7d 39 3e
       0.75906396 -0.37488213 -0.20298217 0.18114372
000010 f5 6d c3 3d 46 4f 91 bd 47 9e 50 3c b9 c5 7a be
       0.09542457 -0.07095198 0.012733049 -0.24489488
000020 21 a0 28 bd c7 eb 42 bd 70 93 d6 be 9f ad bf be
       -0.041168336 -0.047588136 -0.4190936 -0.3743715
000030 34 54 90 be 7a c2 05 bf 18 50 88 3c bb 44 8a be
       -0.28189242 -0.5224987 0.016639754 -0.27005562
000040 29 fb 13 be c1 5c 74 be db 7a 9d be 3a 23 9f be
       -0.14451279 -0.23863508 -0.30757794 -0.31081563
000050 23 57 b0 be 31 5d ae 3c c5 a8 94 bd 73 0d ce be
       -0.3444148 0.021284672 -0.07258753 -0.40244636
000060 37 70 db be 6f af 3f be 13 65 c7 be a2 a9 e2 bd
       -0.4285905 -0.18719266 -0.389443 -0.11067511
000070 f5 a6 98 be f7 ef 3a be b4 27 a3 bd 49 21 9f 3e
       -0.29814878 -0.18255602 -0.07966557 0.31080082
000080 83 ba d9 be 9c e9 8d be bc 86 1b be 6d 3c dd be
       -0.4252511 -0.27717292 -0.15188116 -0.43210164
000090 c1 16 1e be 46 2d 24 3b 04 ee ee bc 41 d0 45 bc
       -0.15438367 0.00250514 -0.02916623 -0.012073577
0000a0 dd 48 d8 3b f5 8a 40 be 11 3e 07 3d fa ff 55 be
       0.006600483 -0.18803008 0.033018176 -0.20898429
0000b0 2e fe 80 be 78 b5 6f 3e 0f 51 7e be cb 5e 5d 3e
       -0.25193924 0.23409069 -0.24835609 0.21618192
0000c0 37 35 3b 3d 56 b6 98 be 4d 5c 9b bd ec 35 e1 be
       0.045705047 -0.2982661 -0.07585964 -0.43986452
0000d0 e7 0e 8e 3d 7f 8c f2 be 31 fd 9e 3c 8a e6 be be
       0.06936436 -0.47372815 0.01940784 -0.37285262
0000e0 3d 97 aa 3d 82 06 d8 bd 40 1f de be bc d7 0e be
       0.08329628 -0.10548116 -0.43383217 -0.13949484
0000f0 2e 84 fe bc 4d a0 64 bd 12 6c 34 3c 7b 69 15 bf
       -0.031068888 -0.055816937 0.011012094 -0.58364075
000100 13 45 be 3d a1 1f 9d be 24 5b 21 3e 76 16 3d bd
       0.092905186 -0.30688193 0.15757424 -0.046164
000110 43 f7 bf bb 11 11 f7 3e c0 f3 24 3e a6 67 19 3e
       -0.0058583333 0.48255208 0.16108608 0.14980945
000120 e3 42 31 3e 57 a9 8d 3d b4 26 09 be 22 b0 0c 3e
       0.17310672 0.06917065 -0.1339367 0.13739064
000130 ff a1 87 bb ac 81 20 bd 4a 5d 1f 3e 83 1b 87 be
       -0.0041391845 -0.039186165 0.1556293 -0.26388177
000140 cd 97 72 3d a7 91 26 be 80 32 99 3d d1 74 89 be
       0.0592268 -0.162665 0.07480335 -0.26846936
000150 31 a3 33 3d 81 79 3d 3d 5a 98 a7 be 58 de 87 bd
       0.043856803 0.046258453 -0.32733423 -0.066342056
000160 00 5a 83 3d 8f d9 ab 3d 7b bd aa bd 8c b5 82 be
       0.064136505 0.083911054 -0.08336922 -0.25529134
000170 80 e3 96 3e 25 57 a4 3e f6 1e 3f be 8b 12 6f bd
       0.29470444 0.32097736 -0.18664154 -0.058367293
000180 0c 6f 29 3f 01 78 bb be 91 3a 73 be 01 67 46 be
       0.6618507 -0.36614993 -0.2375281 -0.1937523
000190 67 27 7d 3e 4d 95 13 bd cd 2e 87 3e b8 59 67 3d
       0.24722062 -0.036031056 0.26402894 0.056482047
0001a0 52 73 59 3d 50 f3 9d bd 0f 9d ce be fa af d6 be
       0.053088494 -0.07712424 -0.403542 -0.41931134
0001b0 76 75 58 be 0d a9 6d 3e 69 39 43 3e 3b 8a 5d 3e
       -0.21138558 0.23209019 0.19064869 0.21634762
0001c0 6a 16 4f be 28 d8 e8 bd a5 11 2f be 4b 94 bd be
       -0.20223394 -0.113693535 -0.17096575 -0.370272
0001d0 a8 cd 91 be 69 42 e1 3d 1f 13 9a be 82 a1 af be
       -0.28477216 0.10998995 -0.30092713 -0.34302908
0001e0 7c ee 21 3d 92 0e e4 be 64 9b ab be 10 f5 02 be
       0.039534077 -0.44542366 -0.3351699 -0.12788796
0001f0 39 9e 60 bc 6e b0 e8 bc ee 68 2b 3e 81 09 13 3e
       -0.013709598 -0.02840444 0.16739246 0.14359094

temporal.rnn.bias_hh_l0 f4 [128]
000000 2f fe 02 3f 5f 50 81 be d3 6f 9f be 4c 8b e1 bd
       0.51169103 -0.2525663 -0.31140003 -0.11012897
000010 5e f3 db 3d 8e 73 0a be 60 c5 25 be b6 1d fb bd
       0.10739778 -0.13520643 -0.16188574 -0.12261526
000020 0e 27 d6 bb 5f 02 a9 be f5 19 1d be fd 9b f5 be
       -0.0065354174 -0.33009622 -0.15341933 -0.47970572
000030 79 db bf be 2f 40 d4 be 43 3a 68 3e 07 f0 f5 be
       -0.37472132 -0.41455218 0.22678475 -0.4803469
000040 fa 5c 50 3d 4f b5 c9 be 6e b0 8c be a9 f6 92 be
       0.05086992 -0.3939614 -0.27478355 -0.28703812
000050 67 b9 54 be 37 b6 0a be 53 fc 02 be bf f6 98 be
       -0.2077385 -0.13546072 -0.12791567 -0.29875752
000060 8a 7c 10 be a4 8a 90 bd 6c 26 a4 be d7 52 8c bd
       -0.14110008 -0.070576936 -0.32060564 -0.06851738
000070 03 47 58 be 10 dd 9f be a1 27 5b bd 80 b2 5c 3d
       -0.21120839 -0.31223345 -0.05350459 0.05388117
000080 25 48 97 be 3a d6 87 be 36 03 54 3c 3d 92 ec be
       -0.2954723 -0.2653063 0.012940219 -0.4620532
000090 a9 15 5e 3c 6d 70 b2 bd a6 46 8c 3d 1f 5c e8 3d
       0.013554969 -0.0871285 0.068494126 0.11345696
0000a0 88 7c af 3c 14 6e b5 be 27 88 d4 bd ba 0e 1a be
       0.021421686 -0.35435545 -0.103775315 -0.1504468
0000b0 1b 6a 41 be 85 a7 0d 3e 6e dd 7f bd 06 f0 94 3e
       -0.18888132 0.13833435 -0.06246703 0.29089373
0000c0 09 59 89 3d 72 63 64 bc b8 78 e9 bd 90 5b 25 bf
       0.06706435 -0.013939725 -0.113999784 -0.6459284
0000d0 e6 e4 0b be b6 31 b2 be df bf 34 bd e2 bc 57 be
       -0.13661537 -0.3480355 -0.044128295 -0.21068147
0000e0 48 89 02 3e 67 67 11 be 6f f1 89 be 97 6e b9 be
       0.12747681 -0.14199601 -0.26942012 -0.36217186
0000f0 7f d9 3b be 44 5b 60 be 6d f1 13 be 52 e4 c3 be
       -0.18344687 -0.21909815 -0.14447565 -0.38260132
000100 98 a0 8a 3c 77 ad 09 be 8e bf d7 3c 57 7a df 3d
       0.01692228 -0.13445078 0.026336458 0.10912006
000110 63 88 bc 3c e8 a1 c9 3e 94 70 98 3d 61 1d 79 3e
       0.023014253 0.39381337 0.074433476 0.24327613
000120 68 28 30 3e ec 8f c6 bd 9e 3e dd be 34 53 1f 3d
       0.17202914 -0.0969542 -0.43211836 0.038897708
000130 7d bf fd 3d a3 b8 3c 3c a5 9d e0 3d 55 f6 b3 bb
       0.12390039 0.01151863 0.10967568 -0.0054920116
000140 fc 2f 65 3c 72 1c ef 3d b8 38 d4 bd 32 52 68 be
       0.013988491 0.116753474 -0.10362381 -0.22687605
000150 df 6d 06 3e c4 16 2b 3e 8b 9c 89 be 98 ef 0e bb
       0.1312785 0.16707903 -0.26877245 -0.002181029
000160 d7 4c 7d 3e 06 cf 23 bd 54 b0 00 3d be 85 eb 3c
       0.24736343 -0.039992355 0.03141816 0.028750297
000170 f3 7e 86 3e 8e 8e 02 3f 26 39 a8 be 2a e1 3f bd
       0.2626873 0.5099877 -0.328561 -0.046845593
000180 c1 d6 e3 3e c0 37 c7 be f0 0c bc bd 45 21 35 be
       0.44499782 -0.3890972 -0.09182155 -0.17688473
000190 47 25 e0 3e 14 b5 4c be 85 92 0b bc 8a 13 b8 3d
       0.4377844 -0.19990951 -0.00851882 0.08988102
0001a0 d9 2f 2e 3c 63 0e 94 bd 04 1f b4 be 9e 5e 8a be
       0.010631525 -0.072293065 -0.35179913 -0.27025312
0001b0 6a 19 59 be 73 56 19 bd da 25 08 3e b4 7e a0 3e
       -0.21201101 -0.03743596 0.13295689 0.31346667
0001c0 a6 75 0b be 8b f3 79 be 96 10 ce be 3e cf 2b be
       -0.13619098 -0.2440931 -0.4024703 -0.16778275
0001d0 a2 ef 8a be 5c 27 f8 bd 65 11 b8 be 00 73 f0 be
       -0.2713595 -0.12116882 -0.3595077 -0.46962738
0001e0 49 81 f8 3b 1d 2d b3 be 63 23 f6 be eb e2 e5 bd
       0.0075837714 -0.34995356 -0.48073873 -0.11224922
0001f0 dd 8e 0a 3e 8a 4a f7 bd d8 19 7c 3e 1b 28 9b 3e
       0.1353106 -0.12074764 0.24619234 0.30304036

temporal.rnn.weight_ih_l1 f4 [128, 32]
000000 47 10 01 bf dd 43 0b 3f 1a 29 a3 bd 3a 52 34 3f
       -0.5041546 0.54400426 -0.07966824 0.7043797
000010 ab 4e 9c bf 3e cf 91 be 9d c2 1c bf 01 34 8a be
       -1.2211508 -0.28478426 -0.61234456 -0.269928
000020 ea 37 17 bf 3a 3d 1a bf dc 16 63 3f ea 7e b8 3e
       -0.59069693 -0.60249674 0.88706756 0.36034328
000030 a9 8e 6d 3e 4e 68 2a 3e 95 58 fe be 05 b7 c3 3b
       0.23198952 0.16641352 -0.49676958 0.0059727454
000040 46 25 9a be db d8 65 3e 9f c1 26 3e e3 d9 e9 3e
       -0.30106562 0.22446005 0.16284798 0.45674047
000050 86 3a 20 3e 78 e9 1c bf 2a 66 29 3e 1e b7 35 3f
       0.15647325 -0.61293745 0.16542879 0.7098254
000060 3f 79 00 3d 46 84 04 be 1b 37 f4 3d a5 c7 47 be
       0.03136563 -0.12941083 0.11924573 -0.19509752
000070 3c 1e 60 3e df 91 bb 3e 9b 74 0a 3f d2 29 11 3f
       0.21886533 0.36634728 0.54084176 0.5670444
000080 5c 69 19 bf d9 56 ac 3e 47 73 a6 be a6 fc 63 3f
       -0.5992639 0.3366001 -0.32509825 0.89057386
000090 b6 7d cb bf 08 5d 73 bf 69 b8 51 3e 43 88 16 bf
       -1.5897739 -0.9506383 0.20480503 -0.5880167
0000a0 2b ca 2c bf c7 55 fd be b7 3a 30 3e 20 14 41 be
       -0.67495984 -0.49479505 0.17209898 -0.18855333
0000b0 b2 ec a6 3f 1e 51 fa 3e d7 a7 36 bf 55 75 b8 3e
       1.3040984 0.48890013 -0.71349853 0.36027017
0000c0 67 63 96 bf 92 52 1f 3f cf dd 2c 3f 73 6c 16 3f
       -1.1749085 0.6223537 0.67525953 0.5875923
0000d0 83 22 2a 3f 93 2b 18 bf 77 f8 d6 3e fc 5e a2 3e
       0.6645891 -0.5944149 0.4198644 0.31713092
0000e0 a6 b9 7f 3f 1d 86 05 3f cc bb 10 3f 46 c9 5e 3f
       0.9989265 0.52157766 0.56536555 0.8702587
0000f0 3d 8e 47 3e 56 02 79 3e a7 73 c2 3e 3b 1d cb 3e
       0.19487853 0.24317297 0.3797886 0.3967074
000100 17 92 cf bd ba e9 41 be 72 97 d7 3e d8 b5 29 3d
       -0.10135286 -0.18936816 0.4210773 0.041433185
000110 8b 3f 20 3e 36 2b e9 3d 6c 96 78 be ee 8d 3f 3e
       0.1564924 0.11385195 -0.24276131 0.18706486
000120 d5 bf 5d be b3 1d c2 3c a3 f4 e4 be 54 1e 32 3f
       -0.2165521 0.023695802 -0.44717893 0.6957753
000130 5d 93 48 3e 9c c3 21 bc 7c 21 93 3e 2a 76 9e be
       0.19587465 -0.009873297 0.28736484 -0.30949527
000140 d3 ca 0d 3e 9b 11 33 bf ad ef f4 be ef 93 a1 bd
       0.13846903 -0.6994874 -0.47839108 -0.07889544
000150 f1 7e 92 be 0d fe 6a be 9e 86 a1 be 0b 5a ce 3d
       -0.28612474 -0.22948475 -0.31548017 0.10075768
000160 dd 76 af 3d af 10 c0 be 20 96 ef be 70 c5 c1 be
       0.08567593 -0.3751273 -0.46794224 -0.37845945
000170 ee 75 58 3e 9f c2 c1 3e 0f 7d 10 3f f9 36 9c bd
       0.21138737 0.37843797 0.56440824 -0.07627673
000180 ec 1a 28 3e d4 2c c7 be 13 c9 78 3e dd fd 1b 3f
       0.1641652 -0.3890139 0.24295454 0.6093424
000190 2d c9 0c bf 26 6f 2b be f6 5d 3c bf f9 22 27 bd
       -0.5499447 -0.16741619 -0.73580873 -0.040804837
0001a0 97 15 5e be 5d 8e c6 be ec 38 4a 3c 09 ae b9 3e
       -0.21687923 -0.3878049 0.012342673 0.3626559
0001b0 cb d4 38 be de 9f 2a 3f 09 f2 19 bf e1 74 be 3e
       -0.18049924 0.6665019 -0.6013494 0.37198547
0001c0 90 a9 97 bf 7a bf a5 3e cb f3 02 3f 54 ac 46 3e
       -1.1848621 0.32372648 0.5115325 0.19401675
0001d0 06 ec b8 3e 68 47 b2 be 24 ec 0b bd b2 a6 72 3e
       0.36117572 -0.34820104 -0.034160748 0.23696402
0001e0 8d bc 9a 3e 90 69 c2 bc 9e 42 ba 3e c4 ac 24 be
       0.30221978 -0.023731977 0.3637895 -0.1608153
0001f0 0e 82 c6 be a8 9a 9f 3e 67 f8 41 3e 38 38 a1 3e
       -0.387711 0.3117268 0.18942414 0.31488204
000200 95 24 98 bb de a7 e8 be b2 a6 46 be ba f8 17 bf
       -0.004643033 -0.45440573 -0.19399527 -0.593639
000210 bb 03 3e 3f 71 1e 18 3e b5 84 1a 3f fd 01 16 3f
       0.7422444 0.14855362 0.60358745 0.58596784
000220 ff 09 a1 bd 61 4c 5c be 64 36 82 3c e0 88 f1 3e
       -0.07863235 -0.21513511 0.015895076 0.4717474
000230 3d 5c 1e bf 9b 22 b2 bc 8e d2 a7 be 93 f0 56 bf
       -0.61859494 -0.021745017 -0.32777828 -0.8396084
000240 23 8a e5 3c b0 d6 1c 3e 80 b7 dd 3d 81 8c 05 bf
       0.02801997 0.15316272 0.108260155 -0.52167517
000250 58 63 6f be c2 19 43 be cc 90 e2 3e c9 76 45 3f
       -0.2337774 -0.19052795 0.44251096 0.77134377
000260 ce b1 7e be dc cf 58 be 7c 6f a3 bc 45 1c 6f 3d
       -0.24872515 -0.21173042 -0.01995062 0.05837657
000270 49 06 d5 3d f7 8e d8 3d 40 42 d8 be 8f 9c 2a 3f
       0.104015894 0.105741434 -0.42238045 0.6664514
000280 5b 49 19 bf 1d 62 9c be 89 a3 33 3d 2e 11 5f be
       -0.59877557 -0.30543604 0.04385713 -0.21783897
000290 c4 e3 39 3e f8 a7 af 3e 69 01 2e 3e be 71 85 bd
       0.18153292 0.34307837 0.16992725 -0.06515835
0002a0 9d fb 72 3e db 0d 77 be fb bf 8e be cd df 93 3d
       0.23728795 -0.24126379 -0.27880844 0.07220421
0002b0 97 c8 28 bc 12 e9 db be df c6 88 3e f2 b2 1c bf
       -0.010301731 -0.42951256 0.26714227 -0.6121055
0002c0 be 7b ae 3e e9 ac f2 be 9f fe 66 bf 65 6f 69 bf
       0.34078783 -0.47397545 -0.9023227 -0.911856
0002d0 0f ea 18 3e 13 15 7b 3e f4 e4 06 bf 92 2b 0e bf
       0.14933036 0.24519758 -0.52693105 -0.55535233
0002e0 e4 90 4f 3d a6 7d 86 bf 00 cc 0b bf c1 fb 4c bf
       0.050675288 -1.0507095 -0.54608154 -0.80071646
0002f0 06 15 cd 3c f5 de 3b bc 09 29 a4 be 0a 85 92 bd
       0.025034439 -0.011466731 -0.32062557 -0.071542814
000300 fa ce 31 bd 17 9a 00 3f 73 bd 8e be cd d0 b1 be
       -0.04341028 0.5023512 -0.27878913 -0.34729615
000310 57 70 57 3e 82 84 19 be 98 cb 44 3f 6e 6f 5f 3e
       0.21038948 -0.14991954 0.7687316 0.21819851
000320 e1 94 7d bd 01 8d 33 3e eb e7 9b bd e2 da b5 3e
       -0.06190956 0.17534257 -0.07612594 0.35518557
000330 ae 96 33 be 89 b6 5f bd f9 7e d1 bd 2b e7 20 3f
       -0.17537948 -0.05461744 -0.10229296 0.62852734
000340 d5 75 2d 3e 07 88 b2 be d9 53 37 be 89 a4 5f 3d
       0.1693948 -0.34869406 -0.17903079 0.054600272
000350 92 63 70 be 92 ef 63 3e 61 a8 f8 bd f0 12 4f 3f
       -0.23475483 0.22259358 -0.12141491 0.8088827
000360 53 3f 1a bf 5c 9c 52 be 2f ad 85 3d f0 0d 11 bd
       -0.60252875 -0.20567459 0.06527173 -0.035413682
000370 4e 9d ec 3e ff 44 04 be e6 f3 12 bf 11 09 c4 bd
       0.46213764 -0.12916945 -0.5740341 -0.09572042
000380 ba e8 d0 3f 2f d6 96 be 49 35 0f 3f b9 01 c2 3e
       1.6321023 -0.29460284 0.5594068 0.3789194
000390 f8 05 b9 3f 4c 40 69 3e 53 a9 fa 3e 1e 76 51 3f
       1.4454947 0.22778434 0.4895731 0.8182086
0003a0 75 d9 5a 3f 5e cd c2 bd 34 eb 90 bf 7c e8 16 3f
       0.85488063 -0.09511827 -1.1321778 0.58948493
0003b0 bf 50 57 be c9 6e 18 bd 89 5c 9f 3e 1c 98 91 3c
       -0.21026896 -0.037215028 0.31125286 0.017772727
0003c0 5a 58 09 3e 16 c3 e5 be e7 7d da be 61 04 37 bf
       0.1341261 -0.448754 -0.4267418 -0.71491057
0003d0 7b b5 86 be 83 6a be 3e 19 7a 1f bf 2f d8 1f bf
       -0.26310334 0.37190637 -0.6229568 -0.62439245
0003e0 9f e0 23 bc ea 39 08 bf ca b8 70 be 5e fb aa be
       -0.010002284 -0.5321337 -0.23507991 -0.33394903
0003f0 cc 40 3b 3e 71 e7 9d bd 6d 62 f4 be 57 07 1a bf
       0.18286437 -0.077101596 -0.47731343 -0.6016745

temporal.rnn.weight_hh_l1 f4 [128, 32]
000000 5f b4 bb 3e 72 a1 46 3f e2 c1 4d 3f 60 3b 65 bd
       0.3666105 0.77590096 0.80373967 -0.055964828
000010 90 9f d6 3e 25 27 94 bd 97 bf 49 3d 4f 00 8f be
       0.41918612 -0.07234029 0.04925498 -0.27929923
000020 01 5e d4 3e 0a c3 a0 be ae 11 5b 3f 00 57 9c bd
       0.4147797 -0.31398803 0.8557385 -0.076337814
000030 70 b9 38 3d 75 ad 9d 3e 35 18 f0 3e e9 40 45 3e
       0.045098722 0.307964 0.46893468 0.19263043
000040 10 14 75 3e 28 d2 ad be c3 23 ed be d8 33 60 be
       0.23933434 -0.339494 -0.46316347 -0.21894777
000050 71 4a 7a 3d 06 fa 8c be c3 a6 c4 be 2f 4d 8a bf
       0.06110615 -0.27534503 -0.3840848 -1.0804805
000060 7f fa 86 3f 0d b3 2b 3f b0 a9 29 bf 88 a6 bd 3e
       1.0545195 0.67070085 -0.6627455 0.37041116
000070 9d 68 92 be b9 00 a2 3e b0 f4 33 3e 15 58 eb be
       -0.2859544 0.31641176 0.1757381 -0.4596564
000080 bc 70 80 3e 2f 61 9a 3e d6 ac b5 3e 34 11 3d 3e
       0.2508601 0.3015227 0.35483426 0.18463594
000090 c8 56 ce 3e d1 0f 14 be c3 ab 34 3f 5f b0 ed bd
       0.40300584 -0.14459158 0.7057459 -0.11605906
0000a0 13 c0 d7 3d 61 fa 52 be 9d 9b f6 3e 3f ef d1 be
       0.10534682 -0.20603324 0.481656 -0.41002843
0000b0 99 64 40 be d2 e4 b7 3e 7c 98 93 3d ee e1 06 be
       -0.18788375 0.35916764 0.072068185 -0.13172123
0000c0 c6 18 b0 3e c0 12 31 3e 64 d7 c7 bd 3f f2 16 bf
       0.343939 0.17292309 -0.097578794 -0.5896339
0000d0 a4 c6 aa 3d b5 57 7a 3e 52 f1 ab be 86 69 02 be
       0.08338669 0.2444752 -0.3358255 -0.12735566
0000e0 71 cd f6 3e 62 4e 10 3f 90 f6 0a bf 89 a6 0b be
       0.48203614 0.563696 -0.54282475 -0.13637747
0000f0 1a 0d c9 be 06 3e b2 bc 4f f4 b0 3e f0 d7 85 be
       -0.39267808 -0.02175809 0.34561393 -0.2614131
000100 db 40 d9 be a5 c3 d7 3e 16 63 61 be b7 a5 20 bf
       -0.42432293 0.42141452 -0.22010455 -0.6275286
000110 20 23 47 3e c5 c1 18 be 92 46 c1 3e b0 b4 0c 3e
       0.19446993 -0.14917667 0.37749153 0.13740802
000120 93 9f 8b be 94 20 ed 3c 91 cf 36 3f 8b a2 0a be
       -0.27270183 0.028946199 0.7141047 -0.13538568
000130 50 56 85 bb 92 0b 05 3e 6b e5 09 3e 45 47 b5 3b
       -0.004069127 0.12992695 0.13466422 0.0055321776
000140 5a 76 14 3f d2 44 57 be f0 92 e3 3d 4b 9a a2 3c
       0.5799309 -0.21022347 0.111120105 0.019848963
000150 1e ec c3 be b2 36 34 be fa 18 c4 3e 2a f0 47 3d
       -0.3826608 -0.1759899 0.38300306 0.048813023
000160 7f 6b 6e 3c 79 7c 71 3e 68 49 ac be 35 cd 4a be
       0.014551996 0.23582639 -0.33649755 -0.19804843
000170 3e 81 f3 3e 65 05 d4 bd 85 0b ab 3e 8a 58 0c 3f
       0.4755954 -0.103525914 0.33407226 0.548226
000180 a2 33 12 bf d2 1e a2 be b8 0d 87 3e e1 81 6a 3f
       -0.57110035 -0.3166414 0.26377654 0.9160443
000190 ca ca d9 3e 9b 42 59 bf 17 51 33 be b8 05 7c 3e
       0.42537528 -0.84867257 -0.17511402 0.24611557
0001a0 d4 c9 a2 be 92 0d 88 3e 71 43 5d bd 20 af 17 3c
       -0.31794608 0.26572853 -0.054019395 0.009258062
0001b0 74 c7 5e bf 6b de dd be 02 6a 06 bf 81 0e 04 bf
       -0.8702309 -0.43333754 -0.52505505 -0.5158463
0001c0 9f ae 87 be fa c2 e7 3e 06 75 9d 3c 21 08 3a be
       -0.26500413 0.45265943 0.01922084 -0.18167163
0001d0 cb 73 eb 3e 53 e2 6b be a0 94 04 3f 82 22 14 be
       0.4598678 -0.23035555 0.51789284 -0.14466289
0001e0 cb 4d 9c be b1 9b ec 3d c9 e8 b9 3e ce 29 3c be
       -0.305281 0.11553133 0.36310413 -0.18375322
0001f0 26 67 c8 bd d5 cc e5 be 61 a4 cb be ac 63 f8 bd
       -0.09785299 -0.44882837 -0.3977385 -0.12128386
000200 e8 fb 47 be 13 24 2e bf 8c de 99 bf 1f 2b 88 bc
       -0.19529688 -0.68023795 -1.2021041 -0.016622124
000210 40 ba 40 be f0 f7 21 bf 49 bb 17 3e a4 ea ae 3e
       -0.18821049 -0.6326895 0.14817537 0.34163392
000220 67 0b 85 bd 7f 58 59 3e a1 52 a4 be dd ba 0c be
       -0.064963154 0.21225165 -0.3209429 -0.13743158
000230 76 a8 13 bc 65 b5 1a be 11 be 87 3e b2 b6 57 be
       -0.009012332 -0.15108259 0.26512197 -0.21065786
000240 f4 2f 6e 3e c9 b5 d9 3e 80 e0 7a be e0 cf 35 be
       0.2326048 0.42521504 -0.24499702 -0.1775508
000250 c7 af 20 3e 2d 6c 11 bf a3 b7 49 3e 1a 09 9a 3f
       0.15692054 -0.5680569 0.19698958 1.2034028
000260 73 85 d6 3d 9a 28 64 be 7c f2 bd 3e bd b1 2a be
       0.10474672 -0.22281113 0.37099063 -0.16669364
000270 75 27 fe 3d af 07 2c bf f9 41 4e 3e 0b 2c 5b 3e
       0.124098696 -0.67199224 0.20142354 0.2140352
000280 25 22 50 be a4 fc 1a 3e b1 5c db be b8 f0 dc 3e
       -0.20325525 0.15135437 -0.42844155 0.43152404
000290 d1 55 5d be 57 8c 93 3e c5 73 56 bf 28 0c 1e 3f
       -0.21614768 0.28818008 -0.837704 0.617373
0002a0 f9 1f 40 bf b2 7f 4b 3f 8f c5 aa 3d bd d4 6e be
       -0.75048786 0.7949172 0.083384626 -0.2332334
0002b0 c7 50 ec bd c9 e6 32 3e e0 65 4f 3e cc 27 ba be
       -0.115388446 0.1747085 0.20253706 -0.36358488
0002c0 b1 18 69 3f d1 ad ed 3c 4f 3e af bc 04 7e ea be
       0.910533 0.029013546 -0.021392016 -0.45799267
0002d0 60 24 4c be 79 20 38 3e c4 7a 88 3d c7 8b a2 be
       -0.19935751 0.17981137 0.06664041 -0.31747267
0002e0 5a 86 de 3e e6 8d 8e 3d 5d a5 da bd c8 50 4b bf
       0.43461877 0.06960659 -0.10676072 -0.7942014
0002f0 53 e2 4e 3e 86 80 1e 3f 5c e2 57 3f e3 d9 11 3f
       0.20203523 0.6191486 0.8432977 0.56973094
000300 0c 32 4a bf 7e 57 cd be d5 d4 bf 3e d2 ea 87 3d
       -0.78982615 -0.40105814 0.37467065 0.06636585
000310 98 32 53 3f a0 33 e9 be 42 87 1a bd 09 f2 cd 3e
       0.82499075 -0.455472 -0.03772665 0.4022372
000320 04 92 53 bf 50 d8 6b 3f fc 9c 0a bf be 8c cc 3e
       -0.8264468 0.9212694 -0.5414579 0.39951128
000330 3e 47 e7 be f6 51 45 3d d7 cd b0 be 96 e2 7b be
       -0.4517154 0.048173867 -0.34532043 -0.24598154
000340 2a fb ed 3d dd 8c bc 3e 28 ec 04 3f 46 12 da be
       0.11620171 0.3682622 0.51922846 -0.42592067
000350 4c 2c a1 3e 45 9f cb bc 6a 29 16 bf 92 6f 73 be
       0.31479108 -0.024856219 -0.5865694 -0.2377303
000360 69 67 86 3e 4c 98 33 bf 9b 15 3b 3f 25 8f 3e bf
       0.2625077 -0.7015426 0.7307984 -0.7443717
000370 63 27 a5 3e e4 ff 84 3e 18 80 da 3e b4 21 e0 3e
       0.32256612 0.2597648 0.42675853 0.43775713
000380 8e 3c 16 3e 12 61 f4 3e b5 94 95 3e 6c 60 80 bd
       0.14671537 0.4773031 0.29215017 -0.06268391
000390 c7 91 21 3f ab 23 8c be 10 cd 8b bf a3 93 ed 3d
       0.63113064 -0.27370963 -1.0921955 0.11600425
0003a0 93 dc 06 be ed b5 e6 3e 0f f2 48 3f 43 f5 bb bc
       -0.1317008 0.45060673 0.7849435 -0.022944098
0003b0 7b 45 c9 be 64 22 c6 3d e1 b2 1e 3f 98 b0 b8 3d
       -0.39310822 0.09674528 0.619917 0.090180576
0003c0 6a 28 24 3f ab ad 42 3f 85 6a 8b 3e a3 83 11 3c
       0.64124167 0.76046246 0.27229705 0.008881482
0003d0 73 a8 45 3d 32 dd f4 bb bf b9 ef 3e 71 24 00 bf
       0.04825635 -0.0074726576 0.468214 -0.50055605
0003e0 59 3d a7 3e b0 9e e0 3e 75 df 3f be dd 6a 17 bf
       0.32663992 0.4387107 -0.18737586 -0.59147435
0003f0 f8 a6 bc bc 20 9a 8d be 61 3f 2b 3f 49 23 dc 3e
       -0.023028836 -0.2765665 0.66893584 0.4299567

temporal.rnn.bias_ih_l1 f4 [128]
000000 20 1c fb bd 05 0c 73 be 61 12 70 3d a4 6c 41 3e
       -0.12261224 -0.23735054 0.058611277 0.188891
000010 85 9e 3b be 40 53 da be e9 4f 04 bf fd 54 e3 3d
       -0.18322189 -0.4264164 -0.51684433 0.111001946
000020 99 e9 ed bd 8f f3 3f bd 02 b5 85 bd a7 c3 c7 bc
       -0.11616821 -0.046863135 -0.06528665 -0.024385286
000030 35 d7 d5 bc 67 08 97 be ea 6e 08 be dd 1a 8a be
       -0.026103595 -0.29498598 -0.1332356 -0.2697362
000040 a6 a9 04 3e e9 77 dd 3d 15 b6 1f be cf 21 36 3f
       0.1295534 0.10813887 -0.15596803 0.7114534
000050 81 58 21 be 19 21 43 3e 08 35 7a be e4 26 ea be
       -0.15756418 0.19055595 -0.24434292 -0.45732796
000060 b1 b8 03 3e b5 86 12 be 93 f0 8d be 56 ed a9 3e
       0.12863423 -0.14309199 -0.27722606 0.33188885
000070 3e 65 ea be 93 3c 33 bd 72 87 57 3d c3 a7 37 be
       -0.45780367 -0.04375894 0.052619405 -0.1793509
000080 b8 49 37 be 22 21 15 be 56 e2 c1 3d e2 65 08 bd
       -0.17899215 -0.1456342 0.09466998 -0.033300288
000090 17 1f 2a 3e 51 53 2d 3f 8b 1f 16 3f 45 b2 86 3e
       0.16613422 0.67705256 0.5864188 0.26307884
0000a0 f2 ac b6 3e ab 4f 41 3f ca f3 40 be 42 5a ff be
       0.35678822 0.7551219 -0.18842998 -0.4987355
0000b0 59 7c 17 3e 2e dc 22 be 32 ba 20 3f be 46 83 3e
       0.14793529 -0.15904304 0.6278411 0.2563991
0000c0 41 19 b5 3d d1 1b 09 3f 06 71 83 be f6 7c a9 3f
       0.088427074 0.5355807 -0.25672168 1.324126
0000d0 48 77 5a 3e 0a 83 7d bd 4a 72 9d 3e 43 2f 0e 3f
       0.21334565 -0.061892547 0.30751258 0.55540866
0000e0 4a 79 26 3e 71 9b ef be 3c d1 af be 3b 9c b3 3e
       0.16257206 -0.4679828 -0.3433932 0.35080132
0000f0 18 c4 ea be f6 6d 93 3e c7 14 81 be d2 c9 b0 3e
       -0.45852733 0.2879483 -0.25211164 0.34528977
000100 62 ee 98 3e f6 0a d9 3e 1e 5a 83 3e ce 83 fa 3e
       0.29869372 0.42391175 0.2565469 0.48928684
000110 e7 52 ab bd bf 9c 7c 3e 16 90 17 bf df 5b af be
       -0.08365422 0.24669169 -0.5920423 -0.3424978
000120 28 a7 ba 3e e3 9a 9e be db 16 a7 3d f1 71 98 3e
       0.36455655 -0.30977544 0.08158656 0.2977443
000130 b8 22 11 bd 86 63 3c 3e 7d 40 46 3d ca fe 8c bd
       -0.0354335 0.1839734 0.048401345 -0.06884535
000140 22 6c 25 be 84 b2 8e 3e c4 0d 9f bd 86 2d 31 3f
       -0.1615453 0.27870572 -0.077662975 0.6921009
000150 ef d8 74 bd 5a 4b 1c 3f c0 29 af 3e 91 da 8a 3d
       -0.059777196 0.6105248 0.3421154 0.067799695
000160 3a a2 0f be da 4f 17 bd b2 f3 3e be fd 2f a5 3c
       -0.14026728 -0.036941387 -0.1864765 0.020164484
000170 ef 6e ba 3e 11 55 73 3d 6e 81 5e bd 01 98 8e be
       0.3641276 0.059407298 -0.054322653 -0.27850345
000180 2b 5e 78 be bc e7 d6 be 62 3f 65 3e 99 f2 a7 bd
       -0.24254672 -0.41973674 0.2238746 -0.08200569
000190 39 7a a8 3e 62 6a 7e 3e 82 dc 1c 3f 66 4e bb 3e
       0.32905748 0.2484527 0.6127397 0.3658325
0001a0 5d 3e fb 3e 70 1c a9 3e f0 d3 1a be fc a9 a8 bd
       0.49071017 0.3302951 -0.1511991 -0.08235547
0001b0 d5 3f 1d 3d 9f 10 bc bc 46 1f ca 3d 8d 00 b7 bd
       0.038390953 -0.022957144 0.09869246 -0.08935652
0001c0 ca dc c1 3d 38 b8 36 3e 6f 39 0a be 41 f8 15 3e
       0.0946594 0.17843711 -0.13498472 0.14645483
0001d0 aa 62 37 be a7 07 60 3e 1d 44 0b be b2 09 49 3e
       -0.17908731 0.21877919 -0.13600202 0.19632605
0001e0 df 5a 82 3d b7 ab 79 be 13 0a f5 be b1 16 48 3e
       0.063649885 -0.2438191 -0.4785925 0.19539906
0001f0 9c 53 0b bf c0 37 b5 3e 17 a6 c6 3d 22 85 42 3e
       -0.5442445 0.35394096 0.09699648 0.18996099

temporal.rnn.bias_hh_l1 f4 [128]
000000 25 90 9a be 36 3a 3f bd e1 0a ec 3d d5 46 e9 3e
       -0.301881 -0.046686374 0.115255125 0.45561853
000010 79 ee 08 be c6 c0 cc be 4a cf 05 bf 63 59 f9 bd
       -0.1337222 -0.39990824 -0.52269423 -0.12175252
000020 67 65 98 bc 42 28 87 bc 22 ef 0d be 73 16 a6 3d
       -0.01860304 -0.016498689 -0.13860753 0.081097506
000030 53 8c 7f 3c 49 c6 06 bf 00 52 f2 bd 82 e7 99 be
       0.015597421 -0.5264631 -0.118320465 -0.3005944
000040 8b 6f 83 3d 9e 93 38 3d b4 ae fe bd 14 66 2a 3f
       0.064177595 0.045062654 -0.12435666 0.6656201
000050 e9 9e a9 be 2c 05 cb 3c d2 65 ac be a5 5b 0b bf
       -0.3312905 0.02478274 -0.33671433 -0.54436713
000060 02 56 ea 3d 50 77 34 be 99 e7 16 bf 5a ed a8 3e
       0.11442186 -0.17623639 -0.5894714 0.32993585
000070 9e 9f e5 be cc f8 81 3d 43 98 36 3d 37 64 37 be
       -0.4484834 0.06346282 0.0445788 -0.17909323
000080 5b 1f a8 bd 15 ce cb bd eb 50 0d 3e be bc 21 3e
       -0.082091056 -0.099514164 0.13800399 0.15794656
000090 5e 92 26 3e 0d fa d2 3e a4 5b b5 3e 3c 36 83 3d
       0.16266772 0.412064 0.3542148 0.06406829
0000a0 3e 81 d2 3e 3c b7 49 3f b1 59 21 be 15 21 a0 be
       0.4111423 0.7879522 -0.15756871 -0.3127524
0000b0 05 f9 d7 bd a1 33 17 be 75 88 1d 3f 62 ce c6 3e
       -0.105455436 -0.14765789 0.6153634 0.38829333
0000c0 14 7c d9 bd 0e 57 a0 3e 99 2f 42 3a de c0 9d 3f
       -0.10619369 0.31316417 0.00074076053 1.2324483
0000d0 19 7a 31 3e bd cb 9c be 9b 92 be 3d f1 82 ca 3e
       0.17331733 -0.3062419 0.093053065 0.39553025
0000e0 63 6d a6 3e ab 4d b1 be 8b 8e 09 bf e0 5a 1a 3f
       0.3250533 -0.34629568 -0.5373313 0.60294914
0000f0 e8 a0 e3 be ed 95 a7 3e fc 9f da be a0 8a e4 3d
       -0.444587 0.32731572 -0.42700183 0.11159253
000100 30 3f ea 3d 39 b3 88 3e 16 00 11 bd 6a 40 37 3f
       0.11437833 0.26699236 -0.035400473 0.71582663
000110 7d 4c 7a be 5b 72 86 3d 7a ee b6 be e6 1d b9 be
       -0.2444324 0.0656478 -0.35728818 -0.36155623
000120 43 c8 91 3e 4a 3a 02 bf af 91 29 3e 38 42 92 3c
       0.284731 -0.5087019 0.1655948 0.017853841
000130 38 06 a2 3d e9 8b 98 bd 3c f0 40 be 68 d1 bc 3d
       0.079113424 -0.07448561 -0.18841642 0.092196286
000140 19 6d 57 be 6c 9e 47 3d e1 8a 11 be d4 1d 41 3f
       -0.21037711 0.048735067 -0.14213134 0.7543614
000150 0c f9 e7 bd d3 27 04 3f ed 28 24 3c ec 4e 49 3e
       -0.11326799 0.51623267 0.010019523 0.19659013
000160 0d 13 35 bc 9f 7d c2 3d 74 1a 0c be 7c e5 54 bd
       -0.011051905 0.094966166 -0.13681966 -0.051976666
000170 39 c2 ac 3e 0d 5f a0 3b 45 b5 70 be f9 84 86 be
       0.3374193 0.0048941434 -0.23506649 -0.26273325
000180 52 46 84 be aa 22 ba be 0d b1 8f 3e 14 f9 ec bd
       -0.258349 -0.36354572 0.28064767 -0.115709454
000190 1e 63 1a 3e 0b 53 f1 3e 52 ba 0d 3f 2f 6f b4 3e
       0.15076873 0.4713367 0.5536243 0.35241076
0001a0 7c c9 fc 3e 93 63 ca 3e 1b 2b 8e be b9 a2 24 bd
       0.4937247 0.39529094 -0.27767262 -0.040194247
0001b0 7d 29 1d be 31 41 0b bd b4 ad 02 3c 8f 6c 09 3e
       -0.15347858 -0.03399772 0.007975984 0.13420318
0001c0 43 0f e9 3d 9d 14 a8 3c 78 93 71 bc 9a 4e 94 3e
       0.11379864 0.020517642 -0.014744632 0.28966218
0001d0 9a 10 cf bc 9d 92 05 bd e3 25 56 be b7 11 38 bc
       -0.02527647 -0.032610524 -0.2091289 -0.011234692
0001e0 2e 00 53 3d d8 00 fd be 09 ff b5 be 15 c1 e1 3e
       0.051513843 -0.49414706 -0.3554614 0.44092622
0001f0 82 95 c4 be 85 34 1c 3d 50 08 1d 3e e9 37 e2 3e
       -0.38395315 0.038136024 0.15335202 0.4418328
