notebook/output/rolling_models_dynamic/window_8.pth (torch, 479861 bytes, 99 tensors)

temporal.input_proj.weight f4 [32, 7]
0	0xbefc017e	-0.49219888
1	0x40269f0a	2.603457
2	0x4027b133	2.6201904
3	0xbe834c35	-0.2564408
4	0x3db1b852	0.086777344
5	0xbdc8f259	-0.09811849
6	0xbcc993b6	-0.024606567
7	0x3f9763ca	1.1827328
8	0x4037f2ad	2.8741868
9	0x404ed5cf	3.2317998
10	0xbe8e3cb2	-0.27780682
11	0xbddfb094	-0.109223515
12	0x3d6e69e6	0.05820646
13	0xbc29f166	-0.010372495
14	0x3f733d46	0.9501537
15	0x3ea9abfe	0.33139032
16	0xbf94d998	-1.1628904
17	0xbe1f44b7	-0.15553556
18	0x3ea47a5b	0.321246
19	0xbe1d7862	-0.15377954
20	0x3ea6f0bc	0.3260554
21	0x405ae18f	3.420017
22	0x4057275b	3.361777
23	0x4018054d	2.3753235
24	0xbeae6903	-0.34064493
25	0xbdd8dcc8	-0.10588986
26	0xbce7b1e8	-0.028283074
27	0xbb17905e	-0.002312682
28	0x3f707138	0.9392276
29	0x3f00ee69	0.50363785
30	0x3f2178c1	0.6307488
31	0x3e5026d0	0.20327306
32	0xbe3001ba	-0.17188159
33	0x3e14b61a	0.14522591
34	0xbe9370c5	-0.28796974
35	0xbf7aed12	-0.9801799
36	0x3ff7f58e	1.9371812
37	0x40337ed4	2.804616
38	0x3ebcfb87	0.3691065
39	0xbea4f1b5	-0.32215658
40	0x3df9ea20	0.12202859
41	0xbe62b6fb	-0.22140114
42	0xc0744879	-3.8169234
43	0xbf5f9f00	-0.8735199
44	0xbf17da7e	-0.5931777
45	0x3e5c8a1a	0.21537057
46	0xbe1b55a0	-0.15169382
47	0xbd9508c5	-0.07277063
48	0xbe9f8228	-0.3115399
49	0xc06b7263	-3.6788566
50	0xbdfcce7a	-0.1234407
51	0x3f96c37b	1.1778406
52	0xbd83082e	-0.063980445
53	0xbc74d008	-0.014942177
54	0xbd5a5eef	-0.053313192
55	0xbe1d4917	-0.15359913
56	0xc0b84591	-5.758492
57	0xc021ff5d	-2.5312111
58	0xbfcb83fb	-1.5899652
59	0xbe2c19d7	-0.16806732
60	0x3d3c9350	0.046038926
61	0xbeed8058	-0.4638698
62	0xbd514692	-0.05109269
63	0x3ebbca40	0.36677742
64	0xbf0592eb	-0.52177304
65	0xbf48672a	-0.78282416
66	0xbebbd07d	-0.366825
67	0x3d402286	0.046907924
68	0xbe82b945	-0.25531974
69	0x3e9eb33d	0.30996123
70	0xbf39dfd7	-0.7260718
71	0x3fed790a	1.8552563
72	0x3ff0dd40	1.881752
73	0x3e6d16cc	0.23153228
74	0x3dc74bfe	0.09731291
75	0xbe2e1698	-0.17000806
76	0xbbb01a5a	-0.005374235
77	0x3ec8ab4e	0.39193195
78	0xbfec839f	-1.8477668
79	0xbf8c095c	-1.0940356
80	0xbe80331f	-0.25039002
81	0xbd8404b2	-0.06446208
82	0x3d823ce0	0.06359267
83	0xbd82b795	-0.06382672
84	0xbff4996d	-1.9109322
85	0xc04877f6	-3.1323218
86	0xc03b6f8f	-2.928684
87	0xbdfd8ea6	-0.12380724
88	0xbe5ff03e	-0.21868989
89	0x3e99b6cd	0.30022278
90	0xbc4a68cb	-0.012354086
91	0x3f649565	0.8929046
92	0xbfc4c621	-1.5372964
93	0xc00ad3c6	-2.1691756
94	0xbd878bed	-0.066184856
95	0xbe9f1b72	-0.31075627
96	0x3ea36cd3	0.31918964
97	0xbd194e2a	-0.03742806
98	0xc087a6e8	-4.2391243
99	0xc03ac2eb	-2.9181468
100	0xc00f1c49	-2.2361014
101	0x3dc61454	0.09671846
102	0xbe078d89	-0.13237585
103	0x3dd16a1a	0.102253154
104	0xbbc5e100	-0.006038785
105	0xc04dc082	-3.2148747
106	0xc03af6ed	-2.9213212
107	0xc031c102	-2.7774053
108	0xbdf281cc	-0.11841163
109	0x3d5be1db	0.05368219
110	0x3dc7bfa8	0.097533524
111	0x3c4ca4d8	0.012490474
112	0x401cdb96	2.4509025
113	0x3df1fc29	0.11815674
114	0x3ee7624e	0.45192188
115	0x3c1edc08	0.009696014
116	0xbe2783eb	-0.16358916
117	0xbe0cca67	-0.13749085
118	0xbed36c1c	-0.41293418
119	0xbf17a751	-0.5923968
120	0xbce8b16f	-0.02840492
121	0x3e5f039a	0.21778718
122	0xbeb31850	-0.34979486
123	0xbe2833f4	-0.16426069
124	0xbe309cac	-0.17247266
125	0x3dc176a7	0.09446459
126	0x3fbec193	1.4902824
127	0xc0172da5	-2.362161
128	0xbff4bc76	-1.9120014
129	0x3e19bc3c	0.15013212
130	0xbdd9c2a3	-0.10632827
131	0x3d8576d0	0.06516802
132	0xbcef2c9b	-0.029196074
133	0x3fb9b2ad	1.4507653
134	0x40451903	3.0796516
135	0x401d5000	2.4580078
136	0xbe83b726	-0.2572567
137	0xbe63c37e	-0.22242543
138	0x3d23c823	0.039985787
139	0x3c5e4b82	0.013567807
140	0x3f189544	0.5960276
141	0xbfec40f7	-1.8457326
142	0xc02594c3	-2.5872047
143	0x3bcd2d58	0.006261509
144	0xbd9a22a9	-0.07526142
145	0x3a58691c	0.00082554086
146	0x3c932724	0.017963
147	0x401235e9	2.2845404
148	0xbfae61ef	-1.3623637
149	0xbfba7def	-1.4569682
150	0xbae9a29c	-0.0017824951
151	0xbd5dcbb6	-0.054149352
152	0x3d31b880	0.043388844
153	0xbd26efe3	-0.040756118
154	0x3e717ccd	0.23582764
155	0x3ff2927f	1.8950957
156	0x400e40ee	2.222713
157	0x3dd7b7ae	0.10533081
158	0xbd9c375b	-0.07627746
159	0xbdcab306	-0.09897427
160	0xbd17d295	-0.03706606
161	0xbf4d16cc	-0.8011291
162	0xc0124860	-2.2856674
163	0xc004bd33	-2.0740478
164	0xbe0ba7c1	-0.13638212
165	0x3e3bf259	0.18354167
166	0x3ea25785	0.31707397
167	0xbd432e65	-0.047651667
168	0xc0330477	-2.7971475
169	0xbf2619aa	-0.6488291
170	0xbfe32fe5	-1.7748991
171	0xbd663a69	-0.056208048
172	0x3e9e3bab	0.30904898
173	0x3eee1831	0.46502832
174	0x3c1b8aee	0.009493573
175	0xbfe9812b	-1.8242544
176	0x3fcb2f23	1.587376
177	0x3f992ee1	1.1967431
178	0x3e86340e	0.2621159
179	0x3d83f271	0.064427264
180	0xbe0c1b3a	-0.13682261
181	0xba9ac72b	-0.0011808624
182	0xbf371328	-0.71513605
183	0xbfe6afdd	-1.8022419
184	0xbfeb750d	-1.8395096
185	0x3e3def9b	0.18548433
186	0xbe8fd096	-0.28088826
187	0x3eb0df11	0.34545186
188	0xbd34758d	-0.044057418
189	0x3ffe8e35	1.9887148
190	0xbec7f1e7	-0.39051744
191	0xbf6945cc	-0.91122127
192	0x3cbb18fb	0.02283906
193	0x3ece230d	0.40261117
194	0x3d5c162c	0.053732082
195	0xbd34fd0a	-0.04418663
196	0x4042b373	3.0422027
197	0x4042aa51	3.0416453
198	0x4027a364	2.6193476
199	0x3e48f49a	0.19624558
200	0x3d3367bb	0.043800097
201	0xbe560fd5	-0.20904477
202	0xbcc3d193	-0.023903644
203	0xc05fee8d	-3.498935
204	0xbf609328	-0.8772454
205	0x3f4cb789	0.7996755
206	0x3dc15458	0.094399154
207	0x3d7d9996	0.06191405
208	0xbe80c264	-0.25148308
209	0x3d9d7370	0.076880336
210	0x40529024	3.2900476
211	0x3fcea8c0	1.6145248
212	0x3f09aebf	0.53782266
213	0x3e37ca51	0.17948271
214	0x3ccb8f64	0.024848647
215	0x3d979ca5	0.074029244
216	0xbd1ca16f	-0.038239893
217	0x3fb20151	1.3906652
218	0xbedab80c	-0.42718542
219	0xbf54909e	-0.8303317
220	0x3e5aeff3	0.21380596
221	0xbec4aba6	-0.38412207
222	0x3e893007	0.26794454
223	0x3d694d69	0.05695859

temporal.input_proj.bias f4 [32]
0	0xbd7fd4e5	-0.06245889
1	0xbcb13aa2	-0.021634404
2	0xbeebce20	-0.46055698
3	0x3de101f7	0.10986703
4	0xbf5ecc2e	-0.87030303
5	0x3e851415	0.25991884
6	0x3e9432f3	0.2894512
7	0x3f484d79	0.78243214
8	0xbe920c7b	-0.28525147
9	0x3dfac5bf	0.12244748
10	0xbd9ba41e	-0.07599662
11	0x3d0f262d	0.034948517
12	0xbe1ad882	-0.15121654
13	0xbe6ecc1f	-0.23320054
14	0xbee1ada3	-0.44077787
15	0xbea4c0a8	-0.32178235
16	0xbec75506	-0.38932055
17	0x3f10d7e1	0.56579405
18	0xbd4d669a	-0.050146677
19	0x3eda905a	0.42688257
20	0x3dc859d6	0.0978276
21	0xbe9fc30e	-0.31203502
22	0x3f18d351	0.59697443
23	0x3d22793d	0.039666403
24	0x3ed42cd9	0.41440466
25	0xbe877ffd	-0.26464835
26	0x3e002505	0.12514122
27	0xbf3de78f	-0.74181455
28	0x3cc33954	0.023831047
29	0x3edfd742	0.43718916
30	0xbf2e881f	-0.68176454
31	0xbe67849e	-0.22609183

temporal.layer_norm.weight f4 [32]
0	0x3f9de867	1.2336549
1	0x3f99c176	1.2012165
2	0x3f4e8c9e	0.80683315
3	0x3fcdeefe	1.608856
4	0x3f2c15a6	0.6722053
5	0x3f450e60	0.7697506
6	0x3eb94656	0.36186475
7	0x3f795952	0.97401917
8	0x3f90e71d	1.132053
9	0x3e9a4462	0.30130297
10	0x3f912e8a	1.1342328
11	0x3fb83878	1.4392233
12	0x3f891fc5	1.071282
13	0x3fd1d1f5	1.6392199
14	0x3fc92e7e	1.5717313
15	0x3f987632	1.191107
16	0x3f25e1ae	0.64797485
17	0x3f1e6556	0.61873376
18	0x3fc14b34	1.5101075
19	0x3f8e79e7	1.1130952
20	0x3f749fe5	0.9555648
21	0x4000aeab	2.010661
22	0x3f8f390e	1.1189287
23	0x3f42f4fc	0.76155066
24	0x3f14f74f	0.5818986
25	0x3fbab870	1.4587536
26	0x3f8a7c3c	1.0819163
27	0x3f700d20	0.9377003
28	0x3fb29ff5	1.3955065
29	0x3f8ac001	1.0839845
30	0x3f80098a	1.0002911
31	0x3f0c80b0	0.5488386

temporal.layer_norm.bias f4 [32]
0	0xbe1f71c2	-0.15570739
1	0xbebabb7f	-0.36471173
2	0x3f19058d	0.59774095
3	0xbd4324e5	-0.047642607
4	0x3ef42d31	0.47690728
5	0xbf276837	-0.65393394
6	0xbe84ae3e	-0.25914186
7	0xbf1902ca	-0.5976988
8	0xbec85745	-0.3912908
9	0x3ece3977	0.40278217
10	0xbe46f6c4	-0.19430071
11	0xbe933236	-0.28749245
12	0x3d585e27	0.052824166
13	0xbe8df260	-0.2772398
14	0xbc714d79	-0.014727944
15	0xbdf546c4	-0.11976388
16	0x3e06ddd8	0.13170564
17	0x3edd5203	0.43226632
18	0x3e386aab	0.1800944
19	0xbed71a5e	-0.42012304
20	0x3ecb7490	0.39737368
21	0xbd8847e0	-0.06654334
22	0x3e59c1a6	0.21265277
23	0xbde0b476	-0.1097192
24	0xbf7a07aa	-0.97667944
25	0x3e80748f	0.25088927
26	0x3e359cae	0.1773555
27	0xbeb7d448	-0.35904145
28	0x3d253c1d	0.04034053
29	0xbed020fc	-0.40650165
30	0x3ee48793	0.44634685
31	0x3f5846b0	0.8448286

temporal.rnn.weight_ih_l0 f4 [128, 7]
0	0xbf7431b4	-0.9538834
1	0xbf7d7000	-0.98999023
2	0xbf6b666a	-0.91953146
3	0xbf58ef5a	-0.8474022
4	0x3e2147e6	0.15750083
5	0x3e07313a	0.13202372
6	0xbf0933de	-0.5359477
7	0xbf39f5e8	-0.7264085
8	0xbf1c08e6	-0.6095108
9	0xbf1b026c	-0.6055057
10	0xbf0f7b5a	-0.56047595
11	0xbe1145b1	-0.14186741
12	0xbe5b5d02	-0.21422198
13	0x3ead39e8	0.3383324
14	0xbf229941	-0.63515097
15	0xbf241fcc	-0.6411102
16	0xbf137d28	-0.5761285
17	0xbee489c8	-0.4463637
18	0xbf28d329	-0.65947205
19	0xbf332279	-0.69974476
20	0x3e75af24	0.23992592
21	0x3e60c061	0.21948387
22	0x3e2bab1a	0.16764489
23	0x3e113e41	0.14183904
24	0x3cfb2aed	0.030660117
25	0x3ec467bc	0.38360393
26	0x3df75ef8	0.12078661
27	0xbe454866	-0.19265899
28	0x3ea339db	0.31880078
29	0x3e501f2f	0.20324396
30	0x3e81b874	0.2533604
31	0x3e2e1578	0.17000377
32	0x3e458a53	0.19291048
33	0x3ed8c532	0.42337948
34	0x3d53d146	0.05171325
35	0xc0629e08	-3.5408955
36	0xc059e0ea	-3.4043527
37	0xc03ea3d5	-2.9787495
38	0xc06e9194	-3.7276354
39	0xbd848ce9	-0.06472189
40	0xbe30e199	-0.17273559
41	0xbe2e5bf4	-0.17027265
42	0xbda24288	-0.07922846
43	0xbe99587a	-0.29950315
44	0xbdc77190	-0.09738457
45	0xbde539c1	-0.11192656
46	0xbe1c3789	-0.1525556
47	0xbd3e38c2	-0.046440847
48	0xbe538d28	-0.20659316
49	0x3e9df317	0.30849525
50	0x3eb8df75	0.36107984
51	0x3e62cf16	0.2214931
52	0x3eb7c480	0.35892105
53	0xbebdc178	-0.37061667
54	0xbecc8fec	-0.39953554
55	0x3e70e98d	0.23526593
56	0xbf8c6a97	-1.0970029
57	0xbfa07c64	-1.2537961
58	0xbf898322	-1.0743144
59	0xbfabc058	-1.3418074
60	0xbec9362e	-0.39299148
61	0xbe593348	-0.21210968
62	0x3dc5f911	0.09666646
63	0xbf2da958	-0.67836523
64	0xbf275891	-0.65369517
65	0xbf408a91	-0.75211436
66	0xbf6e1e8e	-0.9301537
67	0xbe77a802	-0.24185184
68	0xbeac4670	-0.3364749
69	0xbbd38e08	-0.0064561404
70	0xbf4b6f55	-0.79466754
71	0xbf4b148c	-0.7932823
72	0xbf702e6a	-0.9382082
73	0xbf6818ef	-0.90663046
74	0xbf336cda	-0.7008797
75	0xbefd2573	-0.49442634
76	0xbe5c1349	-0.21491732
77	0xbf1a9cfd	-0.60395795
78	0xbeb59efb	-0.35472855
79	0xbead4a50	-0.33845758
80	0xbedf0411	-0.4355779
81	0xbec92870	-0.39288664
82	0xbe9f0045	-0.31054893
83	0x3f0154c8	0.5051999
84	0x3efc777b	0.49309906
85	0x3e4875fc	0.19576257
86	0x3f059096	0.52173746
87	0x3f13c79e	0.57726467
88	0xbefb4c00	-0.4908142
89	0xbeffc46d	-0.49954548
90	0x3e6bc99e	0.2302613
91	0xbf91cdf5	-1.1390978
92	0xbfdb5080	-1.7133942
93	0xbf140769	-0.57823807
94	0xbf82683e	-1.0188062
95	0xbd35b59a	-0.044362642
96	0xbf1c72be	-0.6111258
97	0x3e47883a	0.1948556
98	0xbf13e435	-0.5777009
99	0xbe8cd7a8	-0.27508283
100	0xbeff4367	-0.4985611
101	0xbee17f7f	-0.44042584
102	0xbf095597	-0.53646225
103	0xbe951df7	-0.29124424
104	0xbe513d31	-0.20433499
105	0xbf8a6763	-1.0812801
106	0xbfbbad46	-1.4662254
107	0xbed182d2	-0.4092012
108	0xbf9e39cf	-1.2361392
109	0xbdd93aa1	-0.10606886
110	0xbebbc3d2	-0.36672837
111	0x3dd578ad	0.10423408
112	0xbd05a95b	-0.032632213
113	0x3dd7a325	0.10529164
114	0x3d806565	0.062693395
115	0xbe37d7ec	-0.17953461
116	0x3e5f6ff3	0.21820049
117	0x3dcdec93	0.100548886
118	0xbdb4c57b	-0.08826729
119	0xbf35afcb	-0.70971364
120	0xbee034ac	-0.43790185
121	0xbf1c6797	-0.61095566
122	0xbf3db95d	-0.74110967
123	0xbedca974	-0.43098032
124	0xbf1ee823	-0.6207296
125	0x3dabefed	0.083953716
126	0xbf8631e0	-1.0483971
127	0xbfac9f37	-1.3486089
128	0xbf94372b	-1.1579336
129	0xbf910cee	-1.1332071
130	0x3deb879d	0.115004756
131	0xbe1e5893	-0.15463476
132	0xbe3a5319	-0.18195762
133	0xbf587930	-0.8455992
134	0xbf74e5da	-0.95663226
135	0xbe32fd04	-0.1747933
136	0xbe5fad71	-0.21843506
137	0x3d2ce50b	0.04221062
138	0xbdb966f5	-0.090528406
139	0xbd2a0fb9	-0.0415189
140	0x3f168f7c	0.5881269
141	0x3f1e9cbd	0.61957914
142	0x3f1d0574	0.61336446
143	0x3efafda0	0.49021626
144	0xbf0644bb	-0.52448624
145	0xbf1bd91b	-0.6087815
146	0x3f01f6f7	0.50767463
147	0xbdcd8240	-0.10034609
148	0xbe965f49	-0.29369572
149	0xbe809074	-0.2511021
150	0xbe8bb7ab	-0.27288565
151	0xbdee0741	-0.11622477
152	0xbe2ae7da	-0.16690007
153	0xbc9443b0	-0.018098682
154	0xbf7b2a72	-0.9811164
155	0xbf8679a8	-1.0505877
156	0xbf8c8c9f	-1.0980414
157	0xbf6c5cce	-0.9232911
158	0xbf351f62	-0.7075101
159	0xbea3a4a5	-0.3196155
160	0xbcfaecaa	-0.030630428
161	0xbed71b37	-0.4201295
162	0xbf07a9a2	-0.52993214
163	0xbf166ee6	-0.5876297
164	0xbf01b466	-0.5066589
165	0xbf290ab9	-0.66031986
166	0xbf12eddd	-0.573942
167	0x3e05bade	0.13059565
168	0xbea88c3f	-0.329195
169	0xbf0d9a12	-0.5531322
170	0xbdbdd5b6	-0.09269278
171	0xbee2a9e9	-0.44270256
172	0x3dbd78af	0.09251534
173	0x3d74a163	0.059724223
174	0x3eea3bc7	0.45748731
175	0xbf521c89	-0.8207479
176	0xbf482eca	-0.78196394
177	0xbf4a6fa2	-0.7907659
178	0xbf15ccfa	-0.58515894
179	0xbe1d7d7c	-0.153799
180	0xbe11d0df	-0.14239834
181	0xbc9525e9	-0.018206554
182	0xbf4845d8	-0.78231573
183	0xbf264fc6	-0.64965475
184	0xbf5416b2	-0.8284713
185	0xbf3ef37e	-0.7459029
186	0xbe30a11d	-0.1724896
187	0xbdaf22ef	-0.08551585
188	0xbeae4e0c	-0.3404392
189	0xbf36d43f	-0.7141761
190	0xbef0cd1a	-0.4703148
191	0xbf460d2f	-0.77363867
192	0xbea5cd9b	-0.32383427
193	0x3e451be6	0.19248924
194	0xbe2b3ddc	-0.16722816
195	0x3dc14888	0.09437662
196	0x3e83e848	0.25763154
197	0x3ee8670f	0.45391127
198	0x3eb0b464	0.34512627
199	0x3f110ab7	0.56656975
200	0xbf034f65	-0.5129302
201	0xbef25448	-0.47329926
202	0xbe93b337	-0.28847668
203	0xbd12076d	-0.035651613
204	0x3b91fe36	0.004455353
205	0xbd87c9a6	-0.06630258
206	0xbe3aa7f1	-0.18228127
207	0xbe092e48	-0.13396561
208	0x3ece49a2	0.40290552
209	0xbd631de9	-0.055448446
210	0xbd03cf5b	-0.03218017
211	0x3cc17501	0.023615362
212	0xbdf8538e	-0.12125312
213	0xbe7cc545	-0.24684627
214	0xbd6fb830	-0.058525264
215	0x3dd7ca0e	0.10536586
216	0xbf429929	-0.76014954
217	0xbf076ebf	-0.5290336
218	0xbefaaf26	-0.48961753
219	0xbefb71cf	-0.49110267
220	0xbf3f3966	-0.7469696
221	0xbdc3c0f1	-0.09558285
222	0xbd80228a	-0.06256588
223	0xbe6fa32a	-0.23402086
224	0xbe672d77	-0.22575937
225	0xbeba5ec0	-0.36400414
226	0xbe815dae	-0.25266784
227	0xbf044b70	-0.5167761
228	0xbf1126d8	-0.56699896
229	0xbf0e644d	-0.55621797
230	0x3e2d4f92	0.16924885
231	0xbeee8cd4	-0.46591818
232	0xbf0f70d4	-0.5603154
233	0xbee38586	-0.44437808
234	0xbf0b40bc	-0.5439565
235	0xbe0f7b0f	-0.14011787
236	0xbeacf43e	-0.33780092
237	0xbd8a00aa	-0.06738408
238	0xbebd2b1d	-0.36946955
239	0xbefefa96	-0.49800557
240	0xbf23ebb8	-0.64031553
241	0xbf1d6c3e	-0.6149329
242	0xbea7a7f8	-0.32745337
243	0xbe2a2604	-0.16616064
244	0xbdc8c46a	-0.09803088
245	0x3ec32116	0.3811118
246	0x3def1db8	0.1167559
247	0x3ea39594	0.31950057
248	0x3cfe59b8	0.03104864
249	0xbe335a0a	-0.17514816
250	0xbeaea938	-0.3411348
251	0x3cb320bf	0.0218662
252	0x3eb66a12	0.356278
253	0x3ea04e5d	0.31309786
254	0x3e89542e	0.26822037
255	0x3caf839b	0.021425059

temporal.rnn.weight_hh_l0 f4 [128, 32]
0	0x3df3484f	0.11879026
1	0xbf83fe7c	-1.0312037
2	0x3de416aa	0.11137135
3	0xbdf65bab	-0.12029203
4	0x3c455038	0.012043051
5	0x3f880c7b	1.0628809
6	0xbe029acc	-0.12754363
7	0x3e260504	0.16212851
8	0x3f89d22d	1.0767266
9	0xbf011d54	-0.50435376
10	0xbf18700e	-0.5954598
11	0x3f0a3494	0.5398648
12	0xbd9f93f1	-0.077918895
13	0xbf1e98e4	-0.6195204
14	0xbd1fd500	-0.039021492
15	0xbf995c5c	-1.1981311
16	0x3ed16844	0.4089986
17	0x3d3069b8	0.04306957
18	0xbe961e44	-0.29319966
19	0xbf8ca528	-1.0987902
20	0xbf0dd5d0	-0.55404377
21	0x3eec01ff	0.46095273
22	0xbeec0167	-0.4609482
23	0xbf52a5e0	-0.82284355
24	0xbdd11d5f	-0.1021068
25	0xbf5128ae	-0.817027
26	0xbdfd68c8	-0.12373501
27	0xbf329a87	-0.6976704
28	0x3e25b114	0.16180831
29	0x3e9353eb	0.28774962
30	0x3c283f35	0.010268976
31	0x3e4f04ef	0.20216726
32	0xbe2203ea	-0.15821806
33	0x3d8d7ab6	0.06908171
34	0xbe64a10f	-0.22327064
35	0x3e720f9e	0.2363877
36	0x3e90470e	0.2817921
37	0xbe743319	-0.23847617
38	0x3eb4c226	0.35304374
39	0x3edd148b	0.43179736
40	0x3da18f18	0.07888621
41	0xbdb99545	-0.09061674
42	0x3ebba59a	0.3664978
43	0xbea899b4	-0.32929766
44	0xbf6c4bc8	-0.92303133
45	0xbe797649	-0.24361528
46	0xbe1336fc	-0.14376444
47	0xbc862f6c	-0.016380034
48	0xbeaccd69	-0.33750466
49	0x3e43dae0	0.19126463
50	0x3e0dbef7	0.13842379
51	0x3d3781d0	0.044801533
52	0x3e5abab6	0.21360287
53	0x3edb3174	0.42811167
54	0x3e32d106	0.17462549
55	0x3e31d218	0.173653
56	0x3d5d8570	0.054082334
57	0x3e2aced0	0.16680455
58	0x3e88534d	0.26626053
59	0x3ec822bd	0.39089003
60	0x3e719876	0.23593315
61	0xbecf485e	-0.404849
62	0xbe87b252	-0.26503235
63	0x3eba73a4	0.36416352
64	0xbdfa7d76	-0.12230961
65	0xbe8f63a9	-0.28005722
66	0x3da676b0	0.081281066
67	0xbe460f55	-0.19341786
68	0xbe322396	-0.17396387
69	0xbe82f006	-0.25573748
70	0x3db855f6	0.09000771
71	0xbe1e4d9e	-0.15459296
72	0xbda44df6	-0.08022682
73	0xbe4b8492	-0.1987479
74	0x3ee61193	0.44935283
75	0x3dd3c8a0	0.103410006
76	0x3daffa9c	0.08592722
77	0x3e9990a0	0.29993153
78	0xbe5d5270	-0.21613479
79	0x3dc85011	0.097808965
80	0x3cf4053c	0.029787652
81	0xbe1c1018	-0.15240514
82	0xbdda61a4	-0.10663155
83	0x3e0045d7	0.12526642
84	0xbe30e7ae	-0.17275879
85	0xbb635952	-0.003469069
86	0x3b3d52eb	0.0028888534
87	0xbc9ae98c	-0.018910192
88	0x3e15940c	0.14607257
89	0x3dd1d5fb	0.10245892
90	0x3e17c64d	0.1482174
91	0x3e8d4a19	0.27595595
92	0xbdab04cf	-0.083505265
93	0xbec55c5d	-0.3854703
94	0xbe6c29f6	-0.23062882
95	0x3e7c89f9	0.24662007
96	0xbe75caa2	-0.2400308
97	0x3e3dc6b9	0.18532838
98	0xbea5fdc9	-0.32420185
99	0x3ed14a28	0.4087689
100	0xbc1b88b3	-0.009493041
101	0xbe172ee3	-0.1476398
102	0xbd123e2d	-0.035703827
103	0x3e2df87b	0.16989319
104	0xbc25d342	-0.010121169
105	0x3de812ab	0.11331686
106	0x3e985a20	0.2975626
107	0xbeb189e3	-0.34675512
108	0xbdcd3f38	-0.10021824
109	0xbe700954	-0.23441058
110	0xbefd7d65	-0.4950973
111	0x3dca7a2a	0.09886582
112	0xbef679a4	-0.4813968
113	0x3ea00f37	0.31261608
114	0x3e94a59b	0.29032597
115	0xbbd1d252	-0.006403246
116	0xbec07fe3	-0.3759757
117	0xbe924a3e	-0.28572267
118	0x3ea2968c	0.31755483
119	0x3e654b52	0.22392014
120	0xbdfb2e2e	-0.122646675
121	0x3e27bf1b	0.16381495
122	0x3eb812e4	0.35951912
123	0x3e3d1536	0.18465123
124	0xbe9326fc	-0.2874068
125	0xbef52924	-0.4788295
126	0x3e3a0e72	0.18169573
127	0xba3dbaf5	-0.00072376366
128	0xbecd1833	-0.40057525
129	0xbf1cf29e	-0.61307704
130	0x3e32eadb	0.17472403
131	0xbe7176a9	-0.23580422
132	0xbe5f4ef6	-0.21807465
133	0x3f61039b	0.87896127
134	0xbd58beee	-0.05291646
135	0x3ef6e420	0.4822092
136	0x3f106f02	0.56419384
137	0xbe7c5c35	-0.24644549
138	0xbe835ec0	-0.25658226
139	0x3ebe5ee8	0.37181783
140	0xbeb84735	-0.35991827
141	0xbf45ed20	-0.7731495
142	0x3e2e07d8	0.1699518
143	0xbf8f0fc2	-1.1176684
144	0x3f0c79b9	0.54873234
145	0xbf24b211	-0.6433421
146	0xbe139e18	-0.14415777
147	0xbf13e1eb	-0.577666
148	0xbf50592a	-0.81386054
149	0x3ecde8e2	0.40216738
150	0xbf26cedd	-0.651594
151	0xbe043f17	-0.12914692
152	0x3d86d773	0.065840624
153	0xbf4083da	-0.7520119
154	0xbed5c93d	-0.41755095
155	0xbf2a37d0	-0.66491413
156	0x3f0fe5ff	0.5621032
157	0x3f4e22c3	0.8052179
158	0x3d6a6e5f	0.057234164
159	0x3e67a03f	0.22619723
160	0x3f2de5dd	0.6792887
161	0x3e42cac2	0.19022658
162	0xbdc49b34	-0.09599915
163	0xbea48e06	-0.32139605
164	0x3fbfc79a	1.4982789
165	0x3ea27015	0.31726137
166	0xbed864b1	-0.4226432
167	0x3edf7c69	0.43649605
168	0xbb9bc1bf	-0.004753321
169	0x3e0090e7	0.12555276
170	0xbdc36fdb	-0.09542819
171	0xbe3b3396	-0.18281397
172	0xbed47fe2	-0.41503817
173	0xbdcbaf1e	-0.0994551
174	0xb9f0078b	-0.00045781987
175	0x3ded786f	0.115952365
176	0x3cc737da	0.024318624
177	0x3b246d95	0.002508973
178	0x3d8fd551	0.07023109
179	0xbe19c20b	-0.15015428
180	0xbe7dbfa7	-0.24780141
181	0xbdbb4dd4	-0.09145704
182	0xbd930729	-0.071791
183	0xbf03d27d	-0.51493055
184	0xbe618f8e	-0.22027418
185	0xbe2342d5	-0.15943463
186	0x3e883b09	0.2660754
187	0xbdc27dd9	-0.0949666
188	0x3e2634b8	0.16231048
189	0xbec04406	-0.37551898
190	0xbeee7bba	-0.4657877
191	0xbd10edb9	-0.03538296
192	0xbe7ba6de	-0.24575374
193	0xbd11aa76	-0.035562955
194	0xbe863043	-0.26208696
195	0x3cbaa49b	0.022783568
196	0x3ccc4bf7	0.024938567
197	0x3dc99b51	0.098440774
198	0xbe57bfda	-0.2106928
199	0xbec0950c	-0.37613714
200	0x3eb5d5b8	0.35514617
201	0xbe946445	-0.2898275
202	0x3ed4f2c8	0.41591477
203	0xbe2dee98	-0.16985548
204	0xbdb3484a	-0.087540224
205	0xbee073ff	-0.43838498
206	0xbeff8388	-0.49905038
207	0x3e5fd76e	0.21859524
208	0xbd468c37	-0.048473563
209	0xbe396b55	-0.1810735
210	0xbe96336d	-0.2933611
211	0x3e23bd6b	0.15990226
212	0x3ef797b7	0.48357937
213	0xbe67f5dd	-0.22652383
214	0xbd48f810	-0.049064696
215	0x3df1f741	0.11814738
216	0xbe885e84	-0.2663461
217	0x3d81bcbd	0.06334827
218	0xbe3721b9	-0.17883958
219	0xbe62085c	-0.22073501
220	0xbdebc7e1	-0.11512733
221	0xbe9f013e	-0.31055635
222	0x3e3ff57e	0.18745992
223	0xbe4ee8a8	-0.20205939
224	0x3dfe6c10	0.12422955
225	0xbe3b25ae	-0.18276092
226	0xbe2d7880	-0.16940498
227	0x3e44152a	0.19148698
228	0x3dd6a8e3	0.10481431
229	0xbd5b130b	-0.053484958
230	0xbc43ac9c	-0.011943009
231	0x3d6c881f	0.057747003
232	0x3e12b9b9	0.1432866
233	0x3c619995	0.013769527
234	0x3e39a430	0.18129039
235	0xbf083706	-0.5320896
236	0x3ea0a24d	0.31373826
237	0xbca0aff7	-0.019615157
238	0xbe3e9b9d	-0.1861405
239	0x3d454dc1	0.048169855
240	0x3d924607	0.07142263
241	0x3e28b99d	0.16477056
242	0x3f129cfe	0.572708
243	0x3ddd4b8f	0.10805427
244	0xbe30ff02	-0.17284778
245	0x3ee209f2	0.44148213
246	0x3e870081	0.26367572
247	0xbe989fbe	-0.29809374
248	0x3d627277	0.055284943
249	0x3f8c150c	1.0943923
250	0x3ec21fb9	0.37914827
251	0x3f80908e	1.0044115
252	0xbe1266af	-0.14296983
253	0xbc6aa6f4	-0.014322031
254	0x3d13767c	0.036001667
255	0xbdcf2ee8	-0.101163685

temporal.rnn.bias_ih_l0 f4 [128]
0	0x3f40029a	0.7500397
1	0xbec81e51	-0.3908563
2	0xbe573651	-0.21016814
3	0x3e67ad4a	0.22624698
4	0x3da8c557	0.082407646
5	0xbd8ffef9	-0.07031054
6	0x3d357b9b	0.044307332
7	0xbe810508	-0.2519915
8	0xbccae0d2	-0.024765406
9	0xbd563338	-0.05229494
10	0xbedfe988	-0.43732858
11	0xbeb7e9e7	-0.3592064
12	0xbe848c15	-0.25888124
13	0xbf02d09a	-0.5109955
14	0x3d001e06	0.031278633
15	0xbe85bf47	-0.26122496
16	0xbdea8a23	-0.11452129
17	0xbe52e436	-0.20594868
18	0xbe8055af	-0.2506537
19	0xbe917dfb	-0.28416428
20	0xbeb193ff	-0.34683225
21	0x3bcc207f	0.00622946
22	0xbc10ff0e	-0.008849872
23	0xbeca0c19	-0.39462355
24	0xbed7b966	-0.42133635
25	0xbe039bb3	-0.12852363
26	0xbe99a1ac	-0.30006158
27	0xbdc99af8	-0.09844011
28	0xbe9dbe5a	-0.3080929
29	0xbe26b83f	-0.16281222
30	0xbd5195f3	-0.051168393
31	0x3e90f3b5	0.28310934
32	0xbecd8913	-0.40143642
33	0xbea11949	-0.31464604
34	0xbe229c96	-0.15880045
35	0xbecc48b6	-0.39899224
36	0xbe0fbdd6	-0.1403726
37	0x3946d843	0.00018963315
38	0xbd0e3c11	-0.034725253
39	0xbd00b8bf	-0.031426188
40	0xbaa763c6	-0.0012770824
41	0xbe30f8f8	-0.17282474
42	0x3c1bbbdf	0.009505241
43	0xbe3f8864	-0.18704373
44	0xbe71ed3c	-0.23625654
45	0x3e5da307	0.21644221
46	0xbe71e433	-0.23622207
47	0x3e592097	0.21203838
48	0x3d495a28	0.049158245
49	0xbe88c98f	-0.26716277
50	0xbd4aec89	-0.049541984
51	0xbed77033	-0.4207779
52	0x3d6bfe79	0.05761573
53	0xbedbe09f	-0.4294481
54	0x3db2161c	0.08695623
55	0xbec9c2cb	-0.39406428
56	0x3d8b9d92	0.068171635
57	0xbdd727d2	-0.10505642
58	0xbec26671	-0.37968782
59	0xbe01f108	-0.12689602
60	0xbd185818	-0.037193388
61	0xbcee61ad	-0.02909931
62	0x3cc02aca	0.023457903
63	0xbf0abe08	-0.54196215
64	0x3df226b4	0.11823788
65	0xbe9a7a6d	-0.30171528
66	0x3e0a4a57	0.13504921
67	0xbd315118	-0.043290228
68	0xbbd96ae0	-0.006635055
69	0x3edd5559	0.43229178
70	0x3e278dac	0.16362637
71	0x3e1ed6b3	0.15511589
72	0x3e14fd8b	0.14549844
73	0x3dac8e08	0.08425528
74	0xbdc9e909	-0.09858901
75	0x3e15b522	0.14619878
76	0x3c08d758	0.008352123
77	0xbd309975	-0.043115098
78	0x3df1c1a2	0.11804511
79	0xbe832c22	-0.25619608
80	0x3d414c80	0.047192097
81	0xbe120955	-0.14261372
82	0x3cc80ad8	0.024419233
83	0xbe8947c3	-0.26812562
84	0x3d88ebd3	0.06685605
85	0x3c970ec3	0.018439656
86	0xbeb7f9bb	-0.35932717
87	0xbda299d9	-0.079395
88	0x3d6baff4	0.05754085
89	0x3d6834b2	0.05669088
90	0xbdbbb2a7	-0.091649346
91	0xbe82d63b	-0.2555407
92	0x3e8e4ad7	0.27791473
93	0x3e938267	0.28810427
94	0xbe2b56e9	-0.16732372
95	0xbd95e0fb	-0.07318302
96	0x3f25223c	0.6450536
97	0xbec58632	-0.38578945
98	0xbe74f692	-0.23922184
99	0xbe09ef2e	-0.13470146
100	0x3e80d064	0.2515899
101	0xbcc39c96	-0.023878377
102	0x3e881469	0.26578072
103	0x3d996437	0.074898176
104	0x3d6d90c9	0.057999406
105	0xbdaa24f3	-0.08307829
106	0xbed6dee5	-0.4196693
107	0xbece2bfe	-0.40267938
108	0xbe3fbe88	-0.18725026
109	0x3e5c7fab	0.21533076
110	0x3e703371	0.23457123
111	0x3e6252b6	0.22101864
112	0xbe388de3	-0.18022875
113	0xbdae7680	-0.08518696
114	0xbdeb23c6	-0.114814326
115	0xbeb37709	-0.35051754
116	0xbe8b563b	-0.27214226
117	0x3dc9351a	0.098245814
118	0xbe6489c7	-0.22318183
119	0xbeae5605	-0.34050003
120	0x3d0f335f	0.0349611
121	0xbebf0e3c	-0.37315547
122	0xbe937ed1	-0.2880769
123	0xbdef192c	-0.11674723
124	0xbd422f73	-0.047408532
125	0xbcba0ab1	-0.022710176
126	0x3e2202fa	0.15821448
127	0x3df42bd5	0.11922423

temporal.rnn.bias_hh_l0 f4 [128]
0	0x3f00aec3	0.50266665
1	0xbe897e22	-0.26854044
2	0xbea31dcb	-0.31858668
3	0xbd852c33	-0.06502571
4	0x3dc14ac1	0.09438086
5	0xbe09cb6e	-0.13456509
6	0xbe057058	-0.13031137
7	0xbe04d342	-0.12971213
8	0x3c21ab65	0.009867524
9	0xbeab6b47	-0.33480284
10	0xbe2fc5c3	-0.17165284
11	0xbeedd851	-0.464541
12	0xbeb4135a	-0.35171014
13	0xbece5c61	-0.40304855
14	0x3e7737c4	0.24142367
15	0xbef16a93	-0.47151622
16	0x3da59a5f	0.080860846
17	0xbeb8f915	-0.36127535
18	0xbe5f1641	-0.21785833
19	0xbe85516a	-0.26038677
20	0xbe57330f	-0.21015571
21	0xbe1a20d4	-0.15051585
22	0xbd836fcd	-0.06417809
23	0xbe94f565	-0.2909347
24	0xbe090f3a	-0.13384715
25	0xbc431a07	-0.011908061
26	0xbe6cc620	-0.23122454
27	0xbd66885e	-0.056282394
28	0xbe6275d0	-0.22115254
29	0xbe95c12f	-0.2924895
30	0xbcccdc4b	-0.025007388
31	0x3cd68d08	0.026190296
32	0xbe8b16b5	-0.27165762
33	0xbe9b05e7	-0.3027794
34	0x3bc54c8d	0.0060210885
35	0xbedb9e86	-0.4289438
36	0x3ce1d388	0.027566686
37	0xbdb72e62	-0.08944394
38	0x3d80e409	0.06293494
39	0x3dc0b9ee	0.09410463
40	0x3c5de84b	0.0135441525
41	0xbeada520	-0.33915043
42	0xbe0257cb	-0.12728803
43	0xbe039725	-0.12850626
44	0xbe315aec	-0.1731984
45	0x3df729f9	0.120685525
46	0xbd4e297e	-0.05033254
47	0x3e92d0f0	0.28675032
48	0x3d906b6b	0.07051738
49	0x3c8c9ab8	0.01716362
50	0xbdb3929f	-0.087682
51	0xbf2078b1	-0.6268416
52	0xbe17eca2	-0.14836362
53	0xbe9b85d5	-0.30375543
54	0x3cbfdbc5	0.023420224
55	0xbe6d7539	-0.23189248
56	0x3de618cc	0.112351984
57	0xbe10f80f	-0.14157127
58	0xbe5c714a	-0.21527591
59	0xbeb2fb32	-0.34957272
60	0xbe421ee5	-0.18957098
61	0xbe44ff5c	-0.19238037
62	0xbe0732c7	-0.13202964
63	0xbeae8d61	-0.3409224
64	0x3d2d136a	0.042254843
65	0xbe0462cf	-0.12928317
66	0x3b79c601	0.0038112404
67	0x3de55ce8	0.11199361
68	0x3cb62b97	0.022237582
69	0x3eafe630	0.34355307
70	0x3d9da46f	0.07697379
71	0x3e7e8c7b	0.24858277
72	0x3e13e310	0.14442086
73	0xbda7ab36	-0.08186953
74	0xbecb2592	-0.396771
75	0x3d436781	0.04770613
76	0x3e0baa42	0.13639167
77	0x3bf8b2fb	0.0075896955
78	0x3d93a456	0.07209079
79	0x3b0fc535	0.0021937613
80	0x3b000e16	0.0019539646
81	0x3e0c168f	0.1368048
82	0xbe1db436	-0.15400776
83	0xbe67f837	-0.2265328
84	0x3e1dfb01	0.15427782
85	0x3e0e9a66	0.13926086
86	0xbe99fdec	-0.3007654
87	0xbc799770	-0.015233859
88	0x3e768bbd	0.24076743
89	0xbd89a6c8	-0.06721264
90	0x3cbd8c0a	0.023138065
91	0x3ce97c24	0.028501578
92	0x3e7bcc64	0.24589688
93	0x3ef44841	0.47711375
94	0xbe9e556f	-0.30924556
95	0xbd7c907e	-0.061661236
96	0x3edb3cfe	0.4281997
97	0xbed145f1	-0.40873674
98	0xbdbf84dd	-0.093515135
99	0xbdf152dd	-0.11783383
100	0x3ee261e1	0.442153
101	0xbe404326	-0.18775615
102	0xbbddbd50	-0.0067669526
103	0x3dddcad3	0.10829701
104	0x3c7ea574	0.015542377
105	0xbda04006	-0.078247115
106	0xbebc60da	-0.36792642
107	0xbe81daa2	-0.25362116
108	0xbe40627c	-0.18787569
109	0xbd5dfc0b	-0.054195445
110	0x3e351ff1	0.17687966
111	0x3ea2e2f1	0.31813768
112	0xbde9da4c	-0.1141859
113	0xbe5cc2b8	-0.21558654
114	0xbeb150b2	-0.34631878
115	0xbe1794ad	-0.14802809
116	0xbe847836	-0.25872964
117	0xbe081a47	-0.13291274
118	0xbe904340	-0.28176308
119	0xbeef2783	-0.46709833
120	0x3b45529e	0.0030109058
121	0xbe8e2cc7	-0.27768537
122	0xbede06d0	-0.43364573
123	0xbdcf11f2	-0.10110845
124	0x3dd019b6	0.10161154
125	0xbdeba144	-0.11505368
126	0x3e72b3d5	0.23701413
127	0x3e8eae40	0.27867317

temporal.rnn.weight_ih_l1 f4 [128, 32]
0	0xbf09f1cc	-0.5388458
1	0x3ef2d043	0.47424516
2	0x3c4c0810	0.012453094
3	0x3f2ccec2	0.6750299
4	0xbfa18823	-1.2619671
5	0xbea07cf9	-0.31345347
6	0xbf0ced37	-0.5504946
7	0xbe43a4da	-0.19105855
8	0xbf1c7b8a	-0.61126006
9	0xbf124408	-0.5713506
10	0x3f5f645f	0.8726253
11	0x3ec8ff91	0.39257482
12	0x3e9e2e29	0.30894592
13	0x3e4e73ed	0.2016141
14	0xbef40931	-0.47663262
15	0x3d24d708	0.040244132
16	0xbe9e62c0	-0.30934715
17	0x3e6049e1	0.21903183
18	0x3e5830c6	0.21112356
19	0x3ef698c3	0.48163423
20	0x3d8a6aa4	0.06758621
21	0xbf1f3516	-0.6219038
22	0x3e183cb4	0.14866906
23	0x3f35e60e	0.7105416
24	0x3e19aec4	0.15008074
25	0xbdf949ec	-0.121723026
26	0x3e0c7beb	0.13719146
27	0xbd9a6245	-0.07538275
28	0x3e868c79	0.26279047
29	0x3ec7f416	0.3905341
30	0x3f12275f	0.57091326
31	0x3f15ae0b	0.58468693
32	0xbf16b893	-0.5887539
33	0x3ea56f30	0.32311392
34	0xbea2ec85	-0.31821075
35	0x3f6298dc	0.88514495
36	0xbfc89fa9	-1.5673724
37	0xbf7e74ca	-0.99396956
38	0x3e3ea5c3	0.1861792
39	0xbf1987a1	-0.5997258
40	0xbf1fc257	-0.62405914
41	0xbedb7920	-0.4286585
42	0x3e168573	0.14699344
43	0xbe5e0570	-0.21681762
44	0x3f9f4852	1.2443945
45	0x3f047e4e	0.51755226
46	0xbf346d00	-0.7047882
47	0x3ecb22f8	0.39675117
48	0xbf8c6496	-1.0968196
49	0x3f181981	0.59413916
50	0x3f344863	0.70422953
51	0x3f21757c	0.6306989
52	0x3f3a784c	0.7283981
53	0xbf1ffc10	-0.6249399
54	0x3ebefa2c	0.3730024
55	0x3ea70d26	0.3262722
56	0x3f7fd3df	0.99932665
57	0x3f15863c	0.5840795
58	0x3f0c87c7	0.5489468
59	0x3f5ff5a1	0.87484175
60	0x3e10b32c	0.14130849
61	0x3e5e0ef0	0.21685386
62	0x3eb92ac7	0.3616545
63	0x3eccdf91	0.40014318
64	0xbe1d7e34	-0.15380174
65	0xbe1f0690	-0.15529847
66	0x3ec1411b	0.37744984
67	0x3d928b33	0.071554564
68	0x3e1d8f21	0.1538663
69	0x3db0bb8f	0.08629524
70	0xbe99b9e8	-0.30024648
71	0x3e150ea8	0.14556372
72	0xbe892d1b	-0.26792225
73	0x3cfa2773	0.030536389
74	0xbecb0f2c	-0.39660013
75	0x3f2f7570	0.6853857
76	0x3e6effba	0.2333974
77	0x3b93414d	0.0044938684
78	0x3e861ccd	0.26193848
79	0xbea5a141	-0.3234959
80	0x3dfd1b3e	0.12358712
81	0xbf29399d	-0.66103536
82	0xbefd7a01	-0.49507144
83	0xbd19d615	-0.03755768
84	0xbe7abe63	-0.2448669
85	0xbe88b0b9	-0.2669733
86	0xbe9d3bdf	-0.3070974
87	0x3e075d4a	0.1321918
88	0x3d1a6f31	0.037703697
89	0xbedbb775	-0.42913404
90	0xbedfe04d	-0.43725815
91	0xbef51a6e	-0.47871727
92	0x3e551173	0.20807438
93	0x3ec12603	0.37724313
94	0x3f16f584	0.5896838
95	0xbd1102cd	-0.03540306
96	0x3e2e0991	0.16995837
97	0xbebe8a6e	-0.37214988
98	0x3e4b3f99	0.1984848
99	0x3f203b5e	0.6259059
100	0xbf03f362	-0.5154325
101	0xbe3064e2	-0.17225984
102	0xbf497d51	-0.7870684
103	0xbd58f77e	-0.052970402
104	0xbe855ccc	-0.2604736
105	0xbebd6ba9	-0.369962
106	0xbc0ea812	-0.008707063
107	0x3e8afdeb	0.2714685
108	0xbe422360	-0.18958807
109	0x3f1fc94d	0.62416536
110	0xbf27c34e	-0.65532386
111	0x3eb3ec7c	0.3514136
112	0xbf967a2b	-1.1756033
113	0x3e964af7	0.2935407
114	0x3f0b20e2	0.5434705
115	0x3e2d2eec	0.1691243
116	0x3eaf55a8	0.34245038
117	0xbecca2f3	-0.3996807
118	0x3da3e8b2	0.080033675
119	0x3e895597	0.26823112
120	0x3e54d321	0.20783664
121	0xbd271ed1	-0.040800873
122	0x3ec98906	0.39362353
123	0xbdb50d53	-0.08840432
124	0xbee36473	-0.44412574
125	0x3e7e71ed	0.24848147
126	0x3e46da55	0.19419225
127	0x3e9cbbd2	0.30612046
128	0x3d008e74	0.031385854
129	0xbee89c68	-0.45431828
130	0xbe3ab687	-0.18233691
131	0xbf11346a	-0.567206
132	0x3f3cefa3	0.73803157
133	0x3e2affea	0.16699186
134	0x3f1ddf15	0.6166852
135	0x3f0e5c4c	0.55609584
136	0xbd3ac376	-0.045596562
137	0xbe3c0a87	-0.18363391
138	0xbc7359be	-0.014852939
139	0x3ef6c59e	0.48197645
140	0xbf16ba4d	-0.5887802
141	0xbcc0171c	-0.02344852
142	0xbe9bab98	-0.30404353
143	0xbf5ce34e	-0.8628434
144	0x3d8d8b68	0.06911355
145	0x3df07d13	0.11742606
146	0x3d89ba7d	0.06725023
147	0xbf0cfdec	-0.55074954
148	0xbe6cc419	-0.2312168
149	0xbe2abe62	-0.16674188
150	0x3ec96f32	0.39342648
151	0x3f3b7999	0.7323242
152	0xbe9c725e	-0.30556005
153	0xbe1adb25	-0.1512266
154	0xbceadfa5	-0.028671095
155	0xbc00a5ea	-0.007852057
156	0x3dfe0346	0.12402968
157	0x3df6b828	0.12046844
158	0xbede8600	-0.4346161
159	0x3f2a525c	0.6653192
160	0xbf1c365d	-0.6102045
161	0xbe98f68f	-0.2987561
162	0x3c96f956	0.01842944
163	0xbe642bda	-0.22282353
164	0x3e30155c	0.17195648
165	0x3eac9e8b	0.3371471
166	0x3e467300	0.19379807
167	0xbd0b85a6	-0.034063004
168	0x3e57f7a4	0.21090561
169	0xbe8baeb8	-0.27281737
170	0xbe891b2e	-0.2677855
171	0x3de21657	0.11039417
172	0xbc66e03e	-0.014091549
173	0xbedcefa5	-0.43151584
174	0x3e834989	0.2564204
175	0xbf216dcc	-0.6305816
176	0x3eac66b9	0.3367212
177	0xbee6cda4	-0.45078766
178	0xbf612589	-0.879479
179	0xbf649998	-0.89296865
180	0x3e11e07b	0.14245789
181	0x3e731ff3	0.23742656
182	0xbf08de4e	-0.5346421
183	0xbf0ae333	-0.5425293
184	0x3d955235	0.0729107
185	0xbf88346a	-1.0640996
186	0xbf0d37f5	-0.5516351
187	0xbf4be278	-0.7964244
188	0x3d4a8cc9	0.04945067
189	0x3ba765e7	0.0051085833
190	0xbe9ef554	-0.31046546
191	0xbd413943	-0.04717375
192	0xbda74475	-0.08167354
193	0x3edf8462	0.43655688
194	0xbea2da10	-0.31806993
195	0xbed31181	-0.41224292
196	0x3e642604	0.22280127
197	0xbe2abddc	-0.16673988
198	0x3f565b12	0.8373271
199	0x3e85ecbf	0.26157185
200	0xbd7e9c6e	-0.0621609
201	0x3e14f779	0.14547528
202	0xbd6f6924	-0.05844988
203	0x3ed543cc	0.41653287
204	0xbe52fa1e	-0.20603225
205	0xbc9fb0f0	-0.01949355
206	0xbdd02de4	-0.10165003
207	0x3f2aec2c	0.6676662
208	0x3e223609	0.15840925
209	0xbeab6c04	-0.33480847
210	0xbe1ef866	-0.15524444
211	0x3d33215f	0.043732997
212	0xbe7f2470	-0.24916244
213	0x3e86ab1a	0.26302415
214	0xbdd21b73	-0.10259142
215	0x3f54ef4c	0.8317764
216	0xbf096c7d	-0.53681165
217	0xbe85b244	-0.26112568
218	0x3dcf38a3	0.101182245
219	0xbc6f16ea	-0.0145928655
220	0x3f0a295c	0.5396936
221	0xbe0c403d	-0.1369638
222	0xbf22d293	-0.6360256
223	0xbdcea30a	-0.10089691
224	0x3fcdafb4	1.6069245
225	0xbe8b5657	-0.2721431
226	0x3f05e29e	0.52298915
227	0x3ec55ff3	0.38549766
228	0x3fb1db15	1.3894984
229	0x3e72a11b	0.2369427
230	0x3ef105f6	0.4707486
231	0x3f5348bd	0.82532865
232	0x3f4e71af	0.8064222
233	0xbd4d7233	-0.050157737
234	0xbf8ecf1a	-1.1156952
235	0x3f0ad2bb	0.542278
236	0xbe6690b9	-0.22516145
237	0xbd139afe	-0.036036484
238	0x3eadbae1	0.3393164
239	0x3b38d1e2	0.0028201272
240	0x3e00391e	0.12521788
241	0xbee458ef	-0.445991
242	0xbed6eb04	-0.41976178
243	0xbf35a1a9	-0.709498
244	0xbe92bbb4	-0.2865883
245	0x3ec8af42	0.3919621
246	0xbf216952	-0.6305133
247	0xbf0fba9c	-0.5614412
248	0xbbd25a7c	-0.006419478
249	0xbf0b69bf	-0.5445823
250	0xbe6da546	-0.23207578
251	0xbe9a7342	-0.3016606
252	0x3e44b65d	0.19210191
253	0xbd86de1e	-0.06585334
254	0xbee18827	-0.44049188
255	0xbf1c9972	-0.6117164

temporal.rnn.weight_hh_l1 f4 [128, 32]
0	0x3eaa226e	0.33229393
1	0x3f433389	0.7625051
2	0x3f3cbb48	0.7372327
3	0xbe03c6aa	-0.12868753
4	0x3ed24026	0.41064566
5	0xbdc4aecd	-0.09603653
6	0x3df106d7	0.11768883
7	0xbe7f265d	-0.24916978
8	0x3ec01720	0.37517643
9	0xbe9e451f	-0.3091211
10	0x3f45ef38	0.77318144
11	0xbd5960c9	-0.053070817
12	0x3d3ae678	0.04562995
13	0x3ea18cc0	0.31552696
14	0x3ee20a77	0.4414861
15	0x3e519147	0.20465575
16	0x3ea7e27a	0.32789975
17	0xbeb7224b	-0.3576835
18	0xbed8e840	-0.42364693
19	0xbe7ed226	-0.24884853
20	0x3dc612ef	0.0967158
21	0xbe7cda93	-0.24692754
22	0xbed05b0a	-0.40694457
23	0xbf829891	-1.020281
24	0x3f89120e	1.0708635
25	0x3f12870c	0.57237315
26	0xbf14d626	-0.58139265
27	0x3eb63b9c	0.35592353
28	0xbe23de40	-0.1600275
29	0x3e6ddf3f	0.23229693
30	0x3e333d0c	0.17503756
31	0xbeccde6d	-0.40013447
32	0x3e482b44	0.19547755
33	0x3e882ce6	0.26596755
34	0x3eb42d86	0.35190982
35	0x3e040bc8	0.12895119
36	0x3ed79e5e	0.42113012
37	0xbe35742b	-0.17720096
38	0x3f2aedbb	0.66769
39	0xbd5e6c34	-0.05430241
40	0x3d85632c	0.06513056
41	0xbe3888e0	-0.18020964
42	0x3ebbd90e	0.36689037
43	0xbe854ca8	-0.26035047
44	0xbe1f9673	-0.15584736
45	0x3ebc4755	0.36773172
46	0x3c7050a6	0.014667666
47	0xbe04bdc3	-0.12963013
48	0x3ea976b5	0.3309838
49	0x3e2df9b1	0.16989781
50	0xbc814c3b	-0.01578342
51	0xbf15ceaa	-0.5851847
52	0x3e033163	0.12811808
53	0x3e9e351a	0.30899888
54	0xbec18b88	-0.37801766
55	0xbd97f338	-0.07419437
56	0x3eecf3f6	0.46279877
57	0x3ef2d3c7	0.47427198
58	0xbef3b7fc	-0.47601306
59	0xbe22ffbc	-0.15917867
60	0xbeb09710	-0.34490252
61	0xbdb2583f	-0.08708238
62	0x3eadfe0a	0.3398288
63	0xbe5c4456	-0.21510443
64	0xbed6b4bf	-0.41934773
65	0x3ecd9662	0.40153795
66	0xbe5d3aec	-0.21604508
67	0xbf1c3129	-0.6101251
68	0x3e3412ee	0.17585346
69	0xbe0f9f55	-0.14025624
70	0x3eb1500b	0.3463138
71	0x3deca439	0.115547605
72	0xbe81579b	-0.2526215
73	0x3cd3ff52	0.025878582
74	0x3f38f74b	0.7225234
75	0xbdf6a0fc	-0.12042424
76	0xbcfb11f3	-0.030648207
77	0x3dd9a601	0.10627366
78	0x3e2308d0	0.1592133
79	0x3c6690e9	0.014072635
80	0x3f147e77	0.5800547
81	0xbe2e6453	-0.17030458
82	0x3dcfb730	0.10142362
83	0x3d00b2ea	0.031420626
84	0xbeb59f0c	-0.35472906
85	0xbe4e8bee	-0.20170566
86	0x3eba3058	0.36365008
87	0x3dc1dc54	0.094658524
88	0x3d2e9ad0	0.04262811
89	0x3e6e6eff	0.23284529
90	0xbea519dd	-0.32246295
91	0xbe45c5be	-0.19313714
92	0x3ee67422	0.45010477
93	0xbded5ee8	-0.115903676
94	0x3eb29d8d	0.34885827
95	0x3f07864e	0.5293931
96	0xbf0c2d14	-0.54756284
97	0xbea1874a	-0.3154853
98	0x3e58a175	0.21155341
99	0x3f60387a	0.87586176
100	0x3ecd6675	0.4011723
101	0xbf4fd4db	-0.81184167
102	0xbe47e4a1	-0.19520809
103	0x3e7523c6	0.23939428
104	0xbe8e401b	-0.27783284
105	0x3e6d997f	0.23203085
106	0xbd6f6fd5	-0.05845626
107	0xbc782ae1	-0.015146942
108	0xbf586add	-0.8453806
109	0xbeec822c	-0.46193063
110	0xbefba16f	-0.49146602
111	0xbeefc88f	-0.46832702
112	0xbe89a4cd	-0.26883546
113	0x3ee3d438	0.44497848
114	0x3d20c699	0.039251897
115	0xbe36d956	-0.17856345
116	0x3ee47f96	0.4462859
117	0xbe79e805	-0.24404915
118	0x3ef99f87	0.48754522
119	0xbe148011	-0.14501978
120	0xbea866f0	-0.32891035
121	0x3e0109cb	0.12601392
122	0x3ebe7baf	0.37203738
123	0xbdffb521	-0.124857195
124	0xbe3bdc3a	-0.18345729
125	0xbecb120e	-0.39662212
126	0xbee6332d	-0.4496092
127	0xbe02c5d2	-0.12770775
128	0xbe481750	-0.19540143
129	0xbf2eb0c8	-0.68238497
130	0xbf95a2c6	-1.16903
131	0xbc35010f	-0.011047616
132	0xbe47f1ad	-0.19525786
133	0xbf197220	-0.59939766
134	0x3e432bf8	0.19059741
135	0x3e98fa35	0.29878393
136	0xbd1578ba	-0.036492087
137	0x3e443705	0.19161613
138	0xbe987cc0	-0.29782677
139	0xbe08497f	-0.13309287
140	0x3bcb2a38	0.006200101
141	0xbe0eb6f9	-0.13936986
142	0x3e90a064	0.28247368
143	0xbe4a09eb	-0.19730346
144	0x3e6e3aa4	0.23264557
145	0x3ece5338	0.40297866
146	0xbe553ac6	-0.20823202
147	0xbe0bbce4	-0.13646275
148	0x3e096006	0.13415536
149	0xbf0d4789	-0.5518728
150	0x3e4fb01d	0.20282026
151	0x3f94be93	1.1620659
152	0x3dd91a5b	0.1060073
153	0xbe4ba21a	-0.19886056
154	0x3ebd10ec	0.36926973
155	0xbe12f8d4	-0.14352733
156	0x3e0ed4e2	0.13948396
157	0xbf255434	-0.6458161
158	0x3e553873	0.20822315
159	0x3e508601	0.20363618
160	0xbe5818c1	-0.21103193
161	0x3e0aa00f	0.1353762
162	0xbed3e325	-0.41384235
163	0x3ee858c8	0.45380235
164	0xbe53b0dd	-0.20672937
165	0x3e546307	0.20740901
166	0xbf5c2c70	-0.86005306
167	0x3f216b7f	0.6305465
168	0xbf3b63b9	-0.7319904
169	0x3f3d305f	0.73901933
170	0x3da70eeb	0.08157142
171	0xbe697a93	-0.22800665
172	0xbe3323b2	-0.17494085
173	0x3dfa56b3	0.12223568
174	0x3e57bcf1	0.21068169
175	0xbecabba4	-0.39596283
176	0x3f53e25c	0.8276727
177	0x3dbf03fe	0.09326933
178	0xbcbad1be	-0.022805091
179	0xbedb947e	-0.42886728
180	0xbe527fe9	-0.20556606
181	0x3e19f1cc	0.15033644
182	0x3dc29396	0.09500806
183	0xbe93c848	-0.2886374
184	0x3ede185f	0.4337797
185	0x3d69fb8f	0.05712467
186	0xbd9ee983	-0.077593826
187	0xbf3f1eec	-0.7465656
188	0x3e2dc7dd	0.16970773
189	0x3f1bbd1a	0.6083542
190	0x3f5061d1	0.81399256
191	0x3f0d4cfd	0.551956
192	0xbf56661f	-0.83749574
193	0xbf0c5ee3	-0.54832286
194	0x3ed56c3d	0.41684142
195	0x3d21c98a	0.039498843
196	0x3f574d3a	0.84102213
197	0xbef6d65c	-0.48210418
198	0xbce6e7bb	-0.02818667
199	0x3ece8655	0.40336862
200	0xbf52e7d7	-0.8238501
201	0x3f689639	0.9085422
202	0xbf1d83b0	-0.61529064
203	0x3ee227f6	0.44171113
204	0xbee4a0a2	-0.44653803
205	0x3dd24340	0.10266733
206	0xbeb272cb	-0.34853205
207	0xbe668f7d	-0.22515674
208	0x3e07bc83	0.13255505
209	0x3ead7a99	0.33882597
210	0x3f0f09e8	0.5587449
211	0xbed6d022	-0.41955668
212	0x3ed8aff0	0.4232173
213	0x3c999769	0.018748956
214	0xbf20919c	-0.6272218
215	0xbe959bb0	-0.29220343
216	0x3e9f8835	0.31158605
217	0xbf43999a	-0.7640625
218	0x3f4e0c88	0.8048787
219	0xbf3ba60c	-0.7330024
220	0x3ebfbef2	0.37450367
221	0x3e2c61ea	0.16834226
222	0x3ee2b6c7	0.44280073
223	0x3ee37fa1	0.4443331
224	0x3e13a4b4	0.14418298
225	0x3eec9408	0.4620669
226	0x3e871b69	0.263881
227	0xbd9dc1b5	-0.07702962
228	0x3f1bf8a1	0.6092625
229	0xbe85a77e	-0.2610435
230	0xbf837a0b	-1.027162
231	0x3def706c	0.11691365
232	0xbe0f3899	-0.13986434
233	0x3ee6f167	0.4510605
234	0x3f45770a	0.77134764
235	0xbc14310e	-0.009044899
236	0xbec1bff4	-0.3784176
237	0x3d919f14	0.0711042
238	0x3f1ec306	0.6201633
239	0x3dd11407	0.10208898
240	0x3f25b072	0.6472236
241	0x3f3bf2fb	0.73417634
242	0x3e875299	0.26430205
243	0xbc14fc07	-0.009093291
244	0x3d2fb311	0.04289538
245	0xbc909d41	-0.01765311
246	0x3eda077f	0.42583844
247	0xbefca67f	-0.49345776
248	0x3ea9aa5f	0.33137795
249	0x3edd9e2c	0.43284738
250	0xbe32073f	-0.17385577
251	0xbf172af0	-0.5904989
252	0xbdbbcc2a	-0.091698006
253	0xbe8f4f22	-0.2799006
254	0x3f3075e5	0.6892989
255	0x3edea53a	0.43485433

temporal.rnn.bias_ih_l1 f4 [128]
0	0xbdf14d8f	-0.11782371
1	0xbe85585b	-0.26043972
2	0x3d80b759	0.06284971
3	0x3e043e8d	0.12914486
4	0xbe287d7f	-0.16454123
5	0xbed53ded	-0.41648808
6	0xbf061d79	-0.5238872
7	0x3dde4e5e	0.10854791
8	0xbdf75eb2	-0.120786086
9	0xbcf1d033	-0.029518222
10	0xbd74d0d9	-0.059769485
11	0xbb7f2a0a	-0.003893497
12	0xbc0cf3da	-0.008603061
13	0xbe91c76e	-0.28472465
14	0xbd9d549c	-0.076821536
15	0xbe85130d	-0.25991097
16	0x3d8ba4ea	0.06818564
17	0x3e2b787a	0.16745177
18	0xbe19d9a3	-0.15024428
19	0x3f324590	0.69637394
20	0xbe15be32	-0.14623335
21	0x3e3d5cdc	0.18492454
22	0xbe7bbbb7	-0.24583326
23	0xbeec63a4	-0.4616977
24	0x3e0b5107	0.13605128
25	0xbe08a06e	-0.13342449
26	0xbe843347	-0.25820372
27	0x3ec7e150	0.39039087
28	0xbee71e9a	-0.45140535
29	0xbd60b6f0	-0.054861963
30	0x3d20b90a	0.039238967
31	0xbd8c33f7	-0.06845849
32	0xbe52e597	-0.20595394
33	0xbe1629d3	-0.14664392
34	0x3dc326e0	0.09528899
35	0xbd57090f	-0.052498873
36	0x3e2526f0	0.16128135
37	0x3f319cfb	0.6938016
38	0x3f13c995	0.57729465
39	0x3e84a98f	0.25910613
40	0x3ecbb584	0.39786923
41	0x3f399356	0.7249044
42	0xbe365707	-0.17806636
43	0xbef48fa3	-0.47765836
44	0x3e22d64d	0.15902062
45	0xbe1e6589	-0.1546842
46	0x3f22d0c7	0.6359982
47	0x3e6371a5	0.2221132
48	0x3dcabda6	0.09899454
49	0x3f14f44b	0.5818526
50	0xbe7c003c	-0.24609464
51	0x3fa0c590	1.2560291
52	0x3e495870	0.19662642
53	0xbda00fa1	-0.07815481
54	0x3e96437e	0.29348367
55	0x3f09737e	0.5369185
56	0x3e0e3a0b	0.13889329
57	0xbee6e0a8	-0.45093274
58	0xbeaad0e3	-0.33362493
59	0x3ea70178	0.32618308
60	0xbee42974	-0.44562876
61	0x3e934081	0.2876015
62	0xbe790f2f	-0.24322198
63	0x3e93535a	0.2877453
64	0x3e94091f	0.2891321
65	0x3ed9e2b0	0.4255576
66	0x3e7c1a6c	0.24619454
67	0x3ee0db33	0.43917236
68	0xbdcc0743	-0.099623226
69	0x3e858ba6	0.26083106
70	0xbf0a2875	-0.5396798
71	0xbe9086ce	-0.28227848
72	0x3e9a3368	0.30117345
73	0xbe8e6dad	-0.2781805
74	0x3dcc69db	0.09981128
75	0x3e8f4dd8	0.27989078
76	0xbd4dac9a	-0.050213434
77	0x3e3ae29c	0.18250507
78	0x3d257773	0.04039712
79	0xbd53e866	-0.051735304
80	0xbe1ba491	-0.15199496
81	0x3e7d7107	0.24750148
82	0xbd906a22	-0.07051493
83	0x3f459570	0.7718115
84	0xbd87aaff	-0.06624412
85	0x3f1c1c65	0.60980827
86	0x3ea8f49f	0.3299913
87	0x3d52f55a	0.051503517
88	0xbe2306ef	-0.15920614
89	0x3c9077cf	0.017635254
90	0xbe538f22	-0.2066007
91	0x3c9fdb97	0.019513888
92	0x3ec317df	0.3810415
93	0x3d30cf44	0.043166414
94	0xbd0d78f4	-0.034539178
95	0xbeacd3da	-0.3375538
96	0xbe7eccd5	-0.24882825
97	0xbecd5e40	-0.4011097
98	0x3e7d9d61	0.24767067
99	0xbe1b029d	-0.15137716
100	0x3ea72f3d	0.32653227
101	0x3e910541	0.2832432
102	0x3f0e682f	0.5562772
103	0x3eb0e3e5	0.3454887
104	0x3efdc212	0.49562126
105	0x3eb18c83	0.34677514
106	0xbe0bfb27	-0.13670026
107	0xbd3ce2c5	-0.0461147
108	0x3d37d2d6	0.044878803
109	0xbc89bb07	-0.016812814
110	0x3db9382a	0.090439156
111	0xbdb0517d	-0.08609293
112	0x3ddb0a51	0.10695327
113	0x3e199b38	0.15000618
114	0xbe0eb859	-0.1393751
115	0x3e1873a0	0.14887857
116	0xbe24497d	-0.16043659
117	0x3e63cf02	0.22246936
118	0xbe219cf6	-0.15782532
119	0x3e448441	0.19191076
120	0x3d61d4d0	0.055134594
121	0xbe5cb70e	-0.21554205
122	0xbef2d2a9	-0.47426346
123	0x3e3ba40d	0.18324299
124	0xbf086888	-0.532845
125	0x3eb10999	0.34577635
126	0x3d886d7e	0.06661509
127	0x3e4acb16	0.19804034

temporal.rnn.bias_hh_l1 f4 [128]
0	0xbe981c96	-0.2970931
1	0xbd8ee696	-0.069775745
2	0x3df4b908	0.119493544
3	0x3ecaafed	0.39587346
4	0xbdeb9ad0	-0.115041375
5	0xbec7ab73	-0.38997993
6	0xbf079cda	-0.5297371
7	0xbdfe5fe6	-0.12420635
8	0xbcbe3a93	-0.02322129
9	0x3a5dd6e3	0.00084625016
10	0xbe0848c8	-0.13309014
11	0x3dd00e26	0.101589486
12	0x3d0791c3	0.033097994
13	0xbf0425da	-0.51620257
14	0xbd7d91b3	-0.061906528
15	0xbe94dfa4	-0.29076874
16	0x3b3828fa	0.0028100596
17	0x3dd5c306	0.104375884
18	0xbdf2f5c0	-0.11863279
19	0x3f2689d5	0.65054065
20	0xbea3d1c5	-0.3199598
21	0x3c9ce43b	0.019151798
22	0xbead2934	-0.33820498
23	0xbf0c79fa	-0.5487362
24	0x3df9868a	0.121838644
25	0xbe2a9105	-0.16656883
26	0xbf1208ee	-0.57044876
27	0x3ec6e154	0.38843787
28	0xbee258fa	-0.4420851
29	0x3d56774a	0.052359857
30	0x3cff93dd	0.031198436
31	0xbd8bace3	-0.06820085
32	0xbddf572e	-0.109053
33	0xbdcddf73	-0.10052385
34	0x3e0df339	0.13862313
35	0x3e0e140c	0.13874835
36	0x3e219a37	0.15781485
37	0x3edb8d86	0.4288141
38	0x3eb0afbb	0.34509072
39	0x3d76272d	0.060095955
40	0x3ee789d0	0.4522233
41	0x3f41fae7	0.7577347
42	0xbe16bcee	-0.14720508
43	0xbe95567c	-0.29167545
44	0xbdc1450b	-0.09436997
45	0xbe12bcfb	-0.14329903
46	0x3f1f9f0a	0.6235205
47	0x3eb54077	0.35400745
48	0xbdc3d7af	-0.09562623
49	0x3eb8084b	0.35943827
50	0x3c3a3f24	0.011367593
51	0x3f950978	1.1643515
52	0x3e205b41	0.1565981
53	0xbea51f2f	-0.32250354
54	0x3da1d75e	0.07902406
55	0x3ec10b88	0.3770411
56	0x3e9a4dbd	0.30137435
57	0xbea892e2	-0.32924563
58	0xbf070e49	-0.5275617
59	0x3f140d7e	0.5783309
60	0xbedd0644	-0.43168843
61	0x3ea76878	0.3269689
62	0xbed612cc	-0.41811216
63	0x3d5d60cb	0.054047387
64	0x3dd6a9e2	0.10481621
65	0x3e898af3	0.26863822
66	0xbd3b677a	-0.04575298
67	0x3f2a6c15	0.6657117
68	0xbe85533e	-0.2604007
69	0x3da36711	0.07978643
70	0xbe9c1f07	-0.30492422
71	0xbe9a48d5	-0.3013369
72	0x3e62a8df	0.22134732
73	0xbef44743	-0.47710618
74	0x3e3c3b2e	0.1838195
75	0x35163a82	5.5964495e-07
76	0x3d83c142	0.064333454
77	0xbd9b8df0	-0.07595432
78	0xbe492267	-0.1964203
79	0x3ddfdc06	0.10930638
80	0xbe4da588	-0.20082676
81	0x3c8f9d4d	0.017531062
82	0xbe0a391b	-0.13498347
83	0x3f5585be	0.834072
84	0xbdf5379e	-0.11973499
85	0x3f03f8e7	0.5155167
86	0xbb09e6dc	-0.0021042144
87	0x3e389ef6	0.18029389
88	0xbcf5aef9	-0.02999066
89	0x3e1921c8	0.14954293
90	0xbe20b5ea	-0.15694395
91	0xbd578fae	-0.052627258
92	0x3eb56b29	0.3543332
93	0xbc39e766	-0.011346674
94	0xbe5c7339	-0.21528329
95	0xbea4c0d2	-0.3217836
96	0xbe877dc2	-0.26463133
97	0xbeb0992e	-0.34491867
98	0x3e9be01f	0.30444428
99	0xbe3d85e2	-0.18508103
100	0x3e17cd1a	0.14824334
101	0x3f019196	0.5061277
102	0x3efe8bf2	0.49716145
103	0x3eaa04ae	0.33206695
104	0x3eff4d55	0.49863687
105	0x3ed2d3a6	0.411771
106	0xbe86bec2	-0.26317412
107	0xbb818bda	-0.003953439
108	0xbe1684ab	-0.14699046
109	0xbce42c9d	-0.027853305
110	0xb99161d6	-0.0002772945
111	0x3e0cc417	0.13746677
112	0x3e011e68	0.12609255
113	0xbc01a613	-0.00791313
114	0xbc9cc026	-0.019134592
115	0x3e958c3d	0.29208556
116	0xbbd91f89	-0.0066260737
117	0xbceceb12	-0.028920684
118	0xbe6c7eba	-0.23095217
119	0xbc8033c3	-0.015649682
120	0x3d301f30	0.042998493
121	0xbeee8675	-0.46586958
122	0xbeb3c79f	-0.35113236
123	0x3edb87a9	0.42876938
124	0xbebebeed	-0.3725504
125	0x3cf586ed	0.029971564
126	0x3dfbd7a0	0.122969866
127	0x3ee65ac2	0.44991118
