notebook/output/rolling_models_dynamic/window_15.pth (torch, 479738 bytes, 99 tensors)

temporal.input_proj.weight f4 [32, 7]
0	0xbf827b0e	-1.0193803
1	0x3fcece9b	1.6156801
2	0x4033029f	2.797035
3	0xbe834c35	-0.2564408
4	0xbd8bb56d	-0.068217136
5	0x3d0533d6	0.032520138
6	0xbd460fad	-0.048354793
7	0x3fd54299	1.6660949
8	0x3ff8b698	1.9430723
9	0x4032f9aa	2.7964883
10	0xbe8e3cb2	-0.27780682
11	0xbe8003f0	-0.25003004
12	0x3e4ed673	0.20198993
13	0xbd16fd81	-0.036862854
14	0x3f558c05	0.8341678
15	0xbe332ab3	-0.17496757
16	0xc00726df	-2.1117475
17	0xbe1f44b7	-0.15553556
18	0x3e9face8	0.31186604
19	0xbe8f6218	-0.28004527
20	0x3d4655c4	0.048421636
21	0x408470d3	4.1387725
22	0x404ee391	3.2326396
23	0x403a9444	2.9152994
24	0xbeae6903	-0.34064493
25	0xbe516f0c	-0.20452517
26	0xbc64e294	-0.013970036
27	0xbc3d08e4	-0.011537764
28	0x3eff76c3	0.49895296
29	0x3f7f125a	0.9963738
30	0x3ef237ca	0.4730819
31	0x3e5026d0	0.20327306
32	0xbcea6fb3	-0.028617715
33	0x3e5a7e44	0.21337229
34	0xbe4cea50	-0.20011258
35	0xbfee7584	-1.8629613
36	0x4012afa1	2.2919695
37	0x4052cf07	3.293886
38	0x3ebcfb87	0.3691065
39	0xbeca902a	-0.39563113
40	0x3e8edfe0	0.27905178
41	0xbd880c5e	-0.06642984
42	0xc07c7787	-3.9447954
43	0xbf98aa82	-1.1927035
44	0x3f219b29	0.6312738
45	0x3e5c8a1a	0.21537057
46	0xbe4e8fc1	-0.20172025
47	0xbdd5b6f9	-0.1043529
48	0xbe10fb5c	-0.14158386
49	0xc0768bec	-3.8522902
50	0xbe7263e4	-0.23670918
51	0x4020b991	2.511326
52	0xbd83082e	-0.063980445
53	0xbdfb3474	-0.12265864
54	0x3d51aa72	0.05118794
55	0xbdb03507	-0.08603864
56	0xc0d13cb5	-6.5386605
57	0xc024ebfc	-2.5769033
58	0xbf916633	-1.1359314
59	0xbe2c19d7	-0.16806732
60	0x3c870dd2	0.016486082
61	0xbf0be334	-0.5464356
62	0xbdb49cb2	-0.0881895
63	0x3ec05208	0.37562585
64	0xbf1900d6	-0.597669
65	0xbf99fc43	-1.2030109
66	0xbebbd07d	-0.366825
67	0x3e8ceb6f	0.27523372
68	0xbe90c465	-0.28274837
69	0x3e9bb7a4	0.30413544
70	0xbf7ef73a	-0.9959599
71	0x3e5e9b1b	0.21738856
72	0x3fd8a1c8	1.6924372
73	0x3e6d16cc	0.23153228
74	0xbd3845f4	-0.044988587
75	0xbd23af09	-0.03996185
76	0xbbe5e6b4	-0.0070160273
77	0x3f6c7f9c	0.92382216
78	0xbf5f8fae	-0.8732861
79	0xbe8efd5b	-0.2792767
80	0xbe80331f	-0.25039002
81	0x3d646431	0.055759612
82	0xbd73fd54	-0.059567764
83	0xbd7ee9d7	-0.062234726
84	0xc018806d	-2.3828385
85	0xc00c7a8f	-2.1949804
86	0xc0628c22	-3.539803
87	0xbdfd8ea6	-0.12380724
88	0xbdfa4f5a	-0.12222166
89	0x3e2eec88	0.17082417
90	0xbbd13356	-0.0063842935
91	0x3f69eb43	0.91374606
92	0xbf745b5c	-0.95451903
93	0xc01e42d9	-2.47283
94	0xbd878bed	-0.066184856
95	0xbe2dce35	-0.16973193
96	0x3e4c1511	0.19929911
97	0xbd3cec0f	-0.04612356
98	0xc081e4ae	-4.059165
99	0xc01e4f96	-2.4736075
100	0xbff9061f	-1.9454993
101	0x3dc61454	0.09671846
102	0xbe7c7045	-0.24652202
103	0x3e68617a	0.22693434
104	0xbc560063	-0.013061616
105	0xc052ce0f	-3.2938268
106	0xc01ffa83	-2.499665
107	0xc0322afc	-2.7838736
108	0xbdf281cc	-0.11841163
109	0x3e0d9eaf	0.13830064
110	0x3cf36be1	0.029714527
111	0xbc55cbd6	-0.013049087
112	0x402f883b	2.7426898
113	0x3d8e304f	0.06942808
114	0xbcc2da8e	-0.023785856
115	0x3c1edc08	0.009696014
116	0xbd859d64	-0.065241605
117	0xbdb4ba06	-0.08824544
118	0xbe67c8b2	-0.22635153
119	0xbf63188b	-0.88709325
120	0xbf4eb6be	-0.8074759
121	0x3e2d2f18	0.16912496
122	0xbeb31850	-0.34979486
123	0xbe3d9132	-0.18512419
124	0xbb3e2b23	-0.002901741
125	0x3c9f3263	0.019433206
126	0x3fdd293f	1.7278212
127	0xbff17c9d	-1.8866154
128	0xbfd5018b	-1.6641096
129	0x3e19bc3c	0.15013212
130	0x3d0f74a1	0.035023335
131	0xbdc82c84	-0.09774116
132	0xbb5dafd3	-0.0033826723
133	0x3fbe1217	1.484927
134	0x40296f3a	2.6474137
135	0x403ecaf4	2.9811373
136	0xbe83b726	-0.2572567
137	0xbea7416f	-0.3266711
138	0x3dd931f1	0.10605229
139	0x3c353f5e	0.011062471
140	0x3f05cedf	0.52268785
141	0xbfdd52e9	-1.7290927
142	0xc028fa0c	-2.6402617
143	0x3bcd2d58	0.006261509
144	0xbcb43514	-0.021997966
145	0xbcfd4cc8	-0.030920401
146	0x3c9c4f02	0.019080643
147	0x401c47ad	2.4418747
148	0xbfb74f18	-1.4321012
149	0xc0060d4c	-2.0945616
150	0xbae9a29c	-0.0017824951
151	0x3d971b27	0.07378226
152	0xbdc25ee8	-0.09490758
153	0xbceeeb3a	-0.0291649
154	0xbef99923	-0.48749647
155	0x3fc57e10	1.5429096
156	0x3fe36d5e	1.7767751
157	0x3dd7b7ae	0.10533081
158	0xbe024656	-0.12722144
159	0xbd3e07f4	-0.046394303
160	0xbd29ec7d	-0.0414853
161	0xbf5291c6	-0.8225368
162	0xbfebde93	-1.8427299
163	0xc035e231	-2.8419306
164	0xbe0ba7c1	-0.13638212
165	0x3dc152f8	0.09439653
166	0x3e9a102b	0.3009046
167	0x3c650f4d	0.013980699
168	0xc02f85e8	-2.742548
169	0xbf33fc15	-0.7030652
170	0xc00daf68	-2.213831
171	0xbd663a69	-0.056208048
172	0xbce8c92a	-0.028416235
173	0x3ebf48db	0.37360272
174	0xbdb2729e	-0.08713268
175	0xbffb776f	-1.9645823
176	0x3f0aa907	0.54164165
177	0x3fbabc89	1.4588786
178	0x3e86340e	0.2621159
179	0xbd80c867	-0.06288224
180	0xbcb48bf0	-0.022039384
181	0x3ce0c9cc	0.027439974
182	0xbfb35c0d	-1.4012467
183	0xbe623b37	-0.22092901
184	0xbfb822bc	-1.43856
185	0x3e3def9b	0.18548433
186	0xbef3ae98	-0.47594142
187	0x3ed0da49	0.40791538
188	0xbd044d6e	-0.032300405
189	0x40064fd5	2.0986226
190	0xbed29bc1	-0.41134456
191	0xbfe2d633	-1.7721618
192	0x3cbb18fb	0.02283906
193	0x3ee3fde5	0.44529644
194	0x3e3313b7	0.1748799
195	0xbce3eaa0	-0.027821839
196	0x4072ce13	3.7938278
197	0x402afb53	2.6715896
198	0x40652072	3.5801053
199	0x3e48f49a	0.19624558
200	0x3df98c58	0.121849716
201	0xbe99ec68	-0.30063176
202	0xbc87b6df	-0.016566692
203	0xc05b7b84	-3.4294138
204	0xbf5060d7	-0.81397766
205	0x3f813f27	1.0097398
206	0x3dc15458	0.094399154
207	0xbd64602d	-0.055755783
208	0xbe3a29d5	-0.1818002
209	0x39be6730	0.00036316505
210	0x408aa725	4.3329034
211	0x40070e1d	2.1102364
212	0xbed09f15	-0.4074637
213	0x3e37ca51	0.17948271
214	0x3d93ae76	0.0721101
215	0xbd8ea4f2	-0.069650546
216	0xbcf35c7c	-0.029707186
217	0x3f7c613d	0.98585874
218	0xbc7fab91	-0.015604869
219	0xbf8b362b	-1.0875906
220	0x3e5aeff3	0.21380596
221	0xbe771c8b	-0.24131982
222	0x3de6b53b	0.11265036
223	0x3d05bca0	0.03265059

temporal.input_proj.bias f4 [32]
0	0x3bdf5d8c	0.0068165716
1	0x3ccce7b8	0.025012836
2	0xbf0c3fb5	-0.5478471
3	0x3e3d1b31	0.18467404
4	0xbf8590e8	-1.0434847
5	0x3ec64a63	0.38728628
6	0x3e974730	0.295465
7	0x3f481e19	0.78170925
8	0xbea0f475	-0.31436506
9	0xbe29bf18	-0.16576803
10	0x3c768c9c	0.015048172
11	0xbc8ff7ee	-0.017574277
12	0xbe80c848	-0.25152802
13	0xbe1eacdd	-0.1549563
14	0xbeddf504	-0.43350995
15	0xbed57cd5	-0.41696802
16	0xbee9334c	-0.4554695
17	0x3ef40cf0	0.4766612
18	0xbe18a025	-0.1490484
19	0x3f0a41cc	0.5400665
20	0xbcd514de	-0.026010927
21	0xbe95fd10	-0.29294634
22	0x3f2cc677	0.67490333
23	0xbce8831b	-0.028382828
24	0x3f114cb4	0.56757665
25	0xbe9d6f2c	-0.3074888
26	0x3dfa579b	0.12223741
27	0xbf24d3a9	-0.6438547
28	0x3cf3bcfd	0.029753203
29	0x3eede2af	0.46462008
30	0xbf39e3ad	-0.7261303
31	0xbe858c80	-0.26083755

temporal.layer_norm.weight f4 [32]
0	0x3f8a3434	1.0797181
1	0x3f82367b	1.0172876
2	0x3f83ae7f	1.0287627
3	0x3fbba0a8	1.4658403
4	0x3f43f7c2	0.76549923
5	0x3f709be8	0.93987894
6	0x3f119e43	0.56882113
7	0x3f86e39c	1.0538211
8	0x3f976807	1.1828622
9	0x3eda9fb0	0.42699957
10	0x3f87079e	1.05492
11	0x3f8e65f3	1.1124862
12	0x3f871253	1.0552467
13	0x3fb57a0b	1.417787
14	0x3fa237e8	1.2673311
15	0x3f52361c	0.82113814
16	0x3f57f682	0.84360516
17	0x3f60a7cf	0.87756056
18	0x3fad1a66	1.3523681
19	0x3f814165	1.0098082
20	0x3f71d411	0.9446421
21	0x4000deeb	2.0136058
22	0x3fa9aa6a	1.3255131
23	0x3f44c7ad	0.7686718
24	0x3f219127	0.6311211
25	0x3fb4639a	1.4092896
26	0x3f86ee2e	1.0541437
27	0x3f5e455c	0.86824584
28	0x3f9d96b3	1.2311615
29	0x3f8abc9c	1.0838809
30	0x3f935706	1.1510932
31	0x3f1d88e8	0.6153703

temporal.layer_norm.bias f4 [32]
0	0xbe1dc182	-0.15405849
1	0xbef669dc	-0.4812764
2	0x3f0db620	0.55356026
3	0xbc2ed4c7	-0.010670847
4	0x3f201990	0.62539005
5	0xbf3f6d72	-0.74776375
6	0xbe493a09	-0.19651045
7	0xbf36bb41	-0.71379477
8	0xbeeb8367	-0.4599869
9	0x3f0bf6c1	0.5467339
10	0xbe64ceb6	-0.22344479
11	0xbe565f9a	-0.20934907
12	0xbb711aa0	-0.0036789551
13	0xbe8ea81b	-0.2786263
14	0xbc66391c	-0.014051702
15	0xbddadaeb	-0.106862865
16	0x3ebb163a	0.36540395
17	0x3eeaabb8	0.45834136
18	0x3e71b933	0.23605804
19	0xbf14301e	-0.5788592
20	0x3f17faef	0.5936727
21	0x3d55b42c	0.05217378
22	0x3d73b6f0	0.059500635
23	0xbe3f43bf	-0.18678187
24	0xbf82d2e6	-1.0220611
25	0x3e9b994e	0.303904
26	0x3e773a3a	0.24143305
27	0xbed0b371	-0.40761903
28	0x3d91b5d7	0.07114761
29	0xbefc428e	-0.49269527
30	0x3ef9f7b5	0.48821798
31	0x3f8248ba	1.0178444

temporal.rnn.weight_ih_l0 f4 [128, 7]
0	0xbf902e9a	-1.1264222
1	0xbf8c4fc5	-1.0961844
2	0xbfa79fcb	-1.309564
3	0xbf8ea751	-1.1144811
4	0x3e7d087b	0.24710266
5	0x3ea29ee7	0.31761858
6	0xbf5b45cf	-0.85653394
7	0xbf9201df	-1.1406821
8	0xbf50a28e	-0.8149804
9	0xbf7afa15	-0.98037845
10	0xbf5a57de	-0.85290325
11	0xbeb13b0a	-0.34615356
12	0xbed3d836	-0.41375893
13	0x3ea47112	0.32117516
14	0xbf451ce3	-0.769972
15	0xbf45c5fe	-0.7725524
16	0xbf521122	-0.8205739
17	0xbf2855cc	-0.65755916
18	0xbf2e80c9	-0.6816526
19	0xbf7155bd	-0.9427145
20	0x3ea70233	0.32618865
21	0x3e84d3fb	0.25942978
22	0x3eccccb6	0.39999932
23	0x3e0ffaad	0.14060469
24	0x3e649939	0.22324075
25	0x3f8032eb	1.0015539
26	0x3f130f06	0.574448
27	0x3e18effb	0.14935295
28	0x3e9cf510	0.30655718
29	0x3eb67685	0.35637298
30	0x3e1937b3	0.14962654
31	0x3e576da5	0.2103792
32	0x3e08840a	0.13331619
33	0x3ea2d483	0.3180276
34	0x3d856af7	0.065145425
35	0xc0be8c7b	-5.9546485
36	0xc09cd3b2	-4.9008417
37	0xc0b82ab6	-5.7552137
38	0xc0ccc7ac	-6.399374
39	0xbe053011	-0.13006617
40	0xbe8e2e70	-0.27769804
41	0xbc97ade4	-0.018515535
42	0xbe239fde	-0.15978953
43	0xbe01aa2a	-0.12662569
44	0xbe0a1a62	-0.13486627
45	0x3e1728cf	0.14761661
46	0x3d8a278e	0.06745826
47	0x3c2edd74	0.010672916
48	0x3df5bd0b	0.11998948
49	0x3eba67f5	0.36407438
50	0x3f2d83d1	0.6777926
51	0x3e835277	0.25648853
52	0x3f28c1d9	0.6592079
53	0xbe771680	-0.24129677
54	0xbe8a8cfc	-0.27060688
55	0x3e032566	0.12807235
56	0xbfb8833c	-1.441505
57	0xbfe7c406	-1.8106697
58	0xbfd85737	-1.6901616
59	0xc00a8251	-2.164204
60	0xbf1c092a	-0.60951483
61	0xbf1561a9	-0.5835214
62	0x3dfefadd	0.12450192
63	0xbf691e8e	-0.9106225
64	0xbf23d9db	-0.64004296
65	0xbfbcfd30	-1.4764767
66	0xbfa455e7	-1.2838715
67	0xbe1f7bb4	-0.15574533
68	0xbe89dd66	-0.26926726
69	0x3c72f85f	0.014829724
70	0xbf6ec12b	-0.932635
71	0xbf58ce88	-0.8469014
72	0xbf96add3	-1.1771797
73	0xbf89acb7	-1.0755833
74	0xbf96dd2b	-1.1786245
75	0xbf805e1d	-1.0028721
76	0x3d13152d	0.035908867
77	0xbef6e84f	-0.48224112
78	0xbeb5e935	-0.35529485
79	0xbdbd8327	-0.09253531
80	0xbea54491	-0.32278875
81	0xbf00de29	-0.5033899
82	0xbdb5d120	-0.08877778
83	0x3f138927	0.5763115
84	0x3eeb6c75	0.45981184
85	0x3e00162c	0.12508458
86	0x3f0971b1	0.53689104
87	0x3f0bfd63	0.5468351
88	0xbf12ffe2	-0.57421696
89	0xbf30974f	-0.6898088
90	0x3e78953b	0.24275677
91	0xbf81e375	-1.0147539
92	0xc0367a3e	-2.851211
93	0x3e73137b	0.237379
94	0xbf884b15	-1.0647913
95	0x3e18da4f	0.14927028
96	0xbf2d1ef3	-0.6762535
97	0x3ea0bb7f	0.31393048
98	0xbf2f5ff9	-0.6850582
99	0xbeacd1fb	-0.33753952
100	0xbf36f5e6	-0.7146896
101	0xbf16d112	-0.58912766
102	0xbf1fe7e4	-0.6246321
103	0xbf09ef20	-0.538805
104	0xbe9d8d6c	-0.3077196
105	0xbf5e659d	-0.868738
106	0xc0191983	-2.392182
107	0x3f99f11f	1.2026709
108	0xbf6f951f	-0.93586916
109	0xbf2c1fd8	-0.6723609
110	0xbeeeeba1	-0.46664146
111	0x3db4d7fa	0.08830257
112	0xbdfee773	-0.12446489
113	0x3dbd2d75	0.09237186
114	0xbe6d85ea	-0.23195615
115	0xbec1a618	-0.37822032
116	0x3edd2d06	0.43198413
117	0x3e84c201	0.25929263
118	0x3e832932	0.25617367
119	0xbf2c4589	-0.672936
120	0xbed305b9	-0.41215304
121	0xbf34818d	-0.7051018
122	0xbf597bbd	-0.84954435
123	0xbf4d8483	-0.8028032
124	0xbf89602e	-1.0732477
125	0x3e410884	0.18850905
126	0xbf1f51fa	-0.6223446
127	0xbf954e96	-1.1664608
128	0xbf388c99	-0.72089535
129	0xbf6dfe2a	-0.9296595
130	0x3e493122	0.19647649
131	0xbcb56004	-0.02214051
132	0x3e737122	0.23773625
133	0xbf938a51	-1.1526586
134	0xbf0550e1	-0.52076536
135	0xbe79e84c	-0.2440502
136	0x3ef75617	0.4830787
137	0xbd978011	-0.073974736
138	0xbd162e75	-0.0366654
139	0xbcfd58d4	-0.030926146
140	0x3f457be7	0.77142185
141	0x3edf405e	0.43603796
142	0x3f9045ec	1.1271338
143	0x3f3247f4	0.6964104
144	0xbf01845e	-0.505926
145	0xbf3cadb5	-0.73702556
146	0x3efd4e21	0.4947367
147	0xbd1ac7d1	-0.037788216
148	0x3e82d669	0.25554207
149	0xbef3c58b	-0.4761165
150	0x3d19720f	0.03746229
151	0x3ef68a70	0.48152494
152	0x3e8f557c	0.27994907
153	0x3e12b05d	0.1432509
154	0xbfb7db25	-1.4363753
155	0xbfacefa8	-1.3510637
156	0xbfcd1e13	-1.6024803
157	0xbfaf4192	-1.3691885
158	0xbef746ea	-0.4829629
159	0xbe03c632	-0.12868574
160	0xbf113524	-0.5672171
161	0xbec53bc5	-0.38522163
162	0xbef68e9f	-0.48155686
163	0xbf2fd5e5	-0.6868575
164	0xbf20c44d	-0.6279953
165	0xbf9d1539	-1.2272102
166	0xbf9596e8	-1.1686678
167	0x3cd1c90f	0.025608568
168	0xbe59144d	-0.2119915
169	0xbf5ba0b6	-0.857921
170	0x3cd09da9	0.025465803
171	0xbf2d45b8	-0.6768451
172	0x3e91fc62	0.28512865
173	0x3de792d5	0.11307303
174	0x3eae221c	0.34010398
175	0xbf072f41	-0.5280648
176	0xbf0f9c03	-0.5609743
177	0xbeecef8e	-0.46276516
178	0xbea60750	-0.32427454
179	0xbe042216	-0.12903628
180	0xbe110759	-0.14162959
181	0x3e6dbeb7	0.23217283
182	0xbf31d298	-0.69461966
183	0xbf112312	-0.5669414
184	0xbf39bb6a	-0.72551596
185	0xbf24dd44	-0.64400125
186	0xbf4ec185	-0.8076404
187	0xbf552fb6	-0.83275926
188	0xbe79b361	-0.24384834
189	0xbf709ce8	-0.9398942
190	0x3ec7625b	0.38942227
191	0xbf8b2ed4	-1.0873666
192	0x3e4604fe	0.19337842
193	0x3e35714c	0.17719
194	0xbea6f2e4	-0.32607186
195	0xbd53b545	-0.051686544
196	0x3f05ce87	0.5226826
197	0x3f5f36ba	0.8719288
198	0x3f3eb922	0.7450124
199	0x3f7e918f	0.99440855
200	0xbf0368ee	-0.51331985
201	0xbecb5c5f	-0.3971891
202	0x3db24d8d	0.08706198
203	0xba8e2b50	-0.0010846648
204	0x3f09bb55	0.5380147
205	0xbf053467	-0.52033085
206	0xbe4de52f	-0.20106958
207	0xbe79ca42	-0.24393561
208	0x3e8859f5	0.26631132
209	0x3b736a10	0.0037142076
210	0xbdc2f32d	-0.09519038
211	0x3de70900	0.112810135
212	0xbe7b1fc3	-0.24523835
213	0xbe5b8b33	-0.21439819
214	0x3e34fb08	0.17673886
215	0x3e6f6c60	0.23381186
216	0xbef97c95	-0.4872786
217	0xbf308f26	-0.6896843
218	0xbf13faee	-0.57804763
219	0xbf3ad5cf	-0.72982496
220	0xbf59dbd1	-0.8510104
221	0xbdac323a	-0.084080175
222	0xbde6be45	-0.1126676
223	0xbf22964f	-0.635106
224	0xbecf1396	-0.4044463
225	0xbeda501d	-0.42639247
226	0xbf6e4c63	-0.93085307
227	0xbf847da9	-1.0350848
228	0xbf09c453	-0.5381519
229	0xbeeeda15	-0.46650758
230	0x3e85658a	0.2605403
231	0xbf489b6f	-0.7836217
232	0xbf3755bd	-0.716152
233	0xbf3b128e	-0.7307519
234	0xbf3f1dc5	-0.746548
235	0xbe8d2f03	-0.2757493
236	0xbf08172c	-0.5316036
237	0xbe29fb28	-0.16599715
238	0xbf23d62d	-0.6399868
239	0xbf48642e	-0.7827786
240	0xbf8020f4	-1.0010056
241	0xbf788662	-0.9708005
242	0xbe31127c	-0.17292207
243	0xbe939d40	-0.2883091
244	0xbdba527d	-0.09097765
245	0x3f09fb5a	0.5389916
246	0x3e7a59ad	0.24448271
247	0x3f073b3f	0.5282478
248	0x3e7426fd	0.23842998
249	0xbe66d515	-0.22542222
250	0xbf2e4807	-0.68078655
251	0x3ce0bcce	0.02743378
252	0x3ee68165	0.45020595
253	0x3f0b720c	0.54470897
254	0xbe314112	-0.17309979
255	0xbebd5ce5	-0.36984935

temporal.rnn.weight_hh_l0 f4 [128, 32]
0	0xbe325d7e	-0.17418477
1	0xbdfb5099	-0.12271232
2	0xbde33965	-0.110949315
3	0xbe0b8f39	-0.13628854
4	0xbe5dcf63	-0.21661143
5	0x3f46bf53	0.7763569
6	0xbed65b47	-0.41866514
7	0x3f1fd82a	0.62439215
8	0x3d327a1b	0.04357348
9	0xbf11e86c	-0.5699527
10	0xbf25a9bd	-0.64712125
11	0x3f0c2c7c	0.5475538
12	0xbee88bd4	-0.4541918
13	0xbf41902b	-0.7561061
14	0xbe6137b4	-0.21993905
15	0xbfbc13de	-1.4693563
16	0x3ec714d2	0.38883072
17	0xbe924f07	-0.28575918
18	0x3e7be0e0	0.24597502
19	0xbf86815c	-1.0508227
20	0xbf8039fa	-1.0017693
21	0x3e935ca3	0.28781614
22	0x3ea0216c	0.312755
23	0xbf474fa6	-0.7785591
24	0x3ea8b711	0.3295217
25	0xbf03a214	-0.51419187
26	0x3e9a09ce	0.30085605
27	0xbec39398	-0.38198543
28	0x3ebf5df6	0.37376374
29	0x3f419fee	0.7563466
30	0x3eefadfa	0.4681242
31	0x3e952410	0.29129076
32	0xbebd2704	-0.3694383
33	0xbdb433e9	-0.087989636
34	0x3cea8551	0.028628023
35	0x3ef011c1	0.46888545
36	0x3e985f35	0.29760137
37	0xbd8df7bc	-0.06932017
38	0x3c7271fd	0.014797685
39	0x3f1d515a	0.6145226
40	0x3e4c989c	0.19980091
41	0xbe83b2bf	-0.2572231
42	0x3e237b04	0.15964895
43	0xbf35e1c2	-0.71047604
44	0xbeea8efa	-0.45812207
45	0xbf388516	-0.72078073
46	0xbf259e84	-0.64695
47	0xbdc811b3	-0.09769001
48	0xbead0e8a	-0.33800155
49	0x3ed12d33	0.40854797
50	0x3e1a5812	0.15072659
51	0xbb819169	-0.003954102
52	0x3e09ef13	0.13470106
53	0xbeed6150	-0.46363306
54	0x3eb58815	0.35455385
55	0x3e3998c6	0.18124685
56	0xbeb0d740	-0.34539223
57	0x3e353a3b	0.17697994
58	0x3f45fbfc	0.7733762
59	0x3f3b0a82	0.7306291
60	0x3eae56e3	0.34050664
61	0xbf133e3d	-0.57516843
62	0xbd2ff2be	-0.042956106
63	0x3f18c841	0.59680563
64	0xbf11f9cc	-0.57021785
65	0xbe619b07	-0.22031794
66	0x3e2e7e6d	0.17040415
67	0xbf685974	-0.90761495
68	0xbec5c79e	-0.38628858
69	0xbe7f3894	-0.24923927
70	0x3e908d7f	0.28232953
71	0xbeac3f68	-0.33642125
72	0xbd558760	-0.052131057
73	0xbe274b47	-0.1633731
74	0x3ede31b4	0.43397295
75	0x3e3825ef	0.1798322
76	0x3ee3f1dd	0.44520465
77	0x3ec897ac	0.39178216
78	0xbe8d8f04	-0.27648175
79	0x3d1a1001	0.03761292
80	0xbdeb1336	-0.114782736
81	0xbd18c6fe	-0.03729915
82	0xbd0f6875	-0.035011727
83	0x3d554745	0.05206992
84	0xbe40b83b	-0.18820278
85	0x3ed0e1b4	0.40797198
86	0x3c4502a3	0.012024554
87	0xbd1c0bd2	-0.03809721
88	0x3e51c45d	0.20485063
89	0x3c639aed	0.013891918
90	0x3ce773a8	0.028253391
91	0x3e47c5b4	0.19509012
92	0x3e3943e6	0.18092307
93	0x3de27b86	0.110587165
94	0xbeb71383	-0.35757074
95	0x3e84b67e	0.2592048
96	0xbf6419ca	-0.8910185
97	0x3ebf2d1b	0.373391
98	0x3e206970	0.15665221
99	0x3f21f172	0.6325904
100	0xbe513c66	-0.20433196
101	0xbe8535cd	-0.2601761
102	0x3c37b9f1	0.0112137655
103	0xbcc77f63	-0.024352735
104	0xbec2bc6e	-0.38034385
105	0xbeb40d43	-0.35166368
106	0x3f1fca10	0.624177
107	0x3da4f16b	0.08053859
108	0x3f02d5b7	0.5110735
109	0xbe2d8c20	-0.16947985
110	0xbf13e2d2	-0.57767975
111	0x3def3c14	0.11681381
112	0xbe86d5eb	-0.2633508
113	0x3f3aa016	0.7290052
114	0xbda581b6	-0.08081381
115	0x3e8d80bd	0.27637282
116	0xbdf8f648	-0.121563494
117	0xbf433c13	-0.7626354
118	0xbe33eb4a	-0.17570224
119	0x3e78ee71	0.24309708
120	0x3e178247	0.1479579
121	0x3ea55d85	0.32297912
122	0x3d955911	0.07292379
123	0xbe327668	-0.17427981
124	0xbe15fdf6	-0.1464766
125	0x3dd43ec3	0.10363533
126	0x3ed0e9fc	0.40803516
127	0x3eaf5ce3	0.34250554
128	0xbf052da2	-0.52022755
129	0xbeb8269c	-0.35966957
130	0x3e49acd7	0.1969484
131	0xbeaf9ea3	-0.34300718
132	0xbe489b76	-0.19590554
133	0x3f298dcc	0.6623199
134	0x3e1c4f26	0.15264568
135	0x3defe907	0.11714368
136	0x3f2b5091	0.6691981
137	0xbef9b355	-0.48769632
138	0xbf32dc25	-0.69867164
139	0x3e82f694	0.2557875
140	0xbe2cc466	-0.16871795
141	0xbf00781b	-0.50183266
142	0xbead482e	-0.3384413
143	0xbf68a179	-0.9087139
144	0x3eb14455	0.34622446
145	0xbf174054	-0.5908253
146	0x3ef45999	0.47724608
147	0xbe816413	-0.25271663
148	0xbf3908b8	-0.7227893
149	0x3ec78743	0.38970384
150	0x3b5c0e45	0.0033577841
151	0xbefd4481	-0.49466327
152	0x3f44085f	0.76575273
153	0xbeb46c1f	-0.3523874
154	0x3d0402e6	0.032229327
155	0xbefc74a8	-0.49307752
156	0x3edaba03	0.4272004
157	0x3f5c1262	0.8596555
158	0xbe60fc03	-0.21971135
159	0x3ecbd6a1	0.39812186
160	0x3f56a40c	0.83844066
161	0xbdbf624a	-0.09344919
162	0xbe3c3461	-0.18379356
163	0xbe4a725a	-0.19770184
164	0x4007f326	2.1242156
165	0x3f5aead7	0.8551459
166	0xbf4cf4ca	-0.8006102
167	0x3f11b71b	0.5692002
168	0x3ce31299	0.027718829
169	0x3ed667fb	0.41876206
170	0x3d32b73e	0.043631785
171	0x3ebeb63a	0.37248403
172	0xbf75e18d	-0.9604729
173	0xbee2d991	-0.44306615
174	0x3e24f722	0.16109899
175	0xbda26072	-0.07928552
176	0x3ec08c1b	0.37606892
177	0xbe5fb572	-0.2184656
178	0x3db2ae01	0.08724595
179	0xbe219a07	-0.15781413
180	0xbe26e761	-0.16299202
181	0xbd631fa9	-0.055450115
182	0x3eb32df1	0.34995988
183	0xbeed998a	-0.46406204
184	0xbf1f3664	-0.6219237
185	0x3e2a377e	0.16622731
186	0x3ec8ae1b	0.39195332
187	0xbde10505	-0.109872855
188	0x3e0b62fe	0.13611981
189	0xbf153b7d	-0.58293897
190	0xbf558172	-0.8340064
191	0x3e221843	0.15829568
192	0xbed4bab5	-0.41548696
193	0x3e6e9959	0.23300685
194	0x3dfb8868	0.12281877
195	0x3e29d55c	0.16585296
196	0x3e57bdbf	0.21068476
197	0x3e3140ad	0.17309828
198	0xbd3e84d0	-0.04651338
199	0xbfaf128c	-1.3677535
200	0x3f0f20c4	0.5590937
201	0xbf172f19	-0.5905624
202	0x3e8595d4	0.26090872
203	0x3dcd68f2	0.10029782
204	0x3eb603bb	0.3554972
205	0xbe0dd964	-0.13852459
206	0xbf35af93	-0.7097103
207	0x3ef886e4	0.48540413
208	0x3e4b0dba	0.19829455
209	0xbe00ec45	-0.1259013
210	0xbf11f33c	-0.5701177
211	0x3e6c72f5	0.23090728
212	0x3fa315e8	1.274106
213	0xbf17a2cb	-0.5923278
214	0x3cbc212a	0.022965033
215	0xbdc731e2	-0.09726311
216	0x3ea0adb5	0.31382528
217	0x3e9ab8d8	0.3021915
218	0xbe774aa3	-0.24149565
219	0xbf136053	-0.57568854
220	0xbedef710	-0.4354787
221	0xbec9ed44	-0.39438832
222	0x3ee653d4	0.4498583
223	0xbe537821	-0.20651294
224	0x3f3b7466	0.73224485
225	0xbe560371	-0.2089975
226	0x3ef7bbbc	0.48385417
227	0x3be3c82b	0.006951352
228	0x3f0bc808	0.546021
229	0x3eabb602	0.33537298
230	0xbe6842f9	-0.22681798
231	0xbda67c95	-0.08129231
232	0x3f1edc1c	0.6205461
233	0xbd786caf	-0.060650524
234	0x3e6bf1a2	0.23041394
235	0xbe09fc46	-0.13475141
236	0x3d143be9	0.036189947
237	0xbdd8ff2b	-0.105955444
238	0x3f0e113e	0.5549506
239	0xbce45473	-0.0278723
240	0x3d935588	0.07194048
241	0xbe73760b	-0.23775499
242	0x3e57635c	0.21033996
243	0xbe2e4962	-0.17020181
244	0xbe05368c	-0.13009089
245	0x3ec66931	0.3875213
246	0xbea6098a	-0.32429153
247	0xbf0fafae	-0.5612744
248	0x3ed73bb4	0.42037737
249	0x3fd2fe4e	1.6483858
250	0x3e92219d	0.2854127
251	0x3f99ca05	1.2014776
252	0x3e7c402d	0.24633856
253	0xbe25142d	-0.16120978
254	0x3de3359d	0.1109421
255	0xbf099b64	-0.5375273

temporal.rnn.bias_ih_l0 f4 [128]
0	0x3f70854b	0.9395339
1	0xbe96ef55	-0.2947947
2	0x3decd57b	0.11564156
3	0x3e26c0f2	0.1628454
4	0x3df80803	0.12110903
5	0xbe542c82	-0.20720103
6	0xbeac4ad6	-0.33650845
7	0xbe94da00	-0.2907257
8	0xbd439adc	-0.047755107
9	0xbbe5f047	-0.0070171687
10	0xbedf327f	-0.43593213
11	0xbec51398	-0.3849151
12	0xbe191085	-0.14947708
13	0xbf1bed36	-0.6090883
14	0x3e017b5d	0.12644716
15	0xbeeb3457	-0.4593837
16	0xbebcb5b4	-0.36857378
17	0xbe6f26ae	-0.23354599
18	0xbf1ce4b3	-0.6128647
19	0xbefa7afb	-0.48921952
20	0xbef23af4	-0.47310603
21	0x3e32073c	0.17385572
22	0xbe43eeb2	-0.19134024
23	0xbee76221	-0.45192054
24	0xbf2be7fd	-0.6715086
25	0xbd8cb80a	-0.0687104
26	0xbf1c0811	-0.6094981
27	0xbee7e778	-0.45293784
28	0xbe96c33c	-0.29445827
29	0xbe976510	-0.29569292
30	0xbec87745	-0.39153495
31	0x3ef575d9	0.47941473
32	0xbf2d7e82	-0.6777116
33	0xbeb53743	-0.35393724
34	0x3e298dc9	0.16557993
35	0xbe3458db	-0.1761202
36	0xbd8fd276	-0.07022564
37	0x3ceed095	0.029152194
38	0x3d835bc3	0.064139865
39	0xbcffac3a	-0.031210054
40	0x3c4ee55d	0.012627927
41	0x39b83c69	0.00035140224
42	0x3e635cd6	0.22203383
43	0xbb70f8b9	-0.0036769344
44	0xbe198f3d	-0.14996047
45	0x3e9a0831	0.30084375
46	0x3c0977ec	0.008390408
47	0x3eb6a584	0.35673153
48	0x3cccd719	0.02500491
49	0xbdaa495e	-0.08314775
50	0x3edfd177	0.43714496
51	0xbf0e3811	-0.555543
52	0x3e5a202f	0.2130134
53	0xbed477d0	-0.4149766
54	0x3d3f1327	0.046649124
55	0xbeacc28d	-0.3374218
56	0x3ea2bb6a	0.3178361
57	0xbdb4ea03	-0.08833697
58	0xbf0d0ad0	-0.55094624
59	0xbe9a0587	-0.30082342
60	0xbe0eb0eb	-0.13934676
61	0xbe5bee25	-0.21477564
62	0xbc99acf3	-0.018759226
63	0xbf206081	-0.62647253
64	0x3bfa91d8	0.0076467805
65	0xbecb1d9e	-0.39671034
66	0x3e82e92b	0.25568518
67	0xbb4160c6	-0.0029507144
68	0xbbf95c81	-0.0076099043
69	0x3e82897f	0.25495526
70	0x3e2cc0e7	0.16870461
71	0x3e10919a	0.14118043
72	0x3e474ee1	0.19463684
73	0x3e0b88a5	0.13626345
74	0xbec1b2c4	-0.378317
75	0x3d74f97f	0.05980825
76	0xbd85e142	-0.06537105
77	0xbd3f29bd	-0.046670664
78	0x3e753d89	0.23949255
79	0xbe61a10c	-0.22034091
80	0x3da6fdbe	0.08153866
81	0xbddd1033	-0.107941054
82	0x3e462f7e	0.19354054
83	0xbe883bee	-0.26608223
84	0xbd6b53c1	-0.05745292
85	0x3bbf8118	0.0058442466
86	0xbecb2e05	-0.39683548
87	0xbd5a9602	-0.053365715
88	0x3df841e3	0.12121942
89	0x3e071bf8	0.13194263
90	0xbd94ec87	-0.072716765
91	0xbd577b55	-0.052607853
92	0x3eb75459	0.3580654
93	0x3e72994c	0.2369129
94	0xbe5a241a	-0.21302834
95	0x3d44eed7	0.048079338
96	0x3f770172	0.9648658
97	0xbe83f4f3	-0.2577282
98	0x3a247dbc	0.00062748394
99	0x3a067ce2	0.00051303033
100	0x3e4fc242	0.20288947
101	0xbdf4a260	-0.11945033
102	0x3e913c4f	0.28366324
103	0xbd4c713c	-0.049912676
104	0x3e84ff32	0.2597595
105	0x3c1427b2	0.009042667
106	0xbecc6474	-0.3992039
107	0xbe97f696	-0.29680318
108	0x3cf22a0f	0.02956107
109	0x3ec3048a	0.380894
110	0x3ea25abc	0.3170985
111	0x3e5b2a37	0.21402822
112	0xbe4e4b06	-0.20145807
113	0x3c0f2f74	0.008739341
114	0xbe1c8fba	-0.15289202
115	0xbf1038c4	-0.5633662
116	0xbe66b05b	-0.22528212
117	0x3eda77c1	0.4266949
118	0xbef525b7	-0.47880337
119	0xbeb9eb6b	-0.36312422
120	0xbe1feed0	-0.15618443
121	0xbecffe43	-0.40623674
122	0xbe6fa114	-0.2340129
123	0xbec653f2	-0.3873592
124	0x3d947695	0.0724918
125	0x3a564b97	0.0008174716
126	0x3e931417	0.28726265
127	0x3ea81166	0.32825774

temporal.rnn.bias_hh_l0 f4 [128]
0	0x3f313176	0.69216096
1	0xbe309e9f	-0.17248009
2	0x3bec9bba	0.0072207125
3	0xbe03822f	-0.1284263
4	0x3e0846ae	0.13308212
5	0xbe8afc43	-0.27145585
6	0xbf02d91c	-0.5111253
7	0xbe2c7b53	-0.1684392
8	0xbc570125	-0.0131228315
9	0xbe943c46	-0.28952235
10	0xbe2e57ef	-0.17025732
11	0xbefb024a	-0.49025184
12	0xbe781e15	-0.24230225
13	0xbf004aaf	-0.5011396
14	0x3eac561c	0.33659446
15	0xbf2b6fbf	-0.66967386
16	0xbe31585f	-0.17318867
17	0xbec71a81	-0.38887408
18	0xbf147fbc	-0.5800741
19	0xbeee4e95	-0.46544328
20	0xbeac4132	-0.3364349
21	0x3c8c2d85	0.01711155
22	0xbe7c96e4	-0.24666935
23	0xbeb24b6d	-0.3482317
24	0xbec49d22	-0.38401133
25	0x3d4439f5	0.047906835
26	0xbf0a6953	-0.5406696
27	0xbed2518c	-0.4107784
28	0xbe547ddf	-0.20751141
29	0xbed9ca11	-0.42536977
30	0xbebb123b	-0.36537346
31	0x3e63d44e	0.22248957
32	0xbf0c4534	-0.54793096
33	0xbeaf23f3	-0.34207115
34	0x3ea92a40	0.33040047
35	0xbe530492	-0.20607212
36	0x3dc81d84	0.09771255
37	0xbd77bbce	-0.06048184
38	0x3e25aee6	0.1618
39	0x3dc12a0b	0.09431847
40	0x3ce0dd86	0.02744938
41	0xbe29f5b8	-0.1659764
42	0x3dae9307	0.08524137
43	0x3d60b870	0.054863393
44	0xbdb1fa19	-0.086902805
45	0x3e520225	0.2050863
46	0x3e46f149	0.1942798
47	0x3edce5dd	0.43144122
48	0x3d3de866	0.04636421
49	0x3e4e0165	0.2011772
50	0x3ecc4a11	0.39900258
51	0xbf42f890	-0.76160526
52	0x3be677de	0.0070333323
53	0xbe941ccb	-0.28928217
54	0xbc8a557e	-0.016886469
55	0xbe33741e	-0.17524764
56	0x3eb959da	0.36201364
57	0xbdffb2b7	-0.12485259
58	0xbec5e6f2	-0.3865276
59	0xbf060433	-0.5235016
60	0xbe955d32	-0.29172665
61	0xbec19089	-0.37805584
62	0xbe326e79	-0.17424954
63	0xbed9d104	-0.4254228
64	0xbd8bf426	-0.06833677
65	0xbe65aa55	-0.22428258
66	0x3dfedf58	0.12444943
67	0x3e1bfd08	0.15233243
68	0x3cae2fd0	0.021263033
69	0x3e2a362f	0.16622232
70	0x3da80cd2	0.0820557
71	0x3e704777	0.23464762
72	0x3e463466	0.19355926
73	0xbcf49f84	-0.02986122
74	0xbf2d2e7c	-0.67649055
75	0xbd1e724a	-0.038683213
76	0x3d8057e7	0.06266766
77	0x3b84321d	0.0040342943
78	0x3e462fa3	0.1935411
79	0x3d1bd6ed	0.038046766
80	0x3d14b0ad	0.036301304
81	0x3e2f9767	0.17147599
82	0x3c779dfd	0.015113351
83	0xbe65dfe9	-0.22448696
84	0x3cf58176	0.029968958
85	0x3e01b3e7	0.12666284
86	0xbead3237	-0.33827373
87	0x3c30e16b	0.010795931
88	0x3e9be030	0.3044448
89	0x3c03b765	0.00803933
90	0x3d2c51dd	0.04207026
91	0x3e6cfc83	0.231432
92	0x3ea6efcc	0.32604825
93	0x3eda12c0	0.4259243
94	0xbeb5bc94	-0.35495436
95	0x3d742054	0.059601143
96	0x3f3f7db1	0.74801165
97	0xbe8fb4af	-0.28067538
98	0x3e15d900	0.1463356
99	0x3c8e6237	0.017380817
100	0x3ec9721c	0.3934487
101	0xbe911083	-0.2833291
102	0x3c362b6e	0.011118753
103	0xbc8746bc	-0.016513221
104	0x3e5e8450	0.2173016
105	0x3c634eb6	0.013873747
106	0xbeb1e669	-0.34746101
107	0xbe1749d6	-0.1477426
108	0x3ced0a37	0.028935535
109	0x3de414c0	0.1113677
110	0x3e84d123	0.2594081
111	0x3e9f4e73	0.3111454
112	0xbe0aaa0c	-0.1354143
113	0xbdf92a09	-0.12166221
114	0xbec4cff4	-0.38439906
115	0xbeb8c471	-0.36087373
116	0xbe58f44b	-0.2118694
117	0x3e483985	0.19553192
118	0xbf0991ee	-0.53738296
119	0xbefabce7	-0.48972246
120	0xbe40a673	-0.18813495
121	0xbe9f1c32	-0.310762
122	0xbec25856	-0.3795802
123	0xbebe5246	-0.37172145
124	0x3e62d413	0.22151212
125	0xbdbb71fb	-0.091525994
126	0x3ebb6c57	0.36606094
127	0x3ef9b3ed	0.48770085

temporal.rnn.weight_ih_l1 f4 [128, 32]
0	0xbe849218	-0.2589271
1	0x3f7dec8c	0.99189067
2	0xbe4f83ba	-0.20265093
3	0x3d06825b	0.03283916
4	0xbf7e0226	-0.9922203
5	0xbe7d1a0d	-0.24716969
6	0xbe51588b	-0.20443933
7	0xbe90a0f4	-0.28247797
8	0xbf506403	-0.81402606
9	0xbfa0b42d	-1.2554985
10	0x3f62803f	0.8847694
11	0x3e6d9ad1	0.23203589
12	0x3f4d76a3	0.8025915
13	0x3e58e610	0.21181512
14	0xbf6532b5	-0.895305
15	0xbd1520aa	-0.036408104
16	0xbe9e4d5c	-0.30918396
17	0x3f37eb03	0.71842974
18	0x3dc6eec4	0.0971351
19	0x3ea5c3c5	0.32375923
20	0xbe20061b	-0.15627329
21	0xbee47183	-0.44617853
22	0x3eb826e5	0.35967174
23	0x3f5843f0	0.84478664
24	0xbe473c72	-0.19456652
25	0x3ebb6093	0.36597118
26	0x3e37fc7d	0.1796741
27	0xbf31a8ec	-0.6939838
28	0x3db2ff84	0.08740142
29	0xbed6a44c	-0.41922224
30	0x3e90d2cc	0.28285825
31	0x3e9fa9de	0.31184286
32	0xbe276f5d	-0.16351075
33	0x3f08e30c	0.53471446
34	0xbee53470	-0.4476657
35	0x3f00e4c1	0.5034905
36	0xbfcca27e	-1.5987089
37	0xbe9272f9	-0.28603342
38	0x3d113c87	0.035458114
39	0xbed605d4	-0.41801322
40	0xbdab9c69	-0.08379442
41	0xbf3a1ea1	-0.72702986
42	0xbe7c9b9e	-0.24668738
43	0x3f162486	0.5864948
44	0x3f9659b4	1.1746125
45	0x3f02616f	0.5092992
46	0xbee77c7d	-0.45212165
47	0xb9932c0e	-0.00028070848
48	0xbf8e20df	-1.1103781
49	0x3f62d8f2	0.8861228
50	0x3f5dde10	0.86666965
51	0xbf094b53	-0.5363056
52	0x3ee37225	0.44423023
53	0x3f6063e6	0.8765243
54	0x3f2683c5	0.65044814
55	0xbeb7095f	-0.35749337
56	0x3e9c9d3c	0.3058871
57	0x3f8d4073	1.1035293
58	0x3e6356a2	0.22201017
59	0xbeb08bf3	-0.34481773
60	0x3f68e7d0	0.9097872
61	0xbdc54b39	-0.09633488
62	0xbea7f463	-0.3280364
63	0xbf15031a	-0.5820786
64	0x3ee26fd9	0.44225958
65	0xbda95ce9	-0.08269674
66	0xbd42a638	-0.0475218
67	0xbe4c1ce9	-0.19932903
68	0x3e3f3dda	0.18675938
69	0x3b74d974	0.0037361057
70	0x3ec9a232	0.39381558
71	0x3e703225	0.23456629
72	0xbed97f14	-0.42479765
73	0xbe42b9bc	-0.19016165
74	0xbeb5fc77	-0.35544178
75	0x3f760cae	0.961131
76	0x3e10f0c6	0.14154348
77	0x3e34398a	0.17600074
78	0x3e187dba	0.14891711
79	0xbc4124b3	-0.011788535
80	0x3dc61c76	0.09673397
81	0xbf3d2be3	-0.7389509
82	0xbf1e2966	-0.6178192
83	0xbefa72c0	-0.48915672
84	0xbc2214b0	-0.009892628
85	0x3e526763	0.20547251
86	0xbe6d51fa	-0.23175803
87	0x3ee796a9	0.45232132
88	0x3e948e38	0.29014754
89	0xbea22c5d	-0.31674471
90	0xbf1bc83a	-0.60852396
91	0xbeb010bd	-0.3438777
92	0x3ec29181	0.38001636
93	0x3f300ffd	0.68774396
94	0x3f3abb74	0.7294228
95	0xbef99c11	-0.48751882
96	0xbcc8dfd2	-0.024520788
97	0xbd88058f	-0.06641685
98	0x3f214074	0.6298897
99	0x3f83dddb	1.030208
100	0xbf3da874	-0.74085164
101	0x3ba33c74	0.004981572
102	0xbf0284d3	-0.50983924
103	0x3e782653	0.2423337
104	0x3c76a024	0.015052829
105	0xbe886bd2	-0.2664476
106	0xbe4a1d1d	-0.19737668
107	0x3ed2537b	0.41079316
108	0xbe2f2499	-0.17103805
109	0x3f19f5da	0.60140765
110	0xbebc5821	-0.36785987
111	0x3ea4cef3	0.3218914
112	0xbf893923	-1.0720562
113	0x3f03fabf	0.51554483
114	0x3f3b5416	0.7317518
115	0x3e8e1d5e	0.2775678
116	0x3e46c82b	0.19412296
117	0xbf165ba7	-0.587336
118	0xbec1e59e	-0.37870497
119	0xbce135a9	-0.027491407
120	0x3f633d20	0.88765144
121	0x3e80e8a8	0.25177503
122	0x3eb09076	0.34485215
123	0xbe8a1ab5	-0.269735
124	0xbe6b2624	-0.22963768
125	0x3e90b693	0.28264293
126	0x3de1aaf8	0.11018938
127	0x3eb71458	0.3575771
128	0xbdbdac75	-0.09261409
129	0xbf19e315	-0.60112125
130	0xbf909403	-1.129517
131	0xbf184af8	-0.59489393
132	0x3f5bc9ac	0.858546
133	0x3e986048	0.29760957
134	0x3f1b955e	0.6077479
135	0x3f415e4c	0.7553451
136	0xbe26b014	-0.16278106
137	0xbf4d6611	-0.80233866
138	0x3eafaf68	0.34313512
139	0x3f1a3a37	0.6024508
140	0xbfd0f03c	-1.6323314
141	0xbd80084e	-0.06251584
142	0xbf4a00c3	-0.7890741
143	0xbf4e689a	-0.8062836
144	0xbecc1090	-0.39856386
145	0x3f2798e7	0.65467685
146	0x3ef45cbd	0.47727004
147	0xbf106d55	-0.5641683
148	0xbed94c2c	-0.42440927
149	0xbe56a1d2	-0.20960167
150	0x3f1946e8	0.5987382
151	0x3fa084d8	1.2540541
152	0x3f032012	0.5122081
153	0xbf5b96fb	-0.8577725
154	0x3edab4f7	0.4271619
155	0x3ec407a6	0.38287085
156	0x3ef20d75	0.47275892
157	0x3e493770	0.19650054
158	0xbe7189bc	-0.23587698
159	0x3f46d7dd	0.7767313
160	0xbf1a3c5b	-0.60248345
161	0xbeabb9e6	-0.33540267
162	0xbe76839f	-0.24073647
163	0xbe12049f	-0.14259575
164	0x3daba01c	0.08380148
165	0x3e819663	0.25310048
166	0xbbe9237b	-0.0071148253
167	0xbdf5e26c	-0.12006077
168	0x3e14d7ae	0.145354
169	0xbef8ea25	-0.48616138
170	0xbdd20370	-0.10254562
171	0xbe9af1e0	-0.3026266
172	0xbcc8d427	-0.024515225
173	0xbe97a2af	-0.29616305
174	0x3e334999	0.17508544
175	0xbf0db819	-0.55359036
176	0x3eaa98a5	0.33319584
177	0xbdd299ed	-0.10283265
178	0xbe9b11d4	-0.3028704
179	0xbf5c6f96	-0.86107767
180	0x3e6aa1f1	0.22913338
181	0x3dca22eb	0.09869941
182	0xbf0144ea	-0.5049578
183	0xbec1cd34	-0.3785187
184	0x3cec3a80	0.028836489
185	0xbfa3bd44	-1.2792134
186	0xbe897ecf	-0.2685456
187	0xbf3d42b5	-0.7392991
188	0xbdd44e19	-0.103664584
189	0xbede4e4e	-0.43419117
190	0xbe81a737	-0.25322887
191	0x3d3b8201	0.04577828
192	0xbdad2915	-0.084551014
193	0x3f1da9eb	0.615874
194	0x3b4a6ef9	0.0030888899
195	0xbe83e076	-0.25757188
196	0x3def0746	0.11671309
197	0x3aa3dcf0	0.0012501758
198	0x3f3a0ffb	0.72680634
199	0x3e4c1e4c	0.19933432
200	0xbda13a5d	-0.0787246
201	0x3eb54d48	0.35410523
202	0xbdfd6f05	-0.12374691
203	0x3e75ac5e	0.23991534
204	0x3e964a48	0.29353547
205	0x3d20feac	0.039305374
206	0x3e36a809	0.17837538
207	0x3ed67e60	0.4189329
208	0xbdeade8f	-0.11468231
209	0xbee4bae9	-0.4467385
210	0xbeb244c5	-0.34818092
211	0x3c8729ff	0.016499517
212	0xbe0e04ad	-0.13868971
213	0x3dbe703a	0.09298749
214	0xbe716e83	-0.23577313
215	0x3f0b2862	0.54358494
216	0xbf09c680	-0.5381851
217	0x3d3f749f	0.046742078
218	0xbe75f5c0	-0.24019527
219	0xbda7f1d2	-0.082004204
220	0x3f00786c	0.5018375
221	0xbe671e7b	-0.22570221
222	0xbebf8fdc	-0.37414443
223	0x3d183fab	0.037170094
224	0x3fef6582	1.8702853
225	0xbee9b79f	-0.45647904
226	0x3ca2bb92	0.019864831
227	0x3ed8917d	0.422985
228	0x3fcde5d4	1.6085763
229	0x3e0de86e	0.13858196
230	0x3f5e5b07	0.86857647
231	0x3f587c41	0.84564596
232	0x3f9387ca	1.1525815
233	0xbf3c0bd5	-0.73455554
234	0xbf751159	-0.95729595
235	0x3f273f86	0.65331304
236	0xbe066f7a	-0.13128462
237	0xbe22f505	-0.1591378
238	0x3e414bab	0.18876521
239	0xbd6d086b	-0.057869356
240	0x3d3fe49a	0.04684887
241	0x3dba6908	0.09102064
242	0xbe88363d	-0.2660388
243	0xbf7e18ae	-0.9925641
244	0xbe5e19f7	-0.21689592
245	0x3ee5f9c7	0.44917127
246	0xbf5ee186	-0.8706287
247	0xbf3f05d3	-0.7461826
248	0xbcbe90e1	-0.023262443
249	0xbf54be3a	-0.8310276
250	0x3cef15fa	0.029185284
251	0xbf3f284b	-0.7467086
252	0x3f104f5b	0.56371087
253	0xbdc78420	-0.09741998
254	0xbf1a80de	-0.60352886
255	0xbf61d4b0	-0.8821516

temporal.rnn.weight_hh_l1 f4 [128, 32]
0	0x3eb05d0d	0.34445992
1	0x3f8f6cf6	1.1205127
2	0x3fc45982	1.5339816
3	0x3d641dc3	0.055692445
4	0x3f6c55c6	0.9231838
5	0xbddf6d51	-0.10909522
6	0x3e0c95e8	0.1372906
7	0xbf15879d	-0.58410054
8	0x3ecdf7e6	0.40228194
9	0xbe3368cd	-0.17520447
10	0x3fac0241	1.3438188
11	0xbe989659	-0.29802206
12	0x3d59626a	0.05307237
13	0x3e7a39aa	0.2443606
14	0x3edf33e4	0.43594277
15	0x3deee7ac	0.11665282
16	0x3ee379b6	0.44428796
17	0xbe79deca	-0.24401394
18	0xbf090fec	-0.5353992
19	0xbe1424ce	-0.14467165
20	0x3e476430	0.19471812
21	0xbeace0d7	-0.3376529
22	0xbe85b32f	-0.2611327
23	0xbff0d15b	-1.881389
24	0x3f4afe28	0.7929406
25	0x3f8847b5	1.0646883
26	0xbf86bbe3	-1.0526088
27	0x3e848e2a	0.25889713
28	0x3d189556	0.037251793
29	0x3f196145	0.59914047
30	0x3e4dbaaf	0.20090745
31	0xbe28ce55	-0.1648496
32	0xbdd1f651	-0.10252059
33	0xbd35cb74	-0.04438348
34	0x3e88fcac	0.26755273
35	0x3f28af1c	0.65892196
36	0x3dcd7db3	0.10033741
37	0xbd6a703f	-0.057235952
38	0x3f844775	1.0334307
39	0xbf95bde5	-1.1698576
40	0x3ec633b6	0.38711327
41	0xbedd2df4	-0.43199122
42	0x3f64dd6c	0.8940036
43	0xbeec17f2	-0.4611202
44	0x3e3cfdf2	0.18456247
45	0x3f76cb78	0.9640422
46	0x3e4bda39	0.19907464
47	0x3ea599bc	0.32343853
48	0x3e9f8934	0.31159365
49	0x3e1e01db	0.15430395
50	0x3ec34e4b	0.3814567
51	0xbebb2870	-0.3655429
52	0x3e374162	0.17896035
53	0x3f20685d	0.62659246
54	0xbeb77ff8	-0.3583982
55	0xbe72bd72	-0.2370508
56	0x3f88ab9f	1.0677375
57	0x3f96ee3e	1.1791456
58	0xbf1cc657	-0.6124014
59	0x3eaa0550	0.33207178
60	0xbf2003a8	-0.6250558
61	0x3d9e1930	0.07719648
62	0x3fb1e2ce	1.389734
63	0xbe45a4ef	-0.19301198
64	0xbeba19b1	-0.36347726
65	0x3ef17ca0	0.47165394
66	0xbdbf871c	-0.09351942
67	0xbf8a0402	-1.0782473
68	0x3eddddb1	0.433332
69	0xbe3945b0	-0.1809299
70	0x3f0498f5	0.51795894
71	0x3e56c02d	0.20971747
72	0xbebe1c5b	-0.37131009
73	0x3d7c1458	0.06154284
74	0x3f4224d4	0.75837445
75	0xbebf87f4	-0.37408412
76	0x3c2ba7d0	0.010477021
77	0x3e19fa79	0.15036954
78	0xbe1737e3	-0.14767413
79	0xbeeb8790	-0.46001863
80	0x3f20fd01	0.62886053
81	0xbee1d126	-0.4410488
82	0x3dc7f5aa	0.097636536
83	0x3de13795	0.109969296
84	0xbeba8db8	-0.36436248
85	0xbe37d022	-0.1795049
86	0x3f90906e	1.1294076
87	0xbeb19d7e	-0.3469047
88	0xbdd44f8b	-0.10366734
89	0x3e349b30	0.17637324
90	0xbea54c31	-0.32284692
91	0xbe99d188	-0.30042672
92	0x3f5042b4	0.8135178
93	0xbe822f8b	-0.25426897
94	0xbd597538	-0.053090304
95	0x3f1720af	0.59034246
96	0xbf31fdf0	-0.695281
97	0xbede9454	-0.4347254
98	0x3e912c1f	0.28353974
99	0x3f7cd098	0.9875579
100	0x3ef18d7e	0.47178262
101	0xbf3b1986	-0.7308582
102	0x3e1fe2b8	0.1561383
103	0x3e589f61	0.21154548
104	0xbf0ba4e9	-0.5454851
105	0x3eb3b0ed	0.3509592
106	0xbd81dbb0	-0.0634073
107	0x3e7da253	0.24768953
108	0xbf7b27ff	-0.98107904
109	0xbeca0969	-0.39460304
110	0xbf52e621	-0.823824
111	0xbf6d7327	-0.92753834
112	0xbee2409c	-0.44189918
113	0x3f62ad5a	0.88545763
114	0x3ee394aa	0.4444936
115	0xbe1ede0c	-0.15514392
116	0x3edd6309	0.4323962
117	0xbd89fc71	-0.067376025
118	0x3f94d2a2	1.162678
119	0xbd85d818	-0.06535357
120	0xbef1c177	-0.47217914
121	0xbd6bd494	-0.057575777
122	0x3f2ef412	0.6834117
123	0xbeda227a	-0.4260443
124	0x3cb48795	0.022037307
125	0xbf7d3200	-0.9890442
126	0xbe3e4b29	-0.18583359
127	0x3d908afd	0.0705776
128	0xbeb0afce	-0.34509128
129	0xbec67aa2	-0.38765436
130	0xbfc20ef8	-1.5160818
131	0x3f01d02c	0.5070827
132	0xbe693506	-0.22774133
133	0xbf3ad997	-0.72988266
134	0x3e2109ec	0.15726441
135	0x3f150153	0.58205146
136	0xbde77541	-0.11301661
137	0x3e616b31	0.22013547
138	0xbe696344	-0.22791773
139	0xbeba5725	-0.3639461
140	0xbda3386d	-0.07969747
141	0xbe357b2e	-0.1772277
142	0x3ea63f7d	0.32470313
143	0xbe22f788	-0.15914738
144	0x3d377faf	0.044799503
145	0x3f118c36	0.5685457
146	0xbf14caaf	-0.5812177
147	0xbec34739	-0.38140276
148	0x3df1300c	0.11776742
149	0xbf0d7958	-0.5526328
150	0x3d5f366a	0.054495253
151	0x3f8cc013	1.0996116
152	0x3e8defd8	0.2772205
153	0xbe32e923	-0.17471747
154	0x3ef931fe	0.48670954
155	0xbe193abb	-0.1496381
156	0x3e9acfb8	0.30236602
157	0xbebea39f	-0.37234208
158	0x3e831ad1	0.25606397
159	0x3d63f053	0.055649113
160	0xbe28c262	-0.16480401
161	0x3e51a3da	0.2047266
162	0xbf1d9c6d	-0.6156681
163	0x3edf87bc	0.43658245
164	0xbe5db4b7	-0.21650968
165	0x3e6eafd4	0.2330926
166	0xbf044d05	-0.5168002
167	0x3f64bde7	0.8935227
168	0xbf75972a	-0.95933783
169	0x3f89b587	1.0758523
170	0x3bbbaa86	0.005727115
171	0xbe7a8dea	-0.24468198
172	0x3cd2728b	0.025689384
173	0x3ef8e489	0.48611858
174	0x3e0e0447	0.13868819
175	0xbea121ff	-0.3147125
176	0x3fac545b	1.3463243
177	0xbe985cca	-0.29758292
178	0xbe2f5b05	-0.17124565
179	0xbf4a4a6b	-0.790198
180	0xbccc8338	-0.024964914
181	0x3e90fba7	0.28316996
182	0xbdf63a26	-0.1202281
183	0xbec5c6da	-0.38628274
184	0x3f091f7d	0.5356367
185	0x3de2d8c6	0.110765025
186	0xbe9488ff	-0.2901077
187	0xbfa3564f	-1.2760714
188	0x3ece5fc0	0.40307426
189	0x3f38f84a	0.7225386
190	0x3f460732	0.7735473
191	0x3f41b192	0.75661576
192	0xbea68854	-0.32525885
193	0x3e83d6fb	0.25749955
194	0x3edf96e3	0.43669805
195	0x3f277aff	0.6542205
196	0x3f382e2d	0.7194546
197	0xbe1d39a4	-0.1535402
198	0x3e20c3b6	0.15699658
199	0x3f02a17b	0.5102765
200	0xbf5edb17	-0.87053055
201	0x3f690f0f	0.910386
202	0xbf063fdb	-0.52441186
203	0x3df48ccb	0.11940917
204	0xbf048183	-0.5176012
205	0xbda93506	-0.082620665
206	0xbe9f5d17	-0.3112571
207	0xbec34dfd	-0.38145438
208	0xbcbde4ca	-0.023180384
209	0x3ecd7136	0.40125436
210	0x3cf5d64e	0.030009415
211	0xbefc92e5	-0.49330822
212	0xbcd99ce9	-0.026564078
213	0xbea52606	-0.32255572
214	0xbebbbdd5	-0.36668268
215	0xbb529b96	-0.0032136193
216	0x3d8f8b8f	0.070090406
217	0xbf13fe6e	-0.57810104
218	0x3e910fb2	0.28332287
219	0xbf4d8f33	-0.8029663
220	0xbcb62a8b	-0.022237083
221	0x3edc9246	0.43080348
222	0x3ef0671c	0.46953666
223	0x3ecb380d	0.396912
224	0x3dbbaffa	0.09164424
225	0x3f0801d6	0.531278
226	0x3ea2ae95	0.3177382
227	0xbecd05ce	-0.4004349
228	0x3f5518f0	0.83241177
229	0xbedd4b1d	-0.4322137
230	0xbfb6c560	-1.4278984
231	0x3e90e3e2	0.2829886
232	0xbd8822cf	-0.06647264
233	0x3ed36f5e	0.41295904
234	0x3f840436	1.0313785
235	0xbeb3128d	-0.3497509
236	0xbf1eb7b8	-0.6199908
237	0x3d8b92d3	0.06815114
238	0x3ee6bdaa	0.45066577
239	0x3e09a235	0.13440783
240	0x3e95efe3	0.29284582
241	0x3f4e02ab	0.8047282
242	0x3daeb675	0.08530895
243	0x3d90a076	0.070618555
244	0x3dcee705	0.10102657
245	0xbd8afd54	-0.067866
246	0x3eef7450	0.46768427
247	0xbf984244	-1.1895223
248	0x3f124c02	0.5714723
249	0x3f14e23e	0.5815772
250	0xbeef6edf	-0.46764275
251	0xbf169f21	-0.5883656
252	0x3eb831af	0.35975406
253	0xbe800a04	-0.2500764
254	0x3f12b33f	0.5730476
255	0x3e980439	0.29690722

temporal.rnn.bias_ih_l1 f4 [128]
0	0xbea78d5b	-0.32725033
1	0xbd276b98	-0.040874094
2	0x3bb1cdb9	0.0054261354
3	0x3ef96171	0.48707154
4	0xbdc11f35	-0.094297804
5	0xbf157ca5	-0.5839332
6	0xbee13650	-0.4398675
7	0x3dfa0562	0.12208058
8	0xbedcb7fe	-0.43109125
9	0xbecf8f89	-0.40539196
10	0xbea7d7b4	-0.32781756
11	0xbd4ae06e	-0.04953044
12	0xbe77ef8a	-0.2421247
13	0xbecb37ec	-0.39691103
14	0xbe55fb3b	-0.20896618
15	0xbe44673e	-0.19180009
16	0x3f60f7e6	0.87878263
17	0xbd8d6e7f	-0.06905841
18	0xbe90a1a6	-0.28248328
19	0x3f0f15fd	0.55892926
20	0xbebd20da	-0.36939126
21	0x3e540869	0.20706333
22	0xbea60759	-0.3242748
23	0xbf1a0b44	-0.6017344
24	0x3e82f9b2	0.25581127
25	0x3d2d1031	0.04225177
26	0xbedb4120	-0.42823124
27	0xbd366bb8	-0.044536322
28	0xbeae2e19	-0.34019545
29	0xbe871379	-0.26382044
30	0x3d5ef6f9	0.05443475
31	0xbf384c99	-0.7199188
32	0xbe75f770	-0.24020171
33	0xbe60b2b9	-0.21943177
34	0x3df934bb	0.12168261
35	0x3d9d6e93	0.07687106
36	0x3e324880	0.17410469
37	0x3f4909ca	0.7853056
38	0x3f42258b	0.75838536
39	0x3e8cf716	0.27532262
40	0x3eb46b8c	0.35238302
41	0x3f3cb4d4	0.7371342
42	0xbcddda74	-0.027081706
43	0xbf231bcf	-0.6371431
44	0x3e9f43e7	0.31106493
45	0xbda41322	-0.08011462
46	0x3f4ac8d9	0.7921272
47	0x3ec72caa	0.38901263
48	0x3e0e2aca	0.1388351
49	0x3f1d52c9	0.61454445
50	0xbf1c88ab	-0.6114604
51	0x3fb79fab	1.4345602
52	0x3e86f352	0.26357514
53	0xbe03c524	-0.12868172
54	0x3e8e63fa	0.2781065
55	0x3f22877b	0.63487977
56	0x3e075867	0.13217317
57	0xbf01b29f	-0.5066318
58	0xbe89528e	-0.26820797
59	0x3e4f61ce	0.20252153
60	0xbebf3021	-0.37341407
61	0x3e863de3	0.2621909
62	0xbe883e2d	-0.26609936
63	0x3ee50e95	0.44737688
64	0x3e912db7	0.2835519
65	0x3f00f2cd	0.50370485
66	0x3ea42be4	0.32064736
67	0x3f13a65e	0.5767573
68	0x3d8166ee	0.063184604
69	0x3e3eeba2	0.18644574
70	0xbf50485f	-0.8136043
71	0xbe7b9cb4	-0.24571496
72	0x3ea304d3	0.31839618
73	0xbe5206f9	-0.20510472
74	0x3cba74c1	0.02276075
75	0x3eacebff	0.337738
76	0xbdb702cb	-0.089360796
77	0x3d49ac0d	0.049236346
78	0x3e38fafe	0.18064496
79	0xbe47393b	-0.19455425
80	0xbe94ff8c	-0.29101217
81	0x3ed577d1	0.41692975
82	0xbd4555e2	-0.048177607
83	0x3f0e4ddc	0.55587554
84	0x3d622847	0.055214193
85	0x3f18b14e	0.59645545
86	0x3e9e39c4	0.30903447
87	0x3e1a3217	0.1505817
88	0xbda165a1	-0.07880712
89	0xbf0dccab	-0.55390424
90	0xbe33bd0b	-0.17552583
91	0xbe5607d3	-0.20901422
92	0x3f19cbf0	0.6007681
93	0xbda6ed89	-0.08150775
94	0xbd7c757e	-0.061635487
95	0x3d15ff16	0.036620222
96	0xbe9cd5b9	-0.30631807
97	0xbeb8bd16	-0.3608176
98	0x3e8bc8c6	0.27301615
99	0x3ec76889	0.38946941
100	0x3ea30f74	0.31847727
101	0x3dbc42ca	0.091924265
102	0x3f45650e	0.7710732
103	0x3f06b08d	0.52613145
104	0x3ef4d765	0.47820583
105	0x3ea637f8	0.32464576
106	0xbc5a68a7	-0.013330615
107	0x3c7a22a3	0.015267047
108	0x3d3f4e79	0.046705697
109	0xbd69b887	-0.057060745
110	0x3d45ff09	0.048338924
111	0xbdd0faa3	-0.10204055
112	0x3e14be81	0.14525796
113	0x3e7609ce	0.24027178
114	0xbd7a9af6	-0.06118294
115	0x3e331e2d	0.1749198
116	0xbd52d68e	-0.051474147
117	0x3d8dc2db	0.06921931
118	0xbe4f00aa	-0.20215097
119	0x3e9e289f	0.30890366
120	0x3d194b38	0.03742525
121	0xbe8558f8	-0.2604444
122	0xbef62eb8	-0.4808252
123	0x3e6a72b7	0.22895323
124	0xbf007581	-0.50179297
125	0x3ec588cb	0.38580927
126	0x3d48fd15	0.049069483
127	0x3e77875e	0.24172732

temporal.rnn.bias_hh_l1 f4 [128]
0	0xbf01aae3	-0.5065138
1	0x3e196272	0.1497896
2	0x3d7e3b91	0.062068526
3	0x3f40f931	0.75380236
4	0xbd377e81	-0.044798378
5	0xbf0eb370	-0.5574255
6	0xbee43536	-0.44571847
7	0xbde2a82f	-0.11067235
8	0xbeaac477	-0.33353016
9	0xbec003a9	-0.37502792
10	0xbecd6227	-0.40113947
11	0x3d652da2	0.055951722
12	0xbe4d3bbe	-0.20042321
13	0xbf20de2c	-0.6283901
14	0xbe46b58a	-0.19405189
15	0xbe640107	-0.22266017
16	0x3f503b74	0.8134072
17	0xbe074ea5	-0.13213594
18	0xbe8071ff	-0.25086972
19	0x3f035a42	0.513096
20	0xbf0b095a	-0.54311144
21	0x3d292023	0.041290414
22	0xbed552a5	-0.41664615
23	0xbf30537a	-0.68877375
24	0x3e776553	0.24159746
25	0x3c153d24	0.009108815
26	0xbf3d8fef	-0.7404775
27	0xbd3e6bd2	-0.046489544
28	0xbea96879	-0.3308752
29	0xbe205c1d	-0.15660138
30	0x3d3e0822	0.046394475
31	0xbf383bb7	-0.7196612
32	0xbe12be15	-0.14330323
33	0xbe31784f	-0.1733105
34	0x3e28f928	0.16501296
35	0x3e894654	0.2681147
36	0x3e2ebbc5	0.17063816
37	0x3f0532d9	0.5203071
38	0x3f06b44d	0.5261887
39	0x3d9c4ce7	0.076318555
40	0x3ed03ff1	0.40673783
41	0x3f451c65	0.7699645
42	0x3b77cf66	0.0037812828
43	0xbee6fdfd	-0.45115653
44	0x3d6c3be1	0.057674292
45	0xbd8cc1df	-0.068729155
46	0x3f47971c	0.7796495
47	0x3f055a1a	0.5209061
48	0xbd648145	-0.055787344
49	0x3ec8c510	0.39212847
50	0xbeb53e73	-0.35399207
51	0x3fabe393	1.3428825
52	0x3e64e908	0.2235452
53	0xbebefe8f	-0.37303588
54	0x3d825791	0.06364358
55	0x3ef332c3	0.47499666
56	0x3e96dd71	0.2946582
57	0xbec516ae	-0.38493866
58	0xbeec9eaf	-0.46214816
59	0x3ee8cab2	0.45467144
60	0xbeb80cc6	-0.35947245
61	0x3e9a65fe	0.3015594
62	0xbee1c959	-0.4409893
63	0x3e5acf06	0.21368036
64	0x3dcb3eee	0.09924112
65	0x3eb18e50	0.34678888
66	0x3ceb1777	0.028697712
67	0x3f4da4db	0.80329674
68	0xbdc7de92	-0.09759249
69	0x3bb0f1b8	0.005399909
70	0xbf142f69	-0.5788484
71	0xbe879068	-0.2647736
72	0x3e744b97	0.2385696
73	0xbecedcf6	-0.40402955
74	0x3ddaa9e9	0.10676939
75	0x3d6cf227	0.057848122
76	0x3cce5242	0.025185708
77	0xbe563e23	-0.20922141
78	0xbd6617e1	-0.056175116
79	0xbd0943c0	-0.033511877
80	0xbeae001b	-0.33984455
81	0x3e3f72b2	0.18696097
82	0xbde6b311	-0.11264623
83	0x3f1e3e2a	0.61813605
84	0x3ae2223c	0.0017252634
85	0x3f008d8a	0.5021597
86	0xbcbce228	-0.023057058
87	0x3e8f0a17	0.27937385
88	0x3d4e7845	0.050407667
89	0xbed80fb7	-0.4219949
90	0xbe00e445	-0.12587078
91	0xbe8ff3d2	-0.28115708
92	0x3f12f5cd	0.5740631
93	0xbe0b48fd	-0.13602062
94	0xbe7831da	-0.24237767
95	0x3d569757	0.052390423
96	0xbea4ed2f	-0.32212207
97	0xbe9bf804	-0.30462658
98	0x3ea8d9ee	0.32978767
99	0x3eb626c2	0.35576445
100	0x3e0f8dd2	0.14018944
101	0x3ea12e7d	0.3148078
102	0x3f3642de	0.7119578
103	0x3f03411c	0.51271224
104	0x3ef66255	0.48121896
105	0x3ec77ede	0.3896398
106	0xbe0f29b2	-0.13980749
107	0x3d6b3a7c	0.057428822
108	0xbe14a578	-0.14516246
109	0xbd8b78e9	-0.06810171
110	0xbd2d940d	-0.04237752
111	0x3df8e041	0.12152148
112	0x3e28579c	0.1643967
113	0x3da8a80d	0.08235178
114	0x3d71e638	0.059057444
115	0x3ea2e202	0.31813055
116	0x3dd195c7	0.10233646
117	0xbe3a8b95	-0.18217309
118	0xbe8cf13c	-0.27527797
119	0x3dcf8d85	0.101344146
120	0x3ccf2bb4	0.025289394
121	0xbf02c275	-0.5107797
122	0xbeb722d4	-0.3576876
123	0x3ef2eef5	0.47447935
124	0xbeaed894	-0.3414961
125	0x3d8f5fb4	0.07000676
126	0x3dd7e829	0.10542328
127	0x3efcb94c	0.4936012
