notebook/output/rolling_models_dynamic/window_15.pth (torch, 479738 bytes, 99 tensors)

temporal.input_proj.weight f4 [32, 7]
000000 7e f7 85 bf a9 7a c6 3f 2d 86 34 40 35 4c 83 be
       -1.0466154 1.5506183 2.8206894 -0.2564408
000010 21 b5 88 bd f1 ef 2d 3d 6b 79 42 bd 04 45 db 3f
       -0.066751726 0.042465154 -0.047479074 1.7130437
000020 c2 37 f6 3f c9 dc 2f 40 b2 3c 8e be 96 ef 79 be
       1.9235766 2.7478507 -0.27780682 -0.24407801
000030 e5 6c 61 3e f9 de 05 bd b9 9f 3f 3f b4 14 61 be
       0.22014196 -0.032683346 0.7485309 -0.21980554
000040 40 bc 07 c0 b7 44 1f be 54 c2 96 3e 99 1e a0 be
       -2.1208649 -0.15553556 0.29445136 -0.31273344
000050 aa 73 e9 3c c9 8c 85 40 92 12 4f 40 ca 7a 3d 40
       0.028497536 4.1734357 3.2355084 2.9606194
000060 03 69 ae be f1 68 59 be 08 fb 56 bc 39 48 ce bc
       -0.34064493 -0.21231438 -0.013121374 -0.025180923
000070 f7 cf d9 3e c5 d5 79 3f ee a8 e7 3e d0 26 50 3e
       0.42541477 0.9759181 0.4524607 0.20327306
000080 25 c1 91 bc b0 97 4a 3e 96 bd 65 be e1 b2 f7 bf
       -0.017792294 0.19784427 -0.22435603 -1.9351465
000090 42 92 12 40 d2 9e 54 40 87 fb bc 3e 3a 7f cd be
       2.2901769 3.3221936 0.3691065 -0.4013613
0000a0 2a 8c 96 3e c8 36 2a bd d0 9d 74 c0 49 19 99 bf
       0.29403812 -0.04155615 -3.822132 -1.1960841
0000b0 ac b6 41 3f 1a 8a 5c 3e b9 08 6a be 5b b8 e5 bd
       0.7566936 0.21537057 -0.2285489 -0.11216804
0000c0 7b 9a c1 bd 0c 26 77 c0 23 0a 62 be 81 3f 25 40
       -0.09453293 -3.8616972 -0.2207418 2.582001
0000d0 2e 08 83 bd ca 73 e1 bd 64 b6 a5 3d 9b 2a ad bd
       -0.063980445 -0.11008413 0.08091429 -0.08455392
0000e0 f9 f1 d3 c0 e8 d9 26 c0 7d 68 93 bf d7 19 2c be
       -6.6232877 -2.60705 -1.1516262 -0.16806732
0000f0 e5 1f 18 3d 82 8f 08 bf 5b 5b b4 bd 95 37 bf 3e
       0.037139792 -0.53343976 -0.08806487 0.37347093
000100 80 6b 1a bf ce af a0 bf 7d d0 bb be 10 66 99 3e
       -0.6032028 -1.2553651 -0.366825 0.2996068
000110 63 f1 8d be 89 78 9c 3e f7 b4 7a bf c7 a3 f9 3d
       -0.27723226 0.3056071 -0.9793238 0.12189441
000120 00 75 dc 3f cc 16 6d 3e d1 06 5e bd a5 bf 0d bd
       1.7223206 0.23153228 -0.05420572 -0.034606595
000130 26 38 e5 bb f3 f9 6d 3f f3 e4 4f bf c6 19 8c be
       -0.006995219 0.9295952 -0.81208724 -0.27363414
000140 1f 33 80 be bc 0a 66 3d 2f c2 91 bd a5 f9 88 bd
       -0.25039002 0.05616258 -0.07117116 -0.06688241
000150 aa 82 1a c0 c7 a0 0b c0 90 11 64 c0 a6 8e fd bd
       -2.414225 -2.181688 -3.563572 -0.12380724
000160 c6 95 e2 bd 0e 49 26 3e ba 35 84 bc a9 61 5e 3f
       -0.11063723 0.16238806 -0.0161389 0.8686777
000170 ab 35 71 bf f7 12 21 c0 ed 8b 87 bd 35 53 3a be
       -0.94222516 -2.5167825 -0.066184856 -0.18195803
000180 61 88 3c 3e d0 1a 0f bd 19 a6 7a c0 ae 7c 20 c0
       0.184114 -0.03493768 -3.9163878 -2.5076098
000190 9a 1a f4 bf 54 14 c6 3d 7e 83 80 be 92 15 3d 3e
       -1.9070618 0.09671846 -0.2510032 0.1846526
0001a0 8c 47 ac bc d3 f2 51 c0 b8 07 1e c0 14 07 31 c0
       -0.02103021 -3.2804458 -2.469221 -2.766057
0001b0 cc 81 f2 bd 2f 72 00 3e 6f b5 10 3c 84 9f 3e 3c
       -0.11841163 0.12543558 0.00883232 0.011634711
0001c0 93 2f 34 40 01 ad bf 3d 22 77 a1 3c 08 dc 1e 3c
       2.8154037 0.0935917 0.019710127 0.009696014
0001d0 a7 25 8e bd f6 80 82 bd e8 1b 5d be 1d 7d 5b bf
       -0.06940775 -0.063722536 -0.21592677 -0.8573778
0001e0 ab 5b 55 bf 6e 42 4c 3e 50 18 b3 be 16 2f 3b be
       -0.83343 0.19947216 -0.34979486 -0.1827968
0001f0 73 ec 06 3c d2 41 f3 3c b2 ba de 3f 3e 37 e9 bf
       0.008235085 0.029694472 1.7400725 -1.8219984
000200 d2 a9 d5 bf 3c bc 19 3e 73 9d 2a 3d 63 cd b3 bd
       -1.669245 0.15013212 0.04165406 -0.08779409
000210 33 99 a8 bc 2c 44 b8 3f cf 2c 2b 40 7c 7d 3f 40
       -0.020580864 1.4395804 2.67461 2.992034
000220 26 b7 83 be 70 63 a5 be a4 51 f9 3d 72 de de bb
       -0.2572567 -0.32302427 0.12173775 -0.00680142
000230 4d 81 0c 3f 48 cc e0 bf 18 dc 29 c0 58 2d cd 3b
       0.548848 -1.7562342 -2.6540585 0.006261509
000240 b0 b6 dc b9 30 7d c6 bc 99 47 0e 3d 2b 47 1c 40
       -0.00042097783 -0.024229616 0.03473625 2.4418437
000250 56 2a b8 bf 35 c7 08 c0 9c a2 e9 ba 52 8d 9a 3d
       -1.438792 -2.1371586 -0.0017824951 0.07546486
000260 4c f5 c2 bd f3 62 ce bc 1f 01 19 bf e2 55 ca 3f
       -0.09519443 -0.025193667 -0.59767336 1.5807459
000270 43 20 dd 3f ae b7 d7 3d 20 25 0e be 91 87 46 bd
       1.727547 0.10533081 -0.1388135 -0.04846913
000280 61 21 4d bd a0 bf 51 bf 44 b3 e9 bf 1e 6a 3a c0
       -0.05008066 -0.8193302 -1.8257833 -2.9127269
000290 c1 a7 0b be 6f e4 b7 3d 03 4e 8b 3e 53 e8 c2 bb
       -0.13638212 0.08979117 0.27207956 -0.0059481054
0002a0 44 23 2f c0 d4 07 32 bf f9 69 10 c0 69 3a 66 bd
       -2.7365274 -0.69543195 -2.256468 -0.056208048
0002b0 27 c8 9d bc 02 44 ba 3e 75 f5 aa bd db a0 fd bf
       -0.01926048 0.3638001 -0.083475985 -1.9814714
0002c0 6c 25 e7 3e 1b 51 be 3f 0e 34 86 3e 7e 90 69 bd
       0.45145738 1.4868501 0.2621159 -0.057022564
0002d0 31 67 b2 bc 33 0c 39 3c 46 d3 b2 bf ab 4b eb bd
       -0.021777721 0.011294412 -1.3970726 -0.11489042
0002e0 14 82 b4 bf 9b ef 3d 3e 76 27 fc be 8b f2 c9 3e
       -1.4102197 0.18548433 -0.49248856 0.39442858
0002f0 93 3b 5f bc 0e 3c 07 40 ce 33 ce be 4e d0 e3 bf
       -0.013625043 2.1130404 -0.402739 -1.7797945
000300 fb 18 bb 3c 2f 6a d8 3e 03 4e 14 3e 07 76 ac bc
       0.02283906 0.42268512 0.14482884 -0.021052374
000310 d6 6a 76 40 35 07 2d 40 26 50 68 40 9a f4 48 3e
       3.8502707 2.703565 3.6298919 0.19624558
000320 fb c0 ff 3d 7a af 95 be b6 58 b4 bc 85 cd 5d c0
       0.1248798 -0.2923544 -0.022014957 -3.465669
000330 cf 92 51 bf 96 d5 7a 3f 58 54 c1 3d d8 2c 47 bd
       -0.8186464 0.97982156 0.094399154 -0.04862675
000340 2e c7 17 be 8a 4a f7 3a e5 24 8e 40 2e 75 09 40
       -0.14822075 0.0018866819 4.4420037 2.147777
000350 d9 70 d3 be 51 ca 37 3e 82 29 9f 3d b4 54 99 bd
       -0.41297033 0.17948271 0.07771589 -0.07486859
000360 75 8a fb bb 6e 2c 70 3f 59 c6 ce 3b 6d 85 8f bf
       -0.0076764175 0.93817794 0.006310266 -1.1212593
000370 f3 ef 5a 3e ef b3 81 be 25 38 be 3d d0 58 1f 3d
       0.21380596 -0.2533259 0.092880525 0.038903058

temporal.input_proj.bias f4 [32]
000000 1f 58 02 3c d4 f0 34 3d 03 60 0e bf b8 ef 3c 3e
       0.00795558 0.044174984 -0.5561525 0.1845082
000010 6a 1d 84 bf 4f 92 bb 3e 60 fa 83 3e a2 46 4d 3f
       -1.0321476 0.36635062 0.25776958 0.801859
000020 86 bb a1 be ec 6d 22 be fa fc cb 3c 5a d6 a5 bc
       -0.31588382 -0.15862244 0.024900902 -0.020243812
000030 be dd 74 be cb a2 2b be 83 cf e3 be 11 0e d6 be
       -0.23912713 -0.1676132 -0.44494256 -0.41807607
000040 d0 31 ea be bb 1d f2 3e 8d 45 10 be 62 a9 09 3f
       -0.4574113 0.47288308 -0.14089032 0.5377408
000050 d6 ea 16 bd 1b 2c 9b be 78 a0 2b 3f d8 75 d9 bc
       -0.03684505 -0.30307087 0.6704173 -0.02654545
000060 a8 76 16 3f 52 2c 97 be a1 31 fc 3d 50 7d 20 bf
       0.58774805 -0.29526 0.123141535 -0.6269121
000070 2f 57 b9 3c a3 b8 eb 3e 9e 7e 33 bf 2f cb 8d be
       0.02262458 0.46039304 -0.7011508 -0.2769408

temporal.layer_norm.weight f4 [32]
000000 c8 01 8f 3f 2f 90 86 3f 67 b6 81 3f 8b 7b bb 3f
       1.1172419 1.0512751 1.013379 1.4647077
000010 10 73 40 3f 41 13 76 3f 10 9c 0f 3f 74 d4 87 3f
       0.7517557 0.9612313 0.5609751 1.061171
000020 c8 8e 99 3f 52 d3 dc 3e d0 bf 86 3f 44 54 8e 3f
       1.1996698 0.43129975 1.0527287 1.1119466
000030 48 07 89 3f ef 9e b4 3f 95 c0 a2 3f 23 e5 43 3f
       1.0705347 1.4111003 1.2715021 0.7652151
000040 56 d6 59 3f 92 46 5b 3f fa 89 aa 3f 2d 59 7f 3f
       0.85092676 0.85654557 1.3323357 0.99745446
000050 9c 02 71 3f 15 ef ff 3f 1f 0f ad 3f 50 3c 3d 3f
       0.94144607 1.9994837 1.352024 0.73920155
000060 08 f9 21 3f 88 d4 b1 3f 24 52 85 3f 52 e6 58 3f
       0.63270617 1.3892984 1.0415692 0.8472644
000070 06 3c 9e 3f a5 d4 88 3f eb 98 94 3f 1c 57 1f 3f
       1.2362068 1.0689894 1.1609167 0.62242293

temporal.layer_norm.bias f4 [32]
000000 ce 9e 14 be d1 b1 f1 be 71 7a 0b 3f 6d ed 54 bc
       -0.14513704 -0.47205976 0.54483706 -0.01299606
000010 9e 3a 28 3f ea 5c 43 bf db ba 61 be d8 20 31 bf
       0.6571444 -0.7631365 -0.22043936 -0.6919074
000020 14 f9 ea be 7d ce 12 3f 38 64 5b be 7a 5b 52 be
       -0.45893157 0.57346326 -0.21424949 -0.20542708
000030 bf a0 a8 ba 5c 28 95 be 58 93 8a bc 61 be ee bd
       -0.0012865289 -0.29132354 -0.016915962 -0.11657406
000040 fd e3 bf 3e b7 c0 eb 3e 9a ea 7e 3e ca 8f 16 bf
       0.3747863 0.46045467 0.24894181 -0.58813155
000050 17 d8 16 3f 48 ba 38 3d ee 42 57 3d c9 21 43 be
       0.58923477 0.045099527 0.052554063 -0.19055857
000060 76 f9 82 bf 90 3f a6 3e f3 c8 80 3e 05 56 cf be
       -1.023238 0.3247037 0.25153312 -0.40495315
000070 67 52 7f 3d 7a c5 fe be 72 f3 fd 3e 05 59 82 3f
       0.062334444 -0.49760038 0.49599797 1.0183417

temporal.rnn.weight_ih_l0 f4 [128, 7]
000000 86 e7 93 bf 61 e8 8e bf 43 ce ae bf be e2 94 bf
       -1.155503 -1.1164666 -1.3656696 -1.1631696
000010 02 0c 8b 3e 98 33 a7 3e d1 a3 5c bf 2b 21 92 bf
       0.271576 0.3265655 -0.86187464 -1.1416372
000020 35 26 4b bf 14 ce 79 bf 99 d0 57 bf 59 01 bd be
       -0.79355174 -0.97580075 -0.8430267 -0.3691509
000030 30 e1 dc be f2 bb 8a 3e 35 a7 48 bf 56 40 4a bf
       -0.43140554 0.27096516 -0.7838014 -0.7900442
000040 e5 0f 58 bf 8c b0 2d bf bd 2d 31 bf b7 7a 76 bf
       -0.84399253 -0.67847514 -0.69210416 -0.96281
000050 cb 8f b1 3e 64 30 33 3e 90 47 bc 3e 1d e4 38 3d
       0.34680018 0.17498928 0.36773348 0.04513942
000060 aa 68 32 3e 09 77 87 3f 8d 0a 1f 3f 77 10 e2 3d
       0.17422739 1.0583202 0.62125474 0.11038297
000070 12 6d a1 3e 8d 8f c8 3e a0 1c 19 3e cb 0a 71 3e
       0.31528527 0.3917202 0.14952326 0.23539273
000080 8e b9 16 3e fc f2 a9 3e 4b c2 53 3d 1a f4 c3 c0
       0.14719221 0.33193195 0.051698964 -6.1235476
000090 8e 64 9f c0 c7 a0 be c0 18 18 d3 c0 a2 fb 1d be
       -4.9810247 -5.957126 -6.596691 -0.15428022
0000a0 99 69 93 be 9b 44 82 3c 04 93 23 be 33 e9 ae bd
       -0.28791502 0.015901854 -0.15974051 -0.08540573
0000b0 3c 36 f7 bd ac 30 44 3e 51 57 84 3d a1 25 92 3c
       -0.12070891 0.19159192 0.06461967 0.017840208
0000c0 47 8d dc 3d 8c 76 d6 3e 8f df 40 3f ec e4 9a 3e
       0.10769134 0.4188732 0.75341123 0.3025278
0000d0 68 00 3b 3f 49 32 85 be 3f 8d 93 be fc 67 24 3d
       0.73047495 -0.26014927 -0.288187 0.04013823
0000e0 b8 fd bb bf 63 e6 ed bf 36 d9 db bf c8 5f 0e c0
       -1.4686804 -1.8585933 -1.7175663 -2.224596
0000f0 f5 39 16 bf 0f cd 11 bf 69 78 04 3e dd b6 66 bf
       -0.58682185 -0.5695352 0.12936558 -0.9012278
000100 9c 1c 1f bf f4 46 be bf 2b 95 a3 bf 05 25 44 be
       -0.6215303 -1.4865403 -1.2779897 -0.19154747
000110 ef 10 9a be 77 30 1b 3d 14 38 73 bf 9a 52 5a bf
       -0.30091044 0.037888017 -0.95007443 -0.8528229
000120 f0 05 9a bf a4 97 8b bf c6 b2 96 bf 2d 19 7e bf
       -1.2033062 -1.0905652 -1.1773307 -0.99257165
000130 22 af 09 3d 84 de f2 be d2 94 bf be 8d 69 59 bd
       0.033614285 -0.4743539 -0.37418228 -0.053079177
000140 19 4f 9e be da 56 08 bf d6 8c ea bd 9d 24 15 3f
       -0.30919722 -0.53257525 -0.114526436 0.5825899
000150 06 f0 f1 3e 39 fb 08 3e 31 09 0c 3f 41 35 0e 3f
       0.47253436 0.13377084 0.54701525 0.5555001
000160 d3 80 11 bf 16 84 28 bf d6 1d 7d 3e 65 b7 7f bf
       -0.56837195 -0.6582655 0.24718413 -0.9988921
000170 ed 5b 39 c0 71 0d 90 3e 7f 43 89 bf 3d 11 35 3e
       -2.8962357 0.28135255 -1.0723723 0.17682357
000180 2f 52 26 bf 15 8b 9b 3e 48 84 2e bf ec a1 aa be
       -0.6496915 0.3037955 -0.68170595 -0.33326662
000190 c0 04 37 bf 71 fe 16 bf 27 13 24 bf a6 2c 14 bf
       -0.7149162 -0.58981997 -0.64091724 -0.5788063
0001a0 1d e3 90 be 3f d6 52 bf 15 56 1e c0 5e 23 ab 3f
       -0.28298274 -0.82358164 -2.474004 1.3370168
0001b0 58 48 69 bf d2 2b 30 bf c4 d9 f1 be 4b 03 ec 3d
       -0.9112601 -0.68816864 -0.47236454 0.115240656
0001c0 f3 cc eb bd 76 10 ed 3d ae 54 68 be ad b9 bc be
       -0.115137 0.11575405 -0.22688553 -0.3686041
0001d0 5a c6 cb 3e a5 cd 5d 3e e5 27 6f 3e 55 19 29 bf
       0.39799768 0.21660478 0.23355062 -0.6605428
0001e0 07 bc c7 be dc c1 34 bf 03 e1 58 bf 6b 62 50 bf
       -0.3901064 -0.70608306 -0.8471834 -0.81400174
0001f0 05 08 8a bf c9 d6 4a 3e 8b a5 15 bf 4e 5b 91 bf
       -1.0783697 0.19808497 -0.58455724 -1.1355989
000200 77 2c 30 bf c0 eb 65 bf ad 3a 4c 3e 3d 8c 34 3b
       -0.6881785 -0.8981285 0.19944258 0.002754941
000210 dd 45 60 3e e4 7a 97 bf 70 95 02 bf 8d b8 8f be
       0.2190165 -1.1834378 -0.51009274 -0.2807049
000220 e2 7d fe 3e 9e 5e ba bd 74 da 2a bd f3 7a 51 bd
       0.49705416 -0.09100078 -0.04171224 -0.051142644
000230 96 f3 41 3f d3 29 ce 3e 3c 3f 90 3f 02 c5 2d 3f
       0.7576231 0.40266284 1.1269298 0.67878735
000240 9d 74 ff be 3d 4f 3f bf ed a8 fa 3e 7b f7 c2 bd
       -0.49893656 -0.74730283 0.48957005 -0.095198594
000250 56 7e 79 3e 25 f8 10 bf 73 15 65 bb 4f 2e ff 3e
       0.243646 -0.5662864 -0.0034955412 0.49840018
000260 52 6d a0 3e 97 0c 0b 3e 67 70 b2 bf d7 8b a6 bf
       0.31333405 0.13579021 -1.3940552 -1.3011426
000270 3d 93 c8 bf 03 d9 a9 bf 3c b8 ef be 9a 26 e2 bd
       -1.5669934 -1.3269352 -0.46820247 -0.11042519
000280 3a 9e 14 bf a6 19 be be 87 0c ee be 53 9e 2e bf
       -0.58053935 -0.37128943 -0.46493933 -0.68210334
000290 1e cb 1f bf 92 f7 9e bf 87 1f 97 bf 78 20 89 3b
       -0.6241931 -1.2419302 -1.1806496 0.004184779
0002a0 03 d6 40 be 76 34 5a bf fa 31 45 3d 18 ee 2d bf
       -0.18831639 -0.852363 0.048143364 -0.6794143
0002b0 18 63 9b 3e be 08 f8 3d 22 b5 b1 3e b4 e0 02 bf
       0.3034904 0.121110424 0.34708506 -0.5112412
0002c0 d8 38 0f bf 57 0c e6 be 71 84 a5 be bb 0c 06 be
       -0.5594611 -0.4493129 -0.32327607 -0.13090794
0002d0 64 63 16 be 34 6b 56 3e 2a 6f 3b bf cd bf 17 bf
       -0.14686352 0.20939332 -0.732165 -0.5927704
0002e0 c1 b9 45 bf b0 56 2e bf 01 05 57 bf 49 4d 5d bf
       -0.7723656 -0.68101025 -0.8399201 -0.8644605
0002f0 13 09 82 be c6 d6 7a bf 3c af d9 3e 1c 4c 91 bf
       -0.25397548 -0.9798397 0.42516506 -1.1351352
000300 ab 21 55 3e a9 fb 25 3e b1 82 b7 be 7c 91 9d bd
       0.20813625 0.16209282 -0.35841897 -0.076937646
000310 c3 2c 03 3f f2 ac 62 3f 1e 09 3a 3f e6 82 7e 3f
       0.51240176 0.88545144 0.7267016 0.99418485
000320 96 20 0a bf 9a 61 d9 be fc f1 88 3d f8 10 74 bc
       -0.5395597 -0.42457277 0.0668678 -0.014896624
000330 63 50 10 3f a8 b5 0f bf 73 75 4d be 80 92 7c be
       0.5637266 -0.5613656 -0.20064335 -0.2466526
000340 d2 d7 85 3e 4f 31 a2 3c 32 8a d3 bd 6f f9 11 3e
       0.2614122 0.019798903 -0.10329093 0.14255308
000350 e7 4c 82 be f2 9e 44 be 09 7f 15 3e c2 64 4b 3e
       -0.25449297 -0.19201258 0.14599241 0.19862655
000360 f4 6e ea be f7 88 2a bf b3 d8 0c bf 38 9a 35 bf
       -0.45787776 -0.6661524 -0.55018157 -0.70938444
000370 c9 39 52 bf 32 cd 7e bd bf 55 9e bd 74 dd 25 bf
       -0.82119423 -0.06220741 -0.077311985 -0.64791036
000380 23 cb ad be 46 0f b4 be a5 85 61 bf a3 e0 77 bf
       -0.33944044 -0.35167903 -0.8809455 -0.96827143
000390 12 33 0c bf fa 07 f5 be 7e 59 84 3e c8 98 49 bf
       -0.5476543 -0.47857648 0.25849527 -0.7874875
0003a0 aa d0 33 bf 75 c8 3a bf 5c 10 3d bf bc 8a 75 be
       -0.7024027 -0.72962123 -0.7385309 -0.23978704
0003b0 69 98 fc be 7c d9 62 be 69 bd 31 bf 01 7b 58 bf
       -0.4933503 -0.22153276 -0.6942964 -0.8456269
0003c0 da b3 86 bf d8 55 83 bf d4 fa 53 be 14 d0 ab be
       -1.0523636 -1.0260572 -0.20701152 -0.3355719
0003d0 50 a4 ae bd 46 cb ed 3e c5 c1 34 3e 53 f0 e5 3e
       -0.08527434 0.46444148 0.17652042 0.44909915
0003e0 65 1d 2e 3e df 1a 72 be 9c 21 30 bf de cc 9f 3c
       0.170034 -0.23643063 -0.68801284 0.019506868
0003f0 33 1c ea 3e 4b de 12 3f 35 70 38 be f6 80 ba be
       0.4572464 0.5737044 -0.18011554 -0.36426514

temporal.rnn.weight_hh_l0 f4 [128, 32]
000000 79 17 6b be 71 94 2f be 25 40 67 bd 03 cd 06 be
       -0.22958173 -0.1714647 -0.056457657 -0.13164143
000010 52 9c 7f be a4 87 51 3f 05 0c c0 be 60 61 2b 3f
       -0.24961975 0.81847596 -0.3750917 0.6694546
000020 53 d0 b8 bd b2 ef 25 bf 30 9d 40 bf ff 84 07 3f
       -0.0902411 -0.6481887 -0.7523985 0.5293731
000030 f2 69 ea be 79 e3 45 bf e9 a7 1c be b0 ab c3 bf
       -0.45783955 -0.7730022 -0.15298428 -1.528677
000040 c0 65 be 3e ec 21 76 be 1f 36 65 3e ff bb 8a bf
       0.37187004 -0.24036378 0.22383927 -1.0838622
000050 dc ad 81 bf ed 4c 91 3e 34 e9 9b 3e 11 ad 58 bf
       -1.0131183 0.28379002 0.30451357 -0.8463908
000060 55 b6 fd 3e c2 85 ef be 2c 9f b9 3e 74 bf bc be
       0.4955317 -0.46781737 0.3625425 -0.36864817
000070 17 ad fc 3e de ea 53 3f 3c 46 f4 3e e0 c1 ad 3e
       0.49350807 0.82780254 0.47709835 0.33936977
000080 6f 71 aa be 02 a6 82 bd 80 aa 1e 3d 2b c1 f9 3e
       -0.33289668 -0.0637932 0.03873682 0.48780188
000090 fc d2 a5 3e 83 42 13 bd 7e af 80 bd e8 d9 fe 3e
       0.3238753 -0.035952102 -0.062834725 0.49775624
0000a0 9d 14 41 3e 41 06 64 be a8 f1 f6 3d 9d 85 4a bf
       0.1885552 -0.2226801 0.12057811 -0.7911013
0000b0 a2 d8 db be 19 6d 3a bf d3 d3 22 bf f9 b4 cc bd
       -0.42938715 -0.7282272 -0.6360447 -0.09995455
0000c0 c6 05 a6 be c7 cb c9 3e 91 c3 56 3e 48 5b 6a bd
       -0.3242628 0.39413282 0.2097304 -0.05721596
0000d0 73 c6 08 3e 98 2f fb be 7d a2 e4 3e 6e a7 65 3e
       0.13356952 -0.4905975 0.4465522 0.2242715
0000e0 3e 55 e6 be 01 a3 5c 3e c1 9a 57 3f 07 b1 42 3f
       -0.4498691 0.21546556 0.8422051 0.7605137
0000f0 7c 3e a5 3e bf 5f 18 bf 2b f0 ad bd 88 81 15 3f
       0.32274234 -0.59521097 -0.08493074 0.58400774
000100 82 a5 1d bf 05 20 45 be d6 08 63 3e ca 72 63 bf
       -0.6158067 -0.19250496 0.2217134 -0.8884703
000110 56 14 d1 be 6f 2b 80 be 8b 0c 9b 3e 7c 6c cb be
       -0.40835828 -0.25033137 0.30283007 -0.39731205
000120 4b 6e b6 bd 19 83 3c be 1d 3e dd 3e 41 da 01 3e
       -0.089077555 -0.18409385 0.4321145 0.12680914
000130 c9 5a f1 3e 3d 03 c0 3e e9 f4 b4 be f5 f0 03 3d
       0.47139576 0.3750247 -0.35343102 0.032212216
000140 13 1d e3 bd 68 30 2d bd 52 1c 89 bd f3 9d bf 3d
       -0.1108953 -0.042282492 -0.06694855 0.09356298
000150 b9 ce 41 be 4d d6 9f 3e 3d d5 6e bd 03 a1 1b bd
       -0.18926515 0.31218186 -0.05830883 -0.03799535
000160 1c 6f 26 3e 53 55 97 bb 4f 5d 6a bd 2e ce 34 3e
       0.16253322 -0.0046183257 -0.057217892 0.17656776
000170 3e 06 3f 3e d4 35 ce 3d da 8d 80 be cf ab 9a 3e
       0.18654725 0.10068861 -0.25108224 0.30209205
000180 55 b2 5f bf b8 b1 9e 3e 0f 88 75 3e 45 fa 3a 3f
       -0.8738149 0.30994964 0.23977683 0.7303813
000190 98 5a 02 be ab 28 35 be f8 f9 cd bd 39 6d 12 bc
       -0.12729871 -0.17691295 -0.100574434 -0.0089371735
0001a0 a3 72 c6 be 14 47 5b be 98 5c 0e 3f b0 fe f4 3d
       -0.38759336 -0.21413833 0.55610037 0.1196264
0001b0 2d a9 0c 3f b8 42 6b be 88 06 0e bf 21 1a 4d 3d
       0.5494564 -0.2297467 -0.55478716 0.050073747
0001c0 f8 ca 21 be 70 d0 26 3f 9c d5 82 3c bf ba 6d 3e
       -0.15800083 0.651618 0.015970998 0.23215769
0001d0 ae 73 6b be 57 d7 38 bf 51 52 6c be 7e 04 2e 3e
       -0.22993347 -0.7220358 -0.23078276 0.16993901
0001e0 f2 05 c9 3c e0 83 a3 3e a2 a2 10 bd 36 25 65 be
       0.024538968 0.3193655 -0.03531135 -0.22377476
0001f0 17 28 64 be d0 7d 85 3d 0f ab d5 3e 5c 22 b7 3e
       -0.22280918 0.065181375 0.4173207 0.35768402
000200 ba 2c 07 bf d6 80 bd be aa 72 7c 3e 0b 52 94 be
       -0.5280262 -0.37012357 0.24653116 -0.28968844
000210 30 7d 49 be 75 b7 2e 3f ac 8a de 3d 4b 91 ea 3d
       -0.19676661 0.68248683 0.10866293 0.11453494
000220 05 b8 29 3f cc 80 f5 be e2 cf 35 bf 37 41 8b 3e
       0.66296417 -0.47949827 -0.7102033 0.27198192
000230 ce a3 b2 bd cd 7b ff be 8a 63 9e be d6 f5 67 bf
       -0.087226495 -0.4989914 -0.30935317 -0.9060949
000240 98 f2 b3 3e cd 9a 1f bf 8a 0f da 3e 1c 7f 85 be
       0.35146022 -0.6234558 0.4258998 -0.2607354
000250 aa 47 3f bf ff 7d d5 3e a3 70 b3 3c 2d f2 e1 be
       -0.74718726 0.4169769 0.021904295 -0.44130078
000260 d5 dd 4f 3f cb da 7a be 23 07 f1 3d b7 f8 fd be
       0.81197864 -0.24497525 0.11768939 -0.49603817
000270 cb 9a c3 3e 71 2a 69 3f 07 a8 53 be 5c 66 c9 3e
       0.38204035 0.91080385 -0.20669566 0.39335907
000280 39 fd 41 3f 6e 9b 91 bd 1e 6b 4c be 26 f3 12 be
       0.7577701 -0.07109724 -0.19962737 -0.14350566
000290 a8 75 04 40 22 9e 5e 3f b6 81 64 bf 1b 00 08 3f
       2.0696812 0.8696004 -0.89260423 0.5312516
0002a0 f7 96 1d bd 69 e0 e0 3e 29 89 f7 3c 90 05 cc 3e
       -0.03847405 0.4392121 0.03021677 0.39847994
0002b0 32 3c 7a bf 3a c9 e7 be 3e 9a fc 3d 21 12 7e bd
       -0.977481 -0.4527071 0.12334107 -0.062029008
0002c0 29 cd cd 3e 1b 03 93 be cf eb 42 3d d1 ab c1 bd
       0.40195587 -0.28713307 0.047588166 -0.094565995
0002d0 92 24 74 be 7e 98 fd bd ce 4c e2 3e 1e 28 f8 be
       -0.23842075 -0.12382601 0.44199222 -0.48468107
0002e0 35 df 24 bf d9 f3 86 3e 4f d8 e2 3e 1a fe b6 bc
       -0.64403087 0.26357916 0.44305655 -0.022337962
0002f0 a2 64 e2 3d df aa 19 bf 5b 50 45 bf 06 35 68 3e
       0.110543504 -0.60026354 -0.7707574 0.22676477
000300 8e 07 c2 be 9c 1f 39 3e cb b3 0e 3e d9 a1 79 3e
       -0.3789639 0.18078464 0.13935773 0.24378146
000310 fe 3e 6f 3e 2c a9 65 3e 69 ae ae bd 98 0f ab bf
       0.23363873 0.22427815 -0.0852936 -1.3364134
000320 80 ad 1c 3f 92 81 12 bf 0d d8 6a 3e 6c 07 00 3e
       0.6120224 -0.5722896 0.2293398 0.12502831
000330 bc 4f e5 3e c6 dd 09 be a4 5a 35 bf be a3 f7 3e
       0.44787395 -0.13463506 -0.7084143 0.48367113
000340 a7 99 7a 3e 0c 07 a9 bd 31 ed 2e bf d2 83 5c 3e
       0.24472676 -0.08253297 -0.68330675 0.2153466
000350 22 21 a5 3f 2e a8 14 bf 80 34 41 bd 09 8a ce bd
       1.2900736 -0.5806912 -0.04716921 -0.10084922
000360 f8 34 a7 3e 59 32 d6 3e 3c 6b 46 be 00 4c 17 bf
       0.326576 0.41835287 -0.19376844 -0.5910034
000370 d2 74 fa be c5 5c c9 be 79 c9 e1 3e 3b b6 69 be
       -0.48917252 -0.3932859 0.44099024 -0.22823422
000380 71 5a 2e 3f 81 6d 46 be b4 62 f9 3e 7d c6 a0 3d
       0.6810675 -0.1937771 0.48708117 0.07850359
000390 34 45 0a 3f 36 0b a9 3e 0e 72 13 be 6c 34 0f be
       0.54011846 0.33016366 -0.14398977 -0.13984841
0003a0 29 73 12 3f f5 72 80 bd 28 bf 89 3e 32 aa c1 bd
       0.5720697 -0.06271926 0.26903653 -0.0945629
0003b0 10 c4 f1 3c 4b 09 4c bd 69 5e 0a 3f 11 bb b1 bc
       0.029512435 -0.04981355 0.5405031 -0.021695646
0003c0 83 0d 82 bc ad 9d 86 be 9d 82 47 3e f8 1e 26 be
       -0.015875584 -0.26292172 0.19483419 -0.16222751
0003d0 7d ce ca bd 0f 69 a9 3e 7a 81 75 be f7 1f 0d bf
       -0.09902666 0.33087966 -0.23975173 -0.551269
0003e0 c4 82 d8 3e 71 13 e3 3f c3 d1 b3 3e c5 25 a8 3f
       0.42287266 1.7740308 0.35120973 1.3136526
0003f0 38 5b 43 3e f0 9b 0d be 91 9b 0f 3e dd c6 da be
       0.19077766 -0.13829017 0.14024188 -0.42729846

temporal.rnn.bias_ih_l0 f4 [128]
000000 60 25 81 3f 72 93 94 be 9b 4b e6 3d 01 25 41 3e
       1.0089531 -0.29018742 0.11244889 0.18861772
000010 09 1d 28 3e ee 65 6d be b6 d4 9d be 1a 3c 8f be
       0.16417326 -0.23183414 -0.30826348 -0.2797554
000020 62 a4 33 bd bc 5f 08 bc aa 63 d4 be 0f 62 cb be
       -0.04385794 -0.008323606 -0.41482288 -0.3972325
000030 a8 82 06 be e8 d8 19 bf 27 7d 13 3e b5 41 f2 be
       -0.13135779 -0.600966 0.1440321 -0.47315755
000040 3b 2f c1 be 85 e6 6f be 15 73 22 bf 3c 2b fb be
       -0.37731346 -0.2342778 -0.6345685 -0.49056423
000050 4e 5d ff be f5 1b 4e 3e 0b 03 42 be 6c 84 e5 be
       -0.49875873 0.20127852 -0.18946473 -0.44827592
000060 f7 f6 2a bf 11 72 c9 bc 23 a6 1e bf ad 08 f9 be
       -0.6678309 -0.024590524 -0.61972255 -0.48639432
000070 1f cc 9e be 5c a9 97 be 93 94 dc be 6b 71 03 3f
       -0.31015107 -0.29621398 -0.43082103 0.5134494
000080 83 58 2a bf ac ea b3 be 97 ab 14 3e 45 8a 2c be
       -0.6654131 -0.35139978 0.14518581 -0.1684962
000090 cf f1 93 bd 3e 34 02 3d f8 03 94 3d d3 17 3a bd
       -0.07223856 0.031788103 0.072273195 -0.045432877
0000a0 1f 81 ad 3c 00 86 09 3d 7d d2 6e 3e 14 84 11 3c
       0.021179734 0.033575058 0.23322482 0.008881588
0000b0 0d de c2 bd 65 04 96 3e 16 92 c1 bc 8a 6e bf 3e
       -0.09515009 0.29300228 -0.02362923 0.37389022
0000c0 58 e4 c5 3c ac 92 9b bd 3c 53 e7 3e 4b b6 02 bf
       0.024156734 -0.07596335 0.4518069 -0.51059407
0000d0 b9 d1 2b 3e 9c b5 d0 be 6d 5a 24 3d 98 d9 b5 be
       0.16779222 -0.40763557 0.0401253 -0.35517573
0000e0 bf 27 a2 3e 74 8b 90 bd 2e a5 0c bf d9 3d a4 be
       0.3167095 -0.070578486 -0.54939544 -0.32078436
0000f0 5c 90 2d be fd 9f 58 be 8b 9d 0a bd fe 6b 14 bf
       -0.169496 -0.2115478 -0.03384165 -0.57977283
000100 95 a4 3c 3c 68 cf c6 be 33 f7 89 3e fa da 99 bc
       0.011513849 -0.38830113 0.2694641 -0.018781174
000110 d7 59 0a bc 06 13 70 3e d7 b1 31 3e ce b7 0e 3e
       -0.008444271 0.23444757 0.17352997 0.13937303
000120 02 55 4e 3e b5 f8 01 3e 09 c9 c1 be ae 78 7a 3d
       0.20149615 0.1269253 -0.3784869 0.061150245
000130 f9 5b 91 bd b0 b4 db bc ad af 7c 3e c1 01 4b be
       -0.070976205 -0.026819557 0.2467639 -0.19824888
000140 59 5d bd 3d 2f e5 02 be 93 be 5b 3e 4b 21 5e be
       0.0924632 -0.12782739 0.21459417 -0.21692388
000150 71 d6 9f bd 91 15 bf bb 0f 76 cb be cd 50 85 bd
       -0.07804573 -0.0058314283 -0.3973851 -0.06509552
000160 d5 39 02 3e 07 fa 04 3e 09 72 0c 3c b2 6d 9f bd
       0.12717374 0.12986003 0.00857211 -0.077845946
000170 4f 4a bf 3e fa f1 7f 3e e3 71 45 be c2 f5 2b 3d
       0.3736138 0.2499465 -0.19281726 0.04198242
000180 81 c9 83 3f da 5f 8a be 96 59 84 bb af 91 56 3d
       1.0295869 -0.27026254 -0.004039 0.05238503
000190 46 6d 70 3e ad b3 f9 bd 47 a4 a2 3e 86 ab 4b bd
       0.23479185 -0.121924736 0.3176596 -0.049724124
0001a0 51 f5 91 3e 93 67 b2 3c a4 ad ca be e7 64 90 be
       0.28507474 0.021777904 -0.39585602 -0.28201982
0001b0 fa c3 32 3d 65 1c c2 3e f0 35 a7 3e 6c 2f 6b 3e
       0.04364393 0.37912288 0.3265834 0.22967309
0001c0 c2 d4 42 be e2 ec b3 3c d7 92 1b be 90 d7 0a bf
       -0.19026473 0.02196354 -0.15192734 -0.5423517
0001d0 c5 c9 65 be dd 05 ee 3e 2e 7c ef be 3a b4 b1 be
       -0.2244025 0.46488848 -0.4677443 -0.34707814
0001e0 61 b7 3a be 56 b3 b8 be f2 bd 68 be f4 51 bd be
       -0.18234016 -0.36074322 -0.22728708 -0.36976588
0001f0 41 91 18 3d e4 64 92 3c a9 f2 89 3e 4c ac bb 3e
       0.0372479 0.017870374 0.26942948 0.3665489

temporal.rnn.bias_hh_l0 f4 [128]
000000 e8 f6 42 3f 39 e7 2b be e0 01 84 3b 90 3c d2 bd
       0.76158 -0.16787423 0.004028544 -0.10265458
000010 b8 5f 34 3e 35 99 97 be e3 3b f7 be c4 3f 21 be
       0.17614639 -0.29609075 -0.48287877 -0.15746981
000020 f4 26 17 bc 83 e7 94 be 74 ba 18 be 57 a8 00 bf
       -0.009225596 -0.2908288 -0.14914876 -0.50256866
000030 66 90 65 be db 6c fc be f7 56 b5 3e 6d f6 2e bf
       -0.22418365 -0.493018 0.3541791 -0.68344766
000040 dc 4b 3a be 4f 7a c7 be 1e 0e 1a bf e0 fe ee be
       -0.18193 -0.38960502 -0.6017779 -0.4667883
000050 94 63 b9 be 9b 69 36 3d 10 ab 7a be b8 6d b0 be
       -0.36208785 0.044534307 -0.24479318 -0.3445871
000060 e9 ba c2 be 39 78 bc 3d 65 07 0d bf c7 72 e3 be
       -0.38033226 0.09202618 -0.5508941 -0.44423506
000070 52 8f 64 be 5d 0e da be 89 2f cf be 9d 57 83 3e
       -0.22320297 -0.42589083 -0.40465954 0.2565278
000080 35 1f 09 bf 5c d7 ad be 31 b9 9e 3e f9 35 4b be
       -0.53563243 -0.3395337 0.31000665 -0.19844808
000090 28 fe c3 3d da ef 6c bd e5 02 2e 3e 79 09 a4 3d
       0.09569961 -0.057845928 0.16993292 0.08009619
0000a0 f9 75 13 3d 28 f0 07 be b0 7d c5 3d 73 14 8a 3d
       0.03600118 -0.13275206 0.096431136 0.06742182
0000b0 7e 73 03 bd f6 fa 49 3e 61 27 26 3e e3 ae e5 3e
       -0.032092564 0.1972464 0.1622596 0.4485999
0000c0 cd 6e 3a 3d a6 5c 55 3e d6 cb d3 3e cc 76 37 bf
       0.045515824 0.20836124 0.41366452 -0.71665645
0000d0 32 6a 1c bd 97 5a 90 be a9 c6 bf bc 0f a2 45 be
       -0.038187213 -0.28194115 -0.023410158 -0.19300102
0000e0 2f c6 b8 3e 75 54 db bd 29 1b c5 be a3 20 0b bf
       0.36088702 -0.10709468 -0.38497284 -0.54346675
0000f0 10 cd a4 be c6 e9 bf be 44 e0 41 be 7a e7 c1 be
       -0.321877 -0.37483042 -0.18933207 -0.37871915
000100 b0 08 84 bd b9 0d 5d be f0 8b 0d 3e 11 c7 0b 3e
       -0.064469695 -0.21587266 0.13822913 0.13650157
000110 ed 59 a7 3c 5b 36 15 3e 56 ee b1 3d b4 6d 6e 3e
       0.020428622 0.14571516 0.08688037 0.23284036
000120 87 3a 4d 3e 51 8f 20 bd 9d 39 2d bf 33 f3 18 bd
       0.20041858 -0.039199177 -0.67666036 -0.037341308
000130 56 ba 69 3d 41 ab c3 3c 76 a1 4d 3e aa 53 76 3d
       0.05706247 0.023885371 0.20081124 0.060138382
000140 14 6f 41 3d 17 3a 1b 3e 1a 24 14 3d 0a 89 33 be
       0.047225073 0.15158878 0.03616724 -0.17532745
000150 1c 9f 19 3c 5e 7e eb 3d 41 7a ad be c9 bd 74 ba
       0.009376314 0.11498712 -0.33882335 -0.00093361415
000160 70 ec 9e 3e 7b 33 c3 3b d8 a3 fc 3d 7b 24 53 3e
       0.31039762 0.0059570647 0.12335938 0.20619385
000170 c2 e5 ae 3e fa be e0 3e 3d 63 ab be 4c 27 5b 3d
       0.34159666 0.43895704 -0.3347415 0.053504273
000180 62 0f 50 3f 99 1f 96 be b7 11 11 3e 62 d4 8d 3d
       0.8127347 -0.29320982 0.14166914 0.069252744
000190 88 c7 d9 3e 11 55 92 be b4 c7 38 3d 36 bc 85 bc
       0.42535043 -0.28580526 0.045112327 -0.016325098
0001a0 12 70 78 3e f1 fa d9 3c 99 2f b0 be de 26 08 be
       0.24261501 0.026608916 -0.34411314 -0.13296077
0001b0 24 34 30 3d 73 73 e0 3d 4d ac 89 3e 28 51 a7 3e
       0.043018475 0.1095952 0.26889268 0.32679105
0001c0 a7 67 fe bd e7 14 de bd 66 51 c4 be f9 01 ae be
       -0.12422114 -0.108438306 -0.38343352 -0.3398588
0001d0 c8 0d 58 be b2 56 6f 3e 69 bd 06 bf a4 85 f2 be
       -0.21099007 0.23372915 -0.52632767 -0.47367585
0001e0 03 6f 5b be 3d d1 87 be 05 e7 be be 48 50 b5 be
       -0.21429066 -0.26526824 -0.3728563 -0.35412812
0001f0 20 bd 3e 3e 52 85 98 bd e4 4a b2 3e 6d a7 06 3f
       0.18626833 -0.07447304 0.34822762 0.5259922

temporal.rnn.weight_ih_l1 f4 [128, 32]
000000 2f 74 0d be d5 8d 86 3f 44 66 35 be 96 d0 d5 3d
       -0.13813852 1.0512034 -0.17714792 0.10440175
000010 6a 3d 6e bf 4f 3c 39 be bd ee 60 be b7 33 be be
       -0.9306246 -0.18089412 -0.21966071 -0.3714883
000020 67 64 4b bf 7f f2 94 bf f4 27 51 3f a4 10 51 3e
       -0.79450077 -1.1636504 0.8170159 0.20416504
000030 99 c4 69 3f 6e e5 39 3e e8 8b 71 bf 28 99 2e bc
       0.9131561 0.18153927 -0.94354105 -0.0106566325
000040 d7 79 88 be 2c ce 43 3f d0 a1 39 3e 7f 35 72 3e
       -0.26655456 0.7648647 0.18128133 0.2365322
000050 1d 3c 20 be ac b8 e2 be 56 5b bb 3e 16 13 50 3f
       -0.15647931 -0.44281518 0.3659312 0.8127912
000060 b0 d4 44 be 45 84 ee 3e 25 76 e8 3d 09 0e 4a bf
       -0.19221759 0.4658529 0.11350659 -0.78927666
000070 a5 7f da 3d 50 24 0e bf b0 5b 2f 3e 2a 57 60 3e
       0.106688775 -0.5552416 0.1712482 0.2190825
000080 21 97 0b be ce 77 f2 3e a6 ca b9 be 3c a1 24 3f
       -0.1363187 0.4735703 -0.3628742 0.64308524
000090 bc 5f c5 bf ad 53 75 be 3b 2f 48 bc 63 ef c6 be
       -1.5419841 -0.23957701 -0.012218292 -0.38854513
0000a0 9e 3a 60 bd 98 da 53 bf 8e f9 84 be c7 9e 54 3f
       -0.0547434 -0.8275542 -0.25971645 0.83054775
0000b0 09 2c 96 3f e9 44 00 3f cf c4 02 bf cb b1 c6 bc
       1.1732188 0.5010515 -0.51081556 -0.0242547
0000c0 ff 19 89 bf 51 7d 63 3f af 68 55 3f f8 bc 1f bf
       -1.0711058 0.8886309 0.8336286 -0.6239772
0000d0 d5 6f c9 3e 50 e6 72 3f 56 65 13 3f c3 fa cd be
       0.39343134 0.9488268 0.575765 -0.40230379
0000e0 6c 5e 36 3e 64 80 91 3f 24 ae 81 3e b9 61 b4 be
       0.17809457 1.1367307 0.2532817 -0.35230806
0000f0 12 c2 72 3f aa 8e 2f bd 9c 4a d4 be f3 cb 1a bf
       0.9482738 -0.042860664 -0.41463172 -0.6046745
000100 e5 6f e5 3e b4 91 08 be 08 7f d6 bd ad 0c 39 be
       0.4481193 -0.13336831 -0.10473448 -0.18071242
000110 0d bc 26 3e 94 57 99 bc 2e cc ff 3e e0 fe 74 3e
       0.16282673 -0.018718518 0.49960464 0.23925352
000120 48 5a fa be 6c ab 75 be 39 85 b9 be 1c a7 6d 3f
       -0.48897004 -0.23991174 -0.36234453 0.92833114
000130 4f 06 b9 3d 09 77 2b 3e 2d 37 a6 3d d6 52 b5 bc
       0.090344064 0.16744627 0.08115993 -0.022134226
000140 74 5d 66 3d 57 5e 2f bf 27 31 30 bf 29 7b fb be
       0.056241468 -0.68503326 -0.68825 -0.491174
000150 99 d4 32 3d d6 49 42 3e 9c 82 44 be f7 9b db 3e
       0.04365978 0.18973479 -0.19190449 0.4289243
000160 41 78 8c 3e d5 e4 c5 be 7c 19 20 bf 5a 86 af be
       0.27435496 -0.38651147 -0.62538886 -0.3428219
000170 f5 b2 df 3e 4b 1a 39 3f 5d d1 40 3f 0c 8f f4 be
       0.4369122 0.72305745 0.75319463 -0.47765386
000180 71 f1 58 bd c5 a4 af bd 73 b7 0c 3f 49 30 89 3f
       -0.05296463 -0.08576349 0.5496742 1.071786
000190 07 aa 38 bf 53 d3 ad 3b ab 28 00 bf 2d af 89 3e
       -0.7213444 0.005304733 -0.50062054 0.2689146
0001a0 9e ef 96 bc 9d d7 86 be 40 6e 1e be 21 6b e4 3e
       -0.018424805 -0.26336375 -0.15471745 0.44612983
0001b0 be 64 4b be d1 5a 1a 3f 06 f7 bd be 33 33 96 3e
       -0.19862649 0.60294825 -0.37102526 0.29335937
0001c0 33 17 91 bf aa ef 1c 3f 8f b0 59 3f 09 71 84 3e
       -1.1335205 0.613032 0.8503503 0.2586749
0001d0 9e cc 49 3e a3 29 27 bf b3 ef 9b be cf 4f 0c bb
       0.19706962 -0.6529791 -0.30456313 -0.0021409874
0001e0 10 ac 6a 3f ee b0 62 3e 03 c9 c3 3e 19 44 85 be
       0.91668797 0.22137806 0.38239297 -0.26028517
0001f0 94 54 2a be ab 47 5a 3e 8a 23 f2 3d 43 cf b7 3e
       -0.16633826 0.21316402 0.11823185 0.35900316
000200 3c c4 a2 bd c5 29 1f bf 79 04 96 bf 84 97 1e bf
       -0.07947585 -0.6217311 -1.1720115 -0.61949944
000210 c0 26 61 3f 52 11 99 3e 6b 11 30 3f 7d 25 4a 3f
       0.8794975 0.29896027 0.6877658 0.7896345
000220 ac d0 4c be 98 fb 62 bf 4d d5 b7 3e 9d 67 24 3f
       -0.20001477 -0.8866515 0.35904923 0.642206
000230 1a 24 e2 bf fc 4f 87 bd a0 1b 51 bf 43 30 58 bf
       -1.7667267 -0.06607053 -0.8168278 -0.8444864
000240 1f 2c de be dd d7 25 3f c6 f0 ec 3e 68 fd 1a bf
       -0.43393037 0.64782506 0.46277446 -0.6054292
000250 53 ac da be 9b 59 32 be 3d fe 23 3f df 33 9f 3f
       -0.42709598 -0.17416994 0.6405981 1.2437705
000260 77 41 14 3f 8f 36 6c bf 9d 82 f6 3e 01 b3 c0 3e
       0.5791239 -0.9227075 0.48146525 0.3763657
000270 48 16 0e 3f 40 c8 5d 3e a9 15 4e be 43 be 47 3f
       0.5550275 0.2165842 -0.2012545 0.7802469
000280 b1 83 13 bf 7d ae 69 be ae 23 aa be f8 72 19 be
       -0.5762282 -0.22820468 -0.33230346 -0.14985263
000290 8a 1f ed 3c 59 93 74 3e 3a 80 55 3d ae 12 c3 bd
       0.028945703 0.23884334 0.05212424 -0.09525047
0002a0 ed 9c 2f 3e 13 84 0b bf 04 ad 13 bd 51 d2 a3 be
       0.17149706 -0.54498404 -0.036053672 -0.31996396
0002b0 ae bb 1b bd 59 2e 6a be 57 8c 63 3e 94 55 00 bf
       -0.038020782 -0.22869243 0.22221504 -0.5013058
0002c0 0f 4e 8f 3e 10 3d c4 bc a5 4c 9d be 54 99 65 bf
       0.2798924 -0.023954898 -0.30722538 -0.89687085
0002d0 70 57 78 3e 2a b1 b3 3d 84 de 0c bf ad 01 81 be
       0.24252105 0.08774026 -0.5502703 -0.2519659
0002e0 5a fa e5 3d 16 a2 a1 bf 96 c2 3c be e2 ff 4d bf
       0.112293914 -1.262759 -0.18433604 -0.8046857
0002f0 ac c1 71 bd 32 b5 d2 be 30 87 89 be 2c 54 d4 3d
       -0.05902259 -0.41153866 -0.26860952 0.10367617
000300 ec 95 bf bd ef e9 1a 3f b9 21 3e bd d9 c0 63 be
       -0.09354767 0.60513204 -0.04641888 -0.22241534
000310 2a fb 10 3e 1d e9 0a 3d 5b 2b 3e 3f 83 55 73 3e
       0.14158311 0.03391372 0.74284905 0.23763089
000320 ac a8 50 bc dd 8e b6 3e 27 85 e4 bd 93 9f 65 3e
       -0.012735527 0.3565587 -0.11158209 0.22424154
000330 e7 13 c7 3e 02 ab 2b 3d 1e fc 10 3e fa 79 cf 3e
       0.38882372 0.041911133 0.14158675 0.40522748
000340 ce e3 03 be ac 88 db be 34 03 cb be 18 a1 36 3c
       -0.1287987 -0.4287771 -0.3965088 0.011146806
000350 91 34 e7 bd bd 0c d6 3c 87 bf 96 be cc d7 0f 3f
       -0.11289323 0.026129121 -0.29443 0.56188655
000360 d4 26 0c bf f4 03 2c 3d d3 c7 4d be 3b 06 c9 bd
       -0.54746747 0.041995957 -0.20095758 -0.098156415
000370 6a 9a f0 3e c1 18 70 be 6e 1d c5 be 8c 35 07 3d
       0.4699281 -0.23446943 -0.38499016 0.03301005
000380 9d 5f ee 3f 07 68 f1 be 20 1e 9f bd c1 51 ce 3e
       1.8622929 -0.4714968 -0.07769418 0.40296748
000390 30 f9 cc 3f 0a fb 17 3e 64 ba 5c 3f fb 19 4a 3f
       1.6013546 0.14841858 0.8622191 0.78945893
0003a0 25 ac 89 3f 8b 13 40 bf 9b b7 70 bf 29 19 1f 3f
       1.0755659 -0.7502982 -0.9403016 0.62147766
0003b0 b4 22 31 be 48 6c 30 be c5 4b 42 3e 40 be a0 bd
       -0.17298394 -0.17228806 0.18974216 -0.07848787
0003c0 61 d0 d9 3c af 04 d9 3d 21 29 24 be ab af 85 bf
       0.02658862 0.105965964 -0.16031314 -1.0444235
0003d0 3b c4 5d be 4a 91 cf 3e 3a c5 53 bf b9 10 3f bf
       -0.21656887 0.40540534 -0.8272282 -0.7463489
0003e0 99 c9 ba bc b5 1e 58 bf fb 64 25 3d da ac 3c bf
       -0.022801207 -0.84421855 0.040379506 -0.7370125
0003f0 7c eb 12 3f 3a 3b 27 be 74 be 16 bf b0 6e 6d bf
       0.5739057 -0.16331187 -0.5888436 -0.9274702

temporal.rnn.weight_hh_l1 f4 [128, 32]
000000 4a 91 ae 3e be 94 93 3f c9 21 c7 3f 63 29 38 bd
       0.34095222 1.1529768 1.5557185 -0.044961344
000010 cd 7e 70 3f 01 10 26 be 8f 59 f5 3d 7c 67 22 bf
       0.9394348 -0.16217043 0.119799726 -0.63439155
000020 ce ef c7 3e e1 12 36 be ca ec a0 3f ae 36 99 be
       0.39050144 -0.17780639 1.2572262 -0.2992453
000030 47 93 a5 3d bc b8 83 3e e1 23 c9 3e 15 b7 01 3e
       0.080847315 0.2572688 0.39285186 0.12667497
000040 39 e2 d9 3e 52 50 89 be 0c 3f f0 be d9 06 07 be
       0.42555407 -0.26819092 -0.469231 -0.13186206
000050 e6 64 76 3e a0 3b 8c be 71 dd 87 be 0c 12 f0 bf
       0.24061927 -0.2738924 -0.26536134 -1.8755507
000060 db e2 57 3f ff 14 7e 3f e4 75 66 bf 75 d4 87 3e
       0.8433053 0.9925079 -0.90023637 0.2652928
000070 78 53 46 3e 86 a1 0c 3f 10 17 63 3e 3c 54 b5 bd
       0.19367778 0.54933965 0.22176766 -0.08853957
000080 ac 86 d7 bd 82 28 3b bd 6e b7 69 3e cb 4d 23 3f
       -0.105237335 -0.045692928 0.22823879 0.6379058
000090 1e 7d 6b 3d b7 7f 91 bc 75 a3 80 3f 43 0d 9b bf
       0.057492368 -0.017761094 1.0049883 -1.2113422
0000a0 d6 d2 dc 3e 6e 68 f7 be 90 f6 61 3f 33 1f f0 be
       0.43129605 -0.4832186 0.8826685 -0.46898803
0000b0 6d f0 3d 3e c8 6d 7c 3f 6b 00 2f 3e f2 83 b3 3e
       0.18548746 0.9860501 0.17090003 0.35061604
0000c0 31 54 98 3e 26 da 0e 3e b3 03 be 3e db 97 a3 be
       0.29751733 0.13950405 0.37112197 -0.31951794
0000d0 b0 a7 09 3e c7 52 25 3f 83 6e a4 be 41 5e d7 bd
       0.13442874 0.64579433 -0.32115564 -0.105160244
0000e0 c7 8b 88 3f 17 2a 96 3f 46 0a 19 bf 7b 80 bc 3e
       1.0667657 1.1731595 -0.597813 0.36816773
0000f0 83 18 22 bf 80 5c cc 3d 37 b7 ab 3f 22 88 69 be
       -0.6331865 0.099785805 1.3415288 -0.22805837
000100 b9 20 ae be 0e 37 f7 3e 0a f0 ce bd 80 58 8a bf
       -0.3400934 0.4828419 -0.101043776 -1.0808258
000110 be 35 be 3e 22 91 3a be c6 f6 11 3f 7a 99 66 3e
       0.37150377 -0.18219426 0.5701717 0.22519484
000120 4b 67 b6 be 7b 96 53 3d 31 96 45 3f c4 7b c6 be
       -0.3562568 0.05165718 0.771823 -0.387663
000130 bb 54 12 bb 6f 3f 0d 3e 59 c9 fb bd 1a 2b e6 be
       -0.0022328335 0.13793729 -0.122942634 -0.4495476
000140 35 d6 22 3f ca 77 dc be 68 b6 9f 3d 5d 59 38 3e
       0.63608104 -0.43060142 0.07798463 0.1800284
000150 fb 72 af be d1 41 44 be 7d b7 94 3f 3a 4a aa be
       -0.3426741 -0.19165732 1.1618496 -0.33259755
000160 42 77 c8 bd 7a b1 3a 3e 26 b0 a4 be 6d 5c 9d be
       -0.097883716 0.18231764 -0.3216564 -0.30734578
000170 34 b7 59 3f f1 fe 7a be 37 be 70 bd ce d6 14 3f
       0.8504517 -0.24511315 -0.058775153 0.58140266
000180 a2 ac 39 bf 83 aa df be 72 f7 97 3e 07 04 72 3f
       -0.7252904 -0.43684778 0.29680973 0.94537395
000190 e6 a9 01 3f 03 0a 20 bf b6 97 86 3e c4 15 75 3e
       0.5064987 -0.62515277 0.2628762 0.23934084
0001a0 bd 81 13 bf 81 33 bf 3e 57 ee 4c bd 21 7d 80 3e
       -0.5761984 0.37343982 -0.050031986 0.25095466
0001b0 40 b1 8c bf 8d 13 da be 93 09 50 bf 2b 70 5e bf
       -1.0991592 -0.4259304 -0.8126461 -0.86889905
0001c0 26 a9 de be 3e 18 6a 3f c8 c5 e4 3e 9b 3e 34 be
       -0.43488425 0.9144324 0.44682145 -0.17602007
0001d0 d8 39 b9 3e d3 78 dc bd 59 e5 99 3f 65 ab 53 bd
       0.36176944 -0.10765233 1.2023116 -0.051677126
0001e0 97 60 01 bf 9b 9b 8d bd 4e 18 2b 3f e8 04 e7 be
       -0.5053801 -0.06914445 0.6683396 -0.4512093
0001f0 22 9d 89 bd 58 c4 81 bf 52 f6 d5 bd d1 33 a1 3d
       -0.06719424 -1.0138044 -0.104473725 0.07871211
000200 b9 2a ad be 3b ae 98 be 28 f0 bf bf 7f 34 14 3f
       -0.33821657 -0.29820427 -1.4995165 0.578926
000210 9e ad 72 be 38 e7 2c bf cd d0 36 3e 9d e7 0c 3f
       -0.23699042 -0.6754031 0.17853089 0.55040914
000220 92 de d1 bd f9 d4 5b 3e 5b dc 08 be f9 1b cc be
       -0.1024753 0.21467961 -0.13365309 -0.3986509
000230 97 52 ac bd b8 79 22 be a7 13 a4 3e 58 31 30 be
       -0.0841419 -0.15866745 0.32046244 -0.17206323
000240 ae 9b 58 3d 94 3d 10 3f 55 6a 10 bf ca 2c c4 be
       0.052882843 0.5634396 -0.5641225 -0.3831542
000250 1b 5d 6f bc 2f bc 07 bf 6d 2f 6f 3d 53 bb 85 3f
       -0.0146096 -0.5302152 0.058394838 1.0447792
000260 e3 87 8e 3e b5 57 33 be ac a5 e0 3e db 4b 09 be
       0.27838048 -0.17513926 0.43876398 -0.13407843
000270 98 0e a6 3e fe 2d 9a be 97 21 8a 3e ab 19 4e 3d
       0.3243301 -0.30113214 0.26978752 0.050317448
000280 9c c0 3d be a9 69 36 3e 1f f9 1c bf 85 2b 07 3f
       -0.18530506 0.17813744 -0.6131763 0.5280078
000290 a5 a9 52 be 0c 6b 5c 3e 5e de ec be 33 4d 76 3f
       -0.20572527 0.2152521 -0.46263403 0.96211547
0002a0 8c f5 7b bf a8 14 8b 3f 7a 78 d9 bc b9 f3 6e be
       -0.9842155 1.0865679 -0.026546706 -0.2333516
0002b0 b8 74 a5 bb 48 65 05 3f 3e 3f f2 3d e4 1d 9c be
       -0.0050493143 0.5210767 0.11828469 -0.30491555
0002c0 a5 19 ac 3f 40 c6 7e be 32 34 35 be 28 ed 45 bf
       1.3445326 -0.24880314 -0.17695692 -0.77314997
0002d0 75 d3 0f 3d bf c1 8d 3e 8e 6c c6 bd 0d 1b cd be
       0.03511377 0.2768688 -0.09688674 -0.400597
0002e0 dc 33 0e 3f 90 6b ad 3d cd 2d 96 be 5c 67 a9 bf
       0.5554788 0.084677815 -0.29331818 -1.3234668
0002f0 22 85 c6 3e 3f cd 19 3f 0b 57 44 3f 13 20 45 3f
       0.38773447 0.60078806 0.7669532 0.77002066
000300 63 06 b6 be f2 9f 80 3e bf d6 e1 3e 1c 21 23 3f
       -0.35551748 0.2512203 0.4410915 0.63722396
000310 74 29 39 3f 8c 21 30 be 5e b5 14 3e bb c6 00 3f
       0.7232888 -0.17200297 0.14522311 0.5030324
000320 20 83 5c bf ef b1 65 3f d7 04 0a bf eb c8 c9 3d
       -0.8613758 0.8972463 -0.53913635 0.09852775
000330 ff 4a 04 bf 91 02 c7 bd 12 ef 99 be 2b 26 bd be
       -0.51676935 -0.097172864 -0.3006521 -0.36943182
000340 ee 27 09 bd 81 ce c0 3e 2a 2f bb 3c 98 d9 f8 be
       -0.033485346 0.3765755 0.022849638 -0.4860351
000350 e5 7c ed bb 81 d9 ae be 6c 13 bf be a2 f2 21 bd
       -0.0072475546 -0.34150317 -0.37319505 -0.039538033
000360 e5 5f ab 3d 0d d0 0b bf 1e e3 af 3e b0 cb 4b bf
       0.083679 -0.54614335 0.34352964 -0.7960768
000370 1b 8b ee bc f7 4e e7 3e a9 1e fb 3e 78 96 c7 3e
       -0.029119065 0.45177433 0.4904683 0.38981986
000380 fd 0a 96 3d 87 9f 04 3f 01 2e a1 3e 65 fd d4 be
       0.073263146 0.5180592 0.3148041 -0.41599575
000390 0c 9c 57 3f 31 e5 df be 8c 1f bc bf 91 7a 92 3e
       0.84222484 -0.43729547 -1.4697127 0.28609136
0003a0 c9 eb b6 bd d2 d7 dc 3e ff 9b 86 3f c0 71 cf be
       -0.08931691 0.43133408 1.0516356 -0.40516472
0003b0 05 3e 27 bf 7c c4 57 3d df 8b cf 3e 53 38 d7 3d
       -0.6532901 0.052677616 0.405364 0.1050879
0003c0 02 90 8b 3e f5 e8 58 3f 8f 9b bb 3d 47 80 47 3d
       0.27258307 0.84730464 0.0916053 0.04870632
0003d0 27 ee c7 3d 24 c5 98 bd 9d ea ff 3e 0b 15 9f bf
       0.09762221 -0.074594766 0.49983683 -1.2428297
0003e0 29 72 07 3f 31 eb 10 3f 88 26 fe be a0 c6 1c bf
       0.5290857 0.56608874 -0.49638772 -0.6124058
0003f0 c2 d4 ab 3e 9e e1 6c be 58 ee 0d 3f 39 6a a4 3e
       0.3356076 -0.23132941 0.5544181 0.3211229

temporal.rnn.bias_ih_l1 f4 [128]
000000 f9 b5 a7 be b2 94 9f bc 39 03 91 3c 28 e2 ef 3e
       -0.32756022 -0.019480083 0.017701732 0.4685223
000010 45 08 9c bd 5c fb 16 bf 9c 00 e0 be 47 14 d1 3d
       -0.07618765 -0.58977294 -0.43750465 0.10208946
000020 90 a8 d7 be fe 09 ed be f6 d1 af be 1d 14 ed bc
       -0.4212079 -0.46296686 -0.34339875 -0.028940255
000030 d2 20 74 be 5a 79 d7 be 78 28 60 be b6 91 07 be
       -0.23840645 -0.4208477 -0.21890438 -0.13239178
000040 7f e3 5a 3f 7b f0 94 bd 52 11 85 be 04 30 0f 3f
       0.8550338 -0.072724305 -0.25989777 0.5593264
000050 6e ce b4 be 19 46 80 3e a0 5c 9a be 5b 98 1b bf
       -0.35313743 0.2505348 -0.30148792 -0.6077935
000060 d3 21 89 3e b4 58 89 3d 6c 44 dd be 28 26 d5 3c
       0.26783618 0.06706372 -0.43216264 0.02601917
000070 80 5b ad be ad ae 96 be 31 48 14 3d d3 f5 45 bf
       -0.3385887 -0.29430142 0.03620166 -0.77328223
000080 23 a4 66 be 1f 13 62 be 69 d0 f4 3d 08 21 91 3d
       -0.2252355 -0.22077607 0.119538136 0.07086378
000090 41 ef 2a 3e 30 54 45 3f ec ef 44 3f 2e 73 8f 3e
       0.1669283 0.77081585 0.7692859 0.28017563
0000a0 ba 5c c5 3e 84 14 59 3f 33 73 25 bd b1 30 1f bf
       0.38547307 0.8479693 -0.040393066 -0.6218367
0000b0 b7 c9 b1 3e 2f ea 44 bd 5c 81 46 3f 5a ad cf 3e
       0.3472421 -0.048074897 0.77541137 0.40561944
0000c0 df 3a 03 3e c9 50 1e 3f 43 cb 0c bf 49 08 b8 3f
       0.12815426 0.6184202 -0.5499765 1.4377528
0000d0 78 5a 8e 3e 8d a5 01 be 48 e8 92 3e 35 37 27 3f
       0.27803397 -0.12660809 0.28692842 0.65318614
0000e0 8c 66 d8 3d 81 58 00 bf 4f a6 81 be 50 ec 42 3e
       0.10566434 -0.50135046 -0.25322196 0.19035459
0000f0 bf 2c d3 be 19 c9 7c 3e e5 9c a3 be 59 80 ed 3e
       -0.41245076 0.24686088 -0.3195564 0.46386984
000100 c5 84 92 3e d8 71 05 3f 2c 59 a4 3e b6 e4 10 3f
       0.2861692 0.52126837 0.32099283 0.56598985
000110 25 c8 4b 3d 08 4e 3b 3e cf 2a 4c bf 34 01 83 be
       0.04975142 0.18291485 -0.7975282 -0.25586855
000120 c7 94 a8 3e fe cc 3e be b9 b3 09 3d 93 15 ab 3e
       0.32926008 -0.18632886 0.033618663 0.33414897
000130 06 4d 34 bd 95 e9 7f 3d 1e cd 3e 3e be 88 1d be
       -0.044018768 0.06247862 0.18632933 -0.15384194
000140 17 f7 8d be 6f d2 cb 3e 41 c7 09 bd d3 24 12 3f
       -0.27727577 0.39808986 -0.03363729 0.5708744
000150 6a 3b 2f 3d fa 43 21 3f 36 07 a7 3e 29 c2 19 3e
       0.04278127 0.6299435 0.3262269 0.15015472
000160 1d 0c 92 bd 45 ca 12 bf 78 5e 4b be 72 c2 3e be
       -0.07131217 -0.5733989 -0.19860256 -0.18628863
000170 f3 15 1a 3f 13 ef a3 bd bd a6 6b bd fe b9 72 3d
       0.6018974 -0.08004584 -0.05753206 0.059259407
000180 d5 67 92 be d9 94 bb be b0 0d 90 3e c0 d5 bb 3e
       -0.28594843 -0.36637 0.28135443 0.36686516
000190 be 74 a2 3e c5 d6 c8 3d 08 2a 42 3f dc 65 00 3f
       0.31729692 0.09806589 0.75845385 0.50155425
0001a0 0b ec f5 3e 9f cc 99 3e f8 2c 5b bd 20 2c 9a 3c
       0.4803165 0.30038926 -0.053509682 0.018819869
0001b0 ae 16 4f 3d 74 a5 2f bd 5c 97 e6 3c 2d 4f eb bd
       0.05055874 -0.042882398 0.028148346 -0.11489711
0001c0 5d e4 1f 3e ec b6 84 3e 6f 56 48 bd e3 bb 28 3e
       0.15614457 0.25920808 -0.048910554 0.16477923
0001d0 a3 95 59 bd 20 01 9f 3d b5 2e 6a be 7c 25 a6 3e
       -0.05312122 0.077638865 -0.2286938 0.32450473
0001e0 8c d6 0e 3d f1 73 8e be 79 a0 f1 be 0d 1e 5f 3e
       0.034872577 -0.2782283 -0.47192743 0.21788807
0001f0 93 6e f1 be 9e 6f d5 3e 21 f3 a3 3c 01 53 83 3e
       -0.47154674 0.4168672 0.020013394 0.25649264

temporal.rnn.bias_hh_l1 f4 [128]
000000 22 bf 01 bf ac 4a 2f 3e ec 41 98 3d b6 39 3c 3f
       -0.5068227 0.17118329 0.074344486 0.7352556
000010 c9 a0 da bc 27 32 10 bf 82 ff e2 be b0 cc 05 be
       -0.026687996 -0.56326526 -0.44335562 -0.13066363
000020 09 b5 a5 be 1e 7e dd be 69 5c d5 be 00 c2 9c 3d
       -0.3236468 -0.43260282 -0.41672066 0.0765419
000030 e8 6c 49 be b7 fe 26 bf cc e2 50 be 7a 2b 27 be
       -0.1967045 -0.65232414 -0.20399016 -0.16325179
000040 0d 27 4a 3f 88 0f 0b be f5 c2 69 be 48 74 03 3f
       0.78965837 -0.13580143 -0.22828276 0.51349306
000050 47 e0 06 bf 54 98 ad 3d ec a7 c9 be 91 e0 31 bf
       -0.5268597 0.0847632 -0.39385927 -0.69483286
000060 ca da 81 3e 77 f0 0a 3d a9 91 3e bf fb 25 c5 3c
       0.25362235 0.03392073 -0.7444101 0.024065962
000070 e0 95 a8 be 8b 92 3f be f1 b2 e6 3c f1 e4 45 bf
       -0.32926846 -0.18708245 0.028161498 -0.7730246
000080 e5 6a 03 be b5 d8 32 be 30 c7 26 3e fe 32 86 3e
       -0.12833746 -0.1746548 0.16286922 0.2621078
000090 86 62 27 3e 76 7d 01 3f ae 7e 09 3f 03 3d a6 3d
       0.16346177 0.50582063 0.5370892 0.08117106
0000a0 1f 31 e1 3e 15 7c 61 3f ef 23 1c bc a1 27 df be
       0.4398279 0.8807996 -0.009530052 -0.43584922
0000b0 8c 34 c0 3d 8f 47 16 bd 9f 4f 43 3f 86 9a 09 3f
       0.093850225 -0.036689337 0.7629337 0.5375141
0000c0 4b 20 88 bd 10 c1 ca 3e a9 c3 95 be 31 4c ac 3f
       -0.066467844 0.3960042 -0.2925084 1.3460752
0000d0 7b b7 73 3e b7 ee bd be 2a 6a 94 3d 9a 92 fc 3e
       0.23800461 -0.37096187 0.07246812 0.49330598
0000e0 0a 4b 89 3e dc 62 c2 be 47 f2 e4 be c9 8f e2 3e
       0.26815063 -0.3796605 -0.44716093 0.44250324
0000f0 64 09 cc be d0 8c 92 3e 23 28 fd be 95 b2 6b 3e
       -0.39850914 0.28623056 -0.49444684 0.23017342
000100 c6 9a d0 3d 53 8c ba 3e c6 e8 ed 3c 33 e3 4a 3f
       0.10185771 0.36435184 0.02904166 0.7925293
000110 bb 61 e3 bd ad 0c f5 3a d9 11 10 bf 50 c3 8c be
       -0.11102625 0.0018695794 -0.56277233 -0.27492762
000120 5e 6b 7f 3e 41 40 c5 be 91 e6 f0 3d ce 3d 5e 3d
       0.24943301 -0.38525584 0.11762727 0.05425816
000130 1f 71 90 3d a9 ae 48 be c4 ce 4e bd 19 f1 eb 3b
       0.07052826 -0.19597878 -0.050490156 0.007200372
000140 a6 f7 a6 be f2 27 2c 3e fe eb c8 bd 21 15 22 3f
       -0.32610816 0.16812113 -0.09810637 0.6331349
000150 78 6d 2f bc 48 20 09 3f de 30 c0 bb 2f d2 8e 3e
       -0.010707252 0.5356488 -0.0058652004 0.27894732
000160 65 2b 6d 3d 88 0a e2 be a3 85 18 be 4f 51 84 be
       0.057902712 -0.4414866 -0.14894728 -0.25843284
000170 d0 3f 13 3f e5 c9 09 be 4a fe 73 be 4c a9 99 3d
       0.57519245 -0.13455923 -0.23827472 0.07502994
000180 4b 7f 9a be c7 cf 9e be d9 1e ad 3e f9 93 aa 3e
       -0.30175242 -0.31017897 0.33812597 0.3331602
000190 e7 58 0e 3e a2 53 a4 3e d8 07 33 3f ae ec f9 3e
       0.13901101 0.32095057 0.69933844 0.48813385
0001a0 01 77 f7 3e 85 13 bb 3e 96 4e 38 be 34 c8 79 3d
       0.4833298 0.3653833 -0.17998728 0.060981944
0001b0 32 b3 10 be a6 de 5c bd db 23 80 bd 98 8b de 3d
       -0.14130858 -0.05392327 -0.06256839 0.10866469
0001c0 77 7d 33 3e 7c 6f cf 3d 95 15 92 3d ae b0 9d 3e
       0.1752833 0.10128686 0.07133023 0.30798858
0001d0 2b 36 ce 3d 8f ec 31 be 32 88 9a be ee 80 ef 3d
       0.100689255 -0.17375396 -0.30182034 0.11694513
0001e0 53 42 ba 3c 9f 4f 07 bf 95 94 b2 be b8 44 ed 3e
       0.022736704 -0.5285587 -0.34878984 0.4634149
0001f0 19 5c 9f be 27 fa ce 3d 73 66 9c 3d 8a 24 02 3f
       -0.31124952 0.101063065 0.07636728 0.50837004
