notebook/output/rolling_models_dynamic/window_7.pth (torch, 479669 bytes, 99 tensors)

temporal.input_proj.weight f4 [32, 7]
00000000: aa2b 63bd d779 4140 8a1f 2f40 354c 83be
00000010: 79ff ce3d 790f 1dbe 3f5b e63a 12ea 933f
00000020: 197f 5440 e252 4e40 b23c 8ebe 3c6d e5bd
00000030: 5c90 d9bb f0eb 3fbc 426f 893f 8312 b43e
00000040: 170b 49bf b744 1fbe ed8f a53e 2657 dabd
00000050: f841 d13e d673 4540 539c 5840 2003 1840
00000060: 0369 aebe 0a35 babd 0eba 57bc ac4a a2bb
00000070: 1728 953f 5dbb e83e f3ab 413f d026 503e
00000080: ef8e 3bbe 58f3 203e df08 75be 8269 45bf
00000090: 14b6 d83f 171f 2340 87fb bc3e 8cce 80be
000000a0: f807 f83c 8ac9 15be b55f 43c0 b956 63bf
000000b0: d20d 47bf 1a8a 5c3e d4dc 00bd 2aa6 5bbc
000000c0: ebd4 98be 1281 44c0 2676 06be 25c9 843f
000000d0: 2e08 83bd bf21 4a3d d8d4 c4bd 612e 4cbe
000000e0: 4691 a5c0 8647 11c0 cc34 d0bf d719 2cbe
000000f0: f8bb 7b3d 0e9c ddbe dff8 bc3c f04e c83e
00000100: 2b7f bdbe 0d22 08bf 7dd0 bbbe f51a 623d
00000110: 5330 27be d0c2 8b3e 665a 86be fd0f 1f40
00000120: e270 0f40 cc16 6d3e 19be 9a3d a189 4ebe
00000130: 064a 3c3b dc71 94bd 09a7 1bc0 0c31 b2bf
00000140: 1f33 80be 4f28 81bd 1b01 023e f453 85bd
00000150: e3b8 c7bf 4b30 51c0 3a4f 39c0 a68e fdbd
00000160: 9d61 70be ad2d 8e3e c6a1 c9bb 7e4c 4b3f
00000170: ff5c f4bf ac8a 08c0 ed8b 87bd b9ae a4be
00000180: f230 c13e eecd 95bd f46d 80c0 fdc6 45c0
00000190: 2021 2ec0 5414 c63d b4b8 abbd 945a 8b3c
000001a0: 3c63 26bb 8e11 3dc0 329a 44c0 3d70 2ec0
000001b0: cc81 f2bd 80b9 913d cd9b 023e 49cc 09bb
000001c0: ac81 0a40 a0f6 a53e 9a47 1f3f 08dc 1e3c
000001d0: c35d a0bd b37e ca3a 17c3 d7be 9517 9cbe
000001e0: 2a3c ad3e d744 0b3f 5018 b3be d272 5dbe
000001f0: a687 39be 6e66 183e a7a9 6a3f 4060 2ec0
00000200: ba06 03c0 3cbc 193e 5d64 26be edae 0d3e
00000210: 0d64 96bd 2415 a23f b70f 4540 a579 1540
00000220: 26b7 83be 93d4 46be c268 253d 2787 8b3d
00000230: 1839 023f 82d9 04c0 a588 1ec0 582d cd3b
00000240: 906d 8cbd f121 243d f998 55bd 8355 0140
00000250: 9a0c c3bf 5cce 9abf 9ca2 e9ba 243b e0bd
00000260: b5dd e23d a527 b0bd b3e6 9e3e 11b5 1a40
00000270: c1d4 0940 aeb7 d73d 644b a3bd 0f93 b7bd
00000280: cc9c 2bbb a8e0 5bbf 17d2 1bc0 a427 00c0
00000290: c1a7 0bbe b083 3e3e bfdd 2f3e ebeb aebd
000002a0: bc72 1bc0 b6c5 48bf 7928 d2bf 693a 66bd
000002b0: 91ff c83e 6bbc 8f3e 049a 27bd a008 b2bf
000002c0: f838 0640 c2b7 a53f 0e34 863e 2f61 833d
000002d0: e532 2bbe cf05 c73c 5737 3fbf 31ec 0dc0
000002e0: 3361 11c0 9bef 3d3e 98b1 80be 85a5 a43e
000002f0: 6c92 70bd 4029 d33f c1c3 18bf 969d 37bf
00000300: fb18 bb3c 6da5 c63e 7594 b2bb 124f 9dbd
00000310: c00f 2340 8699 4a40 513e 1f40 9af4 483e
00000320: c2b7 3a3d 29b1 2cbe 8e34 41bd 638c 5ac0
00000330: 4030 20bf a442 2c3f 5854 c13d 7f12 973d
00000340: 0b3b 8ebe d143 eb3d 113b 3c40 eff2 a93f
00000350: c42d 493f 51ca 373e a858 90bd 902f 553d
00000360: a638 84bd 915b 9d3f 7f40 0fbf db5e 41bf
00000370: f3ef 5a3e 9b33 f6be 6792 923e 0a3d cc3d
-0.055461563 3.0230615 2.7363 -0.2564408 0.10107321 -0.15337934 0.0017574801 1.1555808
3.3202574 3.2238088 -0.27780682 -0.112024754 -0.0066395234 -0.011713967 1.0737078 0.35170373
-0.78532547 -0.15553556 0.3233637 -0.106611535 0.40870643 3.085195 3.3845413 2.3751907
-0.34064493 -0.09092148 -0.0131669175 -0.0049527492 1.165286 0.45455447 0.75653 0.20327306
-0.18316244 0.15717828 -0.23929165 -0.7711412 1.6930566 2.5487726 0.3691065 -0.25157583
0.030277237 -0.14627662 -3.0527165 -0.88804203 -0.77755463 0.21537057 -0.031460598 -0.013406316
-0.29849944 -3.0703778 -0.13131008 1.0373884 -0.063980445 0.04934859 -0.09610909 -0.19939567
-5.1739836 -2.2699904 -1.6266112 -0.16806732 0.061458558 -0.43283123 0.02306789 0.39122725
-0.37011084 -0.5317696 -0.366825 0.05520149 -0.16327028 0.27297068 -0.26240844 2.4853508
2.2412648 0.23153228 0.075557895 -0.20169689 0.0028730645 -0.072482795 -2.43207 -1.3921218
-0.25039002 -0.063065164 0.12695734 -0.065101534 -1.5603298 -3.2685726 -2.8954606 -0.12380724
-0.23474737 0.27769223 -0.006153318 0.7941359 -1.909088 -2.1334639 -0.066184856 -0.32164553
0.37732655 -0.073146686 -4.013422 -3.0902703 -2.7207718 0.09671846 -0.08384839 0.017010964
-0.0025388738 -2.9541965 -3.0719113 -2.7256005 -0.11841163 0.071154594 0.12754746 -0.0021026304
2.1641645 0.32414722 0.6221863 0.009696014 -0.07830384 0.0015449136 -0.4214103 -0.30486742
0.33834964 0.54401916 -0.34979486 -0.21625832 -0.18118152 0.14882824 0.9166512 -2.7246246
-2.0472856 0.15013212 -0.16249223 0.1383626 -0.07343302 1.2662702 3.0790842 2.3355496
-0.2572567 -0.19417028 0.040383108 0.06812888 0.5086837 -2.0757756 -2.4770901 0.006261509
-0.06856835 0.04007143 -0.05214784 2.0208442 -1.5238221 -1.2094226 -0.0017824951 -0.1094878
0.110774435 -0.086013116 0.31035385 2.4173014 2.1536105 0.10533081 -0.07973364 -0.08963596
-0.0026185988 -0.85889673 -2.4346979 -2.0024195 -0.13638212 0.18604922 0.17174433 -0.085410915
-2.4288778 -0.7842668 -1.6418601 -0.056208048 0.39257482 0.2807344 -0.040918365 -1.3908882
2.097227 1.2946703 0.2621159 0.06415021 -0.16718633 0.024294762 -0.74693817 -2.217541
-2.2715576 0.18548433 -0.25135493 0.3215753 -0.05873339 1.6496964 -0.59673697 -0.7172483
0.02283906 0.38798085 -0.0054498264 -0.07681097 2.5478363 3.1656203 2.4881785 0.19624558
0.0455854 -0.16864456 -0.04716926 -3.4148185 -0.62573624 0.67289186 0.094399154 0.07376575
-0.2777942 0.11487544 2.9411051 1.3277262 0.7858546 0.17948271 -0.0704816 0.052047312
-0.06456117 1.2293569 -0.5595779 -0.7553536 0.21380596 -0.48086247 0.2862732 0.0997258

temporal.input_proj.bias f4 [32]
00000000: a004 c33c 7839 6b3d 37bc c3be fba5 9e3d
00000010: 451e 61bf bc64 8e3e 9b3c 6f3e 7698 3a3f
00000020: d436 acbe 33d9 c63d aa9f 643c 27fd 55bd
00000030: f6d8 33be a8eb 8cbe 0db4 d5be 85d7 96be
00000040: de72 b2be 0388 0e3f 9b0e 16be 8ff0 d83e
00000050: a655 343d bd3f b5be 5e15 013f 094b ad3d
00000060: 5e75 083f f76f 56be 8bdb c33d eac0 2cbf
00000070: 9d16 c73c cd3a f23e dc75 2cbf 1947 95be
0.023805916 0.057427853 -0.38229534 0.07746502 -0.8793681 0.2781123 0.23362963 0.72888887
-0.3363558 0.09709396 0.0139540825 -0.052243378 -0.17563233 -0.2752354 -0.4173893 -0.29461303
-0.34853262 0.5567629 -0.14654009 0.42371032 0.044026993 -0.3540019 0.5042323 0.084615774
0.5330409 -0.20941149 0.09563359 -0.67481863 0.024302775 0.47310486 -0.6736734 -0.29155806

temporal.layer_norm.weight f4 [32]
00000000: 437e 9b3f 0b44 ad3f 8e6f 683f aaa6 e43f
00000010: 7418 2e3f 47d0 453f bb51 bf3e 4818 693f
00000020: 9460 8d3f 7a29 af3e e2f5 883f 75fd a13f
00000030: 4c4b 993f 8d02 bc3f 9f3d d73f 70b4 a73f
00000040: 11c7 463f e9ab fa3e e40a a83f 6b7f 9d3f
00000050: e91e 823f 5c7c d13f eebb 953f 73cc 413f
00000060: 3ff3 ec3e 9e77 b43f 13c0 903f 452f 643f
00000070: 68c0 c73f 713d 8f3f 9096 683f 3280 0f3f
1.2147907 1.353639 0.9079522 1.7863362 0.6800606 0.7727093 0.37367043 0.91052675
1.1045098 0.34211332 1.0700037 1.2655474 1.1976104 1.4688278 1.681568 1.310194
0.776475 0.48959282 1.3128324 1.230451 1.0165683 1.6366076 1.1697977 0.7570259
0.46279332 1.4099004 1.1308616 0.8913463 1.5605593 1.1190625 0.9085474 0.56054986

temporal.layer_norm.bias f4 [32]
00000000: 9634 e0bd 3a0e a8be 27bb 163f 8e58 90bd
00000010: fc25 d73e 2f4d 05bf 33da b5be fea0 12bf
00000020: 2563 dfbe b930 973e bb79 28be efc8 a1be
00000030: 1db3 483d 8952 87be 6bab 4e3c 9209 c9bd
00000040: 85cf 3d3e 8fc5 d83e 0631 f03d d46b aebe
00000050: 510d b83e 6051 a7bd 8f92 4b3e 101c 7a3d
00000060: 2fdc 66bf e989 433e 621f 833e 6471 83be
00000070: a0f7 c43c 709b b6be 8d1a cf3e b875 403f
-0.1094753 -0.32823354 0.5887932 -0.070481405 0.42021167 -0.520709 -0.35518035 -0.57276905
-0.4363033 0.2952936 -0.16452686 -0.31598613 0.04899894 -0.26430157 0.012614111 -0.098162785
0.18536194 0.42338225 0.117281005 -0.3406664 0.3594766 -0.08169818 0.19880126 0.06106192
-0.90179724 0.19095577 0.2560988 -0.25672448 0.024043858 -0.35665464 0.40449944 0.75179625

temporal.rnn.weight_ih_l0 f4 [128, 7]
00000000: 7302 06bf b2b8 16bf 4605 d4be 2930 d1be
00000010: 2144 5e3d f0c7 bebc 6416 a5be afff 26bf
00000020: 3993 0cbf 2376 0bbf 81d9 04bf 647c 88bd
00000030: d275 4dbe e2f6 b53e cfd3 2dbf b0eb 2cbf
00000040: 6efb 1fbf 8cbe f9be 63fc 04bf 5451 10bf
00000050: dcab c03d e328 883e 3bdf 743e 2bdb 233e
00000060: 367e 7d3d 4a5e cc3e 3a31 2e3e 1f72 1fbe
00000070: 643a 9c3e 3bce 3c3e 6449 563e 324d 103e
00000080: f25b 783e 7099 d33e 6e43 203d 52ca 16c0
00000090: 552c 1bc0 e590 03c0 bb30 1cc0 5def afbd
000000a0: e2be 4cbe c372 6bbe 75cc 773d 6b74 16be
000000b0: b35c b8bd 9ebf a4bd b386 69bd 4019 d83d
000000c0: e4f4 f9be 4859 373e e900 683e 49ed 7b3d
000000d0: 86e0 4f3e cc56 12bf cb82 05bf 340e ec3e
000000e0: 07df 74bf 91cd 91bf c50f 64bf 1090 99bf
000000f0: e5d3 96be 9bb3 4fbe a677 bd3d 2076 28bf
00000100: eef9 1ebf a828 30bf 9fe6 61bf 2ae6 6ebe
00000110: 4554 afbe bc69 54bd 451a 30bf 968c 2bbf
00000120: b672 45bf eb27 40bf 07c4 18bf ae55 ddbe
00000130: 5298 14be 7d88 04bf e4ee 96be 86ef 7abe
00000140: 9202 bebe 310a fcbe 04bc 05bf 558c eb3e
00000150: eacf ec3e 1504 403e 71c0 e93e 936a 0b3f
00000160: 0be8 d0be 4fb3 b9be 8864 5e3e 4254 8ebf
00000170: 1585 aebf df80 4abf cde4 81bf 2a81 c53b
00000180: 47cc d3be 036d a93d 288e 0abf fae4 4abe
00000190: 819b ddbe 91b4 b9be 9aeb 1abf 7d48 cbbe
000001a0: 9ac7 7bbe 4c52 89bf 7414 a7bf a5d0 2ebf
000001b0: 3ee2 9fbf 1872 3f3d 590e 9fbe 312f 40bd
000001c0: d70f 453d d795 213e b10c 353e 2908 b4bd
000001d0: 053a c73d b04c 13bd 5061 d8bd ff79 33bf
000001e0: 9f29 e1be 6f72 14bf 714c 38bf e3c3 afbe
000001f0: 031a 12bf 3cb3 763c dd5d 7dbf 4f09 a3bf
00000200: dc5c 87bf 427d 84bf 1784 723d e930 6dbe
00000210: 1dbe 3ebe 1e8a 45bf 2e20 60bf 9327 a3be
00000220: 2974 d9be 3f55 db3d 5456 78bd 72d7 8bbd
00000230: d398 993e 0036 b73e d783 8b3e 2d01 363e
00000240: ecc1 17bf 0db0 1fbf d1b4 e73e 7301 0cbe
00000250: d4af c6be a8ac 6fbe b9be bfbe 8dc6 a0be
00000260: ba7c f4be 69ed ae3d 31a2 5dbf 17df 6cbf
00000270: 3332 7dbf 8e01 4ebf 23c9 20bf cc2c 8cbe
00000280: 568b c8bc 74d1 acbe aa3f e2be 0658 dcbe
00000290: 81a5 b8be bd0c 1cbf a26c 0bbf 5f68 443e
000002a0: 3a2b afbe 8ce5 ecbe ba67 1fbe 42c2 ddbe
000002b0: 3b25 4f3d d83e 813d b6c3 eb3e 965b 4fbf
000002c0: bb03 46bf 3bed 4abf 41ec 17bf 9955 70be
000002d0: 47c2 6fbe 2a40 8cbd b3ad 45bf 26e8 1fbf
000002e0: ffcd 4ebf 5036 3abf 9162 d9bd 4328 7c3c
000002f0: 5d20 bebe a89f 52bf fe09 28bf 75d6 6bbf
00000300: 1764 05bf 23ce 633e 7f76 18be 3d68 a9bd
00000310: 88d8 e93d 5047 9f3e d08f 513e e64a d73e
00000320: 5d8d 08bf b20d 04bf 5328 c7be e512 0a3d
00000330: 25f5 89bd ab60 e73d f753 fbbd eeeb 12be
00000340: e2b2 c43e 6d22 c93d 4f55 26bd 4d42 093d
00000350: 4b11 13be 137b 7ebe 5bb0 b8bb c88f 153e
00000360: 9843 31bf 34de 06bf bb32 f8be 3b88 ecbe
00000370: 895e 35bf 4a71 e7bd 33d6 eabd f25f 17be
00000380: b81c 06be 7e32 94be 0874 04be 81c5 d0be
00000390: 04bb d5be db21 06bf f263 033e b7bf c6be
000003a0: 48cf f9be 7dd9 bdbe 5515 f4be 0e38 11be
000003b0: 706c c0be 9cef 3a3c 2512 b1be 84d8 ecbe
000003c0: 3d5f 1fbf 9203 16bf e1d3 59be cd1f 31bd
000003d0: cd36 49be 0688 c73e 91fa 103e 8166 b03e
000003e0: 3934 8c3d d5aa 76be 0b69 bdbe 5f7b a23d
000003f0: 725c d43e 2884 a53e a47d d23e f5ff 1b3e
-0.5234749 -0.5887557 -0.41410273 -0.40857056 0.05426419 -0.023288697 -0.32243645 -0.6523389
-0.54912144 -0.5447714 -0.51894385 -0.06664351 -0.20064476 0.3553992 -0.6790132 -0.6754713
-0.62493026 -0.48778188 -0.5194761 -0.56374097 0.094077796 0.26593694 0.2391328 0.16001575
0.061887942 0.39915687 0.17010966 -0.15570877 0.305133 0.18438046 0.20926434 0.14091948
0.24253824 0.41328 0.039126806 -2.3560987 -2.4245808 -2.0557187 -2.4404743 -0.08590577
-0.19994691 -0.22992997 0.06049772 -0.14692847 -0.09002056 -0.080443606 -0.057013225 0.10551691
-0.4881965 0.17905152 0.22656597 0.06150559 0.20300493 -0.5716369 -0.521527 0.46104586
-0.9565281 -1.1390859 -0.8908656 -1.1997089 -0.29458538 -0.20283358 0.09251337 -0.65805244
-0.6210011 -0.68812037 -0.88242525 -0.23329988 -0.3424398 -0.05185865 -0.68790084 -0.6701139
-0.7712816 -0.7506091 -0.59674114 -0.4322943 -0.1451123 -0.51770765 -0.29479134 -0.24505433
-0.37111336 -0.49226525 -0.52240014 0.46005502 0.46252376 0.18751557 0.45654634 0.54459494
-0.40802035 -0.36269614 0.21718037 -1.1119463 -1.3634363 -0.7910289 -1.014795 0.0060273604
-0.4136679 0.082727455 -0.54123163 -0.1981391 -0.43282703 -0.36270574 -0.6051575 -0.39703742
-0.2458786 -1.072824 -1.3053117 -0.68287116 -1.2490919 0.046739668 -0.31065634 -0.046920005
0.04811081 0.15779816 0.17680623 -0.08790619 0.09727863 -0.035961807 -0.10565436 -0.70108026
-0.43977067 -0.5798711 -0.7199164 -0.34329137 -0.5707094 0.015057381 -0.9897135 -1.2737216
-1.0575213 -1.0350726 0.059208002 -0.23163189 -0.1862721 -0.77163875 -0.875491 -0.3186613
-0.42471436 0.10709619 -0.060629204 -0.06828202 0.29999408 0.35783386 0.27249023 0.17773886
-0.59280276 -0.6237801 0.4525514 -0.13672428 -0.3880602 -0.23405707 -0.37450197 -0.31401482
-0.4775141 0.08541376 -0.8657561 -0.9252791 -0.9890472 -0.8047112 -0.6280691 -0.27377927
-0.024480503 -0.3375355 -0.44189197 -0.43035907 -0.3606377 -0.6095694 -0.54462636 0.1918044
-0.34212667 -0.4626888 -0.15566912 -0.4331227 0.050572615 0.063108146 0.46047753 -0.80999124
-0.7734944 -0.79268235 -0.5934487 -0.23470153 -0.23413955 -0.06848176 -0.7721817 -0.62463605
-0.80783075 -0.72739124 -0.10614503 0.0153904585 -0.37134066 -0.82274866 -0.65640247 -0.9212411
-0.5210585 0.22246604 -0.14888953 -0.08271835 0.11418253 0.31109095 0.20465016 0.4204933
-0.53340703 -0.515834 -0.38897952 0.033709425 -0.06736211 0.11297735 -0.122718744 -0.14347813
0.38417727 0.09821019 -0.0406087 0.033510495 -0.14362065 -0.24851637 -0.0056362576 0.1460563
-0.69243765 -0.52682805 -0.48476204 -0.46197686 -0.70847374 -0.11300905 -0.114666365 -0.14782694
-0.13096893 -0.28944772 -0.12934887 -0.40775684 -0.41744244 -0.5239541 0.12831095 -0.38818142
-0.48790956 -0.37079993 -0.47672525 -0.1418154 -0.3758273 0.011409666 -0.34584156 -0.46258938
-0.622547 -0.585992 -0.21272232 -0.04324322 -0.19649811 0.38970965 0.14158083 0.34453204
0.06845898 -0.24088605 -0.36994204 0.079336874 0.4147678 0.3232739 0.4111148 0.15234359

temporal.rnn.weight_hh_l0 f4 [128, 32]
00000000: 0d12 6f3e e71d 1fbf 18f7 9a3e d567 15be
00000010: 1ccc d0bb e42a 323f 6a74 44be 22ae a93b
00000020: 8a80 2f3f c547 38be 1bdf e3be 82a4 a43e
00000030: 653c cabc 6e55 f6be dbf4 103e 2b70 50bf
00000040: 121a fc3e 5c5d 9fbe 6cc7 f7be 7203 54bf
00000050: f703 97be e9e6 7d3e b0b7 03bf 7cff ecbe
00000060: 9757 043d a976 7dbf b155 a0be 9c9e 26bf
00000070: 0874 853e a893 923e be43 4e3e 8d31 693d
00000080: 9a78 15be da38 0d3e ab15 c2bd 193f 493e
00000090: 41f7 5b3e 102e 9fbe add7 873e 88cb bf3d
000000a0: 253c 613c eb58 04be 5b8c cc3e 5bb8 9abe
000000b0: aeef f7be 04e1 55be deb8 ecbd 696d 23bc
000000c0: 485d b1be f68a 703d d362 273d a137 6f3e
000000d0: 5dde 2e3e dbcf b63d 2907 5a3d e09b 6e3e
000000e0: cad1 833d 7759 c23d 3fed 3b3e 7914 683e
000000f0: 5f64 9a3e f4a6 f1be e7ea 3cbd 83a8 f43e
00000100: 826e da3b 6f02 c4be 4fee 883d 4fed 98bd
00000110: f298 0ebe 2a8c 10be c6ce 243e 5fe7 d73d
00000120: 2ee5 763d ab34 a1be 33ae ac3e 37dd c73d
00000130: 9b57 513c 97ce 883e 9b55 afbe 9970 8b3d
00000140: 74e1 3dbc d341 183c 9bef 1fbd 32d9 96bc
00000150: 1a0f 96be f372 c53e 4513 d3bc 3f21 02be
00000160: e6cb 083e d72a 433e acf7 7f3e f663 733e
00000170: 7bb7 15be 87e2 84be 76fb a8be a58a 2d3e
00000180: fa7b 02be e1e3 b73e c4d0 d9be 8a14 b63e
00000190: ea10 52bc cfbd 31be 4a07 05be f3a3 9b3e
000001a0: 75ab eebc 06b0 9f3e 67c7 973e b21b 01bf
000001b0: 8ced 2ebd 9a11 fbbd 8001 8ebe ed90 203e
000001c0: e459 04bf 6efe 893e 11d9 8f3e 4799 be3c
000001d0: 1312 a5be c473 6a3d 0453 f13e 9be7 983e
000001e0: b374 0dbe 9eb3 db3d 4e8f db3e 764f ed3d
000001f0: c452 26be fce7 a4be b5ef 6f3e cacf 5dbe
00000200: dcc9 69be 7c41 e2be f169 743e 8bec a3be
00000210: 9621 07be 51b8 563f ab7b 0e3d 4782 093e
00000220: 2a59 073f e72a 8bbd ac6a 74be 1a92 013e
00000230: 1b1b 7dbe 49cd 3fbf 4ddc 793e a3f1 3ebf
00000240: 4ce2 293f 8a2f 0fbf 0e4b 93be 65de 0cbf
00000250: 05ca 31bf cedb 913e 9da4 1dbf 10e9 10be
00000260: a07a 99bd 7af2 33bf 8a85 0dbf cb8d 4fbf
00000270: 2aee cb3e 96c3 f73e dacf e93c 02d5 a53d
00000280: 7788 9f3e fcb4 1e3e ec7c 7bbe d44f 90be
00000290: 8ec6 643f 11f9 2f3e 1cd4 91be 8e25 063f
000002a0: 13a1 bcbc 43e9 a23d 102e 1ebd d5be 88be
000002b0: 69af c6be 035c 62bc 7e8d 16be 2c53 1c3e
000002c0: 3a36 82bd 8c63 c93c cf6b de3d 18d2 0bbe
000002d0: e59d ce3d 04b2 223d 5d3d 5b3d a872 94be
000002e0: 57b1 87bd f74e f439 9c60 643e 848c 56bd
000002f0: 216f 35be 046a afbe ed05 c8be c566 4b3d
00000300: abd4 13be a8a8 d6bd 2612 32be 7afe a13e
00000310: 3730 94bd 8cae 353e a89c bfbd 17e0 81be
00000320: 45e4 c13e df5e 3bbe d6f5 b13e 9d7c 44be
00000330: df40 8ebd 2ccd c4be 4e28 febe ccf5 503d
00000340: f8ff 30be cdc8 9e3c 16d3 eabd d07f 85bd
00000350: 8e7c a13e 5e16 c33c 6170 3b3d 5cd8 393e
00000360: 9277 34be 4826 e23d e434 dc3d 195c 28be
00000370: 38bd 94bc c8ed 08be ee5a ce3d b0d8 60be
00000380: df59 4bbe 30eb 06bb 76a8 a2bd 0b7f 00bd
00000390: 781c 953d eae5 d7be 7eb7 e93d c3cb 2cbd
000003a0: 3a80 86bc a2f3 213e 2305 813e 8c61 0dbf
000003b0: 13b4 823e 2fe7 5f3e 53a5 21be c532 b93e
000003c0: 5a7f 5a3e fd7f 733d 79bc 513e ca21 d63e
000003d0: b089 2abe 3aa1 e63d 9778 953d 9e50 85be
000003e0: 26e9 b33e e215 4a3f 6155 e43d d1ea 3a3f
000003f0: c566 12bd b770 2abe 32b3 53bd bbea 20bd
0.2334673 -0.62155 0.30266643 -0.1459039 -0.006371988 0.69596696 -0.19185033 0.005178229
0.6855551 -0.17996128 -0.44506153 0.3215676 -0.024687001 -0.48112053 0.14155905 -0.81421155
0.4923864 -0.31125915 -0.48394334 -0.8281776 -0.29495212 0.24795116 -0.5145216 -0.4628867
0.032310095 -0.99009186 -0.31315377 -0.6508577 0.26065087 0.28628278 0.20143029 0.05693202
-0.14596787 0.13791218 -0.09476789 0.19652976 0.21481039 -0.3108983 0.26531735 0.093649924
0.01374725 -0.12924545 0.39950833 -0.30218777 -0.4842505 -0.20886618 -0.11558698 -0.009974816
-0.3464148 0.058726273 0.04086573 0.23361064 0.17077012 0.08926364 0.053229485 0.23301649
0.064364985 0.0948972 0.18352221 0.2266406 0.30154702 -0.47197688 -0.046122458 0.47784814
0.0066660056 -0.38283107 0.06686079 -0.07467138 -0.13925532 -0.14115968 0.16094503 0.105421774
0.060277157 -0.31485495 0.33726653 0.0975899 0.012777234 0.26720116 -0.34245 0.06808586
-0.011589397 0.0092930375 -0.039046865 -0.018414114 -0.29308397 0.38564262 -0.025766024 -0.12707995
0.13359031 0.19059311 0.24996823 0.23768601 -0.14620773 -0.25954077 -0.3300435 0.1694742
-0.12742606 0.35916045 -0.42542088 0.35562545 -0.012821415 -0.17357562 -0.12991062 0.3039852
-0.029134491 0.31188983 0.2964432 -0.50432885 -0.04270701 -0.122592166 -0.2773552 0.15680285
-0.5169966 0.26951927 0.28095296 0.023266448 -0.32240352 0.05723931 0.47133648 0.298642
-0.13814048 0.10727619 0.4288277 0.115874216 -0.1624251 -0.3220824 0.23431285 -0.21661296
-0.2283091 -0.44190586 0.23868538 -0.32016405 -0.13196406 0.83874995 0.034785908 0.13428603
0.5287043 -0.06795292 -0.23868817 0.1265339 -0.24717371 -0.74922615 0.24400444 -0.7458746
0.66360927 -0.55931914 -0.287682 -0.5502685 -0.6944888 0.2848801 -0.61579305 -0.14151406
-0.07494092 -0.70291865 -0.5528189 -0.81075734 0.39830142 0.48391408 0.028541494 0.08097269
0.31158802 0.15498728 -0.24559373 -0.28185904 0.8936547 0.17184855 -0.2848214 0.52401054
-0.023026025 0.079546474 -0.038618147 -0.26708093 -0.38805702 -0.013815883 -0.14702412 0.15266103
-0.06357999 0.0245836 0.108604066 -0.13654363 0.1008871 0.03972055 0.053525317 -0.28993726
-0.06625622 0.0004659814 0.22302479 -0.0523801 -0.17718174 -0.3426057 -0.3906702 0.049658556
-0.14436595 -0.104813874 -0.17389736 0.31639463 -0.07235759 0.17742366 -0.09356052 -0.2536628
0.37869468 -0.18297909 0.3475787 -0.19188161 -0.06945967 -0.38437784 -0.49640125 0.05101566
-0.17285144 0.019382859 -0.11466043 -0.06518519 0.3154034 0.023814376 0.04576147 0.18148941
-0.17623737 0.11042458 0.107522756 -0.16441382 -0.018156633 -0.13371956 0.10075937 -0.2195766
-0.19858502 -0.002058696 -0.079422876 -0.031371158 0.072808206 -0.42167598 0.114119515 -0.04218651
-0.016418565 0.15815595 0.25199232 -0.5522697 0.2552801 0.21865533 -0.15785722 0.36171547
0.21337643 0.05944823 0.20482053 0.41822654 -0.16654086 0.1126122 0.07298391 -0.2603807
0.35138816 0.7893964 0.11149097 0.7301455 -0.03574254 -0.1664456 -0.051684566 -0.039286356

temporal.rnn.bias_ih_l0 f4 [128]
00000000: a676 063f 731b bfbe a7f4 c1bd 82b8 293e
00000010: 35ab 5fbd 4fd9 bfbc c4f3 483e f9f5 dabe
00000020: b2f4 c3bc b26b f63b d2c3 c3be 6b42 debe
00000030: dd36 45be 7a4b dbbe 3f13 71bd 4315 6fbe
00000040: d8a8 11bd cf84 0ebe f9b9 82be 41b7 35be
00000050: 1025 b9be 0f53 8dbe eaff 9a3d c622 dfbe
00000060: 9af7 a8be 6e9d babd 926b 69be 7650 0c3d
00000070: 1928 a4be 79e2 66be 7457 bd3c 571d 083e
00000080: cf09 a0be 2837 9cbe 5ee6 75bd 8151 f2be
00000090: 827a 5bbd 09f6 2037 ef3a 7bbd d6bc ecbd
000000a0: 785c 13bd a633 a1bd 15e4 ae3c d9db 36be
000000b0: 3cbd 3ebe 1636 1f3e f606 66be 2719 ec3d
000000c0: 0c94 dd3d 3176 4bbe db45 12be da3a b9be
000000d0: 2c03 b13c 0a11 b9be b1c4 0e3e d7b2 bfbe
000000e0: f275 abbb 693b 76bd d3e5 a8be 7359 62bd
000000f0: 3526 5f3c f748 953b 6dea 1d3d c47d 98be
00000100: 7bc8 0c3e 280e 92be 64ad d93e 5dee 01be
00000110: a190 083d 849e 863e aaa2 393e 2d03 cd3d
00000120: db52 733e 0332 a83d e8b9 d1bd 7b50 043e
00000130: 402e 5bbd eb73 7cbd ec75 503e aeb1 0abe
00000140: f1ab aa3d d574 59be 37bc e6bd c182 3bbe
00000150: 2b49 aa3c ee47 f03c 646c e1be a8a5 f7bd
00000160: 5edb 8f3d d88e d2bd 49ca 5cbe 535f dfbe
00000170: 1724 823e 6cfd 9c3d 5711 44be 5b1f d4bd
00000180: bd64 fc3e e244 b8be 8fd9 1cbe b835 24be
00000190: 375e 123e 5e15 213d 3e0e 7c3e 4061 16be
000001a0: fd59 343d b7c1 0abd 64c9 b5be e0e3 eabe
000001b0: 2767 37be 9f89 503e aa2e 703e efcd 4a3e
000001c0: 7685 04bd 89ee 22bc eb00 b1bd 4a68 a5be
000001d0: ce28 84be 6304 24be 032c 5abd e683 bebe
000001e0: cce7 5c3d 135c 63be e7c2 15be 02cb fa3b
000001f0: b289 e9bd e5a4 8dbd 975b 3a3e 3ccb 16bc
0.52524793 -0.3732563 -0.09470492 0.1657429 -0.054606635 -0.02341905 0.19624239 -0.42765787
-0.02392039 0.0075201625 -0.38235337 -0.43410048 -0.1925921 -0.42831022 -0.058856245 -0.23347954
-0.035561413 -0.1391785 -0.2553251 -0.17745687 -0.3616109 -0.2760243 0.07568343 -0.43581218
-0.33001405 -0.091120586 -0.22794941 0.03425642 -0.32061842 -0.2254733 0.02311299 0.13292442
-0.31257483 -0.3051083 -0.06003415 -0.47327808 -0.05358363 9.594028e-06 -0.0613355 -0.11559455
-0.035976857 -0.07871179 0.021348992 -0.17857303 -0.18626875 0.15547976 -0.22463593 0.11528235
0.10819253 -0.19869305 -0.1428446 -0.36177713 0.021607958 -0.36145812 0.1394222 -0.3744113
-0.005232566 -0.06011525 -0.32987842 -0.055261087 0.013619949 0.004555817 0.038553644 -0.29783452
0.13748352 -0.28526425 0.425151 -0.12688585 0.033341054 0.26292813 0.18128458 0.10010371
0.23762076 0.08212664 -0.10240537 0.12921326 -0.053510904 -0.061633985 0.20357484 -0.13544342
0.083335765 -0.21235974 -0.11266368 -0.18311597 0.020786842 0.029331174 -0.44028008 -0.12092143
0.07024263 -0.102811515 -0.2156154 -0.43627414 0.2541816 0.07665524 -0.1914724 -0.10357543
0.49295607 -0.35990053 -0.15317367 -0.16036117 0.14293753 0.039327018 0.24614808 -0.14685535
0.044031132 -0.033876147 -0.3550521 -0.4587698 -0.17910443 0.20364998 0.23455301 0.1980512
-0.03235384 -0.0099445665 -0.08642753 -0.3230613 -0.25812382 -0.16017298 -0.05326463 -0.37210006
0.053931996 -0.22203092 -0.1462513 0.007653595 -0.114032164 -0.06916217 0.18199001 -0.009203728

temporal.rnn.bias_hh_l0 f4 [128]
00000000: c844 8e3e 577b 80be 25ff 4fbe 278b 00be
00000010: 57a0 2ebd b98d b3bd a323 b13c 9f5a 9cbe
00000020: e384 2f3c eaca 8cbe 0ff4 eebd 7f18 0abf
00000030: 1123 92be ed06 a4be bceb 1a3e b235 e3be
00000040: 2aa8 233e 20c9 96be 8dde 63be 445e 1dbe
00000050: b455 66be 0c94 ddbe 4dc1 a63c 120c aabe
00000060: a62b 2ebd fbd9 d03c 84ee 22be 137f 9c3d
00000070: 4949 6fbe 89d6 b5be a6d3 493d e6ef fdbd
00000080: c72e 3bbe c623 96be c39a d63d b5d3 00bf
00000090: 4033 ea3d 7e8c b7bd a0c9 143d 08cd 223c
000000a0: 9f4e adbc a3ea 7abe 866d ecbd 28d5 f5bd
000000b0: a855 fcbd 01a0 743d a1b4 1ebd 648d 423e
000000c0: 56a9 043e f65f af3d 2954 39be 2b5e 11bf
000000d0: a2cb 3cbe a76c 71be 8369 9b3d 7855 59be
000000e0: be87 1f3d 4fe5 c5bd 5e70 29be df4d 8ebe
000000f0: 8816 0ebe be88 22be a37a efbd a43b c6bd
00000100: 5fe8 7b3d d212 e7bd cc7b 963e 6fa2 e83c
00000110: c3d3 7e3d ed5e 323e b4ce c13d 1738 463e
00000120: 6038 723e 3207 acbd f519 cdbe fcaa fb3c
00000130: 52a2 983d 5c11 33bc 8a67 213e bccc fb3d
00000140: df0b 1c3d 1956 893d e309 95be c1eb 10be
00000150: 519c dd3d 6ac1 193e 9570 c3be 087d 68bd
00000160: a4c6 813e 3228 68be c17e cebd 94e2 1bbe
00000170: 387f 633e 2605 883e 74b2 aabe 7086 bcbd
00000180: ee5c 8d3e a104 c4be 32a5 f4bb d5ef 12be
00000190: 53c0 aa3e dd14 ffbd fd44 d8bc bb5b e8bd
000001a0: 6643 ce3a 35f0 edbc 594b 9bbe 8292 9ebe
000001b0: 1b0b 38be e2ea 86bd 601b 353e c520 973e
000001c0: 44fe 093d a1b6 0fbe 37c8 a2be eded f6bd
000001d0: f095 7abe 6b5c c8be cd0e e5bd f454 ffbe
000001e0: a612 b43c c498 01be 8769 95be 9ed0 be3c
000001f0: 4d4f 0f3d db61 25be 6786 853e eed9 193e
0.2778685 -0.250941 -0.20312174 -0.12553082 -0.04263338 -0.08767266 0.021623438 -0.30537888
0.010712835 -0.2749856 -0.11667644 -0.5394363 -0.2854238 -0.32036534 0.15128988 -0.44376904
0.15982118 -0.2945032 -0.22252865 -0.1536799 -0.2249363 -0.43277013 0.020355845 -0.33212334
-0.042522095 0.025494566 -0.15911299 0.07641425 -0.233678 -0.3551524 0.04927411 -0.123992726
-0.18279563 -0.29324168 0.10478737 -0.5032304 0.114355564 -0.08962344 0.036325097 0.009936579
-0.021155654 -0.2450357 -0.115443274 -0.12003547 -0.12321025 0.059722904 -0.03874648 0.18999249
0.12955222 0.08563225 -0.18098511 -0.56784314 -0.18437055 -0.23576604 0.07588484 -0.2122401
0.038947813 -0.09662878 -0.16546771 -0.27793786 -0.13875782 -0.15872476 -0.11693313 -0.09679344
0.061500903 -0.112828866 0.29391325 0.028397767 0.06221367 0.17419024 0.094632536 0.19357334
0.23654318 -0.0839981 -0.40058866 0.03072118 0.07452835 -0.010929432 0.15762153 0.12294909
0.03809726 0.06705875 -0.29109105 -0.14152433 0.108208306 0.15015188 -0.3817183 -0.056759864
0.25346863 -0.22671583 -0.1008277 -0.15223151 0.22216499 0.26566428 -0.33339274 -0.092053294
0.27609962 -0.38284782 -0.007465982 -0.14349301 0.33349857 -0.12455151 -0.026400084 -0.11345621
0.0015736639 -0.029045204 -0.30330923 -0.30971152 -0.17972986 -0.06587769 0.17686224 0.2951719
0.033689752 -0.14034511 -0.31793377 -0.120570995 -0.24471259 -0.3913301 -0.11184464 -0.49869502
0.021981549 -0.12655932 -0.29182073 0.023292836 0.034987736 -0.1615061 0.26079103 0.1502454

temporal.rnn.weight_ih_l1 f4 [128, 32]
00000000: d8f4 aabe bbf0 cdbc 014c 713e 2a94 263f
00000010: c266 8cbf f294 78be 6038 c8be 6e35 fa3d
00000020: 342c 4dbe a559 cebe 868b df3e 09a2 033f
00000030: eb15 eb3e 0741 053e bf59 eabe 1776 623d
00000040: af44 97be 8a99 f63d f1ab ac3e e6f0 a73e
00000050: 4344 19bd c355 92be 6a51 b1bc 5a3d db3e
00000060: c944 133f 1aeb 2e3e b112 443e 5454 7a3e
00000070: 28f6 063d d405 9e3e 171d 953e c6f9 e73e
00000080: e528 14bf d02d cd3e 7aa4 53be 900a 673f
00000090: 7816 aebf 757b 5fbf 86fa a8be 9183 3cbf
000000a0: e8bc 0ebf eb55 58be f413 023e 7e0f d0bd
000000b0: 6272 703f 116f e23e 59cc 17bf d755 e33e
000000c0: 33be 78bf b4bd bf3e ca2f 253f 63f4 123f
000000d0: dd02 413f cb4a 0abf c563 b93e 8f2a a43e
000000e0: 2d5b 3e3f ba91 063f 10b2 083f 6765 283f
000000f0: ddbe 0f3c fb53 f83d ca6f bb3e 9598 d23e
00000100: 6fab 5dbd b2d3 f8be 41c9 083e 58a3 3e3e
00000110: ebdd c53d c62a 813d e7ca 47be 49a6 5d3e
00000120: 6cd9 aebc 46ad 1dbe 5b3f abbe cf0f ff3e
00000130: 73bc 9d3e bc7d 8f3c fff4 803e fe0a eabe
00000140: a43f 7fbd a266 81be b65a 9dbe 8516 6dbe
00000150: 5321 8abe 5a6f b2b7 8db8 00be e58f 2e3e
00000160: 20e3 2ebc 9165 97be d689 82be c148 c2be
00000170: 264c 9e3e a003 d33e e340 8d3e 33dc e63d
00000180: 8cac d7bd cdab 0a3c bb57 153e 5761 da3e
00000190: 1f55 39be ff6f d6be b091 3bbf 5a2b 0d3d
000001a0: b4a3 c7be f282 acbd 4ba6 c13d 7fbe aa3d
000001b0: 25af 8abe f078 0c3f 1c8a 13bf fdeb c93e
000001c0: a5ba 57bf d14f 7fba 0ea4 1b3f b4cc db3e
000001d0: 072d 1b3e 6248 f0be 06a1 a93e 1b2d 853e
000001e0: ae67 e83e 23a2 39bc d4e8 8e3e aec5 f63e
000001f0: d73e 10bf add2 c3bd 2668 8d3e 4d8d 733e
00000200: 2cf7 16bd bee8 abbe 105b 6dbe 57f9 f8be
00000210: a6f7 0e3f 7513 833d a818 023f 7d74 b63e
00000220: c912 22be 9995 1dbd d3df a13b 5810 fe3e
00000230: 79cf 5dbe 8837 593b 533d 86be 1f3e 53bf
00000240: 5a96 003e 6431 fb3d 60bb 853c fb72 febe
00000250: e482 1bbe 6eb2 96be 8691 ba3e 9321 373f
00000260: 9c97 c6bd fa19 76be d11d 08bc 88d3 6ebd
00000270: 247a 3f3e f5db 383d 499c f6be 6ada 3f3f
00000280: 6ab0 00bf 26e0 02bf 2f2c 513c b879 59be
00000290: b375 af3e 51e3 183f 868b ba3e 0a84 243e
000002a0: ceb9 b73e ab3d dabe 9b20 b3be 5501 a33e
000002b0: e872 27be 7a41 0cbf 120a 393e 7588 4dbf
000002c0: ddf2 7e3e d72d abbe b2da 22bf 5deb 78bf
000002d0: 38df 1f3e 9a3d 6d3e 7079 edbe e637 d0be
000002e0: 6012 91bd b414 5ebf b696 b4be 1ba3 2abf
000002f0: 9aca 7b3d 2bfb 1a3d 6989 f6be 2c89 923d
00000300: 7389 c7bd c0fb 563d 840d 18be 63ac d8be
00000310: a459 8b3e 9e82 76bd b43c 893f d30b 073f
00000320: 775b 1e3e 7b8e 88ba 4809 51be 4f46 013f
00000330: 0287 e3bd a50f 3bbe 196e c5bd 5fb8 2e3f
00000340: ffdd 2d3e 08d5 48bd 40e3 76bd 3ecb 03bd
00000350: 75cd bbbe c665 013f 7a74 01be ee38 213f
00000360: 55be 22bf f0d4 4ebe 201c 903e cfe6 263e
00000370: 3cc4 3c3f a3d1 00bd 7c98 8cbf f1c7 70be
00000380: f280 b23f ed6f b3bd 88f9 163f 6d11 223e
00000390: 9b99 8d3f c66c 4a3e b3d9 dc3e 6a47 463f
000003a0: a725 b43e 0eca 253e d2b5 7cbf eef7 f13e
000003b0: af5c ddbd 6727 fe3b ac02 053f 2ffd 9c3d
000003c0: 313b 483e 73f8 39bf eb0e f5be 13f4 12bf
000003d0: 3bf8 46be 331f 873e e42a 2ebf c7e0 7bbe
000003e0: 7ad3 593d d394 1dbf 5c6a fcbe 6c65 86be
000003f0: f998 b23e f9d5 c3bd b4b1 5fbe 3014 0ebf
-0.33389926 -0.025139203 0.2356415 0.6506983 -1.0968859 -0.24275568 -0.3910551 0.12217222
-0.20036393 -0.40302768 0.43661135 0.5141912 0.4591516 0.13013087 -0.45771596 0.0552884
-0.2954459 0.12041004 0.3372493 0.32800978 -0.037418615 -0.28581056 -0.021645267 0.42820245
0.5752683 0.17081872 0.19147755 0.24446231 0.032949597 0.30863822 0.29123756 0.4530775
-0.578749 0.40074015 -0.20668212 0.9025049 -1.3600607 -0.87297755 -0.33003634 -0.73638254
-0.55757 -0.21126525 0.12702924 -0.10159205 0.93924534 0.44225362 -0.59296185 0.44401428
-0.9716522 0.3744942 0.64526045 0.57404155 0.75394994 -0.54020375 0.3620893 0.3206372
0.74357873 0.5256611 0.533967 0.6577973 0.008773533 0.12125393 0.36608726 0.41132036
-0.05411857 -0.4859901 0.13358022 0.18616998 0.09661468 0.063069865 -0.19510995 0.21645464
-0.02134391 -0.1539813 -0.33446774 0.49816748 0.30807838 0.01751601 0.25186917 -0.4571151
-0.06231655 -0.25273615 -0.3073327 -0.23153122 -0.2697855 -2.1271106e-05 -0.125704 0.17047079
-0.010674268 -0.29569677 -0.25495785 -0.37946132 0.30917472 0.41213703 0.27588567 0.112724684
-0.105309576 0.008463812 0.14584248 0.4265239 -0.18098877 -0.4188232 -0.73269176 0.03446517
-0.38992083 -0.08423413 0.09455546 0.083371155 -0.2708675 0.54872036 -0.57632613 0.39437857
-0.8426917 -0.00097393716 0.607972 0.42929614 0.15153895 -0.46930224 0.33130664 0.26010975
0.453916 -0.01133016 0.2791201 0.48197693 -0.56345886 -0.095616676 0.2761852 0.2378437
-0.036856815 -0.33576006 -0.23179269 -0.4862773 0.5584663 0.064001955 0.5081887 0.35635749
-0.15827478 -0.038472746 0.004940012 0.49621844 -0.21661176 0.0033144671 -0.26218662 -0.82516664
0.12557355 0.1226528 0.016324699 -0.49697098 -0.1518665 -0.29433006 0.3643915 0.71535605
-0.09696886 -0.24033347 -0.00830789 -0.0583072 0.18698937 0.045131642 -0.4816611 0.7494265
-0.50269186 -0.51123273 0.012766882 -0.21237838 0.34269485 0.5972186 0.36434573 0.16065994
0.35883945 -0.42625174 -0.34985813 0.31836954 -0.16352427 -0.5478741 0.18070248 -0.8028634
0.24897332 -0.3343341 -0.6361495 -0.97234136 0.15612495 0.2316803 -0.46381712 -0.40667647
-0.07083583 -0.8675034 -0.35271233 -0.6665513 0.061472513 0.03783719 -0.4815171 0.0715507
-0.09743013 0.05248618 -0.14848906 -0.4231902 0.27216828 -0.06018316 1.072165 0.5275242
0.15464579 -0.0010418439 -0.20413697 0.5049791 -0.11109735 -0.18267687 -0.0964014 0.6825008
0.16979216 -0.049031287 -0.060275316 -0.03217625 -0.3668019 0.5054592 -0.12642089 0.6297749
-0.63571674 -0.20198417 0.28146458 0.16298984 0.7373693 -0.031449925 -1.0984035 -0.23513772
1.3945601 -0.087615825 0.58974504 0.1582696 1.1062502 0.19768056 0.4313484 0.7745272
0.35184976 0.16190359 -0.98714936 0.47259468 -0.108086936 0.007756162 0.519572 0.076654784
0.1955383 -0.7264473 -0.47862944 -0.5740368 -0.1943063 0.2639099 -0.68034196 -0.24597465
0.053180195 -0.6155521 -0.49299896 -0.26249254 0.34882334 -0.095622964 -0.21845132 -0.55499554

temporal.rnn.weight_hh_l1 f4 [128, 32]
00000000: 885f 3c3e 4329 b73e d416 b23e d312 d5bb
00000010: 4de0 893e 3dcc 03be 3e29 c53e cdd8 a2be
00000020: 4b8a a83e d23d c5be 1750 953e e913 193e
00000030: 9875 923e d042 e43e af4b ff3e 33e5 f63e
00000040: 462d 83bb ffc4 05bf 33dd 9cbe da3a 45bd
00000050: 5f87 3b3e 3cc2 45bd 808c 37bf d4f9 3cbf
00000060: 66ce 573f 4398 a83e cbb4 88be dd70 023f
00000070: edb9 363a aefc ce3d 8e72 713e eab8 7bbe
00000080: 0219 013e f8f5 853e 634a 2a3e 43a7 253e
00000090: 84fe c23e 07c5 28be af7a 003f c29e 273e
000000a0: 60e8 8c3d b6f5 40be 4c5e 733e 56db 05be
000000b0: 7a6b fdbb 744f 973e 222e 15bd 2533 8dbd
000000c0: 0289 143d 57b6 313d a670 77bd 1411 abbe
000000d0: 8a20 0a3e 93dd a93e ade0 ccbe 5092 8d3d
000000e0: d9cc 973e cf86 bc3e f01f ccbe 3503 0fbe
000000f0: 37bc abbe e076 c6bd a2cc 313e 7c8a 46be
00000100: dec5 15be 9bd1 d83e 7f88 0bbe b3bc 50be
00000110: fb21 723d 87f4 3a3e cd13 843e 7511 713e
00000120: ec07 81bd d721 dcbd 5c28 503f 0d1c eebd
00000130: fac6 51be bf15 8b3c a245 bf3e b9bd d53c
00000140: 89ae 973e 154e 3ebe fb50 88bd 6514 c43d
00000150: 168c b9be 42b4 86be 38f6 8f3d 209d 253e
00000160: 64ea ea3e daeb 2e3e c73a 86be 41b5 49bd
00000170: e6da 3b3d 7da9 86bd c3ac 233e 4379 643e
00000180: cf26 29bf f9ca d0be e65b 663d 1591 bb3e
00000190: 7317 033f bb3f 12bf 7ccf 543d a226 993e
000001a0: 6ea9 a0be 8989 803e 9318 13be 4623 6e3d
000001b0: 0181 09bf 5cfb 9abe d89b e6be e12e 45be
000001c0: 9d5b 8fbd eb87 403e 6aa2 3e3d e59d 14bf
000001d0: 0d94 ff3e d6b3 7cbe adcd 2d3e b66f 98be
000001e0: 9b46 93be 49ff fc3d 3c64 ce3e 7f8e 0cbd
000001f0: d3c4 96be 0377 1abe 9cc3 703a 22e3 42bd
00000200: ddbe f6bd 3632 43bf bc63 4fbf 5fcc 363e
00000210: ac88 8cbd 3599 34bf 0a13 6d3e e4a8 e03e
00000220: 61a9 9c3d c963 4a3e f5bc a7be 1482 efbd
00000230: 2b5b 67bd e3c5 2dbe 9dfa ce3e 99c9 6abe
00000240: 1f27 5f3d de30 c23e c31a 7cbe e9c5 f4bd
00000250: 0fd3 b43e b52f 17bf cb42 603e dd01 853f
00000260: f143 103e 87e5 d9be 080f 113f b926 04be
00000270: cb45 7dbb d7de 0fbf bc6d da3d a7ed ac3d
00000280: ca91 80be 7f2a 833d 9f1e efbe b662 d63e
00000290: e1d4 cdbe 4241 933e 8b56 0abf 44b6 fb3e
000002a0: 82ba 1abf f494 be3e 0523 013e f7ac 31be
000002b0: 4fb2 4dbe ff37 4dbe 292a 963e 9d5b 08bf
000002c0: 4e73 4c3f a7e9 803e e92f 4ebd b236 19be
000002d0: c29a 48be 14d9 40bd 5d3a b53e 1f7d 74bd
000002e0: a14b 743e 2523 c2bb 9d70 de3c 4b10 0cbf
000002f0: 2520 883d 9a99 1b3f a041 b13e a984 e23e
00000300: bd28 e6be 17c2 f7be 8f40 a53d 8f6d a8be
00000310: a25e 003f 342d 23be 542b be3e 91f1 df3e
00000320: d698 13bf f975 253f 1c4e 23bf ab69 d73e
00000330: 73fe 80be 2d9a 753e 45e1 fcbd df03 28be
00000340: 1a04 09be 6a04 3fbd bc9b 1b3f 2bdc 36be
00000350: b934 0c3f 77e5 353e e481 38bf d1b7 04be
00000360: dcba e33e e7f5 27bf 4eaa 223f 2007 eebe
00000370: 9c0e 8dbd 8f58 e43d e99a b23e d8b1 4d3e
00000380: ce2c 623d 7824 a13e 407b 0f3c 9c99 a1be
00000390: 9b43 ee3e 2eac 82be 2426 4bbf 5495 fa3d
000003a0: a1f8 52be 71a4 fd3e 31f7 1f3f 818a 883e
000003b0: b668 acbe cf84 32bd 75b6 0d3f 01f2 4e3e
000003c0: e320 663f daae 3e3f 5323 673e 0e7f b7bd
000003d0: 05fa 983d 0c2c a6bd 9592 943e fe04 d4be
000003e0: 8bca 9e3e 46b4 9e3e d458 32bd 0f26 18bf
000003f0: 1995 5a3c 0d35 aebe 25a9 3b3f f127 fd3e
0.18395817 0.35773668 0.3478304 -0.006502488 0.2692894 -0.1287088 0.38508028 -0.3180603
0.3291801 -0.38523728 0.29162666 0.14949001 0.28605342 0.44582224 0.4986243 0.4822174
-0.0040031997 -0.5225372 -0.30637512 -0.04815183 0.18313359 -0.04828094 -0.7169876 -0.7381871
0.84299314 0.32928666 -0.26700434 0.50953466 0.0006970454 0.101067886 0.23578855 -0.24582258
0.12607196 0.26164222 0.16629939 0.16177087 0.38084805 -0.1648141 0.501872 0.16369155
0.068802595 -0.18843731 0.2376644 -0.13071951 -0.0077337595 0.29552805 -0.03642095 -0.06894521
0.036263473 0.043386783 -0.060410164 -0.33411467 0.13488975 0.3317686 -0.40015164 0.069126725
0.29648474 0.368216 -0.39868116 -0.13966067 -0.33542034 -0.09690642 0.17363217 -0.19388765
-0.14626262 0.42347416 -0.13626288 -0.20384483 0.059114438 0.18257342 0.25796357 0.23541816
-0.06300339 -0.10748642 0.81311584 -0.11626444 -0.2048606 0.016978143 0.37357813 0.026091443
0.29625347 -0.18584473 -0.06656071 0.095742024 -0.3623969 -0.263094 0.070293844 0.1617322
0.4588195 0.17082158 -0.2621672 -0.049245123 0.045863055 -0.06575296 0.15983872 0.22311883
-0.6607484 -0.40779856 0.056239985 0.36634126 0.51207656 -0.57128495 0.051955685 0.29912287
-0.31379265 0.2510493 -0.14364843 0.058139108 -0.5371247 -0.30269897 -0.45040774 -0.19256164
-0.06999896 0.18801849 0.04654161 -0.5805343 0.4991764 -0.24677977 0.1697299 -0.2977273
-0.28764805 0.12353379 0.40310848 -0.034315582 -0.2944704 -0.15084462 0.00091844215 -0.047579892
-0.12048123 -0.7624849 -0.8101156 0.17851399 -0.068620056 -0.70546275 0.23151794 0.43878853
0.07649494 0.19764628 -0.3276135 -0.11694732 -0.05648343 -0.16970019 0.40425578 -0.22928466
0.05448067 0.37927908 -0.24619584 -0.11951811 0.35317275 -0.5905717 0.2190048 1.0391194
0.14088418 -0.42557928 0.5666356 -0.12905397 -0.0038646336 -0.561994 0.106654614 0.08443766
-0.25111228 0.0640459 -0.4670305 0.41872185 -0.40201476 0.28760725 -0.54038304 0.49162495
-0.6044084 0.37223017 0.12611015 -0.17351137 -0.2008755 -0.20040892 0.2932904 -0.5326479
0.7986344 0.25178263 -0.05033866 -0.14962271 -0.19590285 -0.04708202 0.3539609 -0.059689637
0.23856975 -0.0059245997 0.027153308 -0.5471236 0.06646756 0.6078125 0.3462038 0.44241837
-0.44952956 -0.48390266 0.08068954 -0.32896087 0.501444 -0.15935212 0.37142432 0.43738988
-0.57655084 0.64633137 -0.6379106 0.42072806 -0.2519413 0.23984595 -0.12347654 -0.16407727
-0.13380471 -0.04663507 0.60784507 -0.17857425 0.5476795 0.17763315 -0.720732 -0.12960745
0.444785 -0.6560959 0.63541114 -0.4648981 -0.06887552 0.11149704 0.34883812 0.20087373
0.05521851 0.31473136 0.008757412 -0.31562507 0.46535954 -0.25521988 -0.7935507 0.12235513
-0.20602657 0.4953952 0.6248656 0.2666817 -0.33673638 -0.043583687 0.5535653 0.20209505
0.8989393 0.7448555 0.22572069 -0.08959781 0.074695624 -0.0811387 0.29018083 -0.4141006
0.31013903 0.30996913 -0.043541744 -0.5943307 0.013341212 -0.3402485 0.7330497 0.49444535

temporal.rnn.bias_ih_l1 f4 [128]
00000000: 703f cb3b 4809 7cbe 40fa 3a3e 5fa8 e5be
00000010: e03f 2bbe 7c88 97be 983f bdbe 4f0c 2a3d
00000020: 776e 05be bc5f c43d 8015 7ebd 392a 413d
00000030: ecfd 743d 0504 67be 037f 063e 12aa e6bd
00000040: a6e2 58bd aedf 2e3e 8a92 40be 60a2 223f
00000050: 0a89 b53c 1a7f ee3d b427 5cbe 8217 b1be
00000060: f66c ee3d bd57 12be 5ad0 3dbe 0033 8f3e
00000070: c482 08bf 60d7 8ebd 1ae1 873c 4a23 433d
00000080: 6535 46be ea57 7dbd 480c b93c 089f 93be
00000090: 481e 603d a551 153f df25 df3e 0a68 753e
000000a0: f5c8 e13e b91b 163f 68f4 2bbe 822c b6be
000000b0: bbfc 1d3e c6d2 1ebe 81d7 233f 33d5 1b3d
000000c0: a6c3 d53d e3bb d43e 6658 43be 0062 6c3f
000000d0: f0e9 563e af97 55bd 7306 603e 96e7 f83e
000000e0: 8050 ec3d 9344 d2be 3dfe 6bbe 4991 3f3e
000000f0: 37d4 13bf cfe2 913e 1a07 30be ff8c 333e
00000100: 046f 953e 138f e93e 4907 4a3e 30be 8a3c
00000110: fdb9 41bb 96fb 853e f440 4ebe 78f4 e3bd
00000120: 2656 703e 2258 bebe da20 193d 41a2 733e
00000130: 2ad3 a13e b0f7 033e b560 aa3e d4f1 09bb
00000140: 5fd7 12be 3345 d43c 5508 aabd 2f56 3a3f
00000150: d277 ecbd 0573 2a3f 386a 163e a5cd c1bd
00000160: 4610 b8bd f4bd 01bd 7059 46be 4851 383e
00000170: 663c b13e 0258 8a3d a432 e63c 390e c2be
00000180: 2f7b 8fbe 0bea b9be 407d 263e 7d23 08bf
00000190: 9fc3 173e 3a14 a43e f5b1 aa3e f861 893e
000001a0: 37c2 0f3f 18df 893e 17e8 ebbd 482c 423c
000001b0: d40c ec3c 050f 22bd 2b17 363d fb23 1bbe
000001c0: 9f3b a03d a140 343e 53c1 5abe 1a1f df3d
000001d0: 29e6 f3bd 69bf 4d3e 92b8 8cbe da20 933d
000001e0: 22f7 8b3d 43f5 efbd 987a aabe 2813 a93d
000001f0: 2264 20bf af50 cc3e ee1a 8f3d fa79 c63d
0.0062026307 -0.24612916 0.18259525 -0.4485502 -0.16723585 -0.29596317 -0.3696258 0.041515645
-0.1303042 0.095885724 -0.062032223 0.047159407 0.05981247 -0.22560127 0.13134389 -0.11262907
-0.052950524 0.17077515 -0.188059 0.63529015 0.022160072 0.116453364 -0.2149952 -0.34588248
0.116418764 -0.14291282 -0.18536511 0.27968597 -0.5332453 -0.06974673 0.016586829 0.047641076
-0.19356306 -0.06185142 0.022588864 -0.2883227 0.05471638 0.58327705 0.4358358 0.23965469
0.4409863 0.5863605 -0.16792452 -0.35580832 0.1542844 -0.15510091 0.6400071 0.03804512
0.104377076 0.41549596 -0.1907669 0.92337036 0.20987678 -0.05214661 0.2187746 0.48614186
0.11538792 -0.41067943 -0.23046203 0.18707766 -0.5774569 0.28493354 -0.17190209 0.17534254
0.2918626 0.4561697 0.19729342 0.016936392 -0.002956032 0.26168507 -0.20141965 -0.11130613
0.23470363 -0.37176615 0.037384845 0.23792364 0.31606418 0.12887454 0.33276907 -0.0021048682
-0.1433997 0.025911903 -0.083023705 0.72787756 -0.115462914 0.66581756 0.14688957 -0.09463052
-0.08987479 -0.031675294 -0.19370055 0.17999756 0.34616393 0.067550674 0.02810032 -0.37901476
-0.2802367 -0.36311373 0.16258717 -0.5317915 0.14820717 0.32046682 0.33338895 0.26832557
0.56155723 0.2692802 -0.11518877 0.011851378 0.02881471 -0.039565105 0.04445569 -0.15150444
0.07823872 0.17602779 -0.2136281 0.10894604 -0.11909134 0.20092548 -0.27484566 0.07184
0.06834246 -0.11716702 -0.33296657 0.08255607 -0.6265279 0.39905307 0.06987558 0.09691234

temporal.rnn.bias_hh_l1 f4 [128]
00000000: 2c38 31be 2e32 63bd 3dfb 743e 312f 3abe
00000010: f120 f1bd f1f5 89be 513e c0be 2bd4 43be
00000020: ed19 06bd a047 013e 219a 0abe 3e4e 1c3e
00000030: 19e6 cf3d e705 eabe f5c4 153e 28ee 12be
00000040: e354 f2bd 9b91 dc3d bb33 20be a5e6 163f
00000050: 6634 1bbe bc03 4abd db5e 9dbe 5ea8 ddbe
00000060: 5951 d13d 4748 34be 18c7 febe fc32 8e3e
00000070: e31f 06bf 807f 193d c305 0c3c 6831 443d
00000080: 99f6 c5bd ece2 80bc f702 873d 25d0 c6bd
00000090: 19eb 513d 88f6 a23e 8987 503e 1d7a 263d
000000a0: 349d fd3e 4a83 1e3f 4b5a 0cbe afe7 2dbe
000000b0: 3df8 cabd 2c2a 13be c4a5 203f 8e04 2e3e
000000c0: a4d1 b8bd 2eb8 453e 9797 883d d0e9 543f
000000d0: dfec 2d3e 9ece 97be 714f 8d3b ae0c a73e
000000e0: 8144 8e3e cdf6 93be 104b d9be 13e3 e03e
000000f0: 9642 10bf c60a a63e e68e b1be 9108 6fbd
00000100: e941 dc3d 5537 993e 0dd9 c1bd 9e50 793e
00000110: 23aa 27be 8426 a53d a589 083d 4b7e 05be
00000120: 1498 1e3e bd18 12bf 9c9c f83d 12e9 2bbd
00000130: ee78 dc3e 6eb1 04be 6980 c43d 9cc0 223e
00000140: 52d8 44be ddf4 50be 1408 17be 7d46 4a3f
00000150: 0302 2dbe 874f 123f fda5 3dbe 12ec 0b3d
00000160: 5323 213d 5947 cd3d 0680 13be b3e3 dc3d
00000170: b08f a33e 499a 553c c54e 1cbe 31fb b9be
00000180: b492 97be f924 9dbe bc9f 603e 67c4 10bf
00000190: 4a6a f6bc 5019 0b3f 5f6d 8c3e c182 823e
000001a0: d887 103f 3b26 ab3e e876 77be b23c 5d3d
000001b0: 20f8 26be 8147 4fbd 1c7c 3dbd 8591 933d
000001c0: 016e c73d 1b59 943c 5c42 bfbd 2d1a 813e
000001d0: 4436 0e3d 26b2 4ebd 8829 b2be 23fa 0abe
000001e0: d238 663d 7c28 bcbe 7cdf 56be 53fa a73e
000001f0: 6cb6 eebe 307d aa3d e342 013e 8393 b23e
-0.17306584 -0.055467777 0.23923965 -0.18182065 -0.11773861 -0.2694545 -0.37547544 -0.19123904
-0.03273957 0.12624979 -0.13535358 0.15264222 0.101513095 -0.45707628 0.14625914 -0.14348662
-0.11832597 0.107699595 -0.15644734 0.58945686 -0.15156707 -0.049319968 -0.3073643 -0.43292516
0.10220594 -0.17605697 -0.4976127 0.27773273 -0.52392405 0.03747511 0.008546296 0.04789868
-0.096661754 -0.015733205 0.065923624 -0.09707669 0.051249597 0.31828713 0.20364203 0.0406438
0.49534 0.6191908 -0.13706319 -0.16982912 -0.09910629 -0.14371556 0.6275294 0.16993925
-0.09024361 0.1930854 0.066695385 0.8316927 0.1698489 -0.29649824 0.0043124487 0.3262686
0.2778664 -0.28899232 -0.4244008 0.43923244 -0.563516 0.32430094 -0.34679335 -0.05835778
0.10754759 0.29925027 -0.09465227 0.2434716 -0.16373496 0.08063987 0.033334393 -0.13036458
0.154877 -0.57069 0.12139246 -0.04197032 0.43061012 -0.12958309 0.09594805 0.15893787
-0.19223145 -0.20405908 -0.14749175 0.79013807 -0.16895299 0.571526 -0.18520351 0.03416068
0.03934033 0.10023374 -0.14404306 0.10785618 0.31945562 0.013037273 -0.15264423 -0.36324456
-0.29604113 -0.3069227 0.21935934 -0.56549686 -0.03007998 0.543355 0.27427194 0.25490382
0.5645728 0.33427605 -0.24166453 0.05401296 -0.1630559 -0.0506053 -0.046260938 0.0720549
0.097377785 0.018108895 -0.09338829 0.25215283 0.03471972 -0.050462864 -0.3479731 -0.13571982
0.05620653 -0.36749637 -0.2098369 0.3280817 -0.46623552 0.08324659 0.12623172 0.34878168
