notebook/output/rolling_models_dynamic/window_4.pth (torch, 479861 bytes, 99 tensors)

temporal.input_proj.weight f4 [32, 7]
000000 9b e3 18 3f 5f 81 39 40 49 f9 11 40 35 4c 83 be
       0.597223 2.8985212 2.2808402 -0.2564408
000010 6a 7d 6d 3d 68 51 82 be 0d 15 ba bc e4 ba 50 3f
       0.057980932 -0.25452733 -0.022715116 0.8153517
000020 c9 b5 49 40 b5 6e 22 40 b2 3c 8e be ff 3d 0d be
       3.1517203 2.538007 -0.27780682 -0.13793181
000030 68 1a 53 bc a3 07 05 bd 4c ca 4f 3f a4 37 c1 3e
       -0.012884714 -0.032477986 0.81168056 0.37737763
000040 3d b2 e1 be b7 44 1f be 90 85 9b 3e bb b2 bb bd
       -0.44081298 -0.15553556 0.30375338 -0.091649495
000050 bf b7 c8 3e 71 a7 e8 3f a4 f1 42 40 e5 1b 11 40
       0.39202687 1.8176099 3.0459986 2.2673275
000060 03 69 ae be 00 ee b6 bd 58 05 6a bc 2b 4a ae 3b
       -0.34064493 -0.08932114 -0.014283501 0.0053189
000070 79 03 a9 3f 51 b1 4c 3f 10 63 68 3f d0 26 50 3e
       1.3204185 0.79958063 0.9077616 0.20327306
000080 2d a8 14 be dd ac 12 3e 9d 2c a1 be fb f0 c9 be
       -0.14517279 0.14323755 -0.3147935 -0.39441666
000090 07 05 b0 3f 7f 4f f6 3f 87 fb bc 3e 63 6c 74 be
       1.3751534 1.924301 0.3691065 -0.23869471
0000a0 3d 5c 86 bd db e9 6d be 01 3b 06 c0 38 93 9a bf
       -0.06560562 -0.2323374 -2.0973513 -1.2076178
0000b0 3c 4b 89 bf 1a 8a 5c 3e 1c 16 de bd ce e9 78 bd
       -1.0726085 0.21537057 -0.10844061 -0.06076985
0000c0 17 10 48 be b4 9f c5 bf 67 4a 9c bd 3a 97 34 3f
       -0.19537388 -1.5439363 -0.076313786 0.70543253
0000d0 2e 08 83 bd c5 b0 bd 3c a8 dd 43 be 18 84 c2 be
       -0.063980445 0.02315558 -0.19127524 -0.37991405
0000e0 7c e1 59 c0 ab 93 c9 bf f4 d3 ef bf d7 19 2c be
       -3.4043875 -1.574819 -1.8736558 -0.16806732
0000f0 7b 72 f9 3d 1d 32 dd be de 61 2e 3d 54 e3 20 3f
       0.121800385 -0.43202296 0.042573802 0.62846875
000100 25 d0 2a 3e 4a 2b 41 bb 7d d0 bb be 64 10 98 3d
       0.16680963 -0.0029475265 -0.366825 0.07425001
000110 91 ab 5b be e5 58 91 3e f2 ca 74 3f 40 88 36 40
       -0.21452166 0.28388134 0.9562217 2.852066
000120 34 1c f9 3f cc 16 6d 3e 85 b7 bf 3b 7b 2e 84 be
       1.9461732 0.23153228 0.0058507347 -0.25816712
000130 f8 81 87 bd e6 b4 40 bf 5e ae 2e c0 fe e0 9c bf
       -0.066165864 -0.7527603 -2.7293925 -1.2256162
000140 1f 33 80 be 71 db 15 3d 46 4f 85 3e a9 ad 88 bd
       -0.25039002 0.03658623 0.26037043 -0.06673748
000150 29 4f 83 bf b8 fc 44 c0 ad 7f 28 c0 a6 8e fd bd
       -1.0258533 -3.0779247 -2.6327927 -0.12380724
000160 82 c5 5f be 83 48 aa 3e cd c0 b0 bb 6c 6b aa be
       -0.21852687 0.33258447 -0.0053940774 -0.3328508
000170 18 8f 08 c0 02 ae ec bf ed 8b 87 bd 8c 45 ba be
       -2.1337337 -1.8490603 -0.066184856 -0.36381185
000180 95 a0 ff 3e 95 ee 67 bd 57 66 1f c0 39 51 2a c0
       0.49927202 -0.056624014 -2.4906213 -2.6612074
000190 41 5b 32 c0 54 14 c6 3d 03 90 37 bb b1 8d 31 3b
       -2.7868197 0.09671846 -0.0028009422 0.0027092511
0001a0 fd d2 b4 3c 6d 19 0d c0 e5 d3 3b c0 1b 53 17 c0
       0.022073263 -2.2046769 -2.934808 -2.3644474
0001b0 cc 81 f2 bd 19 b4 70 3d de 6c 29 3e e4 0e ba bd
       -0.11841163 0.058765505 0.16545436 -0.090848714
0001c0 e4 c8 dc 3f 9a 4f 23 3f 7e 29 47 3f 08 dc 1e 3c
       1.7248807 0.6379334 0.7779769 0.009696014
0001d0 ef 10 3c bd 09 6e 4c 3b b1 00 bf be 07 bc 3f 3f
       -0.045914587 0.0031193516 -0.37305215 0.7489628
0001e0 34 f4 6a 3f 24 33 13 3f 50 18 b3 be 44 38 c7 bd
       0.91778874 0.5749991 -0.34979486 -0.09727529
0001f0 87 4c 0e be 3c 83 36 3e a6 69 28 be 84 4c 2e c0
       -0.1389638 0.178235 -0.16446552 -2.7234201
000200 01 b7 cc bf 3c bc 19 3e f5 f5 07 be a7 1f a9 3e
       -1.5993348 0.15013212 -0.13277419 0.3303196
000210 55 4b 59 bd 71 f2 66 3f 6d 8e 03 40 eb cb 09 40
       -0.053050358 0.90213686 2.055568 2.1530712
000220 26 b7 83 be 7f a1 89 be 64 bf 8f bd 6c a8 76 3d
       -0.2572567 -0.26881024 -0.07018927 0.060219213
000230 23 d7 83 be 38 72 0c c0 82 72 ef bf 58 2d cd 3b
       -0.25750074 -2.1944714 -1.870682 0.006261509
000240 06 78 26 3c ba 32 19 3e b0 8a c3 3c d4 16 3c 3f
       0.010160452 0.14960757 0.023869842 0.7347233
000250 d4 f8 d3 bf ca c7 69 bf 9c a2 e9 ba 2b bb 5b bd
       -1.6560311 -0.9132048 -0.0017824951 -0.053645294
000260 5b 5c a8 3e e4 2f f1 bc 26 93 17 3f 2a ce 24 40
       0.32882962 -0.029441781 0.59208906 2.5750833
000270 d7 bc e5 3f ae b7 d7 3d 3b 63 ed bd 9a ad 4b be
       1.7948254 0.10533081 -0.11591192 -0.19890442
000280 73 8c 5e 3c 72 96 85 bf 62 5e 14 c0 80 d6 c4 bf
       0.01358329 -1.0436537 -2.3182607 -1.537796
000290 c1 a7 0b be 91 a0 dd 3d ab f9 9e 3d e0 db 83 3e
       -0.13638212 0.10821641 0.07762464 0.2575369
0002a0 29 b1 06 c0 50 2a 9a bf f6 7b e0 bf 69 3a 66 bd
       -2.104563 -1.2044163 -1.753783 -0.056208048
0002b0 74 1e 3f 3e ce bf 44 3e 5d 45 39 be 1f bf 1a 3e
       0.1866396 0.19213793 -0.18092866 0.1511197
0002c0 e5 02 26 40 f0 8d 87 3f 0e 34 86 3e 2c 91 a2 3d
       2.5939267 1.0590191 0.2621159 0.079378456
0002d0 40 44 78 be 39 e4 92 bd 52 8f 66 bf 4a d6 15 c0
       -0.24244785 -0.07172436 -0.9006244 -2.3412042
0002e0 2a 79 03 c0 9b ef 3d 3e be a3 96 be 44 13 ab 3e
       -2.0542703 0.18548433 -0.294218 0.33413136
0002f0 f7 dd 93 bc f8 e4 ac 3e 03 51 59 bf 3f 61 0b bf
       -0.018050177 0.3376844 -0.8488924 -0.5444526
000300 fb 18 bb 3c 7b 85 73 3e 9e 3e 4e bc c9 0d 87 bd
       0.02283906 0.23781388 -0.012588171 -0.06594426
000310 18 ae d1 3f 7b 11 3f 40 26 91 16 40 9a f4 48 3e
       1.6381254 2.985442 2.3526092 0.19624558
000320 3d df 70 3d ff e2 2e be af c5 64 bc 73 26 e7 bf
       0.058806647 -0.1707878 -0.013963147 -1.8058609
000330 cf 37 3d 3d ea 35 b1 3e 58 54 c1 3d a7 cc 33 3d
       0.0461958 0.34611446 0.094399154 0.043896344
000340 db ae d1 be 58 1f 53 3e 43 51 06 40 dc 51 8f 3f
       -0.40953717 0.20617425 2.0987098 1.1196856
000350 a6 2b 8d 3f 51 ca 37 3e ec c7 d0 bd dc 53 e3 3c
       1.1028945 0.17948271 -0.10194382 0.027749948
000360 58 98 6b be ec 99 95 3f a7 cc 44 be ad 41 62 be
       -0.23007333 1.1687598 -0.19218694 -0.22095366
000370 f3 ef 5a 3e 90 99 e9 be 92 53 a4 3e 58 5a 60 3e
       0.21380596 -0.4562497 0.3209501 0.21909463

temporal.input_proj.bias f4 [32]
000000 b6 6d 0c 3e 40 30 41 3e f6 37 ad be ed 84 8f 3d
       0.13713726 0.18866062 -0.33831757 0.070077755
000010 09 5d 5a bf 22 91 d7 3e 70 29 1f 3e b4 40 42 3f
       -0.8529821 0.42102915 0.15543151 0.7587998
000020 82 25 32 be 6f b5 26 bd c3 2f 36 3e 17 da b5 bd
       -0.1739712 -0.040700372 0.17791657 -0.08879488
000030 f3 7a 3e be 4c 76 8b be 06 ea bf be 8a 4a 99 be
       -0.18601589 -0.2723869 -0.37483233 -0.2993968
000040 aa fa f2 be 31 f2 00 3f 22 4d 95 be aa 90 b2 3e
       -0.47456867 0.50369555 -0.2916041 0.34875995
000050 a0 b7 4e be d8 89 df be 64 20 c3 3e 67 2b 8f bd
       -0.20187235 -0.43659854 0.3811065 -0.069907
000060 14 74 22 3f e8 59 01 be 8e 2d 97 bd 42 32 20 bf
       0.6345837 -0.12631953 -0.07381736 -0.6257669
000070 fc de ac ba a1 26 25 3f ec 32 1e bf d7 80 d2 be
       -0.0013189013 0.6451207 -0.6179645 -0.41113922

temporal.layer_norm.weight f4 [32]
000000 cd aa 9f 3f dc 44 a7 3f b3 37 40 3f f0 a0 c9 3f
       1.2473999 1.3067889 0.7508499 1.5752239
000010 84 ea 27 3f 87 d1 6f 3f 01 05 d0 3e 12 ec 68 3f
       0.6559222 0.9367909 0.40628818 0.90985215
000020 3d 83 91 3f 14 7f 9b 3e b6 91 91 3f dc f8 89 3f
       1.1368176 0.3037039 1.1372592 1.0779071
000030 ea fc b3 3f 5f 1d a7 3f fa d9 b4 3f d2 f6 9b 3f
       1.4061558 1.3055838 1.4129021 1.2184699
000040 14 b4 82 3f 4e 2b 0d 3f 5d a2 8d 3f 54 0d 93 3f
       1.0211205 0.551442 1.1065174 1.1488442
000050 15 0f 7c 3f 98 32 ad 3f ae 80 8f 3f f9 6a 49 3f
       0.98460513 1.3531065 1.1211145 0.7867885
000060 71 a6 d2 3e 6b 9c a3 3f 40 e6 b0 3f 92 44 2d 3f
       0.4114261 1.278211 1.3820267 0.67682755
000070 96 f0 d9 3f e5 6f 80 3f 9c da 34 3f 92 8e 25 3f
       1.7026546 1.0034148 0.7064607 0.6467067

temporal.layer_norm.bias f4 [32]
000000 68 ea 89 bd db 26 52 be c1 25 04 3f 09 6c c2 bc
       -0.067341626 -0.20522635 0.5162011 -0.023733156
000010 37 f2 c7 3e 39 99 91 be 4d 46 95 be 47 1d d9 be
       0.39051983 -0.28437212 -0.29155198 -0.4240515
000020 16 a1 a8 be b8 75 77 3e fd 84 07 be 3f 4c 86 be
       -0.329354 0.24166 -0.13234325 -0.26230046
000030 d5 76 09 3d b2 55 54 be 8c 01 74 bd 38 1f 09 be
       0.033560593 -0.20735815 -0.059571788 -0.13390815
000040 30 76 23 3e 11 38 c5 3e a4 cc 9d 3d 1e 19 68 be
       0.15963054 0.38519338 0.07705048 -0.22665831
000050 7c 83 83 3e 0d 25 96 bd 17 6b 18 3e 38 b4 cc 3c
       0.25686252 -0.073312856 0.14884602 0.024988279
000060 92 f0 50 bf 07 17 14 3e 31 17 19 3e 5d f5 07 be
       -0.8161708 0.14461909 0.14950253 -0.13277192
000070 19 67 2e 3d 4a 1a 84 be 51 12 d1 3e 2d 46 0d 3f
       0.04257879 -0.25801307 0.40834287 0.55185205

temporal.rnn.weight_ih_l0 f4 [128, 7]
000000 b4 c1 ab be 95 7c e0 be c8 82 30 be ee 99 51 be
       -0.3354622 -0.4384505 -0.17237389 -0.20468876
000010 9a 6e ab be 73 3e ac be 56 13 4a be 1b 96 11 bf
       -0.3348282 -0.33641395 -0.19733939 -0.5686967
000020 1e ac ef be a6 50 f7 be 6e 08 e9 be 19 0c bf 3d
       -0.46811002 -0.48303717 -0.45514244 0.09328479
000030 92 e2 63 3b 8a b3 d0 3d ef ea 0b bf 2f e3 16 bf
       0.0034772498 0.10190494 -0.54655355 -0.58940405
000040 21 e4 e7 be 8c 83 b1 be e6 02 bc be ee ac e2 be
       -0.45291236 -0.34670675 -0.3672096 -0.4427256
000050 93 67 e8 3d e0 4f d9 3e 3c 15 e4 3e 1c 7c 90 3e
       0.1134788 0.42443752 0.4454745 0.28219688
000060 62 0f 65 3e c4 81 af 3e 1b 97 38 3e 27 e6 1e be
       0.2236915 0.3427869 0.18026392 -0.15517484
000070 c9 10 c9 3e b0 66 89 3e 69 de a6 3e 44 d9 81 3e
       0.3927062 0.26836157 0.3259156 0.25361073
000080 b2 30 17 3e 52 bd af 3d 19 a9 fd 3d 69 8c 85 bf
       0.1476467 0.08581032 0.123857684 -1.0433475
000090 be e3 96 bf fd 2a 54 bf a6 a4 86 bf ed 20 08 be
       -1.1788251 -0.82878095 -1.0518997 -0.1329381
0000a0 99 01 14 be 5b 1b 61 be eb fa 5c 3e ca 1e 40 3b
       -0.14453734 -0.21983092 0.21580093 0.0029315227
0000b0 11 57 6e 3d a4 e1 57 3d 40 66 2b be 2c f2 cd 3c
       0.0581885 0.052705422 -0.16738224 0.02513989
0000c0 9c e8 8e be 42 15 61 3e 5c a2 8f 3e d8 9d df 3d
       -0.27911842 0.21980765 0.28053558 0.10918778
0000d0 2c 3a 84 3e aa 50 c3 be f6 e7 b2 be fa 12 7e 3e
       0.25825632 -0.3814748 -0.34942597 0.24811926
0000e0 d0 b6 1a bf 8e ac 50 bf 8c 84 ff be 5b 1f 57 bf
       -0.604352 -0.815133 -0.49905813 -0.8403222
0000f0 7b db 02 be c4 cd b3 bb 64 28 fa 3b fa 53 b6 be
       -0.12779038 -0.0054871757 0.0076342095 -0.35610944
000100 4e c1 ad be 0d 33 aa be e7 c2 0c bf d3 52 7c be
       -0.33936542 -0.33242074 -0.549849 -0.2464097
000110 49 11 6c be a0 26 f8 bd 10 03 d6 be 1d ff d9 be
       -0.23053469 -0.12116742 -0.41799212 -0.42577448
000120 7c 9d 00 bf 86 c0 fa be 89 36 97 be 6c 61 55 be
       -0.502403 -0.4897501 -0.29533795 -0.20837945
000130 ad e4 86 be f0 d9 0e bf 0b b7 b1 be d1 8c 98 be
       -0.2634634 -0.55801296 -0.34709963 -0.29794934
000140 10 b8 dc be 63 8d 97 be 7a ee b5 be 6f 80 4f 3e
       -0.4310918 -0.29600057 -0.35533506 0.20263837
000150 a8 8f 01 3f 1d 0c 87 3e 40 e6 fa 3e 94 61 1a 3f
       0.5060983 0.2637643 0.49003792 0.6030514
000160 00 72 29 be 4b 2b 60 be 7c 99 58 3e f7 24 66 bf
       -0.16547394 -0.21891515 0.211523 -0.89900154
000170 fd 82 50 bf c4 6b 48 bf eb e4 36 bf 69 a2 bb bc
       -0.8144987 -0.7828944 -0.7144305 -0.022904592
000180 2d 50 6c be 46 b1 68 be 46 70 0a bf 35 94 76 be
       -0.2307746 -0.22723874 -0.54077566 -0.24079974
000190 38 d2 c0 be 22 65 ae be 89 fb cf be 8a 1e a5 be
       -0.37660384 -0.34061533 -0.40621594 -0.32249862
0001a0 8f f8 42 be 90 12 66 bf 58 c2 64 bf 26 04 30 bf
       -0.1904013 -0.89872074 -0.89359045 -0.6875633
0001b0 dd 47 84 bf 56 ba d5 3c 49 ce 43 be 85 2b 8b be
       -1.0334431 0.026089828 -0.1912166 -0.2718164
0001c0 2d 7b 2d bc 2d 19 c5 3d aa a2 fe 3d b8 32 0f be
       -0.010588449 0.096239425 0.124333695 -0.13984191
0001d0 ce 84 1b 3e 66 62 ab 3d 5a 17 d2 bd c0 e5 38 bf
       0.1518738 0.083683774 -0.1025836 -0.7222557
0001e0 1e cf 03 bf c7 62 0a bf 01 ee 38 bf 42 22 31 be
       -0.5148791 -0.5405697 -0.72238165 -0.17298225
0001f0 1e 16 e3 be 95 d6 5c bd da d8 03 bf 4a 8b 2f bf
       -0.44352812 -0.05391558 -0.51502764 -0.68571913
000200 4e 60 32 bf d3 8c 18 bf a1 b6 21 3e 99 b3 8f bc
       -0.696782 -0.5958988 0.15792324 -0.017541694
000210 33 2d 52 be c4 95 2f bf 35 81 36 bf 53 9b b0 be
       -0.20525055 -0.685879 -0.71290904 -0.34493503
000220 33 c7 ca be 70 09 43 3d e4 32 fd 3b fd 00 a0 bd
       -0.39605102 0.047616422 0.007727014 -0.078126885
000230 c2 fd 68 3e 83 af 94 3e 84 69 5d 3e 16 fb ee 3d
       0.22753051 0.29040155 0.21622282 0.116689846
000240 98 00 df be eb 93 bd be e7 ee 9d 3e 05 ab a2 bd
       -0.4355514 -0.37026915 0.3084633 -0.07942776
000250 dc 04 b1 be 18 bd 42 be 8f be ad be e9 17 3b be
       -0.3457402 -0.19017446 -0.33934447 -0.1827084
000260 df dc 98 be df 5e 19 3d 92 7f 09 bf 7a c2 27 bf
       -0.2985601 0.03744399 -0.5371028 -0.6553112
000270 85 9f 1a bf be 12 e9 be 9c 9b c8 be f8 c2 26 be
       -0.6039966 -0.45522112 -0.3918122 -0.16285312
000280 87 57 78 bd ff 91 4c be 9a f0 b3 be 5a a8 70 be
       -0.060630348 -0.19977568 -0.35144502 -0.23501721
000290 f5 97 4d be 03 22 f5 be df 90 ee be 29 6e 55 3e
       -0.20077498 -0.4787751 -0.46594903 0.20842804
0002a0 c4 59 d9 be 17 b6 f1 be 3d c7 87 be 46 d3 f8 be
       -0.42451298 -0.47209236 -0.26519194 -0.4859869
0002b0 25 dd fd bd 9c 98 6c bd ea cc ad 3e dd 64 40 bf
       -0.123956956 -0.057762727 0.339454 -0.75153905
0002c0 cf 1c 29 bf 0b 14 56 bf 5a 7b 1f bf 88 24 c3 3c
       -0.66059583 -0.83624333 -0.62297595 0.02382113
0002d0 8c 33 1a 3e 01 e6 5d be 53 db f5 be fb f4 bf be
       0.15058726 -0.21669771 -0.48018894 -0.37491593
0002e0 96 ed f6 be 74 2c db be 41 79 79 3d b5 b4 8f 3d
       -0.4822814 -0.42807353 0.060906652 0.07016889
0002f0 8b 3e c1 be 00 7f 15 bf df d8 02 bf 30 7c 36 bf
       -0.3774303 -0.5839691 -0.5111217 -0.71283245
000300 3a 39 cd be 3d bb 4e 3e 9f 62 6f bd 78 e2 0e be
       -0.40082723 0.20188613 -0.05844366 -0.13953578
000310 63 dc 43 3d 3c b4 75 3e de 0f 00 3e ac 38 ae 3e
       0.0478176 0.23994535 0.12506053 0.34027612
000320 a2 42 b4 be 66 91 ab be 46 da a4 be 2b 1c 2c bc
       -0.35207087 -0.33509368 -0.3219778 -0.010504763
000330 1f 84 5e be a0 3a da 3d 28 ec 47 be 90 9d 7e bd
       -0.21730088 0.10655713 -0.1952368 -0.062161982
000340 c7 47 82 3e 8e 14 0a 3e 76 33 fb 3d 5a 5a 4e 3e
       0.25445387 0.13484403 0.12265675 0.20151654
000350 c6 ba 96 3c 88 01 ae bd 05 80 36 3d e4 50 57 3d
       0.018399607 -0.08496386 0.044555683 0.052567378
000360 8b 21 ee be c2 e5 e2 be ec e5 9e be d4 17 dd be
       -0.46509966 -0.44315916 -0.3103479 -0.43182242
000370 08 a7 18 bf 3e 55 11 be 15 01 2a be 26 32 58 3d
       -0.5962987 -0.14192674 -0.16601975 0.0527822
000380 4f c5 1d be 5c 30 9b be 97 84 09 be 34 8e ce be
       -0.15407299 -0.30310333 -0.13429485 -0.40342867
000390 95 2b 80 be 2a cb 9d be 7d 8e 78 bd 92 d4 89 be
       -0.2503325 -0.30819064 -0.060682762 -0.2691999
0003a0 79 94 bd be 04 2f 82 be 3f e9 b9 be fe 3c 18 bd
       -0.37027338 -0.25426495 -0.36310765 -0.03716754
0003b0 9b d0 70 be 5e de ee bd c7 93 99 be 0b 9b e9 be
       -0.23517077 -0.11663507 -0.29995558 -0.456261
0003c0 53 d4 09 bf 5c 66 09 bf 09 2b 69 bd d2 6a 66 3d
       -0.53839606 -0.53671813 -0.056925807 0.056254216
0003d0 96 8a 56 be 88 e6 f7 3e c3 59 9d 3e 29 53 c5 3e
       -0.20951304 0.4841807 0.30732545 0.3854001
0003e0 de 66 37 3e 07 f1 0b 3e 20 a1 59 bc 64 df 18 bd
       0.17910334 0.13666163 -0.013283044 -0.037322417
0003f0 81 e7 85 3e 24 de 24 3e 2d b8 99 3e af 30 0e 3d
       0.26153186 0.16100365 0.30023327 0.034714397

temporal.rnn.weight_hh_l0 f4 [128, 32]
000000 10 3c 16 3e 40 17 81 be 5e a7 3f bd 41 7f 5b 3d
       0.1467135 -0.2521305 -0.046790473 0.053588156
000010 e4 a5 e5 bd 9c 1f 28 3e 0c 1a 7c 3d ce 89 22 3e
       -0.11213282 0.16418308 0.061548278 0.15872881
000020 9b a7 c1 3e 68 0e b4 bd 78 b8 3a bc ef 4e b0 bd
       0.37823185 -0.0879181 -0.01139652 -0.086088054
000030 c1 b9 0d be de 67 cc bd 08 44 a6 bd 0d 4e 41 be
       -0.1384039 -0.099807486 -0.08118445 -0.1887743
000040 8c 1b 4e 3e 9d b1 c7 bc b1 70 63 bd 0a 3f ae be
       0.20127696 -0.024376685 -0.055527393 -0.3403247
000050 58 df 49 be 31 fc 1a 3e ba a0 29 bd f6 2b 34 bd
       -0.19714105 0.15135266 -0.041413046 -0.043987237
000060 64 bf 17 3e 5c 32 ed be a1 02 ae 3d 67 d7 37 be
       0.14819103 -0.46327484 0.08496595 -0.17953263
000070 22 53 02 3d de 1e 99 be 9b e4 7d be b2 43 04 3d
       0.031817563 -0.29906362 -0.24794237 0.03229112
000080 2b af e9 bd 1a 7e f3 bc fd cb cd 3b 81 c1 3c 3d
       -0.11410364 -0.029723216 0.006280421 0.046082977
000090 5b 96 a1 3d 07 82 13 be 44 a4 3f 3e 41 86 24 3e
       0.07890006 -0.1440507 0.18715006 0.16066839
0000a0 c9 e8 d4 3d ab 28 31 be 26 c2 64 3e 7a 47 5a be
       0.10395963 -0.1730067 0.22339687 -0.21316329
0000b0 33 80 cb be f5 07 5e be 9d 1f 18 be b8 46 12 bd
       -0.39746246 -0.21682723 -0.1485581 -0.035711974
0000c0 a6 46 1d be 78 6e 9d 39 3f 2a 0a be 9a 58 f1 3d
       -0.15358981 0.0003002768 -0.13492678 0.117844775
0000d0 69 b3 8d 3d 9f cf 8e 3d 23 94 16 bd 9b de 77 3d
       0.069189854 0.06973194 -0.036762368 0.060515027
0000e0 2a 32 bf 3d 51 96 4d bd a6 2b 6f 3d 28 95 10 bd
       0.0933574 -0.05019218 0.058391236 -0.035298496
0000f0 d5 ad 17 3e 44 b3 79 be 80 63 62 be c4 45 d5 3e
       0.14812405 -0.2438479 -0.22108269 0.4165479
000100 98 70 6c bd d2 78 36 be 61 a3 b8 3b 22 91 82 bd
       -0.057724565 -0.17819527 0.0056347107 -0.06375338
000110 f1 a4 e4 bd 36 d2 c4 bd 24 71 80 3d 27 25 9f 3e
       -0.111642726 -0.09610407 0.0627158 0.31083032
000120 6d 79 89 3c 55 e1 31 be 8d 8e 7b 3e d6 0e 86 be
       0.016781533 -0.17371114 0.24566098 -0.26183194
000130 a1 87 5a be cf 1a 46 3e 7b 88 dd bd 3f 5c 47 3d
       -0.21340801 0.19346164 -0.10817047 0.048671957
000140 71 27 a0 bd 91 5c 04 bd 16 cf 22 bd 77 01 d0 3b
       -0.07820023 -0.03231484 -0.039748274 0.006347831
000150 02 93 b8 be 04 fb f8 3e 68 b3 83 3d 9f cd 1a be
       -0.36049658 0.4862901 0.064307034 -0.151175
000160 5b 32 99 bb 26 bd 38 3e f0 83 12 3e cf f8 85 3e
       -0.0046751923 0.18040904 0.14308143 0.26166388
000170 27 b3 99 bd 03 48 86 be 8c f2 1a be 00 9b 48 3e
       -0.07504874 -0.26226816 -0.15131587 0.19590378
000180 66 b6 55 bd c1 a5 75 3e d0 bb 30 be 2a 9f ce 3e
       -0.0521759 0.23989011 -0.17259145 0.40355808
000190 6c 05 b1 ba 97 63 96 bd 6c 77 ed bd 18 b2 0f 3e
       -0.0013505644 -0.07343214 -0.115950435 0.14032781
0001a0 90 53 29 3d 6b c6 4f 3e 27 cf 67 3e 0c 67 bf be
       0.041339457 0.20290534 0.22637616 -0.37383306
0001b0 00 79 ae 3d 6f 9e 13 be f7 6f b5 bc 2e 6b 2f 3e
       0.08519173 -0.14415906 -0.022148116 0.1713073
0001c0 03 9a 01 bf 18 d1 80 3e c1 d8 8a 3e 36 dc 80 3c
       -0.5062563 0.25159526 0.27118495 0.015730005
0001d0 d8 be d6 bd c0 18 d8 3d 0c 26 c6 3e 02 b0 61 3e
       -0.10485619 0.10551596 0.38700902 0.22039798
0001e0 a7 c6 d4 bd 6d 49 9d 3d 1e d5 c4 3e df 25 3b 3d
       -0.103894524 0.076800205 0.38443846 0.045690414
0001f0 30 9d 6c bd 5b a7 38 be 18 7f 6e 3e 9e 53 61 be
       -0.057767093 -0.18032591 0.2329067 -0.22004554
000200 37 b3 50 3d eb 6b 13 bd 64 ec 0e 3e af 9a c3 bc
       0.050952163 -0.03599159 0.13957363 -0.02387747
000210 73 6b 27 be b4 cf b0 3e 74 32 0d be 48 8f 1a be
       -0.16349582 0.34533465 -0.13788778 -0.1509372
000220 ed f2 3b 3e 91 93 98 3d 1d c3 ad bc b4 9e 3d be
       0.18354388 0.07450021 -0.021211201 -0.18517572
000230 c9 bc 0a be 06 8f 67 be 6d 3d 18 3e ae ff 7f 3d
       -0.13548578 -0.22613153 0.14867182 0.062499695
000240 e2 3f 18 3e 89 50 b3 be 20 74 00 3e fc d8 34 be
       0.1486812 -0.3502238 0.12544298 -0.17660898
000250 b3 49 d7 be 2b e4 0c 3e 0f 15 7e be 39 f7 98 3d
       -0.42048416 0.13758914 -0.2481272 0.07469029
000260 ac 78 82 be 23 d0 06 bf e2 71 1f be b6 89 c6 be
       -0.2548269 -0.5266134 -0.15570787 -0.3877694
000270 ac 98 c1 3d 56 e2 ba 3e f7 39 8a 3d 4a 88 b2 bd
       0.09452948 0.36500806 0.06749337 -0.08717401
000280 ef 1f 34 3d ca 97 ed 3c 61 8f 85 3b 1c 35 82 be
       0.043975767 0.029003043 0.00407593 -0.25431144
000290 3a 65 02 3f 48 48 bb 3d b0 c1 c9 bd c1 8c 08 3e
       0.5093571 0.09144646 -0.09851396 0.13334943
0002a0 11 af 44 ba 0c 86 48 bd 73 f8 dc bd 8b e8 29 be
       -0.00075028936 -0.048955962 -0.107895754 -0.16592614
0002b0 33 e5 ff bd 45 f2 d7 3d 33 8a c0 3d 82 2e 69 3e
       -0.12494888 0.10544256 0.094013594 0.22771648
0002c0 ef 58 e0 bd ce ed 06 3d 2b 7c 8a 3d 8d f7 38 be
       -0.10954463 0.032941632 0.067619644 -0.18063183
0002d0 10 a9 f0 3c 69 7f 86 3d da 5e 28 3d 1a 95 a4 bd
       0.02937749 0.0656727 0.041106082 -0.08036251
0002e0 d2 22 ea 3d d4 cf a0 bc e8 76 b5 3d 2e 8a 0a bd
       0.11432423 -0.01963035 0.0886057 -0.033823185
0002f0 0e 66 2f 3e 3b 41 74 be 60 a3 bb be a1 5b 9a 3e
       0.17128775 -0.23853008 -0.36648083 0.30148032
000300 9a 93 90 3e f8 00 02 3d e1 54 87 be f5 8e 94 3e
       0.2823761 0.031739205 -0.26431945 0.29015318
000310 46 c0 88 3d 2b 9b 1e 3e cd db 92 bd bd 2f c6 bd
       0.06677298 0.1548888 -0.0717083 -0.09677074
000320 e3 0b 5c 3e f6 b1 7d 3d 05 7f a8 3e 61 f2 1b be
       0.2148891 0.061937295 0.32909408 -0.15229179
000330 ba 34 50 bd c9 a3 bb be 75 c1 22 be 08 61 59 3e
       -0.050831534 -0.36648396 -0.1589411 0.2122842
000340 58 10 02 bd 74 ae 09 3e a3 cf 6b bd 58 ca ba bd
       -0.031753868 0.13445455 -0.057571065 -0.09120625
000350 a4 5d 5e ba 39 eb fa 3d ea f9 c9 3d b1 ae 82 3e
       -0.00084825815 0.122518964 0.098621204 0.25523904
000360 84 86 ad be aa d1 35 3d fd b3 11 3e 60 be 31 be
       -0.3389169 0.044389404 0.14228816 -0.17357779
000370 ae f0 7a 3e cd 67 a3 be 61 f4 0f 3b a0 e7 0c be
       0.24505875 -0.3191513 0.002196573 -0.13760233
000380 4e db 05 be be 4b 66 be 34 ce 19 be c4 ed c3 3c
       -0.1307194 -0.22489831 -0.15020066 0.023917086
000390 d8 e4 91 3c 5d 21 8b be 40 64 39 3c bd 29 66 bd
       0.017809317 -0.27173892 0.011315405 -0.05619215
0003a0 54 ae b8 bd f2 09 be bc 71 3d c0 3d 51 0a a5 be
       -0.090176255 -0.023198102 0.09386719 -0.32234433
0003b0 c4 7b 84 3e 18 7a 77 3e 1c 48 13 be 91 a8 2f 3e
       0.25875676 0.24167669 -0.14382976 0.17154147
0003c0 f1 ca f8 3d 58 fd 6f 3c d9 80 29 3e 4b 5f 40 3e
       0.12148083 0.014647804 0.16553058 0.18786351
0003d0 6b e8 29 be f2 b8 28 3e 8e 71 07 bd 15 2a 3d be
       -0.16592567 0.16476801 -0.03306728 -0.18473084
0003e0 34 91 b5 3e 57 01 1f 3f bc 59 30 3e 72 da 00 3f
       0.35462344 0.6211142 0.17221731 0.5033332
0003f0 23 e5 fb bd 68 9a 01 be 7a ad 3e bd a2 7f 1d 3e
       -0.12299564 -0.12656558 -0.04655216 0.1538072

temporal.rnn.bias_ih_l0 f4 [128]
000000 76 11 76 3e 95 b7 6a be 74 4c 3c be b3 93 99 3e
       0.24030098 -0.22921593 -0.1838854 0.29995498
000010 c4 5b 12 be 22 b5 b9 3d 2f 14 85 3d bf ca cb be
       -0.14292818 0.090677515 0.0649799 -0.3980312
000020 f2 42 9f 3c 2a 80 35 3d f4 59 4d be 59 1b 98 be
       0.019441102 0.04431168 -0.20053846 -0.29708365
000030 af 26 0e bd 4a fa 6e be b8 29 36 be 04 e0 31 be
       -0.03470486 -0.23337665 -0.17789352 -0.17370611
000040 5a dd c9 3c 63 4f f1 bd 85 8a ef bd cb 32 be bd
       0.024641681 -0.1178272 -0.116963424 -0.09287032
000050 7e 0f 97 be 13 b5 25 be 26 ee 60 3d 5c 79 04 bf
       -0.29504007 -0.16182356 0.054914616 -0.5174768
000060 d5 3d 41 be 80 02 a3 3d b4 38 1f be c6 e1 da 3d
       -0.18871243 0.07959461 -0.15548974 0.10687594
000070 40 56 85 be cb ee 2e be f2 ca 0b 3d 44 62 f3 3c
       -0.26042366 -0.1708328 0.03412909 0.029709943
000080 01 3b 35 be 69 c3 52 be c4 4d 1a be 06 c8 c2 bd
       -0.1769829 -0.20582356 -0.15068728 -0.09510808
000090 b5 53 3a bc 98 a7 1b 3e db ff 43 be 6a 94 14 be
       -0.011372496 0.1520065 -0.1914057 -0.1450974
0000a0 1f 80 6f 3c e4 6b 78 3d 7e ba 19 3e 60 dd 11 be
       0.014617949 0.060649768 0.15012547 -0.14244604
0000b0 b2 3f 02 bd b8 cb 66 3d 52 cb 47 be 83 d6 99 bd
       -0.031799026 0.056346625 -0.19511154 -0.07511618
0000c0 88 95 61 3e 59 09 f7 bd cc 72 58 bd d3 64 11 be
       0.22029698 -0.1206233 -0.052843854 -0.14198618
0000d0 21 62 be bd 2e d4 a7 be 3d d6 34 3e 04 06 b6 be
       -0.0929606 -0.32779068 0.1765985 -0.35551465
0000e0 56 6b c0 3c 65 9f d6 3d f4 ca 82 be 4d 04 4d 3e
       0.023488682 0.10479621 -0.25545466 0.20021172
0000f0 88 09 42 3c 65 61 5d bd fb 72 02 3d cf e4 0f be
       0.011843093 -0.05404796 0.031847935 -0.14052127
000100 58 9f 1e 3e 89 cf 4f be c1 c8 ad 3e 2c 0c c4 bd
       0.15490472 -0.20294012 0.33942226 -0.09572634
000110 89 55 cc 3c 66 2c 74 3e 13 61 68 3e c4 6e 09 3e
       0.02494313 0.23845062 0.22693281 0.1342116
000120 3c 32 fb 3d f5 94 0d 3e 36 20 b7 bc 69 81 d1 3d
       0.12265441 0.13826354 -0.022354227 0.10229761
000130 4a 52 78 bc b4 ee 12 be a4 dd 37 3e c3 71 2c be
       -0.015156338 -0.1434887 0.17955643 -0.16840272
000140 e8 cc 56 3e fd bd 80 be 67 ba d5 bd 5f d0 09 be
       0.20976603 -0.2514495 -0.10435944 -0.13458394
000150 d0 40 96 3c 25 16 be bc 64 63 94 be c4 11 8f 3d
       0.018341452 -0.023203919 -0.2898208 0.069858104
000160 76 4f 01 be db c2 d6 bd cb 53 32 be 42 22 b8 be
       -0.12627968 -0.104863845 -0.17414777 -0.35963637
000170 ad f3 66 3e 63 d7 0e 3b a0 64 32 be 02 a4 95 bd
       0.22553892 0.002179586 -0.17421198 -0.07306673
000180 45 bc 8b 3e 32 48 5a be 45 dc 67 be 34 fd 14 3d
       0.27292076 -0.21316603 -0.2264262 0.036374286
000190 00 d1 15 3d 44 dd 5f 3d cc db a3 3d 5b d1 48 be
       0.03657627 0.054654375 0.08000907 -0.19611113
0001a0 ce 5e ea 3c ae 73 50 bc 65 3a 58 be f9 d2 b9 be
       0.02860966 -0.012722893 -0.21116026 -0.36293772
0001b0 a8 a6 76 bd 29 54 07 3e 9b f2 ec 3d 98 bd c8 bc
       -0.06021753 0.13215698 0.11569711 -0.024504468
0001c0 f5 0c 48 3e e4 9b 04 bc 33 64 4a 3d e3 d5 41 be
       0.19536193 -0.008093808 0.049411964 -0.18929248
0001d0 41 8b a2 be 47 9f 40 bd e6 42 d6 bd 61 af b0 be
       -0.31746867 -0.0470269 -0.104619786 -0.34508803
0001e0 d3 4f ca bc 03 8a 89 bd a2 58 a5 bd 55 e3 00 3e
       -0.024696266 -0.06715777 -0.08073546 0.1258672
0001f0 14 9d 21 be 84 77 7e bd f5 3b 85 3d e1 16 fd bd
       -0.15782577 -0.062125698 0.065055765 -0.123578794

temporal.rnn.bias_hh_l0 f4 [128]
000000 2b e3 e7 bb e3 ed da bd 7c a8 95 be eb 32 0e 3c
       -0.007076641 -0.106899045 -0.29230106 0.008679132
000010 1e 19 06 be 27 73 d8 3c b1 8a e0 bd 40 2f 8d be
       -0.13095519 0.026422096 -0.10963953 -0.2757511
000020 8b 7d 5d 3d 98 e8 73 be e5 67 85 3d 5b 0a ce be
       0.054074805 -0.23819196 0.06513957 -0.40242276
000030 5d 99 02 be c3 70 00 be ac 1d 04 3d 9e 9b c4 be
       -0.12753816 -0.12543015 0.03225486 -0.38399976
000040 83 4d 61 3e c8 da 8b be 60 5f ac bd 8f 80 8d bd
       0.22002225 -0.27315354 -0.08416629 -0.06909286
000050 3b 2b 22 be e8 1b a3 be de 7a d8 b9 b6 da d3 be
       -0.15836804 -0.31857228 -0.00041290274 -0.413778
000060 cc 4c ca 3d 35 eb 48 3e 75 77 b1 bd 5c 9c 18 3e
       0.09877929 0.19620974 -0.08665363 0.14903396
000070 8a a5 31 be 78 dc 99 be 05 f3 76 3d 5a a9 68 be
       -0.17348304 -0.30051017 0.060290355 -0.22720852
000080 83 54 41 bd 98 9c 46 be 93 93 67 3c c3 0f 00 be
       -0.047199737 -0.19395673 0.0141343055 -0.12506013
000090 3e 53 20 3e e5 7c 7f 3d f4 fc bf bd f5 4d a0 bc
       0.15656754 0.062374968 -0.09374419 -0.019568423
0000a0 cd 29 f1 3c 29 6c d8 bd d6 73 5a 3c 67 d8 ab bd
       0.029438877 -0.10567505 0.0133332815 -0.08390885
0000b0 5e 0b 00 3d bb 6d 21 bd 46 1c 17 bc 5c 42 d5 b9
       0.03126084 -0.039411288 -0.0092230495 -0.00040675967
0000c0 d9 74 77 3e 75 a1 27 3e e7 55 ba bd 4b 34 b2 be
       0.24165668 0.16370185 -0.09098416 -0.3480552
0000d0 18 0f 99 be e9 f1 4e be c3 8d e7 3d d3 fa 45 be
       -0.29894328 -0.20209469 0.11306336 -0.19333963
0000e0 f8 95 8a 3d e0 d7 8b 3d 70 76 ba bd 36 0a b8 bc
       0.067668855 0.06828284 -0.091046214 -0.022465806
0000f0 1d e8 0f be ba 8b 5e be 07 36 fd bd 83 e4 77 3d
       -0.14053388 -0.21732989 -0.123638205 0.06052066
000100 3a a3 a1 3d c4 e6 f9 bc e4 2d 55 3e 85 f1 73 3d
       0.07892461 -0.030505545 0.20818287 0.059556503
000110 fd 6b 5c 3d 38 4e 19 3e fe a5 0f 3e 66 25 69 3e
       0.053813923 0.14971244 0.14028165 0.22768173
000120 42 fd f8 3d 2c 41 e4 bc ba 1d a4 be 6b 78 79 3b
       0.1215768 -0.027863108 -0.3205393 0.003806616
000130 ac 2e e7 3d 3e 06 be bd 27 cf 08 3e 17 4e b8 3d
       0.11288199 -0.09278534 0.13360272 0.089992695
000140 f4 79 28 3e b5 21 e5 3c fe c8 90 be 88 72 be bd
       0.16452771 0.027970174 -0.28278345 -0.09299189
000150 19 9a d8 3d f6 ea c7 3d 7f cf 6c be f0 3c 09 3e
       0.10576267 0.09761612 -0.23126028 0.13402152
000160 e1 41 69 3d b5 42 6a be ae 22 73 bd 62 cf 9a bd
       0.056947593 -0.22877009 -0.059359245 -0.075590864
000170 63 2b 46 3e 81 c7 43 3e 4a dc a1 be 32 16 7c bd
       0.19352488 0.19119073 -0.3161338 -0.061544605
000180 09 a2 65 3d 99 c7 71 be 9c 4f a5 bd 85 14 5a 3d
       0.056062732 -0.23611297 -0.08071825 0.053242225
000190 0c 97 68 3e c0 b0 df bd 49 28 45 be f3 9d 26 be
       0.2271387 -0.10922384 -0.19253649 -0.1627119
0001a0 81 e2 62 bc ff 4b 01 bc 2c 3e 23 be 52 03 5b be
       -0.013847948 -0.007891654 -0.15941685 -0.21387985
0001b0 80 36 79 bd ff aa 0c be 5d 99 6d 3d 6b b7 94 3d
       -0.06084299 -0.13737105 0.058007587 0.07261547
0001c0 fa d6 85 3e 99 d1 0d be c4 77 3a be 98 47 58 3c
       0.26140577 -0.13849486 -0.1820975 0.013200663
0001d0 5d ad 9b be e6 6d 8e be dd 1d 27 be 2c 80 f1 be
       -0.30405703 -0.2781822 -0.16319986 -0.471681
0001e0 6f 06 68 bd f5 f1 e7 3c 1c bc 67 be 36 e7 10 3e
       -0.05664676 0.028313616 -0.22630352 0.141507
0001f0 b1 3f 10 bc f6 2c 1e be cd 4f 13 3e b7 ed 12 3d
       -0.008804248 -0.15446839 0.1438591 0.035871234

temporal.rnn.weight_ih_l1 f4 [128, 32]
000000 59 3d bb be 38 9b d7 bd 21 e0 2c 3e 58 48 f0 3e
       -0.36570242 -0.105276525 0.16882373 0.46930194
000010 13 ff 1d bf 90 24 03 be e1 15 17 bf 80 48 8d 3e
       -0.6171734 -0.12806916 -0.5901776 0.27594376
000020 c4 9d 2f bd 99 46 ca be d0 a2 42 3e c5 b1 dc 3e
       -0.042875066 -0.39506987 0.1900742 0.43104377
000030 44 86 69 3e 8e fc 54 bb 0d 5e a6 be 09 f1 be bb
       0.22805125 -0.0032499167 -0.3249363 -0.0058270735
000040 4e 57 2c be 8e 39 c7 3d 89 ad e6 3d 23 65 f0 3d
       -0.16830179 0.097277746 0.11263568 0.1173804
000050 c6 81 9e 3d 7f 79 b8 be 18 b4 39 be 88 6f 3c 3e
       0.07739596 -0.36030194 -0.18135107 0.18401921
000060 3b df 72 3e 18 be 6d ba 75 2c 89 3d c3 66 ac 3d
       0.23717968 -0.00090691587 0.06697933 0.08418038
000070 7a 7f 51 be b9 92 56 3e e6 da 82 3e 37 86 57 3e
       -0.20458785 0.20954408 0.2555763 0.21047293
000080 75 a4 85 be 7c 44 ba 3e a2 fe 30 be fe fd c2 3e
       -0.26102033 0.36380374 -0.17284635 0.38084406
000090 68 f0 ce be 5a 0f 08 bf 58 52 dd be 6a da 94 bd
       -0.4041779 -0.53148425 -0.43226886 -0.07268222
0000a0 fc 68 e1 be 1b 62 55 3d 6e 47 9e 3d 1d 0f 2e be
       -0.4402541 0.052095514 0.07728468 -0.16997953
0000b0 c8 0b 9a 3e 91 3b ab 3e 89 ac ae be e8 dd c0 3e
       0.30087113 0.33443883 -0.3411601 0.376693
0000c0 b3 42 25 bf 24 fa 25 3e 53 13 c2 3e 98 35 b2 3e
       -0.645549 0.16208702 0.37905368 0.34806514
0000d0 e7 69 8c 3e de 5c 52 be 50 bb 8e 3e 3f 2f dc bd
       0.27424547 -0.20543239 0.27877283 -0.10751199
0000e0 03 5a de 3e f3 08 9a 3e 02 98 c1 3e c9 df c8 3e
       0.43428048 0.30084953 0.37811285 0.39233235
0000f0 6e 63 1a be 45 15 88 3d cd 7d 64 3e e9 17 e7 3d
       -0.15076992 0.06644682 0.22313614 0.112838574
000100 df 61 31 3d 00 dc 02 bf 55 ec a7 3c a3 bc 39 bb
       0.043306228 -0.51116943 0.020498434 -0.0028341196
000110 98 0c 93 3e 46 84 d0 3d 06 7d 94 be e5 eb 0a be
       0.28720546 0.10181479 -0.29001635 -0.13566549
000120 87 4e f7 3d 39 4b 0e bd a5 62 f9 be 3c 39 08 3f
       0.12075525 -0.034739707 -0.48708072 0.5321233
000130 3c fe ca 3e d6 38 52 3c 7f 28 0a 3e 42 17 d5 be
       0.3964709 0.012830934 0.1349201 -0.41619307
000140 5b ae 88 bd fe a5 00 bf d5 e1 dc be 9d 42 ab be
       -0.06673881 -0.50253284 -0.43141046 -0.3344926
000150 85 32 59 3e 14 af 6f be 6d a7 70 be 2b 7b c4 bc
       0.21210678 -0.23406631 -0.23501368 -0.023984512
000160 c8 4b 34 be dc 41 c4 be 41 b5 83 be 02 2c ce be
       -0.17607033 -0.38331497 -0.25724223 -0.4026795
000170 e1 9f a8 3c 5b 59 22 3e eb bd 22 3e 61 b2 b5 bd
       0.020584049 0.15854399 0.1589276 -0.08871914
000180 99 8f 22 be 4a cc e3 3d 40 7c b2 3e 1b 8e 52 3e
       -0.1587509 0.111229494 0.3486042 0.20562021
000190 6f f1 0d be 33 b0 e0 bd 36 b4 0b bf c6 84 e0 bd
       -0.13861631 -0.10971107 -0.54571855 -0.109628245
0001a0 1c 4e 54 be 4b 9b 5e 3d 42 72 bf bd e4 09 5b 3d
       -0.20732921 0.054347318 -0.09347965 0.05347623
0001b0 6f 35 93 bd db 6b 52 3e 44 26 9a be 0d 08 c1 3e
       -0.07187926 0.20548956 -0.3010732 0.37701455
0001c0 bc 69 f3 be 7a 97 41 bd ce 82 af 3e 26 72 e8 3e
       -0.47541606 -0.0472636 0.34279484 0.45399588
0001d0 18 8d af 3e 6f bd d3 be 4b 0a 75 3d 1d 02 a1 3c
       0.34287333 -0.41355464 0.05982427 0.019654328
0001e0 b9 5a 07 3f fc 18 41 3b 0f 8c c7 3c 91 4b 5c 3e
       0.52872807 0.0029464355 0.024358777 0.21513201
0001f0 be 02 ad be 9e ee 81 bc fc 5d 97 3e 72 7e 32 3d
       -0.33791155 -0.015860852 0.29563892 0.04357762
000200 7c 55 48 3d 70 2f 97 be 50 56 b5 3d 4e c1 d3 be
       0.04890965 -0.2952838 0.088543534 -0.41358417
000210 f3 6f 02 3f 1b 80 9c 3e 0a 30 1a 3f 42 5e 8b 3e
       0.5095207 0.30566487 0.6022955 0.2722035
000220 78 3e fa bc 08 fa ec bc b7 e1 6a be e9 40 a1 3e
       -0.030547366 -0.028927818 -0.22937666 0.31494835
000230 3c b0 65 3d 51 02 50 be c7 61 16 bd c4 8e 22 bf
       0.056076273 -0.20313384 -0.03671434 -0.63499093
000240 d1 87 b1 3e 21 c5 e2 bd 5c 82 29 be 60 a3 31 bf
       0.34673932 -0.110727556 -0.16553634 -0.69389915
000250 6e f4 56 be 34 79 4c bd d7 89 10 3c a7 5d bb 3e
       -0.2099168 -0.049920276 0.008821926 0.3659489
000260 f1 f8 ed bc ab 85 8c be e2 de 1a be bf 4e 74 be
       -0.029049369 -0.2744573 -0.15124086 -0.23858164
000270 27 96 87 3e 1e 9c b1 3c fb 49 94 be 55 f5 d9 3e
       0.26481745 0.021680888 -0.28962693 0.42569986
000280 91 30 c8 be 41 c3 c7 be 5e cc 21 bc 06 0f c6 bd
       -0.39099553 -0.39016154 -0.009875385 -0.09670834
000290 8d d8 6d 3d e9 e7 70 3e 7d 2c 8c 3e cf ed ad 3e
       0.058067847 0.23525967 0.27377692 0.33970496
0002a0 9b 44 01 3e 9f 19 03 bf 1f 4e db 3b 89 23 5c 3e
       0.12623827 -0.5121097 0.0066926624 0.2149793
0002b0 7a fe 0b be 97 9a 7c be 67 55 89 3e 67 e0 d6 be
       -0.13671294 -0.24668346 0.2682297 -0.4196808
0002c0 1f 31 2b bc ab 0b 8f be 24 cb 3c be 26 81 22 bf
       -0.010448723 -0.2793859 -0.18436867 -0.63478315
0002d0 e3 fa 70 3b 42 6a fb 3d 94 e2 28 be c4 09 65 be
       0.0036770634 0.122761264 -0.16492683 -0.22367007
0002e0 3f 7b a5 bd aa 55 c6 be df c3 89 bd 20 bf 6c be
       -0.08080148 -0.38737231 -0.067268126 -0.23119783
0002f0 ef 66 67 3e eb 38 63 3e ee fb aa be 3a 5a 14 3e
       0.2259786 0.22189681 -0.33395332 0.14487544
000300 e6 0e c6 bd fc 8c f6 bd 2e f7 8c 3d 95 c5 af be
       -0.096708104 -0.120386094 0.06883083 -0.3433043
000310 f1 0b 5d 3e c8 e7 52 3e 89 c8 3c 3f 7a 64 dc 3e
       0.21586587 0.2059623 0.7374349 0.43045408
000320 62 2b d2 3e 1c 23 4f 3c 42 ee fc bd d5 d1 df 3e
       0.41048723 0.012642648 -0.123501316 0.43714777
000330 69 30 de bd dd 9f 09 bf f8 0f 31 3e 12 f0 6f 3d
       -0.10849077 -0.53759557 0.17291248 0.05857856
000340 6d 04 c3 3e 5e 15 34 be e7 ec 67 be 50 b9 b2 be
       0.38089314 -0.17586276 -0.22648965 -0.34907007
000350 86 29 b7 be 94 ce 2b 3f fa d5 bc bd bc 8c 0a 3f
       -0.35773867 0.6711209 -0.092205 0.54120994
000360 15 de 2a bf 66 f4 97 be dc 5d d8 3c b0 73 88 be
       -0.6674512 -0.2967865 0.026411943 -0.26650763
000370 7b e5 53 3f d3 0a 82 3e 1c 8b 88 bf fd 32 bb be
       0.82772034 0.25398883 -1.0667453 -0.36562338
000380 b0 34 1d 3f 1d 13 89 bd 21 b7 96 3e ae 7d 2d 3e
       0.6140852 -0.06693099 0.2943659 0.16942474
000390 d2 1c 36 3f 2f 4a 91 3d 67 34 d2 3d 4e 1f 03 3f
       0.71137726 0.070942275 0.10263901 0.5121964
0003a0 05 69 88 3d 5b 0b 03 3e 56 e9 25 bf 89 2a b7 3e
       0.06660656 0.127973 -0.6480917 0.3577464
0003b0 ac 7d 3b 3d a3 f3 bb 3d b9 1c 97 3e 99 24 23 3e
       0.045774147 0.091773294 0.295141 0.1593193
0003c0 ac 8e 03 3e 70 ca 0d bf 9f 81 ac be 35 e5 cc be
       0.12847394 -0.5538702 -0.33692643 -0.4001862
0003d0 aa 30 69 3c df 43 e6 b9 5c 6a bb be 1f 4a 81 3d
       0.014232794 -0.00043919586 -0.36604583 0.063129656
0003e0 2a 89 48 bd 5c 6e 05 bf 1f 56 87 be 15 d9 3c be
       -0.048958935 -0.5212152 -0.26432893 -0.18442185
0003f0 e9 0d 5d 3e 39 97 63 bc 7b fa 80 bc 17 90 cc be
       0.21587338 -0.013891035 -0.015744438 -0.39953682

temporal.rnn.weight_hh_l1 f4 [128, 32]
000000 f8 03 61 3e 03 31 3c 3e d1 28 35 3e fc 7a 2d 3e
       0.2197417 0.18378071 0.17691351 0.16941446
000010 8d 77 37 3e c6 a9 59 be 04 3e 50 3e 43 47 53 be
       0.17916699 -0.2125617 0.20336157 -0.20632653
000020 d6 3a 9a 3e c5 b3 bf be 25 79 6d bd 48 9a cf 3d
       0.30123013 -0.3744184 -0.05797686 0.10136849
000030 2a 1e 9f 3e 0d 83 62 3e ba b7 68 3e 3c 8e ad 3e
       0.310777 0.22120304 0.22726336 0.3389758
000040 b4 fa 09 3e 99 9e e2 be d2 0d 0e bf 24 14 32 3e
       0.13474542 -0.44261625 -0.5548984 0.17390496
000050 75 57 84 3e ea d7 88 be f3 f5 51 be eb 95 04 bf
       0.25847974 -0.2672723 -0.20503978 -0.51791257
000060 c6 72 db 3e af d5 23 3d 1a 55 11 be 43 31 f5 3e
       0.42861003 0.039998706 -0.1419262 0.47889146
000070 bf e6 5b 3e ce 53 84 3d b5 f6 c3 3c bd 0b 97 bd
       0.21474741 0.06461297 0.02392135 -0.07375286
000080 fc 7b 04 3e 09 5a 7b 3e 92 fc 9e 3d db b1 77 3e
       0.12937921 0.24546064 0.07763018 0.2418894
000090 85 a1 f3 3e 1b 1e 25 be 8b b3 3d 3e c3 7b 16 be
       0.47584167 -0.16124766 0.18525521 -0.14695649
0000a0 d0 e8 ef 3c ef 95 10 be 11 a8 dc 3d b2 af 85 be
       0.029285818 -0.14119695 0.107742436 -0.26110607
0000b0 fe 5e 71 3d 55 9f ab 3d 00 21 87 be 97 99 81 be
       0.058928482 0.083799995 -0.26392365 -0.25312492
0000c0 59 10 d6 3d 37 69 34 3e 5a 2d ab be 3e d3 64 be
       0.10452337 0.17618261 -0.33433038 -0.22346207
0000d0 80 5f e9 3d 8f 51 3e 3e 20 bb da bd d1 4a 12 be
       0.11395168 0.185858 -0.106802225 -0.14286353
0000e0 46 bc 27 3d aa b1 2e 3e 0e 91 c7 be 3d 16 39 be
       0.040951036 0.17059961 -0.38977855 -0.1807489
0000f0 5d 71 64 be ab 19 03 3c d6 38 ce 3d a6 70 af bd
       -0.2230887 0.008001725 0.10069434 -0.08566408
000100 3f 3f af bd 53 60 8f 3e 2e 26 92 bd f6 5e 9a bd
       -0.08556985 0.28003177 -0.071361884 -0.075376436
000110 61 79 1f 3d ef eb db bd 99 7f 22 be c2 c9 14 3e
       0.038934115 -0.1073836 -0.15868987 0.1453009
000120 24 bd 90 be 20 27 13 3e 97 89 32 3f 92 8f d5 bd
       -0.28269303 0.14370394 0.69741195 -0.104277745
000130 93 fe 8a be d6 1b 6a ba 17 4b e2 3d d0 13 36 be
       -0.2714735 -0.00089305395 0.110494785 -0.17780995
000140 a8 90 e4 3e 10 f2 a2 3e b5 5c 85 bc b1 92 20 3e
       0.44641614 0.31825304 -0.016279558 0.15680958
000150 9d 3f 59 be 97 28 c7 be 33 8b c0 3e 45 52 c4 3d
       -0.21215673 -0.38898155 0.376062 0.09586004
000160 99 33 b1 bd f7 4a 08 3e f5 5f 8a be 0d 48 6f be
       -0.086524196 0.13309847 -0.27026334 -0.23367329
000170 09 e7 aa 3e a9 11 02 be 84 fe 2a 3d cd e4 76 3e
       0.3337939 -0.1270205 0.04174663 0.24110718
000180 bb 2e e9 be f9 98 16 be 9d 1f b3 3d 27 18 a3 3e
       -0.45543465 -0.14706792 0.08746264 0.31854364
000190 c1 68 b9 3e 72 89 81 be 92 5b 0a 3e fb a0 ff 3c
       0.36212733 -0.25300175 0.13511494 0.031204691
0001a0 7d 20 04 be 80 51 05 3e 17 b1 b6 bd 33 c2 a1 bc
       -0.12903018 0.13019371 -0.08920496 -0.019745922
0001b0 1a 05 a4 be be 98 ca bd f6 e5 bc be b3 c3 5a bd
       -0.32035142 -0.098924145 -0.36894196 -0.05340929
0001c0 48 7c f8 bd 89 14 9a 3d 34 7a 17 bd e3 cb d0 be
       -0.1213308 0.07523448 -0.036981776 -0.40780553
0001d0 a6 8d 7d 3c f3 20 26 bd 8a 81 54 3d 8d 3d 9c be
       0.015475666 -0.040558767 0.05188135 -0.3051571
0001e0 14 bb 8f be a9 23 4d 3e a8 86 df 3d c3 d1 1b 3e
       -0.28072417 0.20033135 0.109143555 0.15216736
0001f0 14 93 19 be 32 9a 30 bd 2b 07 1f 3e 03 45 e1 bd
       -0.14997512 -0.043115802 0.15530078 -0.10999491
000200 73 5f c2 3d 06 23 a6 be da 0c 34 be b8 d5 bd 3b
       0.09490862 -0.32448596 -0.17583027 0.0057932995
000210 ab 09 ec bc 2a 21 a1 be 87 75 24 3e 2a bf a4 3c
       -0.028813204 -0.31470615 0.16060458 0.020110685
000220 a1 a3 77 3e 2f 1d 65 3d ee c2 86 3d eb ad 51 bd
       0.24183513 0.055936035 0.06580149 -0.05119125
000230 0d ad 15 3e 49 39 c9 3b 54 e7 05 3f e2 5f ad bb
       0.14616795 0.006140862 0.52306104 -0.005290971
000240 39 7e 61 bd 26 82 b0 3e 65 e9 5a 3d 2e e9 34 bc
       -0.055052016 0.34474295 0.05344524 -0.0110419225
000250 35 6d 82 3e 49 ff cb be 0e f0 ee 3d 33 6a f7 3e
       0.25473943 -0.39843205 0.116668805 0.4832321
000260 ab fa be 3e 3c b9 2b be bf d8 b8 3e a2 41 13 3d
       0.3730062 -0.1676988 0.36102864 0.035951264
000270 e3 29 30 bd 20 80 f2 be 6c 2a 99 3e 67 09 90 3c
       -0.043008696 -0.47363377 0.29915178 0.017582608
000280 aa 18 a1 be ff 0a e3 bc 00 23 28 bf 55 16 36 be
       -0.3146413 -0.027715204 -0.65678406 -0.17781956
000290 b1 c0 35 be 79 d4 d3 3e 30 3f a6 be ab e2 04 3f
       -0.17749287 0.4137304 -0.32470083 0.5190837
0002a0 e3 f0 0f bf b3 7f 7c 3e 88 8d f3 3d 3c b2 5e be
       -0.5622694 0.24658088 0.11892229 -0.21747679
0002b0 c1 5e 0a bf 0f e8 d3 be 88 bd c3 3e 2f 67 dd be
       -0.54050833 -0.41387984 0.38230538 -0.43242785
0002c0 22 51 ee 3e 59 84 e1 3e b2 91 d3 3d c5 10 6e be
       0.46546274 0.44046286 0.103305236 -0.23248585
0002d0 68 31 1f be af 36 b5 be 51 bf fc 3e 09 b6 08 3e
       -0.1554619 -0.35393283 0.49364713 0.13350691
0002e0 16 25 45 3e d9 cb 91 3c 41 b1 9b 3d 36 d2 13 bf
       0.19252428 0.017797397 0.07602168 -0.5774263
0002f0 ea 95 9e be 59 31 b2 3e d0 6a ba be f2 22 a1 3e
       -0.3097375 0.34803274 -0.36409616 0.31471974
000300 b9 e8 01 be 16 1f 30 be 22 53 6b be b7 ce 96 be
       -0.12686433 -0.17199358 -0.22980931 -0.29454586
000310 f4 d4 18 3e d7 0f df 3e 57 7a c3 3e 20 f4 a9 3e
       0.14924985 0.43566772 0.38179275 0.33194065
000320 13 99 11 be 8c ab 54 3e f1 cb d8 be f9 9e 98 3e
       -0.1421855 0.20768565 -0.42343095 0.29808787
000330 a3 f6 75 3a 96 00 24 3e e0 a1 e3 3d 99 06 cc 3d
       0.000938276 0.16015849 0.111148596 0.09962196
000340 fd 11 14 be 22 c4 d3 bd de 84 41 3e c5 c9 22 3e
       -0.14459987 -0.10340144 0.18898341 0.15897281
000350 07 6e 5b 3e 79 14 5d 3e 9d d2 13 bf 96 a8 42 bd
       0.21428691 0.21589841 -0.57743245 -0.047524057
000360 b9 44 ca 3e 96 8b d7 be 10 fe 8d 3e d0 94 a3 bd
       0.39505556 -0.42098683 0.27732897 -0.07987368
000370 e7 10 53 bd 51 7e 16 3f 35 70 62 be 3c 1a 13 bc
       -0.05152979 0.58786494 -0.22113116 -0.008978423
000380 09 06 70 be 5a 75 25 bd d9 88 83 be 17 fe 5a be
       -0.23439802 -0.04039512 -0.25690344 -0.2138599
000390 05 91 85 3e b2 8a b4 be 1e c4 36 bf 49 08 4c 3e
       0.26087204 -0.35262066 -0.71393 0.19925036
0003a0 30 5a a0 be 0e 9d 19 3f 5e 9a 4a 3e f2 c0 33 3e
       -0.31318808 0.6000527 0.19785449 0.17554072
0003b0 bc 71 21 bf 10 5d b1 be c1 01 ee 3d e2 ac 8c be
       -0.6306417 -0.34641314 0.11621428 -0.2747565
0003c0 98 92 2a 3f 4a 2c 24 3f 6c 27 9c 3e 42 03 21 3d
       0.66629934 0.6413008 0.30498827 0.039309748
0003d0 86 0f 71 3c 57 7d 6a be 29 bf 2e 3f fd 59 3e 3e
       0.014713174 -0.22899376 0.6826044 0.18589015
0003e0 b2 98 9e be 7a 3d 23 be 7c 75 51 3e ce ef 29 bf
       -0.30975872 -0.1594142 0.20454973 -0.6638154
0003f0 03 ee ae 3d 6c a9 c9 be de c5 a6 3e 39 f4 39 3f
       0.08541491 -0.3938707 0.32572836 0.7263828

temporal.rnn.bias_ih_l1 f4 [128]
000000 d4 3d 11 3e 98 16 73 be e1 fa 6b 3c c9 8d c4 be
       0.14183742 -0.23739088 0.014403076 -0.38389423
000010 1b f5 7d bd 7e ff 9d be 2e 26 9c 3d 46 fa 9e bb
       -0.06200133 -0.30858988 0.0762447 -0.0048516123
000020 96 fa 1f bd d2 92 68 3d f8 e6 ed bd 62 14 7d be
       -0.039057337 0.056780644 -0.116163194 -0.24714807
000030 f7 0d 92 bc 19 9c 20 be eb 2f ac 3d 5b 48 43 be
       -0.017828925 -0.15684547 0.08407577 -0.1907057
000040 62 86 64 be 18 e5 94 3e 26 20 42 be ef fd 09 3f
       -0.22316888 0.29081035 -0.18957576 0.53903097
000050 64 c8 ac bd 96 97 e3 3c 0d fa 4f be 0c 52 a3 bd
       -0.08436659 0.027782243 -0.2031023 -0.079746336
000060 d9 24 a0 bd 7f b6 28 be cf 5a 77 be a5 3b 57 3e
       -0.07819528 -0.16475867 -0.24155734 0.21018846
000070 c3 38 e3 be 30 a4 70 be 8e bd f3 bd 45 d6 45 3e
       -0.44379243 -0.23500133 -0.11901389 0.19320019
000080 51 a3 32 be c0 b0 31 be bf 8d 77 bd 82 82 ae be
       -0.17445113 -0.17352581 -0.060437914 -0.34083945
000090 1e 05 f1 b9 73 9d fb 3e 46 fa a1 3e 51 fe af 3e
       -0.00045970915 0.49143562 0.31636256 0.34373716
0000a0 87 bc a6 3e ae f0 d7 3e 8c 85 1c be 28 35 8c be
       0.3256571 0.42175812 -0.15285319 -0.27384305
0000b0 91 38 19 3d 9b f5 0a 3c 1a 1b fa 3e 86 c0 d4 bd
       0.03740746 0.0084814085 0.48848802 -0.103882834
0000c0 bd 19 8f bd 0c ef b2 3e 1a 6c 67 bd 65 61 1b 3f
       -0.06987331 0.34948003 -0.056499578 0.6069549
0000d0 86 69 88 3d bc 39 59 bd 1c c5 17 3e 11 f9 05 3f
       0.06660752 -0.053033575 0.14821285 0.5233317
0000e0 c7 09 80 3d 97 fc bf be 1d 7a 83 be 00 d6 53 3e
       0.06251865 -0.37497398 -0.25679103 0.20687103
0000f0 88 15 00 bf 35 1b be 3e 42 9f d4 bc 4c 20 9a 3e
       -0.50032854 0.37130132 -0.025954846 0.30102766
000100 39 ff c6 3e 57 93 d3 3e 52 95 9d 3e bf f7 2d be
       0.38866594 0.4132335 0.30777985 -0.16989039
000110 ec 7c 9c 3d 58 85 05 3e e6 7b ff bc c4 9c 09 be
       0.076410145 0.13039148 -0.031187009 -0.13438708
000120 4b 77 7e 3e a3 ce a2 be 8f b6 c7 bc 5d 45 2d 3e
       0.24850194 -0.31798276 -0.024379043 0.16920991
000130 c9 c9 80 3e 3c cc de 3d db 66 4e 3e a8 32 94 bc
       0.2515395 0.10878798 0.20156424 -0.018090561
000140 22 c4 31 be 07 25 fa bc 4c d1 9c bd 75 70 1b 3f
       -0.17359975 -0.030535234 -0.07657108 0.6071847
000150 08 59 08 be 1e ab e1 3e 1d 1f 60 3e f0 7f c0 bd
       -0.13315213 0.44075865 0.21886869 -0.09399402
000160 f8 66 1b bc cc 42 36 bd 98 8e 2d be 00 d5 5a 3e
       -0.009484999 -0.044497296 -0.16948926 0.21370316
000170 c2 7b ba 3e 09 cf 56 3d 64 8f 91 3d 73 d2 9c be
       0.36422545 0.052443538 0.07107428 -0.3062931
000180 d7 4e ca be 32 2e ed be dc a0 0c bd 57 42 e3 be
       -0.39513275 -0.46324307 -0.034333095 -0.4438655
000190 4b d9 54 3e e2 50 fe 3d 97 db 1f 3f d5 71 91 3e
       0.20786016 0.12417771 0.6244444 0.2840716
0001a0 33 c6 e7 3e 9f e2 39 3e 28 5d 43 be e2 5c 0c be
       0.45268402 0.18152855 -0.19078505 -0.13707307
0001b0 7e 94 15 3d aa 67 03 be 8d 35 86 3d 0b 09 52 be
       0.036518566 -0.12832513 0.06553183 -0.20511262
0001c0 74 50 d8 ba ce 23 82 3e 57 58 a6 be ac 28 d4 3d
       -0.0016503469 0.25417942 -0.32489273 0.1035932
0001d0 a6 72 56 be 40 9e 20 3e 8f 8d 8d be 46 6d a0 3d
       -0.20942172 0.15685368 -0.27647063 0.07833342
0001e0 61 88 77 3d fb 66 28 be 29 0e dd be 19 de dc 3b
       0.060432795 -0.16445534 -0.43174866 0.0067403433
0001f0 3e 26 06 bf 1f 59 bd 3e 5e a3 74 be 2d b7 4a 3e
       -0.524021 0.36982056 -0.23890445 0.19796439
