notebook/output/rolling_models_dynamic/window_12.pth (torch, 479866 bytes, 99 tensors)

temporal.input_proj.weight f4 [32, 7]
000000 3e dd 7c bf cf e5 f2 3f 78 a0 2f 40 35 4c 83 be
       -0.9877509 1.8976382 2.7441692 -0.2564408
000010 10 bb bf bc 12 13 31 3c 51 e2 2c bd 10 9b bb 3f
       -0.023404628 0.010807769 -0.04220802 1.4656696
000020 0b 6f 0d 40 c5 21 47 40 b2 3c 8e be 94 12 4e be
       2.2099025 3.1114361 -0.27780682 -0.20124274
000030 99 f2 2e 3e 53 d4 15 bc 85 a8 55 3f e8 34 b6 bd
       0.17084731 -0.00914486 0.83460265 -0.0889681
000040 89 89 ec bf b7 44 1f be c5 b8 a0 3e 3a ac 73 be
       -1.8479472 -0.15553556 0.31390968 -0.23796168
000050 da 6b 89 3d bd 72 7f 40 98 6d 4e 40 bd 2c 34 40
       0.06710024 3.991378 3.225439 2.8152306
000060 03 69 ae be 3e f9 27 be 95 3c c8 3b b2 93 d6 3c
       -0.34064493 -0.16403672 0.0061107376 0.026193473
000070 bd ff 0d 3f 27 d3 61 3f 94 e2 04 3f d0 26 50 3e
       0.5546835 0.8821282 0.5190823 0.20327306
000080 5a e0 a0 bd 35 2e 44 3e dc 1a 92 be 5e cf c3 bf
       -0.07855292 0.19158252 -0.28536117 -1.5297658
000090 ff 2b 08 40 3b 9b 4c 40 87 fb bc 3e 06 bf b8 be
       2.1276853 3.1969745 0.3691065 -0.3608324
0000a0 a1 3d 81 3e f1 e9 fc bd c1 bc 83 c0 ad 6d 8c bf
       0.25242332 -0.12349308 -4.1167912 -1.097097
0000b0 1e a3 e1 3d 1a 8a 5c 3e 25 45 40 be 23 e2 14 be
       0.1101744 0.21537057 -0.18776377 -0.1453939
0000c0 a8 90 f2 bd 18 62 7a c0 90 0b fb bd 1a db f3 3f
       -0.11843997 -3.9122372 -0.12258065 1.905124
0000d0 2e 08 83 bd 06 6f 7f bd c0 41 31 3d 19 3b b6 bd
       -0.063980445 -0.06236174 0.043275595 -0.08897991
0000e0 3a 0d cc c0 13 3a 29 c0 9f 8f 9d bf d7 19 2c be
       -6.3766146 -2.6441696 -1.2309455 -0.16806732
0000f0 c1 88 c8 3c 2d 09 07 bf d7 7e 84 bd 4b a3 b0 3e
       0.024479272 -0.52748376 -0.06469505 0.34499583
000100 c6 73 11 bf dd db 83 bf 7d d0 bb be 30 7b 3c 3e
       -0.5681728 -1.0301472 -0.366825 0.18406367
000110 de a2 9f be 4a fe 98 3e 83 05 83 bf 61 dc 2c 3f
       -0.31178945 0.29881507 -1.0236057 0.6752377
000120 02 d0 e5 3f cc 16 6d 3e 79 dc 45 3c a8 bb 59 bd
       1.7954104 0.23153228 0.012076491 -0.05315748
000130 38 d6 15 bb 8d aa 80 3f df 14 84 bf a9 3d 20 bf
       -0.002286328 1.0052048 -1.0318869 -0.62594086
000140 1f 33 80 be 27 7f fb 3c 99 a1 4e bd a0 ed 98 bd
       -0.25039002 0.03070028 -0.05044708 -0.07467198
000150 bb 33 1a c0 4d 40 1d c0 51 a6 5c c0 a6 8e fd bd
       -2.4094074 -2.4570496 -3.4476511 -0.12380724
000160 2d 5d 2e be 67 dc 48 3e b1 ab 1b bc 97 6b 6b 3f
       -0.17027731 0.19615327 -0.009501384 0.91961044
000170 68 62 8b bf 99 5a 1a c0 ed 8b 87 bd 97 ea 70 be
       -1.0889406 -2.4117796 -0.066184856 -0.23526989
000180 58 74 6d 3e f2 bc 1c bd ff d2 84 c0 44 b4 10 c0
       0.23188913 -0.03826613 -4.1507564 -2.2610025
000190 75 cd fa bf 54 14 c6 3d 20 6e 4b be 49 d9 4b 3e
       -1.959395 0.09671846 -0.19866228 0.19907106
0001a0 37 8d e4 bb 01 e8 54 c0 d7 ee 25 c0 73 73 3c c0
       -0.006974842 -3.3266604 -2.5927026 -2.9445465
0001b0 cc 81 f2 bd 78 24 ca 3d 6d b6 72 3c af e3 e2 bb
       -0.11841163 0.09870237 0.0148140015 -0.0069241147
0001c0 b9 7e 29 40 1a 67 0c 3d d6 8e e9 bb 08 dc 1e 3c
       2.6483595 0.034278013 -0.007127623 0.009696014
0001d0 6e bc c1 bd 53 60 09 be 3c 0a 8b be ef 58 5a bf
       -0.09459768 -0.13415651 -0.27156246 -0.8529195
0001e0 e2 86 0c bf a7 08 65 3e 50 18 b3 be 5d dc fc bd
       -0.54893315 0.22366582 -0.34979486 -0.123467185
0001f0 fd c9 56 bd 57 aa 44 3d 53 c7 e5 3f 57 bd 02 c0
       -0.052438725 0.04801401 1.7951454 -2.0428064
000200 67 a0 da bf 3c bc 19 3e cb 00 ec bb 98 95 8c bd
       -1.7080201 0.15013212 -0.007202243 -0.0686447
000210 2e 95 21 bd 86 97 c3 3f 30 ed 24 40 bd 32 38 40
       -0.03944891 1.5280616 2.5769768 2.8780968
000220 26 b7 83 be 0e d3 96 be 8c f3 bc 3d ef 6c 04 3d
       -0.2572567 -0.29457897 0.092261404 0.03233045
000230 3c 85 f2 3e d5 f9 c2 bf d4 3f 2c c0 58 2d cd 3b
       0.47367275 -1.5232493 -2.6913958 0.006261509
000240 9f b6 1d bd 1e 9e 09 bd a1 54 61 3d 6f 04 17 40
       -0.03850424 -0.033598058 0.05501235 2.3596456
000250 0d 53 bf bf aa bd f5 bf 9c a2 e9 ba 9d 87 d7 3c
       -1.494722 -1.9198506 -0.0017824951 0.026309783
000260 7e d5 86 bd 47 a6 06 bd 10 aa 2b bd dc 6f b6 3f
       -0.06583689 -0.03287342 -0.04191023 1.4252887
000270 3d 1c 0d 40 ae b7 d7 3d 30 2e 04 be d8 4d 5b bd
       2.2048485 0.10533081 -0.12908244 -0.053541034
000280 d4 de 8f bd 72 78 4f bf dc b1 f3 bf 5b 3a 2c c0
       -0.07024923 -0.8104316 -1.9038653 -2.6910617
000290 c1 a7 0b be 6b b9 c4 3d 25 03 aa 3e 28 7b 10 bd
       -0.13638212 0.09605678 0.33205524 -0.0352737
0002a0 54 8a 35 c0 2a 3a 35 bf f0 3f 0d c0 69 3a 66 bd
       -2.8365679 -0.70791876 -2.2070274 -0.056208048
0002b0 5a d3 10 3d 89 ce e8 3e 08 dc 91 bd 7f 6e 02 c0
       0.03535781 0.45470074 -0.07122046 -2.0379941
0002c0 d3 69 6a 3f b2 e3 a7 3f 0e 34 86 3e eb 4e d9 bb
       0.91567725 1.3116362 0.2621159 -0.006631722
0002d0 07 0c 82 bd 87 c7 db bb b3 07 9e bf 6f b9 2d bf
       -0.0634995 -0.006707135 -1.23461 -0.67861074
0002e0 22 f0 c1 bf 9b ef 3d 3e 76 da d8 be bc 90 c8 3e
       -1.5151408 0.18548433 -0.42354172 0.39172924
0002f0 36 79 67 bc 90 2e 01 40 55 6b ea be 02 59 d0 bf
       -0.01412802 2.018467 -0.45785013 -1.6277163
000300 fb 18 bb 3c 65 f2 c8 3e 3f 4c 2e 3e 85 b8 9f bd
       0.02283906 0.39247432 0.17021273 -0.07798866
000310 1a e4 6a 40 90 b5 2c 40 7e ba 57 40 9a f4 48 3e
       3.6701722 2.6985817 3.3707576 0.19624558
000320 fd ed a1 3d a6 03 8f be a0 26 89 bb 76 09 5a c0
       0.07906721 -0.2793247 -0.0041855127 -3.4068274
000330 f3 b1 73 bf 72 a0 81 3f 58 54 c1 3d 9d 38 54 3b
       -0.95193404 1.0127089 0.094399154 0.0032382377
000340 65 1e 47 be e0 b7 07 3d d2 a8 82 40 0d 42 01 40
       -0.19445188 0.03313434 4.083108 2.0196564
000350 6c 55 2d be 51 ca 37 3e ca e4 7e 3d ce 25 eb b9
       -0.16927117 0.17948271 0.06222991 -0.0004485086
000360 05 c6 8b bc a5 79 92 3f 96 00 14 be be f0 76 bf
       -0.017062197 1.1443373 -0.14453349 -0.96461093
000370 f3 ef 5a 3e 8a 6d 95 be 85 68 0e 3e 4f 9f 9f 3c
       0.21380596 -0.29185134 0.13907059 0.019485144

temporal.input_proj.bias f4 [32]
000000 a0 da 1b bd aa 54 87 bc f5 9a 12 bf 49 f4 34 3e
       -0.038050294 -0.016519863 -0.57267696 0.17671312
000010 ca 32 80 bf 50 29 a3 3e dd af a1 3e fb ef 4d 3f
       -1.00155 0.31867456 0.31579486 0.80444306
000020 9f 9d 98 be 28 4b 91 bc 64 95 cc bc 04 34 e3 3c
       -0.29807755 -0.017736033 -0.024973579 0.027734764
000030 f0 c9 67 be 35 0a 22 be 0c ab e6 be 0a be cf be
       -0.22635627 -0.15824206 -0.45052373 -0.40574676
000040 82 0d fa be 52 79 f5 3e a7 e7 e0 bd 4a 95 06 3f
       -0.4883843 0.47944123 -0.10981684 0.5257155
000050 d1 a8 e6 3c 22 d3 96 be 72 81 2a 3f 76 11 8d 3b
       0.02815667 -0.29457957 0.6660377 0.00430506
000060 20 4c 03 3f 78 a1 98 be 2e 63 17 3e 68 0f 2e bf
       0.5128803 -0.2981069 0.14783928 -0.6799226
000070 32 6e 28 3d 32 89 ea 3e 44 a0 3c bf a9 b3 86 be
       0.041120715 0.45807797 -0.73682046 -0.26308945

temporal.layer_norm.weight f4 [32]
000000 cc 04 93 3f db c8 83 3f b2 5c 75 3f 15 56 c3 3f
       1.1485839 1.0295671 0.95844567 1.5260645
000010 2b a4 3a 3f 2d c9 59 3f 50 b7 0c 3f 6c 8c 89 3f
       0.7290675 0.85072595 0.5496721 1.0745978
000020 fc f1 96 3f b0 42 bc 3e a4 41 82 3f 78 9a 99 3f
       1.1792598 0.3676963 1.0176282 1.2000265
000030 b5 16 8a 3f 05 62 c1 3f 72 6b 9c 3f 9c d0 6b 3f
       1.078818 1.5108038 1.222029 0.9211519
000040 92 b2 40 3f 9f 74 4e 3f a6 9b b7 3f d4 0c 7b 3f
       0.75272477 0.806467 1.4344375 0.9806645
000050 a4 4e 69 3f 02 8b 0a 40 2e 45 90 3f aa 99 45 3f
       0.9113562 2.1647344 1.1271112 0.771876
000060 95 7f 1f 3f 22 49 b6 3f 2e a5 93 3f 01 d1 66 3f
       0.6230405 1.4241068 1.1534784 0.90162665
000070 5a fc a3 3f c4 26 8b 3f a2 d9 90 3f 61 60 19 3f
       1.2811387 1.0871205 1.1316416 0.5991269

temporal.layer_norm.bias f4 [32]
000000 af 3c 20 be b6 b6 e5 be 37 fd 15 3f 5e 01 1a bc
       -0.15648149 -0.4486596 0.585895 -0.00939974
000010 0d 0c 18 3f 51 9e 43 bf 54 cf 48 be 6f f9 25 bf
       0.5939339 -0.76413447 -0.1961034 -0.6483373
000020 ee ea e1 be ed 6d 09 3f 90 b8 52 be a0 16 65 be
       -0.4412455 0.5368336 -0.20578218 -0.22371912
000030 21 da ae 3b 2b 1a 8f be 03 cb 15 bd a3 92 06 be
       0.0053360616 -0.27949652 -0.03657056 -0.13141875
000040 58 c7 8c 3e a5 00 e9 3e 77 76 5f 3e 17 0b 07 bf
       0.27495837 0.45508304 0.21822535 -0.52751297
000050 3a 8d 12 3f 1c 31 7b 3c d6 26 ea 3d a6 7f 20 be
       0.57246745 0.015331533 0.114331886 -0.15673694
000060 dd 85 80 bf 74 5a 9a 3e 1d 17 68 3e ca 23 c3 be
       -1.0040852 0.30147135 0.22665067 -0.38113242
000070 db b4 a1 3d 3b fc f0 be 04 ba f1 3e ba ae 75 3f
       0.078958236 -0.47067437 0.4721223 0.95969737

temporal.rnn.weight_ih_l0 f4 [128, 7]
000000 bd 07 7c bf 3f 2c 7e bf c6 b1 8d bf 78 1a 76 bf
       -0.9844931 -0.99286264 -1.1069877 -0.9613414
000010 41 16 a1 3e 4f 16 b7 3e ab 68 5c bf f5 46 80 bf
       0.3146229 0.35759208 -0.8609721 -1.0021654
000020 df e6 4a bf b2 64 54 bf e3 a2 3e bf 7a 8d ba be
       -0.7925853 -0.8296615 -0.74467295 -0.36436063
000030 f5 25 c6 be ce 24 a7 3e 84 ff 39 bf 9c de 37 bf
       -0.38700834 0.32645267 -0.7265551 -0.7182405
000040 ed d4 34 bf 47 87 0e bf 90 2e 32 bf a7 bb 55 bf
       -0.706374 -0.55675167 -0.696023 -0.8348946
000050 77 88 92 3e 23 7e 89 3e d9 85 89 3e 0c 9e 67 3e
       0.2861974 0.26854047 0.2685993 0.22618884
000060 25 0f 3a 3e bd 73 37 3f ba ad d4 3e e2 b7 5a 3e
       0.1816984 0.7166098 0.41538793 0.21359208
000070 29 de a2 3e c0 c7 83 3e b8 51 5f 3e 60 78 37 3e
       0.3181012 0.25738335 0.21808517 0.17917013
000080 26 7d 41 3e bc 8e be 3e ee f0 20 3d 84 8c a0 c0
       0.18895397 0.37218273 0.03929227 -5.017153
000090 e8 a2 89 c0 09 0c 94 c0 5e b3 ab c0 b2 6c 81 bd
       -4.301136 -4.626469 -5.3656454 -0.0631956
0000a0 d5 85 7e be 18 37 3f bd f7 59 08 be 10 1a 3e be
       -0.2485574 -0.0466834 -0.13315569 -0.1856463
0000b0 4e e0 bc bd 3f 21 91 3d 98 a2 ab 3d 45 e1 a3 3c
       -0.0922247 0.07086419 0.08380622 0.020004878
0000c0 53 c6 61 3d 42 87 aa 3e c6 32 04 3f 1d 7a 83 3e
       0.055120777 0.3330632 0.51639974 0.25679103
0000d0 05 26 08 3f 90 ac 78 be 7a f2 8a be 6b e4 dc 3d
       0.53183013 -0.24284577 -0.2713812 0.10785755
0000e0 f5 b3 a7 bf b5 50 c9 bf 6f 02 be bf e0 2b ef bf
       -1.3101794 -1.5727755 -1.4844493 -1.8685265
0000f0 98 db 22 bf 9d 3a 05 bf f4 51 11 3e c7 cc 6c bf
       -0.63616323 -0.5204256 0.14191419 -0.92499965
000100 c4 a6 3f bf 86 d0 a8 bf 7a ee a1 bf 63 80 22 be
       -0.7486384 -1.3188636 -1.2650902 -0.15869288
000110 06 32 99 be 4d 58 97 3b 4f d8 59 bf 40 55 4e bf
       -0.29920977 0.0046186806 -0.85095686 -0.8059883
000120 b4 e6 8b bf 51 23 82 bf a3 1f 8a bf 01 9b 6b bf
       -1.092978 -1.0167028 -1.0790905 -0.9203339
000130 e5 8b b2 bb 56 40 0a bf 8d fa 76 be b5 ad 81 be
       -0.0054488056 -0.5400442 -0.24119015 -0.2532784
000140 3a ec a8 be 11 a6 cb be 56 07 16 bd 6b 30 42 3f
       -0.32992727 -0.39775136 -0.03662809 0.7585513
000150 13 20 01 3f 7a 6e 3d 3e f6 d8 11 3f a8 0c 17 3f
       0.50439566 0.18499175 0.5697168 0.59003687
000160 e3 88 00 bf 8a 8f 27 bf 37 c6 5f 3e 7e 73 88 bf
       -0.5020887 -0.654534 0.21852957 -1.0660245
000170 67 98 20 c0 d4 36 44 3a e0 43 81 bf 5b 3d 09 3e
       -2.509302 0.00074849767 -1.0098839 0.13402312
000180 54 fe 36 bf 45 7f 81 3e 68 a3 1e bf 78 23 a3 be
       -0.71481824 0.2529241 -0.6196809 -0.31862998
000190 2a fa 12 bf 1b 4f 00 bf ca 49 21 bf e9 39 e6 be
       -0.5741297 -0.50120705 -0.6300322 -0.44966057
0001a0 d1 33 83 be 0f 28 55 bf 62 97 e0 bf 67 ec 28 3f
       -0.2562547 -0.8326425 -1.7546198 0.6598572
0001b0 3d 3a 53 bf ad 44 11 bf 34 48 fd be b9 27 ef 3d
       -0.8251074 -0.56745416 -0.4946915 0.11677498
0001c0 db 30 99 bd 3b 8f 00 3e 66 e3 ed bd ae f7 93 be
       -0.074800216 0.12554638 -0.116156384 -0.28899902
0001d0 d4 b0 bf 3e de 17 6f 3e 2a e9 73 3e 5b e7 28 bf
       0.37439597 0.23348948 0.23819414 -0.6597802
0001e0 f7 fb d1 be f5 f1 18 bf 61 be 42 bf 43 d0 3b bf
       -0.41012546 -0.597442 -0.76071745 -0.7336466
0001f0 65 0d 82 bf c6 a8 04 3e da 3b 41 bf 82 80 92 bf
       -1.0160338 0.12955007 -0.7548195 -1.1445467
000200 c7 06 53 bf 48 c1 67 bf 5b dd 80 3e 64 b9 0d bd
       -0.82432216 -0.905293 0.2516888 -0.03460063
000210 f2 c3 4a 3e b9 5a 62 bf d8 6d 22 bf 06 1f 8e bc
       0.1980131 -0.8841968 -0.6344886 -0.017348778
000220 46 64 ad 3e 4c 17 05 bd 0e 0a 34 bd 89 ef 0a 3d
       0.33865565 -0.03249292 -0.0439549 0.033919845
000230 73 77 62 3f ce fa 25 3f c0 04 96 3f ce 44 53 3f
       0.88463515 0.6483582 1.17202 0.8252686
000240 98 54 db be 2b 53 17 bf 7f 0c 05 3f 0f ad 36 3d
       -0.42837977 -0.5911128 0.5197219 0.044598635
000250 8a 89 fc 3c e5 cf 58 be 7f cb 71 3c 88 6b 99 3e
       0.030827302 -0.21173055 0.01475799 0.29964852
000260 10 d3 18 3e a2 7b c0 3c 8c e8 a8 bf 5c 7b aa bf
       0.14924264 0.023496453 -1.3195968 -1.3318896
000270 86 5c b9 bf 0b cd a3 bf 11 16 11 bf 40 74 28 be
       -1.4481361 -1.2796949 -0.56674296 -0.16450596
000280 af dc d8 be 6d b7 b0 be 70 72 e5 be 6e e3 1c bf
       -0.42355868 -0.34514943 -0.4481387 -0.6128453
000290 de ad 0a bf fa 02 8b bf aa 0a 82 bf 59 97 da 3d
       -0.5417155 -1.0860283 -1.0159504 0.106733985
0002a0 24 c0 8b be 0b c4 46 bf 65 7c c5 3b 9e ba 10 bf
       -0.2729503 -0.7764289 0.006026792 -0.56534755
0002b0 68 de 8d 3e f5 fd 08 3e a3 77 b5 3e d6 eb 19 bf
       0.27708745 0.13378127 0.35442838 -0.6012548
0002c0 8f 48 14 bf 11 d8 0c bf e4 0e bb be 50 e9 1e be
       -0.57923216 -0.5501719 -0.36534798 -0.15518689
0002d0 c1 31 15 be 90 fd 99 3e 39 b1 29 bf b4 a7 0b bf
       -0.14569761 0.30076265 -0.66286045 -0.5455277
0002e0 3b 56 2e bf 1d cc 1b bf ee bb 16 bf 99 be 1b bf
       -0.6810033 -0.6085833 -0.5888051 -0.60837704
0002f0 1a b4 93 be 9b 1c 4d bf f4 d5 f5 3d 64 fd 68 bf
       -0.28848344 -0.80121773 0.12003699 -0.91011643
000300 66 c1 1c 3d e4 75 0a 3e 59 48 a6 be 1a 8a ed b9
       0.038270377 0.13521534 -0.32477072 -0.00045307056
000310 e0 85 01 3f ed be 46 3f 35 39 2f 3f f3 84 62 3f
       0.505949 0.7763508 0.68446666 0.88484114
000320 d1 b9 06 bf 74 fe bf be 41 b1 a6 3d ca 67 2f bc
       -0.52627283 -0.3749882 0.08139277 -0.010705898
000330 39 4d a3 3e e6 a1 bc be d4 2f 82 be 7e db 84 be
       0.31894854 -0.3684227 -0.25427115 -0.2594871
000340 2d ae 61 3e 5b bc 85 3d c9 63 a5 bd 88 4c 59 3c
       0.22039099 0.065300666 -0.08075673 0.013262875
000350 85 53 4c be d3 10 8e be 67 f5 c2 3d 65 9b 51 3e
       -0.19953735 -0.2774721 0.09519463 0.20469435
000360 66 2e 32 bf 61 96 1e bf 58 e6 06 bf e5 78 24 bf
       -0.6960205 -0.6194821 -0.52695227 -0.6424697
000370 a6 0b 4c bf 3b 16 10 bd 5d 3e 9c bd 73 9f 01 bf
       -0.79705274 -0.03517745 -0.07629082 -0.50633925
000380 3d 9d 36 be 1c 13 79 be 66 99 01 bf 4b f4 2b bf
       -0.17833419 -0.24323696 -0.5062469 -0.67169636
000390 1b 9a f2 be f9 dd d5 be f7 51 6b 3e 28 71 4b bf
       -0.47383198 -0.41770914 0.22980486 -0.7946954
0003a0 b9 1d 4e bf 79 08 3c bf 83 5e 4a bf a2 ee 62 be
       -0.80514103 -0.7345043 -0.79050463 -0.22161344
0003b0 3f 31 d2 be a5 ec 5c be 05 92 12 bf 4a 0e 2f bf
       -0.41053197 -0.21574648 -0.5725406 -0.6838118
0003c0 8a dd 5e bf 83 24 54 bf 5e 4c 35 be 39 92 25 be
       -0.8705679 -0.8286821 -0.17704913 -0.16169061
0003d0 03 cb bd bd ce d8 08 3f bd 86 7b 3e 4b c6 03 3f
       -0.09267237 0.5345582 0.24563117 0.51474446
0003e0 10 ef 58 3e 66 f1 eb bd cd 88 04 bf 9c ec 0a 3e
       0.21184945 -0.115206525 -0.5177124 0.13566822
0003f0 cd 7b b6 3e a2 7f b6 3e be fe fe bd bd a1 d4 be
       0.35641328 0.3564425 -0.12450932 -0.41529647

temporal.rnn.weight_hh_l0 f4 [128, 32]
000000 31 7c 84 bd 10 0b 8b be f4 58 b3 be a0 49 84 be
       -0.06469 -0.27156878 -0.35028803 -0.2583742
000010 8c 57 2e be c7 04 66 3f d2 2c 71 be 30 dc a1 3e
       -0.17025584 0.8985104 -0.23552254 0.31613302
000020 1b 13 07 3f 59 77 1a bf f6 53 e5 be 77 f8 1b 3f
       0.5276353 -0.6033836 -0.4479062 0.60926
000030 71 37 3c be cc ff 0d bf eb 5f b2 be e1 36 ac bf
       -0.18380524 -0.5546844 -0.34838805 -1.3454248
000040 95 7f 5d 3e 8e 46 15 3d ad 39 6b 3e fb d8 8d bf
       0.216307 0.03644424 0.2297122 -1.1081842
000050 9e 9b 11 bf 8e a1 7a 3e 40 f3 70 3e 65 80 31 bf
       -0.5687808 0.2447569 0.23530293 -0.6933654
000060 b2 61 86 bd d5 10 15 bf f6 f7 9f 3e ce 4a 37 bf
       -0.06561603 -0.5822881 0.31243867 -0.7159852
000070 b1 9e 0f 3e 89 96 07 3f a4 7b b8 3e df 57 73 3e
       0.1402538 0.52964073 0.3603183 0.23763989
000080 7e a0 b6 be 24 16 57 be 90 6e 20 be ec a6 f8 3e
       -0.3566932 -0.2100454 -0.15667176 0.4856485
000090 cf 70 58 3e 3d 4b 47 be 55 ad 7e 3e 3f 80 13 3f
       0.21136783 -0.19462295 0.24870808 0.57617563
0000a0 2d 95 85 3e c4 bc 99 be d3 c6 2d 3e 73 b1 14 bf
       0.26090375 -0.3002683 0.16970377 -0.58083266
0000b0 10 3c f9 be 16 af 0d bf 1e f8 fa be 33 20 3c bc
       -0.48678637 -0.55345285 -0.49017423 -0.011482286
0000c0 ca 41 ad be 67 97 f1 3e 40 36 55 3e 0f 77 13 3e
       -0.33839256 0.47185823 0.20821476 0.14400886
0000d0 2f d3 9b 3e e6 c4 52 be 8e 8f 86 3e 7e bb 50 3c
       0.30434558 -0.20582923 0.262814 0.012740014
0000e0 83 d8 c9 bd 8d b1 a5 3e 35 11 3d 3f 67 5f 43 3f
       -0.098557495 0.32362023 0.7385438 0.7631745
0000f0 0e e8 b3 3e fa b4 05 bf aa c9 89 bd e1 5a 1c 3f
       0.3513798 -0.52229273 -0.067279175 0.6107617
000100 f6 3b b9 be e6 ee 42 be 7d d6 4b 3e 06 7e 3e bf
       -0.3617856 -0.19036445 0.1990604 -0.74411047
000110 07 3d a5 be b4 13 91 be 64 2d 00 3e 7a 5e ac be
       -0.32273123 -0.28335345 0.12517315 -0.3366583
000120 f9 10 cd bd 55 2e 79 bd 1b ee d8 3e 5c 61 53 3e
       -0.10013003 -0.0608352 0.4236916 0.20642608
000130 80 6a 92 3e 70 81 dd 3e cb 96 51 be 5d c8 11 3d
       0.28596878 0.43262815 -0.20467679 0.035591472
000140 eb 0f 93 bd db 8f 6f be 7b e6 98 bd b7 16 99 3c
       -0.071807705 -0.2339472 -0.07465836 0.01868759
000150 d9 f6 34 be 4c 27 3a 3e 9e 27 64 3b 1d 7c d1 bc
       -0.1767229 0.18179053 0.0034813653 -0.025571877
000160 d1 2f 83 3e 81 2f 07 3e 1a 16 9a 3d 83 dc 93 3e
       0.2562242 0.13201715 0.07523747 0.28879175
000170 50 52 28 bd ec e3 e8 bd e3 9d 90 be c6 40 90 3e
       -0.041094124 -0.11371598 -0.28245458 0.28174418
000180 b8 e0 4d bf 7f 3f 6e 3e 5b 42 79 be dd e6 b3 3e
       -0.8042102 0.2326641 -0.24341719 0.35137072
000190 66 b9 84 be 5d 03 a8 be 05 e7 d3 3d fb c3 34 3d
       -0.25922698 -0.32815066 0.10346798 0.044132214
0001a0 2f 3b ac be 0f 66 04 bf a4 b3 2e 3f 5e 3c 09 be
       -0.33638903 -0.5171823 0.6824286 -0.13401935
0001b0 ef 58 84 3e e0 54 5c be d9 b7 4f bf 38 96 13 3e
       0.258491 -0.21516752 -0.81139904 0.14412773
0001c0 bf 1c 03 bf b9 d8 56 3f a0 04 bf bd b2 ee 80 3e
       -0.5121574 0.8392444 -0.09327054 0.2518211
0001d0 08 87 74 bd 94 a1 3c bf 2d fb 05 bd 86 98 0c 3f
       -0.05969909 -0.7368405 -0.032710243 0.5492023
0001e0 5e 7b 11 3e 88 1a 1c 3e 09 1d a1 3e 29 d4 ee 3d
       0.14207217 0.15244496 0.31467465 0.1166156
0001f0 c1 92 66 3d a5 67 92 bd 68 70 50 3e 25 a4 ee 3e
       0.0562923 -0.07148675 0.2035538 0.46609607
000200 c8 be 0d bf d8 a1 01 bf f0 2f f4 3c 33 43 67 be
       -0.55369234 -0.5063758 0.029808015 -0.22584228
000210 e7 74 ff bd 60 4e 3d 3f a7 34 9c 3e ae 01 5e 3e
       -0.12473469 0.73947716 0.3050892 0.21680328
000220 f3 cd 5f 3f ec e9 f9 be b0 2c 0c bf df 20 b0 3e
       0.8742363 -0.4881128 -0.5475569 0.3440008
000230 e9 57 09 be da 90 e8 be fb 50 58 be 64 88 70 bf
       -0.13412441 -0.45423013 -0.21124642 -0.93958116
000240 7d 5b 96 3e 3c dd c7 be d3 ad b8 3e 8c 51 cd be
       0.29366675 -0.39035976 0.36070117 -0.40101278
000250 2c 4d 25 bf 23 58 ef 3e c6 da d7 be b3 d3 de be
       -0.6457088 0.4674693 -0.42159098 -0.4352089
000260 47 a9 27 3f 05 7f 0d bf 7c 21 fb bd 6f 7a 27 bf
       0.6549267 -0.5527194 -0.12262246 -0.65421194
000270 39 43 e1 3e 0b c2 58 3f 81 84 83 be e0 e5 94 3e
       0.439966 0.84671086 -0.2568703 0.2908163
000280 e1 f4 89 3f 86 a4 1b bd d3 dc 64 3d c3 8c 98 be
       1.0777856 -0.0379987 0.055874657 -0.29794893
000290 43 89 07 40 1c bd 2d 3f 48 c9 0d bf c3 2c 0c 3f
       2.1177528 0.67866683 -0.55385256 0.547558
0002a0 f4 43 34 3e 87 ba e8 3e e5 19 0b 3d 6f e0 a5 3e
       0.17604047 0.4545481 0.03396024 0.32397792
0002b0 bd ae 38 bf 6c 9f 2a be 66 7e 93 3e 0a 46 26 3d
       -0.7214163 -0.16662377 0.28807372 0.04059414
0002c0 f5 19 a4 3e 3d 34 a1 bd ce 08 42 bb af 53 60 be
       0.32051054 -0.07871292 -0.0029607299 -0.21906923
0002d0 f8 14 f6 bd e8 a8 93 3e f2 01 99 bd a3 e7 f9 be
       -0.12015718 0.28839803 -0.07471074 -0.48809537
0002e0 e8 e0 2b bf cd b0 b5 bd d8 c6 3a 3e 11 36 bb be
       -0.67140055 -0.08871613 0.18239915 -0.36564687
0002f0 b8 b3 70 3e 80 eb f6 be 10 03 7c bf 6d 68 20 be
       0.23506057 -0.48226547 -0.98442173 -0.15664835
000300 37 cb df be 3a 50 40 3e d7 d4 b6 3c d1 fa 93 3b
       -0.43709728 0.18780604 0.022318287 0.0045159836
000310 32 c5 25 3e ad 67 d4 3d 15 6b fc bd c9 e6 96 bf
       0.16188505 0.10371337 -0.12325112 -1.178918
000320 cf c1 09 3f 40 22 fa be 1e bb b8 3e b0 ef 98 3d
       0.53811353 -0.48854256 0.3608026 0.07467592
000330 58 80 14 3e 75 ef 85 be 17 96 04 bf 6e 84 e6 3e
       0.14502084 -0.26159254 -0.5179152 0.4502291
000340 33 3b b4 3d a7 fc 92 be 51 e5 fb be 73 ab 8b 3e
       0.08800354 -0.28708383 -0.49198392 0.27279243
000350 90 11 92 3f 83 9b 08 bf b4 55 18 be ea fd 87 bd
       1.141161 -0.5336229 -0.14876443 -0.06640227
000360 74 4d 41 3e 3a e2 88 3d 30 2e 8f be 09 37 02 bf
       0.18877202 0.06683774 -0.27964926 -0.50865227
000370 e6 d3 a0 be d1 3f bd be e1 b0 e1 3e 72 f7 4e be
       -0.31411666 -0.3696275 0.4408026 -0.2021158
000380 97 f6 00 3f b0 1e 75 be 73 a9 df 3e 5f 22 e1 3d
       0.50376266 -0.23937488 0.43683967 0.10992884
000390 30 dd c9 3e af 09 61 3e 2c 58 ae be 2e 18 92 3d
       0.39426565 0.2197635 -0.34051645 0.07133518
0003a0 32 54 11 3f 4a ef 7e bd dd 70 8f 3d 9f fe be be
       0.56769097 -0.062239923 0.07003949 -0.37303635
0003b0 33 25 1c 3e 40 f5 7f be 4b 32 c3 3e d8 43 74 bd
       0.15248565 -0.24995899 0.38124308 -0.059635013
0003c0 47 7a 65 3e 25 9c 82 bd 31 6a c6 3e 04 5e b4 bd
       0.22409926 -0.063774385 0.38752893 -0.088069946
0003d0 f4 a3 30 be ba 17 a0 3e 19 0c 92 be f6 47 1d bf
       -0.17250043 0.31268102 -0.28524855 -0.6143793
0003e0 45 97 1c 3e d6 ab b8 3f 0c 9b 38 3e d7 4a 8f 3f
       0.1529208 1.442744 0.18027896 1.1194714
0003f0 81 d6 81 3e 51 a1 53 be 0c 43 1c 3e e1 23 d1 be
       0.25358966 -0.20667006 0.15259951 -0.40847686

temporal.rnn.bias_ih_l0 f4 [128]
000000 1a e2 6c 3f b4 35 9f be 7b 6a dc bb 8f f3 1d 3e
       0.92532504 -0.3109566 -0.0067265606 0.15424941
000010 5c f7 df 3d 56 82 0f be fa 77 6c be 65 eb 8e be
       0.10935852 -0.14014563 -0.23092642 -0.27913967
000020 dd d3 fc bc fb 99 37 bd b4 ed e2 be 3a 65 c4 be
       -0.030862743 -0.04482458 -0.44321978 -0.3835848
000030 de bf 11 be 2d 05 0f bf 9a 06 d0 3d dd 3d c8 be
       -0.14233348 -0.5586727 0.10157509 -0.39109698
000040 73 89 a3 be 11 a4 60 be 6d 81 f9 be 48 41 00 bf
       -0.31940803 -0.21937586 -0.48731557 -0.5009961
000050 63 89 d1 be 29 a4 34 3e 95 7b b1 bd 02 dd cd be
       -0.4092513 0.17640747 -0.086661495 -0.40207678
000060 c7 67 14 bf f2 d5 66 be b7 a7 14 bf c9 9b a2 be
       -0.5797085 -0.22542551 -0.5806841 -0.3175948
000070 73 c8 90 be 13 92 9a be a0 78 94 be 18 8f db 3e
       -0.2827793 -0.3018957 -0.2899828 0.4288261
000080 ce 8e 10 bf 60 36 78 be b7 f8 d0 3d 5d a6 eb bd
       -0.564679 -0.24239492 0.102036886 -0.11506341
000090 cb 6b ab bd 24 71 81 bc 68 89 94 3c 13 3d a5 bd
       -0.08370169 -0.01580102 0.018131927 -0.080682896
0000a0 6b 28 24 bc 16 81 eb bd c2 1e 1a 3e 22 28 fb bd
       -0.010019402 -0.114992306 0.15050796 -0.12263514
0000b0 e9 9a 38 be 90 47 90 3e cc c9 c2 bd 26 1a 93 3e
       -0.18027844 0.28179598 -0.09511146 0.28730887
0000c0 e1 f4 ad 3d ba cd 3e be 88 14 be 3e 70 31 26 bf
       0.084939726 -0.18633166 0.3712504 -0.64919186
0000d0 9e 46 be 3d 54 20 b1 be 72 17 b4 3c 2d a5 90 be
       0.09290813 -0.34594977 0.021983836 -0.2825102
0000e0 db 90 4d 3e e3 dc 12 be 89 ba fe be 43 58 93 be
       0.20074789 -0.14342074 -0.4975169 -0.28778276
0000f0 27 61 6a bd aa d2 51 be fc e3 39 bc 71 62 2c bf
       -0.057221558 -0.20490518 -0.01134586 -0.6733771
000100 50 3a 8c 3d f2 9b e7 be 87 7a 15 3e a4 cb 4e bd
       0.0684706 -0.45236164 0.14597522 -0.050487176
000110 1e 8e bd bc 93 68 c3 3e cb f3 49 3e 9e a1 29 3e
       -0.023139056 0.3816572 0.19721906 0.16565558
000120 fd 03 39 3e 45 40 92 3d ff a9 a1 be ed dd 9e 3d
       0.18067928 0.07141165 -0.3157501 0.07757173
000130 5b 16 3f bd a5 98 eb bc 45 f2 4f 3e 17 a2 84 be
       -0.04665218 -0.02875931 0.20307262 -0.25904915
000140 0f 47 a9 ba 22 f8 16 be 61 b0 24 3e 92 f2 a1 be
       -0.0012914854 -0.14743093 0.16082908 -0.3163038
000150 c9 4d de bc bb 87 db b9 d3 80 ce be 7e a5 d5 bd
       -0.0271367 -0.00041872062 -0.4033266 -0.10431956
000160 8e 79 fc 3d 68 4b 70 3d 61 63 29 bd 44 4a 1f be
       0.12327872 0.058665663 -0.04135454 -0.15555674
000170 80 a1 c7 3e 89 c1 7f 3e 81 73 57 be 62 18 1f 3d
       0.38990402 0.24976172 -0.21040155 0.038841613
000180 4c ef 55 3f 5b 38 8c be 3d 1d 7a bd 70 5d cb bd
       0.83568263 -0.27386746 -0.06106304 -0.09929931
000190 97 4f 87 3e d5 a8 30 be d7 8f 92 3e 8a 28 00 be
       0.2642791 -0.17251904 0.28625366 -0.12515464
0001a0 0c f5 3c 3e 86 ef 0d bd 88 40 c7 be 05 b4 c5 be
       0.18452853 -0.034652255 -0.3891642 -0.38613907
0001b0 00 01 49 bc f3 ba ad 3e f1 4a 6c 3e 5f 43 07 3e
       -0.012268305 0.33931693 0.23075463 0.13209294
0001c0 91 e4 1b be 72 51 ae 3c af 4f db bd a3 ef 06 bf
       -0.1522391 0.02127907 -0.10708558 -0.52709407
0001d0 5a 21 3e be c8 ac ca 3e d6 80 c8 be ac 7e 9a be
       -0.1856741 0.39584947 -0.39160794 -0.30174768
0001e0 99 a9 05 be e6 e8 08 bf 88 c4 7f be aa 12 a5 be
       -0.13052978 -0.53480375 -0.24977314 -0.32240802
0001f0 bb 65 91 3d 5d 33 90 bd 6f 31 78 3e 6f 0d 70 3e
       0.07099482 -0.07041047 0.24237607 0.23442625

temporal.rnn.bias_hh_l0 f4 [128]
000000 45 8e 2d 3f 61 2b 41 be 97 d2 eb bd a8 4f 0c be
       0.6779521 -0.18864204 -0.11514776 -0.13702261
000010 dc 7c f8 3d 6d 4e 51 be 7c a3 cf be 8d 9e 20 be
       0.1213319 -0.20440073 -0.40554416 -0.15685482
000020 0e 10 77 3b 04 98 a7 be f3 cd 35 be e0 53 fa be
       0.0037698778 -0.32733166 -0.17754345 -0.48892117
000030 8f cd 70 be cd c5 e6 be d9 99 9f 3e 58 f4 19 bf
       -0.23515914 -0.45072785 0.31172064 -0.60138464
000040 08 01 fe bd 2a d9 bf be 00 b7 e8 be b3 55 f4 be
       -0.124025404 -0.3747037 -0.45452118 -0.47721633
000050 a1 8f 8b be 3f 13 a1 3c d3 65 11 be 4e c6 98 be
       -0.27258018 0.019662498 -0.14198999 -0.29838794
000060 39 9d 95 be a4 d6 de bd ed 08 03 bf dd 05 8d be
       -0.29221514 -0.10880783 -0.51185495 -0.27543536
000070 7e 89 48 be 14 f7 dc be 96 13 87 be 7d 07 30 3e
       -0.19583699 -0.43157256 -0.2638213 0.17190357
000080 dd aa de be d1 0f 6c be 9d a1 88 3e f7 7e 14 be
       -0.43489733 -0.23052908 0.266858 -0.14501558
000090 34 84 ac 3d 65 ee d7 bd 45 24 ed 3d d4 b0 37 3d
       0.08423653 -0.10543517 0.115791835 0.04484637
0000a0 aa 5a 9d 3b e1 08 90 be ba b1 60 3c 1b 44 83 bd
       0.0048020678 -0.28131774 0.013714248 -0.064094745
0000b0 0e 11 f0 bd a7 81 3e 3e 7e e9 b9 3d 7f 5a b9 3e
       -0.11722003 0.18604146 0.09077738 0.36201856
0000c0 09 b3 d9 3d ec af c8 3d 22 8d aa 3e ef f1 5a bf
       0.10629851 0.097991794 0.333108 -0.8552541
0000d0 2f 92 e7 bd cb 8b 61 be 62 32 2a bd 19 73 f6 bd
       -0.11307179 -0.22025983 -0.041551955 -0.12033672
0000e0 4a ce 7a 3e 2a 41 38 be 4a 8c aa be 6a ad 02 bf
       0.24492756 -0.17993608 -0.33310157 -0.5104586
0000f0 7c a1 56 be 9e 82 bc be e1 d6 2a be 51 d5 f1 be
       -0.20960039 -0.36818403 -0.16683532 -0.4723306
000100 e7 2b f6 bb 4f 53 8f be 65 79 71 3c 82 9f d6 3d
       -0.007512558 -0.27993247 0.014738415 0.104796425
000110 64 e1 bb 3b 1a fa 95 3e b5 71 e2 3d cf ab 84 3e
       0.0057336558 0.29292375 0.11056844 0.2591233
000120 82 e9 37 3e f3 f8 c1 bd 06 2a 1d bf 88 60 ab bc
       0.1796017 -0.094713114 -0.6139225 -0.020920053
000130 26 ae a6 3d f7 c7 b3 3c 1a e4 20 3e 70 a5 2c ba
       0.08138685 0.021945937 0.15712014 -0.00065859314
000140 ac 95 3e bd c6 27 07 3e e4 27 90 bc 81 a6 8c be
       -0.046529457 0.13198766 -0.017597146 -0.27470782
000150 7b ed 76 3d bc 94 f6 3d 05 85 b0 be 2b 7d 24 bd
       0.060285073 0.120400876 -0.34476486 -0.040158432
000160 18 ee 9c 3e 56 9b 85 bd c6 63 96 3d 84 91 03 3e
       0.306504 -0.065237686 0.07343249 0.12848479
000170 f3 3c b7 3e 0b a7 e0 3e 4c 64 b4 be b8 49 4e 3d
       0.35788688 0.43877444 -0.3523277 0.050363272
000180 8b 6b 1e 3f 1a f8 97 be 7d 5a ad 3d ab d1 a8 bd
       0.6188285 -0.29681474 0.08464525 -0.08243116
000190 25 e1 e8 3e 2e 3c ac be 4f 97 60 3c 91 ea bb bd
       0.45484272 -0.33639663 0.01370795 -0.09175599
0001a0 1a 7b 11 3e 63 4b f4 bc 7d c2 ac be 3a c5 72 be
       0.14207116 -0.029821103 -0.33742133 -0.23708048
0001b0 88 40 53 bc df ed 8e 3d 6f 37 31 3e 15 b6 6a 3e
       -0.012893803 0.06978964 0.17306302 0.22921021
0001c0 a5 87 b0 bd 70 7b df bd 29 5c ad be c6 32 a6 be
       -0.08619622 -0.10912216 -0.33859375 -0.32460612
0001d0 53 65 30 be cd a3 28 3e 1c 7f e6 be 2a 50 db be
       -0.17226152 0.16468735 -0.45018852 -0.42834598
0001e0 34 61 26 be e5 ef e0 be 30 6a ca be fe 10 9d be
       -0.16248018 -0.43933025 -0.3953414 -0.30677027
0001f0 80 4b 61 3e fc a8 26 be 15 71 a4 3e 76 a9 c9 3e
       0.22001457 -0.162754 0.32117525 0.393871

temporal.rnn.weight_ih_l1 f4 [128, 32]
000000 fd 71 d1 be e7 41 75 3f d2 df 3c be 05 1e e5 3e
       -0.4090728 0.95803684 -0.18444756 0.44749466
000010 fd cf 8b bf ff 87 63 be f7 03 52 be 04 3a b9 be
       -1.0922848 -0.22219847 -0.20509325 -0.36177075
000020 47 1a 40 bf 77 45 90 bf d8 b9 78 3f 8e 25 ad 3e
       -0.75040096 -1.1271199 0.97158575 0.33817714
000030 10 4b da 3e ba 2c 99 3e 49 61 1d bf 73 19 63 3c
       0.42635393 0.29916936 -0.6147657 0.013861048
000040 a3 90 c3 be 38 4e 01 3f c6 17 4d 3d 7e ca e3 3e
       -0.38196287 0.5050998 0.0500715 0.44490427
000050 d1 09 16 bd 9a f2 17 bf 81 50 b3 3e f8 ef 5e 3f
       -0.036630455 -0.59354556 0.35022357 0.87084913
000060 87 f3 23 be 41 ca db 3d 09 2c 25 3e de 2a 05 bf
       -0.16010867 0.10731936 0.1613008 -0.52018535
000070 9b ce c8 3d e1 cf b8 3c c2 14 e9 3e 6d 4e f7 3e
       0.09805032 0.022560062 0.4552365 0.48302022
000080 f3 e7 c4 be b8 8c 19 3f 0f 52 8a be c6 80 05 3f
       -0.38458213 0.59980345 -0.2701573 0.5214962
000090 2b 46 d2 bf ea 9c f4 be bb 00 77 3e 80 91 b8 be
       -1.6427664 -0.47775966 0.24121372 -0.36048508
0000a0 45 a4 7f be 9b 48 70 bf 33 a9 bc bd 12 15 72 3e
       -0.24965008 -0.9386079 -0.0921196 0.2364085
0000b0 59 9c 9b 3f 36 bf 0c 3f 9e 0c d2 be 64 07 b5 3d
       1.2157089 0.54979265 -0.4102525 0.088393
0000c0 ed b8 b2 bf e5 1b 1c 3f 24 e1 42 3f 2d 52 bf bd
       -1.3962685 0.60980064 0.7612479 -0.09341846
0000d0 92 53 35 3f 17 bd 4b 3d ba 1f 08 3f ae 94 58 be
       0.70830643 0.049740877 0.5317341 -0.21150467
0000e0 80 f8 df 3e 08 63 58 3f a1 be 5b 3e fc 07 08 be
       0.43744278 0.8452611 0.21459438 -0.13284296
0000f0 bd 42 1d 3f 26 a1 a6 3d 63 ce 49 bd d9 5a 4d be
       0.6142996 0.081362054 -0.04926909 -0.20054187
000100 26 21 ca 3e 9e 0b 8e be 3a 24 89 3e 80 5a a6 be
       0.39478415 -0.27743238 0.2678545 -0.3249092
000110 97 fb 82 3e 22 5f 1b 3c 50 a0 0c 3e fc 42 9c 3e
       0.25582573 0.009483131 0.1373303 0.30519855
000120 d6 13 6f be c8 e8 84 bc a2 18 f8 be b9 c6 7c 3f
       -0.2334741 -0.01622428 -0.48456293 0.98740727
000130 31 a1 fe 3d c5 6d a4 bd 33 f5 7c 3e c1 aa 28 be
       0.124330886 -0.080287494 0.24702911 -0.16471387
000140 9c c3 51 3e e7 70 52 bf 01 a1 f7 be 1e 21 f2 be
       0.20484775 -0.82203525 -0.48365024 -0.4729089
000150 39 01 49 be 7c 6f 3e 3e 1f c6 91 be 44 11 83 3e
       -0.19629373 0.18597215 -0.28471467 0.2559911
000160 94 78 89 3e dd 6e 8b be ca 48 2d bf 80 b8 dd be
       0.26849806 -0.2723302 -0.6768919 -0.43304825
000170 5e f0 a1 3e 07 9a 16 3f 34 c6 16 3f c9 99 f1 be
       0.31628698 0.5882878 0.58896184 -0.4718764
000180 84 9f 31 bd 78 9d 24 be d1 e0 fc 3e 7d ef 92 3f
       -0.043365017 -0.16075695 0.4939027 1.1479336
000190 c5 63 55 bf c1 b0 de bd 8d 93 15 bf dd 62 3a 3e
       -0.8335536 -0.10873557 -0.5842827 0.18201776
0001a0 42 20 4b bc 9b ca f1 be bc f1 02 be 18 07 fb 3e
       -0.012397828 -0.47224888 -0.12787527 0.4902885
0001b0 b0 c7 85 be 46 e9 2e 3f 2a 0d c9 be cc f6 aa 3e
       -0.26128912 0.68324697 -0.39267856 0.33391416
0001c0 45 e2 83 bf 2e 52 0a 3f 3d 6e 50 3f 3c dc a1 3e
       -1.0303427 0.54031646 0.8141821 0.31613338
0001d0 c9 a5 77 3e 34 75 1f bf 8d 92 46 be c5 36 d3 3a
       0.24184336 -0.6228821 -0.19391842 0.0016114345
0001e0 ae 38 53 3f b5 69 8d 3e 61 6a e6 3e 98 0b 33 bd
       0.8250836 0.2761971 0.45003036 -0.04371223
0001f0 5b 7f 67 be 88 0c b6 3e 39 12 55 3e e8 24 ca 3e
       -0.22607176 0.35556436 0.20807733 0.39481282
000200 91 85 a8 bd 17 88 0d bf 19 83 53 bf 29 81 ba be
       -0.08228601 -0.5528578 -0.82621914 -0.36426666
000210 66 bb 55 3f 3f 03 4d 3e 49 0f 05 3f 25 59 29 3f
       0.8348907 0.2002077 0.5197645 0.6615165
000220 ba 74 d1 bd e7 44 2f bf 33 15 12 3e ad 40 10 3f
       -0.10227342 -0.6846451 0.142659 0.5634869
000230 f6 0d 92 bf bb ca 4b be 35 3b 4d bf ee 1b 4e bf
       -1.141051 -0.19901554 -0.8016847 -0.8051137
000240 21 ae 38 be 70 70 0b 3f 88 11 e1 3e b1 f0 f8 be
       -0.18035175 0.5446844 0.43958688 -0.48621133
000250 e7 7d c1 be bc 42 8c be fb c9 21 3f a1 3b 85 3f
       -0.37791368 -0.27394664 0.6319882 1.0408822
000260 59 a3 5b 3e 7a 5d 0c bf fd bd 9f 3e 0e 64 b1 3e
       0.21449031 -0.54830134 0.31199637 0.34646648
000270 53 f3 6a 3e 2f c0 38 3e 81 80 68 be b9 e0 34 3f
       0.22944383 0.18042062 -0.2270527 0.706554
000280 f9 e9 12 bf df 86 b9 be 97 52 6e be 5b 10 98 be
       -0.57388264 -0.3623571 -0.23273693 -0.29699978
000290 b7 59 38 3e ba 38 87 3e 16 6e 15 39 c8 b9 e7 bd
       0.18002973 0.26410466 0.00014250758 -0.11314732
0002a0 be 94 6a 3e bf d2 db be de 1f 55 be ba b2 90 be
       0.22908303 -0.42934224 -0.20812938 -0.28261358
0002b0 bb 77 34 bd 40 f8 ad be ac 1c 84 3e eb 27 fd be
       -0.044059496 -0.33978462 0.25803125 -0.49444517
0002c0 59 06 9f 3e 64 33 9e be 12 b1 f1 be fd 11 59 bf
       0.3105953 -0.30898583 -0.47205406 -0.8479307
0002d0 3a db 31 3e 16 03 2b 3e bd 25 af be 2f 63 ff be
       0.17368785 0.16700396 -0.3420848 -0.4988036
0002e0 25 41 cd 3d b9 4e 96 bf 08 2f 4d be 3a 94 15 bf
       0.10022191 -1.1742774 -0.20037472 -0.584293
0002f0 71 88 50 bd 6d f0 35 be b8 38 7d be 00 d8 01 bd
       -0.05091137 -0.17767496 -0.24728668 -0.031700134
000300 22 04 25 bd 07 42 2b 3f 62 af 16 be bd cb a7 be
       -0.040287144 0.66897625 -0.1471534 -0.32772627
000310 9c 57 e1 3d e1 de 0c bc 1b 25 35 3f 66 38 17 3e
       0.11003038 -0.00859806 0.70759743 0.14767608
000320 66 ba 32 bd 2f 10 89 3e 92 e4 fd bd 3e e1 b8 3e
       -0.043634795 0.2677016 -0.12397112 0.36109346
000330 3c dc e4 3d 86 a0 12 bd 3b 4d 57 3d c4 10 e0 3e
       0.11174819 -0.03579762 0.052563887 0.4376279
000340 6c e4 41 bd 6f 35 de be 94 69 9f be 77 80 79 bd
       -0.04733698 -0.43400142 -0.31135237 -0.06091353
000350 0c 77 e5 bd 62 23 00 3e bf c0 2e be 01 9c 1e 3f
       -0.11204347 0.12513497 -0.17065714 0.61956793
000360 7b 48 1d bf c9 ec 9e bc d4 ee c0 bd 6e af b8 bd
       -0.6143872 -0.019400017 -0.09420553 -0.090178356
000370 96 20 00 3f 14 78 ee bd 8f 11 b3 be 8c 3b 82 bd
       0.5004972 -0.11643997 -0.34974334 -0.06359014
000380 50 02 f1 3f dc d1 c0 be be ff 1a 3f 5d 83 bf 3e
       1.8828831 -0.3766011 0.6054648 0.3740491
000390 b7 75 c9 3f 87 5f ee 3d d7 ce 4c 3f 46 17 64 3f
       1.5739049 0.11639314 0.8000311 0.8909801
0003a0 c4 ab a4 3f 1c be ec be 76 c9 88 bf 0f 20 55 3f
       1.2864919 -0.46238792 -1.0686481 0.8325204
0003b0 0b 49 50 be e7 c5 8c bc a1 1f d4 3e 11 8d 0e 3d
       -0.20340364 -0.017184211 0.4143038 0.0348025
0003c0 d0 3f e9 3d 5f 55 0f be c1 f6 b9 be 5d dc 4f bf
       0.113891244 -0.1399741 -0.3632107 -0.8119562
0003d0 76 1a 90 be 7e 22 d3 3e 37 1b 61 bf c7 d5 5b bf
       -0.28145188 0.41237253 -0.8793215 -0.85873073
0003e0 55 42 e5 3d a2 a6 5b bf 5f 3e 8c be b2 f5 00 bf
       0.111942925 -0.85801136 -0.27391335 -0.503749
0003f0 19 49 0a 3f c0 52 5f bd ca c9 1d bf f5 33 3d bf
       0.5401779 -0.054522276 -0.6163603 -0.73907405

temporal.rnn.weight_hh_l1 f4 [128, 32]
000000 d7 34 91 3e ad 8d 7e 3f 90 bb aa 3f 8f 1a bb 3d
       0.28360626 0.9943493 1.333849 0.09135925
000010 88 c0 4a 3f 4d d1 0f be 81 90 57 3e f9 2e e4 be
       0.7920003 -0.14044686 0.21051218 -0.44567087
000020 7a 03 d6 3e c4 4c 54 be b7 ea 95 3f 5f 49 1b be
       0.41799527 -0.20732409 1.1712254 -0.15164708
000030 92 01 a1 3d b3 8d 98 3e 2a d7 14 3f 17 f6 0f 3e
       0.07861628 0.29795608 0.58140814 0.1405872
000040 6c 2f f6 3e df c6 93 be 95 80 0e bf 70 66 38 be
       0.48083055 -0.28862664 -0.5566495 -0.18007827
000050 1e 28 59 3e 66 5c a4 be a9 a8 ad be 58 98 d1 bf
       0.2120671 -0.32101744 -0.3391774 -1.6374617
000060 8e b1 6a 3f bd 42 93 3f cb 44 8c bf 36 92 95 3e
       0.91677177 1.1504742 -1.0958494 0.29213113
000070 dc 47 ff bd e9 a9 db 3e e5 fb 34 3e 8e 20 95 be
       -0.12464878 0.4290307 0.17674215 -0.291264
000080 cd ac a6 bc 7c 0b 80 3d b8 dc b6 3e fb c4 1e 3f
       -0.02034607 0.062521905 0.3571527 0.6201932
000090 f5 6a 4c 3e 43 0c db bd ba 37 86 3f 51 aa 59 bf
       0.19962676 -0.10695698 1.0485756 -0.8502551
0000a0 25 34 8e 3e 47 60 b1 be 92 17 83 3f b1 7a 05 bf
       0.27774158 -0.34643766 1.0241568 -0.5214034
0000b0 92 a8 e4 3d fc 3d 40 3f 0d 2d 65 3d 9f a7 0f 3d
       0.11164965 0.7509458 0.055951167 0.035071965
0000c0 e1 0c ec 3e 8f f9 2b 3d d4 ad 45 3e 40 59 03 bf
       0.46103576 0.041986044 0.19304591 -0.5130806
0000d0 4e 59 09 3e fc d3 f1 3e dc d2 ac be da e4 20 bf
       0.13412973 0.47232044 -0.33754623 -0.628492
0000e0 0a ee 83 3f c3 45 8d 3f 82 a0 3b bf aa 68 0b 3e
       1.0307019 1.1036915 -0.7329179 0.13614145
0000f0 74 05 fd be 9e 94 a6 3d 25 9f 88 3f 38 83 4e be
       -0.49418223 0.08133815 1.0673567 -0.20167243
000100 e2 da c1 be 16 1f f4 3e 37 c5 cb bd 11 fe 69 bf
       -0.37862307 0.47679967 -0.09949725 -0.914033
000110 45 79 b9 3e 18 59 5a be 89 39 6c 3e ce 86 dc 3d
       0.36225334 -0.21323049 0.23068823 0.107678995
000120 87 94 aa be 39 c1 19 3d 18 d3 45 3f 46 e3 ab be
       -0.33316442 0.037537787 0.7727523 -0.33571833
000130 8e f6 fd 3c 46 c1 15 3e 6f ec cd bd 1e 59 89 be
       0.031001355 0.14624509 -0.10054862 -0.26825804
000140 d7 c9 1b 3f 9d 84 c5 be 8e ce fd 3d c0 d7 f5 3d
       0.6085486 -0.38577738 0.12392913 0.12004042
000150 f1 88 f8 be 06 5d 25 be a7 bf 6b 3f 4e 31 90 be
       -0.48541978 -0.16148767 0.92089313 -0.28162616
000160 d3 df 66 bd da 37 46 3e 9b 3f 87 be 92 2a 5d be
       -0.0563658 0.19357243 -0.26415715 -0.2159827
000170 d6 68 32 3f d3 28 a7 bd 3d a9 d4 3d 1e 40 12 3f
       0.69691217 -0.081620835 0.10383842 0.57129085
000180 b7 58 2d bf 55 69 bf be f4 66 94 3e 7d b5 75 3f
       -0.67713493 -0.3738505 0.28984797 0.95980054
000190 85 72 f9 3e f0 54 3e bf 24 4e fa 3d 0e ff 91 3e
       0.48720184 -0.74348354 0.122219354 0.28514904
0001a0 cc 49 fa be da 94 a3 3e a0 f8 8c bd 02 d9 c0 3d
       -0.48884428 0.31949502 -0.06883359 0.09416391
0001b0 ba 0a 81 bf 93 18 e3 be 25 c2 3b bf be 5c 62 bf
       -1.0081398 -0.44354686 -0.73343116 -0.88422763
0001c0 da d0 d3 be 23 68 2e 3f 2a bf 7f 3e 58 b5 6c be
       -0.4137028 0.6812765 0.24975267 -0.23116052
0001d0 ea be d6 3e fe fa 41 be 0e 3e 44 3f e9 a2 14 bd
       0.4194253 -0.18943402 0.7665719 -0.036288176
0001e0 97 f9 cd be f7 ff 27 3d e2 c4 fc 3e 7e 90 b2 be
       -0.40229484 0.04101559 0.4936896 -0.34875864
0001f0 5f 52 ac bd 51 69 4d bf 74 0e 8c be 36 ea 89 39
       -0.084141485 -0.80238825 -0.27354777 0.00026305177
000200 71 b5 74 be 92 16 b9 be d8 4d b0 bf 9b cb fb 3e
       -0.2389734 -0.36150032 -1.3773756 0.49178776
000210 d0 9b 1e be 10 0e 3d bf a6 5e 3a 3e 80 e1 0a 3f
       -0.15489125 -0.7384958 0.18200168 0.54250336
000220 b7 aa df bd a9 8b 4f 3e b4 f0 8c be ab 88 a6 be
       -0.10921233 0.2026812 -0.27527392 -0.32526144
000230 38 d3 11 bd 1e 2c c0 bd b4 9d af 3e b4 e2 0f be
       -0.035601825 -0.09383415 0.34300005 -0.14051324
000240 07 f0 05 3e 2c 48 0d 3f f5 2a 08 bf 43 85 c9 be
       0.13079844 0.5518825 -0.5319055 -0.39359483
000250 4c f0 5d 3e c4 dc 15 bf 66 c2 90 3d 27 d7 90 3f
       0.21673697 -0.58539987 0.070683286 1.1315659
000260 dc 59 65 3e 46 f0 53 bd 46 4b 00 3f de 8f 40 be
       0.2239756 -0.051742814 0.5011486 -0.18804881
000270 83 1a 5c 3e b6 55 03 bf 36 3a 81 3e cc 87 e3 3d
       0.21494488 -0.5130266 0.25239724 0.111098856
000280 07 51 4a be 4f 7f 1b 3e 17 4a 09 bf 25 c3 b9 3e
       -0.19757472 0.15185283 -0.5362868 0.36281696
000290 57 d5 42 be d9 45 c5 3e 8a 7c 21 bf db 09 50 3f
       -0.19026695 0.38529852 -0.63080657 0.8126504
0002a0 b5 2d 6a bf 9c 3c 82 3f 81 05 c9 3b 01 4d 5e be
       -0.91475993 1.0174747 0.0061346893 -0.21709062
0002b0 24 18 ba bb 4b 23 b1 3e c7 05 fc 3d 6c 0f b8 be
       -0.0056791473 0.3459724 0.123057894 -0.35949266
0002c0 78 40 99 3f 7b 2f 8b be 86 10 e8 bd 10 e7 38 bf
       1.1972799 -0.27184662 -0.113312766 -0.72227573
0002d0 c7 8f 09 bd 11 19 67 3e 11 b2 26 be 55 ea e8 be
       -0.033584382 0.22568156 -0.16278864 -0.4549128
0002e0 dd e0 f8 3e a6 ac ba 3d 9b 3e 78 be 8b ab 91 bf
       0.48609057 0.09114961 -0.24242632 -1.1380476
0002f0 4c 24 b9 3e 41 7e 22 3f af 87 59 3f 0b 91 30 3f
       0.36160505 0.634739 0.8497266 0.6897132
000300 d8 3c e6 be ed 8d 62 3e a7 cb e0 3e e2 ca 07 3f
       -0.44968295 0.22124453 0.43905374 0.5304395
000310 22 ae 3c 3f b6 c8 5c be 8c d2 a7 3d 36 b2 ee 3e
       0.73703206 -0.2156094 0.081944555 0.4662034
000320 77 28 55 bf 8f 10 73 3f 9c f6 e4 be d9 c9 3b 3e
       -0.8326487 0.9494714 -0.44719398 0.18338718
000330 d0 7f eb be 3a 3b c5 bd 47 db a5 be 7e e7 ae be
       -0.4599595 -0.09630437 -0.32393858 -0.3416099
000340 6c 2c f5 3c d7 f4 c8 3e ae 29 4b 3e 63 78 db be
       0.029928409 0.39249298 0.19840118 -0.42865285
000350 a7 1a 6c 3d 53 3d 41 be e0 3c d4 be 56 f8 a5 bd
       0.057642605 -0.1887105 -0.41452694 -0.08104007
000360 66 aa fc 3d ca 0f 10 bf e1 ed 5f 3e b6 57 46 bf
       0.123371884 -0.5627409 0.21868087 -0.77477586
000370 ed 31 b1 3d 83 8e c2 3e 07 0b e1 3e 69 1d c2 3e
       0.08652101 0.37999353 0.43953726 0.37913063
000380 ba 8c eb 3d 56 62 0e 3f 70 9d 9e 3e 9c 72 55 be
       0.11501451 0.556188 0.3097949 -0.20844501
000390 20 fe 45 3f 21 25 ac be d6 96 a6 bf 70 29 15 3e
       0.7734089 -0.33622077 -1.3014781 0.14566588
0003a0 b7 cd 46 bd 4b ea d0 3e da b9 72 3f 88 e0 25 be
       -0.04853603 0.4080375 0.94814837 -0.16198933
0003b0 29 90 ff be 62 1b e9 3d cf f2 19 3f 82 d1 01 3e
       -0.49914673 0.11382176 0.6013612 0.12677577
0003c0 f3 7d da 3e eb 4d 59 3f 12 a9 29 3e 6e 57 4c 3c
       0.42674217 0.8488452 0.16568401 0.012472017
0003d0 f1 05 db 3c 3d 93 35 bd 03 81 f3 3e c8 cf 68 bf
       0.026736232 -0.04432987 0.47559366 -0.9094205
0003e0 77 5e f9 3e ed d1 0d 3f 4c 7b cd be 56 57 0a bf
       0.48704883 0.55398446 -0.4013313 -0.54039514
0003f0 4d 13 89 3e 96 9d 6f be 94 78 28 3f ed b8 9f 3e
       0.26772538 -0.23399958 0.6580899 0.31195775

temporal.rnn.bias_ih_l1 f4 [128]
000000 37 bd 80 be 10 81 a0 bd 6c 6d 23 3d 91 a8 b6 3e
       -0.2514436 -0.07837117 0.039899275 0.3567548
000010 c0 5e 0c be f8 d1 12 bf 40 01 d6 be 50 69 0b 3e
       -0.1370802 -0.57351637 -0.4179783 0.13614392
000020 d2 29 98 be fb 97 bc be 45 a8 8d be 0a 63 69 bd
       -0.29719406 -0.36834702 -0.27667442 -0.056979217
000030 07 5b 45 be ec 34 a8 be cb b7 3a be 64 b1 ed bd
       -0.19273005 -0.32852876 -0.18234174 -0.116061
000040 8f 45 1d 3f 03 1a 0d bd 4c 0c 7f be d6 59 1f 3f
       0.61434263 -0.034448635 -0.24907035 0.62246454
000050 5c 98 a8 be 66 56 74 3e e7 66 ac be bd f3 11 bf
       -0.3292874 0.23861083 -0.33672258 -0.5701254
000060 67 db 3e 3e 8b 8b 07 be a3 91 d1 be b1 d7 cc 3d
       0.18638383 -0.13236825 -0.40931424 0.10002077
000070 c4 71 c1 be 24 36 67 be 13 a2 2d 3d b6 36 36 bf
       -0.3778211 -0.22579247 0.042390894 -0.7117723
000080 06 c6 7d be 24 97 3b be 8a de e6 3d b0 a7 89 3d
       -0.24782571 -0.18319374 0.11272915 0.06721437
000090 b1 1a 2f 3e 60 45 3f 3f 9e 7d 30 3f a0 63 94 3e
       0.17100026 0.7471523 0.68941677 0.28982258
0000a0 75 03 ba 3e ce 02 31 3f 30 4b 06 bd 07 a9 13 bf
       0.36330763 0.69144905 -0.03278655 -0.5767979
0000b0 f8 fb 66 3e 00 41 4f be 11 4e 3b 3f 1f cf d2 3e
       0.22557056 -0.2023964 0.73165995 0.41173646
0000c0 64 be b0 3d 98 6d 12 3f 0c 6c 01 bf 92 10 bb 3f
       0.08630064 0.57198477 -0.5055549 1.4614432
0000d0 11 6f 89 3e ed f1 0f be 66 3c 95 3e 2e 30 17 3f
       0.2684255 -0.14057131 0.29147643 0.5905789
0000e0 3e 36 fd 3d bd 5c 01 bf a8 b0 8b be 8d ec b3 3e
       0.123638615 -0.5053213 -0.27283216 0.3514141
0000f0 6a 02 c6 be f9 e0 7a 3e b4 c0 8e be 82 1c a5 3e
       -0.38673717 0.24499883 -0.27881396 0.32248312
000100 ca 8a 97 3e 01 4a f5 3e f3 98 9e 3e af f7 19 3f
       0.29598075 0.47908023 0.30976066 0.6014356
000110 3b b7 49 3c a6 d3 6d 3e 45 9b 3e bf 77 ff 83 be
       0.012311752 0.23225269 -0.7445567 -0.25780842
000120 c9 0e b7 3e ba 61 27 be 95 f9 5d 3d 35 0b a5 3e
       0.35753468 -0.16345873 0.054193098 0.32235113
000130 36 24 c1 bd f6 c2 8d 3d bb 88 05 3e fe 92 4a be
       -0.09430735 0.069219515 0.1304044 -0.19782636
000140 cc 33 87 be 26 51 b9 3e a7 9a 33 bd 06 b8 19 3f
       -0.26406705 0.36194724 -0.04384866 0.6004642
000150 79 60 01 3c f8 5d 10 3f bf d8 91 3e 16 7b ca 3d
       0.007896536 0.56393385 0.28485677 0.09886758
000160 aa 92 c4 bd 3a 75 ff be 0f bb 33 be 80 c1 99 bd
       -0.095982864 -0.49894124 -0.17551826 -0.0750761
000170 c4 5c 16 3f 0c 11 60 bd 07 27 99 bc 95 05 24 bc
       0.587353 -0.054703757 -0.018695368 -0.0100110965
000180 b0 6a 94 be 3a 1b c5 be 3f 46 84 3e 22 1a a0 3e
       -0.28987646 -0.38497335 0.25834844 0.31269938
000190 d7 92 aa 3e a4 2d 0b 3e db 57 4a 3f e4 36 f6 3e
       0.33315155 0.1359163 0.79040307 0.48088753
0001a0 c5 10 03 3f 0e 27 94 3e 06 d8 a2 bd 48 c2 03 3c
       0.51197463 0.28936046 -0.079513595 0.008041926
0001b0 29 8b ea 3c 1b 57 a0 bd 41 bb 91 3d f5 d9 a2 bd
       0.02863081 -0.07829114 0.07115794 -0.07951728
0001c0 00 6a 04 3e 8d a5 6d 3e 61 8f 0b be 5a 0a 1e 3e
       0.12931061 0.23207684 -0.13628913 0.15433636
0001d0 64 e5 85 bd 1e 10 18 3e 2c d6 19 be 62 ce 98 3e
       -0.065378934 0.14849898 -0.15023106 0.29844958
0001e0 f1 f1 7b 3d 6e ce a3 be d6 66 08 bf f5 e1 6f 3e
       0.06151003 -0.3199343 -0.53281915 0.2342604
0001f0 4a 2c ee be 98 59 bf 3e fe d8 5c 3d a0 05 48 3e
       -0.46518165 0.37373042 0.053917877 0.19533396

temporal.rnn.bias_hh_l1 f4 [128]
000000 7c 85 dc be 0c fa e5 3d e7 b7 c5 3d 28 9c 1f 3f
       -0.4307059 0.11229333 0.09654217 0.6234765
000010 26 5d b3 bd c3 08 0c bf 26 00 d9 be 17 db c5 bd
       -0.08758001 -0.5470087 -0.42382926 -0.09660929
000020 82 6b 4c be 1b 0c ad be b8 32 b3 be ee aa 46 3d
       -0.19962886 -0.33798298 -0.34999633 0.048502855
000030 4d a7 1a be 5c 5c 0f bf 1a 72 2b be 26 72 16 be
       -0.15102883 -0.56000304 -0.16742745 -0.14691982
000040 1d 89 0c 3f 5d bb c7 bd c3 ad 5e be 1b 9e 13 3f
       0.5489672 -0.097525336 -0.21745972 0.57663125
000050 7a c5 00 bf 67 2b 95 3d 33 b2 db be f3 3b 28 bf
       -0.50301325 0.07283669 -0.42909393 -0.65716475
000060 a3 4d 30 3e 09 7c 29 be 6e b8 38 bf a6 d7 c8 3d
       0.17217116 -0.16551222 -0.7215642 0.09806757
000070 24 ac bc be ce d5 f2 bd 0b b3 0c 3d d4 25 36 bf
       -0.36850083 -0.11857186 0.034350436 -0.7115147
000080 91 8c 1a be a3 5c 0c be 9a ce 1f 3e db 54 84 3e
       -0.15092684 -0.13707213 0.15606156 0.2584599
000090 f6 8d 2b 3e f7 dc f6 3e 0a 18 ea 3e fe fc b9 3d
       0.16753373 0.48215458 0.45721465 0.090814576
0000a0 db d7 d5 3e 5f 6a 39 3f c6 23 fc ba 7d 18 c8 be
       0.41766247 0.72427934 -0.0019236736 -0.39081183
0000b0 7c e6 e3 bc 73 98 43 be 54 1c 38 3f 90 2b 0b 3f
       -0.027819864 -0.19101124 0.71918225 0.54363346
0000c0 20 d7 dd bd f9 f9 b2 3e f7 0a 7e be 7a 54 af 3f
       -0.108320475 0.3495634 -0.2480887 1.3697655
0000d0 58 e1 69 3e 3c 14 c5 be e4 b9 9d 3d b8 83 dc 3e
       0.22839868 -0.38492 0.077014714 0.43069243
0000e0 a9 7e 92 3e ec 6b c4 be be fc ee be 7a 83 1a 3f
       0.2861226 -0.38363588 -0.46677202 0.6035687
0000f0 0f df be be 97 98 91 3e e6 4b e8 be b8 d5 b5 3d
       -0.37279555 0.2843673 -0.45370406 0.08878654
000100 00 b3 e4 3d 43 f2 a4 3e 6c ed 91 3c 2c f6 53 3f
       0.11166954 0.3221608 0.017813407 0.82797503
000110 3e 07 18 be 18 c1 51 3d 4e 82 02 bf 81 c1 8d be
       -0.14846513 0.05120954 -0.5098008 -0.27686694
000120 ba 2f 8e 3e 5d 8a b9 be 83 84 0d 3e 3f ed 2d 3d
       0.27770787 -0.36238375 0.1382008 0.042462584
000130 ff cc a5 3c f8 c7 41 be c2 ef d9 bd 7e aa 16 bd
       0.020239351 -0.18923938 -0.10641433 -0.036783688
000140 5b 34 a0 be 4a 25 07 3e 8d d5 dd bd 54 a8 29 3f
       -0.31289944 0.13197818 -0.10831747 0.66272473
000150 b5 bf 3a bd bc 74 f0 3e d2 7b 41 bd 31 1f 69 3e
       -0.045592982 0.4696406 -0.047237225 0.22765805
000160 af 1e 08 3d c1 eb bb be df e1 00 be 66 c0 16 be
       0.033232387 -0.36703303 -0.12586163 -0.14721832
000170 a1 86 0f 3f 06 ad df bd a9 39 4c be 5f b4 bc 3b
       0.560648 -0.109216735 -0.1994387 0.0057588066
000180 26 82 9c be 28 56 a8 be 79 57 a1 3e 5b d8 8e 3e
       -0.30568045 -0.32878232 0.3151205 0.2789944
000190 07 95 1e 3e ab b4 b7 3e ab 35 3b 3f a9 57 ef 3e
       0.15486537 0.35880026 0.73128766 0.46746567
0001a0 44 d6 03 3f f4 6d b5 3e e7 ee 52 be 5c a2 4d 3d
       0.5149882 0.3543545 -0.20598947 0.050203666
0001b0 de 27 27 be bb f3 b6 bd db 38 a0 bc 5b 80 13 3e
       -0.16323802 -0.08933207 -0.01955836 0.14404432
0001c0 0b 03 18 3e bc df 97 3d 78 79 83 bc bb 57 98 3e
       0.14844911 0.07415721 -0.016049132 0.29754433
0001d0 96 1b b5 3d f5 b9 d2 bd 8a b7 64 be e6 23 ba 3d
       0.08843152 -0.10289375 -0.2233564 0.09088878
0001e0 7c 3c 4a 3d 33 fd 11 bf d9 c1 d1 be b1 a6 f5 3e
       0.04937409 -0.57026976 -0.40968207 0.47978738
0001f0 d0 19 9c be a5 43 6d 3d 21 d6 e1 3d a1 f8 e4 3e
       -0.30488443 0.05792584 0.1102717 0.4472094
