notebook/output/rolling_models_dynamic/window_1.pth (torch, 479669 bytes, 99 tensors)

temporal.input_proj.weight f4 [32, 7]
000000 73 ee 51 3d 39 60 ad 3d d6 26 1b 3f 35 4c 83 be
       0.051252794 0.08465619 0.60606134 -0.2564408
000010 8c bf 8d be e0 21 b5 be bf de 02 be 6b da 39 be
       -0.276852 -0.35377407 -0.12780283 -0.18149726
000020 8a e0 a2 3e d3 ae d1 3e b2 3c 8e be b5 3c eb be
       0.31811935 0.40953693 -0.27780682 -0.45944753
000030 e4 0b 96 bd c9 10 96 be 65 41 be 3b 2f 21 38 be
       -0.07326487 -0.2930968 0.0058061355 -0.17981409
000040 9f 6c 9d be b7 44 1f be 3b 97 39 3e 5a 03 81 be
       -0.30746934 -0.15553556 0.18124096 -0.2519787
000050 3a 45 c2 3e 8d 4f 26 3e 4a a4 76 3e 0e 83 db 3e
       0.3794344 0.16241284 0.24086109 0.42873424
000060 03 69 ae be 86 9e b0 be d8 31 f7 bd a4 86 0f 3c
       -0.34064493 -0.34495944 -0.12070054 0.008760128
000070 2a 5f 8f be 26 ef f9 3d 65 73 0c 3e d0 26 50 3e
       -0.28002292 0.12203817 0.13715895 0.20327306
000080 1c 46 a8 be 81 48 57 be fa 57 e9 be 0f 0d 6d be
       -0.3286599 -0.21023752 -0.45574933 -0.23149513
000090 6f 50 39 be d9 6b 0e 3f 87 fb bc 3e 75 f1 bc be
       -0.18097089 0.5563331 0.3691065 -0.36902967
0000a0 b4 83 4a bd fa 5b a9 be 86 16 dd 3d f7 6d 32 be
       -0.04944201 -0.33077985 0.10795312 -0.17424761
0000b0 c5 3c 3b 3e 1a 8a 5c 3e 79 ee ac bd 9c e9 40 3d
       0.182849 0.21537057 -0.084439225 0.047097787
0000c0 b8 53 f8 bd dc 71 47 bb 18 38 5a 3e 3a b6 0a 3f
       -0.12125343 -0.0030432856 0.2131046 0.54184306
0000d0 2e 08 83 bd c1 7c ea 3d fb 71 69 bd d6 12 87 be
       -0.063980445 0.11449576 -0.056993466 -0.26381558
0000e0 d7 17 5c be 3e 04 ac be 84 e5 27 be d7 19 2c be
       -0.21493469 -0.33596987 -0.16396147 -0.16806732
0000f0 26 69 8e 3e 48 e1 2b be d7 25 eb bd 83 4d 6d be
       0.27814597 -0.16785157 -0.11481827 -0.231741
000100 c5 05 54 3e 9c 8d b2 bc 7d d0 bb be 1e ea 8f 3e
       0.20705326 -0.02179604 -0.366825 0.28108305
000110 4f 6d 3b be 24 5f 50 3e 34 65 07 3f 57 6f 83 3e
       -0.18303417 0.20348793 0.528888 0.25670883
000120 24 a8 99 3e cc 16 6d 3e 7d 43 40 be 7d 75 f8 bd
       0.30011094 0.23153228 -0.18775745 -0.12131784
000130 63 bc 00 be cc 0f 51 3e 51 50 c5 be 32 49 02 3e
       -0.12571864 0.20416182 -0.3853784 0.12723234
000140 1f 33 80 be 40 f9 b3 3e 89 a2 cd 3e 83 06 d3 bd
       -0.25039002 0.351511 0.40163067 -0.103039764
000150 ed a3 00 3e c9 55 d1 be ab 38 de be a6 8e fd bd
       0.12562533 -0.4088576 -0.4340261 -0.12380724
000160 3b 64 0a 3e 56 4a 9f 3e b3 7b 50 3e e1 fe e8 be
       0.13514797 0.311114 0.20359688 -0.45506957
000170 26 66 16 3d 89 df f3 be ed 8b 87 bd 31 75 81 be
       0.03671851 -0.4763148 -0.066184856 -0.25284722
000180 3e 6f e0 3e 92 12 80 be b3 2a b0 be 2d 18 7a 3d
       0.4383487 -0.25014168 -0.34407577 0.061058212
000190 31 ad 1a bf 54 14 c6 3d a4 53 d8 3e 82 6c ad 3e
       -0.6042052 0.09671846 0.42251313 0.33871847
0001a0 43 f8 a2 3e f6 f3 84 be 4d d0 68 be b1 d7 53 3c
       0.31830034 -0.25967377 -0.2273571 0.012929843
0001b0 cc 81 f2 bd ea fa 8c 3e 2d 37 58 3e 7b a9 e4 bd
       -0.11841163 0.27535182 0.21114798 -0.11165138
0001c0 cf b0 96 3e 1d 17 15 be 37 8f c5 bd 08 dc 1e 3c
       0.2943177 -0.14559598 -0.09646457 0.009696014
0001d0 be 18 5a be f2 c1 ac bd 15 be d4 be 53 d3 e1 3e
       -0.21298501 -0.0843543 -0.4155127 0.4410654
0001e0 83 0c 36 be ad 58 5f bd 50 18 b3 be ff b2 dd bd
       -0.1777821 -0.054527927 -0.34979486 -0.108251564
0001f0 6d c0 3c be 74 f1 b1 3e 7d 3d 8d be 80 b5 5c be
       -0.1843278 0.34754527 -0.27585974 -0.21553612
000200 74 b5 bd bd 3c bc 19 3e 1d c4 a0 bd d4 bb 37 3e
       -0.09263125 0.15013212 -0.07849906 0.17942744
000210 69 9a 91 bd 32 40 17 3f 3b da 48 3e ae 2e 1f 3f
       -0.071095295 0.5908233 0.19614498 0.621806
000220 26 b7 83 be d8 0f e9 be 08 46 4f be 44 fa 65 bd
       -0.2572567 -0.455199 -0.20241559 -0.056146875
000230 cd 1a 7c be c6 c4 38 3e df 1e ea be 58 2d cd 3b
       -0.24619599 0.18043813 -0.45726678 0.006261509
000240 ba f6 f1 3d 38 95 de 3d 22 89 b3 3e 5f 2e a0 bd
       0.118146375 0.10868305 0.35065562 -0.078213446
000250 c3 02 8f 3e de 40 c3 bd 9c a2 e9 ba e9 37 90 3d
       0.27931795 -0.09533857 -0.0017824951 0.07041914
000260 12 a3 38 bd a2 8a 46 be ed 54 64 be 91 88 82 3e
       -0.04507739 -0.19388822 -0.22298022 0.25494817
000270 2c 54 a8 3e ae b7 d7 3d 50 1d 4d be 37 4b 38 bd
       0.32876718 0.10533081 -0.20030713 -0.044993605
000280 0a a3 90 3e ea 36 9f 3a 08 47 ae 3c b2 29 06 3e
       0.2824939 0.0012147103 0.021274105 0.13101843
000290 c1 a7 0b be 0c 09 bd 3e 0e 70 3d 3e 62 f4 f6 3e
       -0.13638212 0.36920965 0.18499777 0.48233324
0002a0 01 c2 a6 3e fd e1 57 3d 2b 26 f4 bb 69 3a 66 bd
       0.32569888 0.052705754 -0.007450839 -0.056208048
0002b0 9f 6d cf 3d 15 bc 7b 3e c4 b1 06 bd 15 64 a0 be
       0.101283304 0.24583466 -0.032884374 -0.31326357
0002c0 5a 2c f2 3e 97 14 3d be 0e 34 86 3e fd a4 c6 bd
       0.47299463 -0.18464886 0.2621159 -0.09699438
0002d0 48 bb 55 be 0c 32 6e be 33 c4 e3 bc 93 71 4d 3e
       -0.20872223 -0.23261279 -0.027803516 0.20062856
0002e0 5d c6 b4 be 9b ef 3d 3e 72 11 d4 bd bb 11 8e 3e
       -0.3530759 0.18548433 -0.1035489 0.27747902
0002f0 44 a1 08 3e a8 25 9d 3e 88 dd 56 be f4 31 e4 bd
       0.13342768 0.30692792 -0.20982945 -0.1114234
000300 fb 18 bb 3c d6 eb 03 3e d2 97 c0 bd 52 57 8f be
       0.02283906 0.12882933 -0.094039574 -0.27996308
000310 e9 ae 01 3e 64 1a 7f 3e 15 b8 89 3e 9a f4 48 3e
       0.12664379 0.24912411 0.26898256 0.19624558
000320 5b 7a 1c be 81 3b c9 bd ee e6 4b be 0b 37 54 be
       -0.1528105 -0.098258026 -0.19912311 -0.20724122
000330 1b 57 46 be cf 7d a5 bd 58 54 c1 3d 11 2c c1 3d
       -0.19369166 -0.08080637 0.094399154 0.09432233
000340 74 80 8d be 53 17 86 3e e9 67 06 3e e7 7d 89 3c
       -0.27637064 0.2618967 0.13125576 0.016783668
000350 2c 5a de 3d 51 ca 37 3e 63 2e 59 be 0b e5 08 be
       0.10857043 0.17948271 -0.21209101 -0.13368623
000360 24 b5 92 be 4b b1 0b be ed e0 9c bd f6 05 d4 be
       -0.28653824 -0.1364185 -0.07660089 -0.41410798
000370 f3 ef 5a 3e 28 52 ad be 3b fd 8b 3e 2a e3 c6 3e
       0.21380596 -0.33851743 0.27341637 0.38845187

temporal.input_proj.bias f4 [32]
000000 25 7c f4 3d 99 11 7c 3e ff ec 57 be 9a 63 16 bd
       0.11937741 0.24616088 -0.210865 -0.03671608
000010 c1 3a e7 be 21 f1 81 3e dc a1 da bd dc 60 c9 3e
       -0.45162013 0.2537928 -0.106754035 0.3933171
000020 8c 18 92 be c0 c9 bd 3e ae 20 66 3e 9d fa 5d be
       -0.28534353 0.37067986 0.22473404 -0.21677633
000030 a2 01 a7 be d7 7a 38 be 69 82 65 be 15 4b c2 be
       -0.32618433 -0.1801561 -0.22413029 -0.37947908
000040 2f e0 62 be 48 b7 9b 3e cb fd 81 be 27 f2 97 3e
       -0.22155832 0.3041327 -0.2538894 0.29676935
000050 e9 d5 19 be 7b eb b9 be 3c 86 8a 3e e3 29 e3 bd
       -0.15023006 -0.3631247 0.27055538 -0.11091974
000060 02 3f 71 3e 3d 58 1a be 10 bc 8c bd d5 0d bb be
       0.23559192 -0.15072723 -0.068718076 -0.3653399
000070 b4 8a 3a 3c 40 31 e1 3e 1a 6c ae be 91 43 35 3d
       0.011385608 0.43982887 -0.3406685 0.04425389

temporal.layer_norm.weight f4 [32]
000000 03 4e 6f 3f db 71 83 3f 91 4a 81 3f 58 a8 87 3f
       0.9347841 1.0269121 1.0100881 1.059825
000010 66 cd 80 3f 8a 09 7c 3f 9a 36 75 3f 9d 54 87 3f
       1.0062683 0.98452055 0.9578644 1.0572697
000020 c9 c4 88 3f a6 05 78 3f 0a a9 5f 3f d5 46 72 3f
       1.0685054 0.9688362 0.8736731 0.9463933
000030 b0 fb 7b 3f 44 5d 7c 3f 29 75 85 3f e3 36 4b 3f
       0.9843092 0.9857981 1.042638 0.79380625
000040 9b 55 86 3f cb d6 84 3f 36 7d 7c 3f bb 4f 94 3f
       1.0494875 1.037805 0.98628557 1.1586832
000050 c8 5b 68 3f c7 b4 7b 3f 6d 6e 83 3f e6 6d 8e 3f
       0.9076505 0.9832272 1.0268074 1.1127288
000060 c5 45 4b 3f f0 e4 75 3f 08 d3 62 3f 3a 37 83 3f
       0.79403335 0.96052456 0.8860326 1.0251229
000070 e8 61 84 3f 7e fb 80 3f c3 79 88 3f d2 e3 95 3f
       1.0342379 1.0076749 1.0662159 1.171015

temporal.layer_norm.bias f4 [32]
000000 9a f5 db bd cd 5a 14 be f8 cb 91 bc aa 2f 00 be
       -0.10740204 -0.14487763 -0.017797455 -0.12518182
000010 bd 21 f0 bb 73 58 77 bd 17 f8 2a bd 9d b2 95 3c
       -0.0073282407 -0.060387086 -0.041740503 0.018273646
000020 4a d4 ce bd 2b d8 f2 3b 65 5a 5e bd 7f cf f6 3c
       -0.10099085 0.007411023 -0.054285426 0.030128239
000030 98 7d 38 bd 0e ce 9b bc 7a 4a ec bc e2 04 db bc
       -0.04504165 -0.019019153 -0.028844107 -0.026735727
000040 f7 7b d5 bd 83 51 28 bc d5 fb 8a 3d 6f 94 1d bc
       -0.10424035 -0.01027334 0.067863144 -0.009617909
000050 60 7e 16 bd 61 90 c5 3b 7c 74 84 bc 34 a6 83 3d
       -0.036741614 0.006029174 -0.016168825 0.06428185
000060 b6 50 2d be 9b 99 8c 3c a4 f0 8f 3d 86 01 98 3c
       -0.1692532 0.017163089 0.070283204 0.018555414
000070 26 74 b5 3c d3 e8 4a bb c3 0b cb bd 38 61 ba bd
       0.02215011 -0.0030961528 -0.09914353 -0.09100574

temporal.rnn.weight_ih_l0 f4 [128, 7]
000000 d5 ea 24 bc b7 0a dd bd 24 f9 13 3e cd cf fa 3d
       -0.010065754 -0.10793059 0.14450508 0.12246666
000010 4e f2 8b be f0 6c 6b be f8 4c 71 bd f7 65 32 be
       -0.273333 -0.22990775 -0.058911294 -0.17421709
000020 2b 40 24 bd 0e 6d fa bd 01 a8 87 bd 00 02 c5 3b
       -0.040100258 -0.12227832 -0.06623841 0.0060122013
000030 05 8d 9b bc 5d 09 35 3e 61 d2 5e be c2 12 86 be
       -0.018988142 0.17679353 -0.2175994 -0.26186186
000040 08 6b 06 be c4 95 8c bc 5f 34 2e be 99 9a 25 be
       -0.13126767 -0.017161258 -0.17012165 -0.16172256
000050 02 a0 2b 3d ce 03 b3 3e c4 88 ae 3e 15 43 69 3e
       0.041900642 0.3496384 0.3408872 0.22779496
000060 e2 b2 17 3e 4e 1a 57 3e d9 af 16 3d 57 73 c8 bd
       0.14814332 0.21006128 0.036788795 -0.09787624
000070 4c 8b c2 3e 73 1a 81 3e 13 b8 a2 3e f0 d7 7b 3e
       0.379969 0.25215492 0.31781062 0.24594092
000080 4a 6c b4 3c eb 45 aa bd 28 be fa 3d b0 1c c6 be
       0.022024292 -0.08314117 0.12243301 -0.38693762
000090 27 f0 e0 be af d6 83 be d0 7d c7 be f6 f7 2c be
       -0.43933222 -0.25749728 -0.38963175 -0.16891465
0000a0 c8 c3 05 be a7 a0 fa bd e0 b0 4e 3e 3c 68 d8 3b
       -0.13062966 -0.12237673 0.2018466 0.0066042226
0000b0 88 38 31 3d d7 9a 35 3d cc 5a 3a be 80 d0 47 3d
       0.043266803 0.04433712 -0.18198699 0.048782825
0000c0 45 87 2e be a8 0f 8e 3d b7 df 10 3e eb a6 4b bd
       -0.17043789 0.0693658 0.1414784 -0.049719732
0000d0 e7 2f d8 3d 5b c5 19 be 17 0e e4 bd 08 93 11 3e
       0.10556012 -0.15016691 -0.111355 0.14216244
0000e0 9f 05 02 bd 64 7f 75 be 3f 49 3a 3d 53 b2 8d be
       -0.031743642 -0.23974377 0.04548001 -0.27675113
0000f0 e9 75 1a be 03 88 1f 3d 74 0b cc 3d 34 69 75 bb
       -0.15084042 0.03894807 0.09963122 -0.003744674
000100 a9 0f d9 3c 60 74 0b 3d 49 95 35 be 99 bd 65 be
       0.026496725 0.03404653 -0.17732729 -0.22435607
000110 eb f9 22 be fe bb c2 bd 43 85 98 bd dc d9 b9 bd
       -0.15915649 -0.09508513 -0.07447293 -0.090747565
000120 7a f0 2f be 2e d3 1c be 87 0f 80 bd 8f ad 0f 3d
       -0.17181578 -0.15314934 -0.062529616 0.035077628
000130 36 4a 70 be ea 54 69 be 59 6e 88 bc 0c 42 74 3c
       -0.23465809 -0.22786298 -0.01665418 0.014908325
000140 ed 69 d6 bd 29 5e 37 be 3d 20 5f be 87 6a 8e 3c
       -0.104694225 -0.17907013 -0.21789642 0.01738478
000150 36 fd d5 3d e7 04 ef bd 59 4b 5b 3d 51 66 43 3e
       0.10448687 -0.11670857 0.053538654 0.19082
000160 4c 23 08 3c 04 3a e5 bd 3a ca ba 3d c2 f6 40 be
       0.008309197 -0.11192706 0.09120603 -0.1884413
000170 1a be 5c bd 6b 90 0e be 95 f2 bc bb 6a 9e 83 3a
       -0.053892232 -0.13922279 -0.0057662227 0.0010041718
000180 43 37 c6 bd 01 ec ad 3d 18 ac a6 be 69 66 4d bc
       -0.09678509 0.0849228 -0.32553172 -0.0125366235
000190 4c aa 40 be c6 1f 03 be 14 f0 33 be 90 48 c5 bd
       -0.18814963 -0.1280509 -0.17572051 -0.09632981
0001a0 9e c2 89 be 75 34 4d be 2b e1 38 be 60 94 41 bd
       -0.26906294 -0.20039542 -0.18054645 -0.047260642
0001b0 b3 9e b0 be ce 7c 80 bc 07 68 22 be a8 f1 6e be
       -0.34496078 -0.015684512 -0.15859996 -0.23334372
0001c0 4f 5a 96 bb 68 0d ab 3d e0 4d 2d 3e ac 8f 03 be
       -0.0045884023 0.083521664 0.16924238 -0.12847775
0001d0 4a 59 2a 3c 3b 8d 84 bd 8b 9b 86 bd 33 3d a5 be
       0.010397265 -0.0647225 -0.06572636 -0.32273254
0001e0 5c 66 85 bd 6a 44 44 be 60 19 a1 be 9f fd 2f bd
       -0.06513664 -0.19166723 -0.31464672 -0.04296648
0001f0 aa 36 84 be 3e a1 b0 bd e2 30 96 bd ca ab 7d be
       -0.25822955 -0.086245045 -0.073335424 -0.24772564
000200 de 43 99 be f8 b5 2e be c2 97 33 3e 2b f6 d5 3c
       -0.2993459 -0.17061603 0.1753836 0.026118359
000210 35 fc 11 be 89 69 4a be 7e fe 40 be 95 df d0 3d
       -0.14256366 -0.19766821 -0.18847081 0.10198895
000220 4f 94 ae 3d c1 8d f8 bc 88 34 fc 3b 6f 7c 27 bd
       0.08524381 -0.030341031 0.007696692 -0.040890153
000230 fc df 54 3d 7c d7 ef 3d 7b a3 1f 3d be 28 72 bd
       0.05197142 0.11711022 0.038974266 -0.059120886
000240 a2 61 66 be 47 58 2c be 07 3a 40 3e 1b 0c e8 3d
       -0.22498181 -0.1683055 0.18772136 0.11330434
000250 69 9a 14 be bc d6 a2 bb a5 0a 15 be e6 d8 e6 3c
       -0.14512028 -0.004969446 -0.14554842 0.028179597
000260 de 57 76 bd 54 ea 4a 3d 12 55 20 be 2b 33 87 be
       -0.06014239 0.04953988 -0.15657452 -0.26406226
000270 dc 64 7a be 8e 90 96 bd 88 4c 33 be 01 1b d9 3d
       -0.24452537 -0.0735179 -0.17509663 0.10600854
000280 35 14 51 bd a2 78 52 3d 9f 64 c1 bd f5 58 ec ba
       -0.05104466 0.051384576 -0.0944302 -0.0018031882
000290 8f f8 38 3d 4d 2e 5b be ee 87 03 be 34 fb 6b 3e
       0.04515892 -0.21404381 -0.12844822 0.23045045
0002a0 2b 96 23 3d f1 2c 0b 3d e3 08 0d 3e 2d 69 e7 bc
       0.039938133 0.033978406 0.13772921 -0.028248394
0002b0 da 1e 34 bd 74 c6 aa 3d 14 09 00 3f e5 b4 5c be
       -0.043974735 0.08338633 0.5001385 -0.21553381
0002c0 e6 1d be bd f0 84 b5 be c9 39 c6 bd ed cd 8d bd
       -0.092830464 -0.35452986 -0.096789904 -0.06924043
0002d0 8b c3 c8 3d f6 c3 8d bd 14 d7 86 be 51 cc 2b be
       0.09802922 -0.06922142 -0.26335967 -0.1677716
0002e0 df 3e 8b be e5 af 55 be 0a bb 23 3e da 85 08 3e
       -0.27196404 -0.2086788 0.15989318 0.1333231
0002f0 78 ee e2 be 22 e6 4a bd 50 aa f4 3c 95 ed 47 be
       -0.44322562 -0.049535878 0.029866368 -0.19524224
000300 ce 3e fe 3d 5b 2d db 3d fe 5d d3 bd fd 32 3c 3d
       0.12414323 0.1070201 -0.10320662 0.045947064
000310 3f 39 4a be 7b a6 3d 3c 55 28 fd bd 7d 95 cf 3d
       -0.197484 0.011575337 -0.12361208 0.101359345
000320 76 8e 18 be 17 13 f9 bd 93 73 01 be 2a 6f 23 be
       -0.14898095 -0.12161844 -0.12641744 -0.15960374
000330 8a 69 b8 be 0a f9 6a bd 60 1e b0 be 60 f4 07 be
       -0.3601802 -0.05736641 -0.34398174 -0.13276815
000340 b1 9e 0b 3e dd 71 8f 3d 99 39 b2 3c 18 1c d4 3d
       0.13634755 0.070041396 0.02175598 0.10356921
000350 0c cc 98 bd 92 c6 3b be 37 9f 5d bd 95 54 41 bc
       -0.07460794 -0.18337467 -0.054106917 -0.011799951
000360 79 60 5b be f7 58 d3 bc 9f 15 fe 3d 23 2a 0f bd
       -0.2142352 -0.025799258 0.12406468 -0.034952294
000370 29 54 35 be 96 6d 46 bd ca 61 6c bb 9e 87 21 3e
       -0.17707886 -0.048444353 -0.003606903 0.1577439
000380 e7 64 d3 3d 68 49 20 bd e4 cc f0 3d 00 87 0e be
       0.1032198 -0.039132506 0.1175783 -0.13918686
000390 5e f5 55 be 33 39 84 be 52 8d cf 3d d1 fd 0b 3a
       -0.20894381 -0.2582489 0.101343766 0.0005340251
0003a0 28 b8 b7 bd 6e 07 22 b8 13 db c8 bd 9f 7a 07 bd
       -0.08970672 -3.863073e-05 -0.0980741 -0.033075925
0003b0 fb ff 46 be a6 0e 14 be f2 06 c8 3b ec eb 26 be
       -0.19433586 -0.14458713 0.0061043436 -0.16300935
0003c0 5c 99 63 be 1c 29 6b be eb d4 07 be 26 c8 82 bc
       -0.2222647 -0.229649 -0.13264816 -0.015964579
0003d0 fd ae 2d be 3a de e0 3e d6 93 83 3e ad a3 ad 3e
       -0.16961284 0.43919545 0.25698727 0.33913937
0003e0 24 a2 0b 3e eb c4 69 3e ed 66 5c 3d 40 3f 81 bd
       0.1363607 0.22829024 0.053809095 -0.06310892
0003f0 9c b8 b5 3e 5e 7f 80 3e b7 9f c9 3e 24 c7 06 3e
       0.35492408 0.25097173 0.39379665 0.13161904

temporal.rnn.weight_hh_l0 f4 [128, 32]
000000 90 46 c4 3d 1a 5a 7a ba d9 aa 80 3d 22 2a 04 3d
       0.09583771 -0.00095501693 0.062825866 0.032266743
000010 52 74 dc bd ea 84 0d bc 55 c9 c6 bd b6 8e ce 3d
       -0.10764374 -0.008637646 -0.0970637 0.10085814
000020 af a5 08 3e 36 22 ba 3d eb 63 57 bd b5 4a 2d 3c
       0.13344453 0.090885565 -0.052585524 0.010576894
000030 d3 eb d6 3c ef 2f 08 3a 8b 9f 09 be d9 a8 03 bd
       0.026235497 0.0005195131 -0.13439767 -0.032143448
000040 bf d4 00 3e f8 46 66 bd 7f fb 20 3d e0 1f 2b be
       0.12581156 -0.056220025 0.039302345 -0.16711378
000050 17 9a 11 be 7d 68 c6 3b c5 21 8e bb 27 fd a6 3c
       -0.14218937 0.0060549364 -0.0043375217 0.020384384
000060 13 fa 31 3e 66 bd 60 be d1 00 33 3d 79 ef d5 bd
       0.17380552 -0.2194725 0.04370195 -0.104460664
000070 06 a3 a0 bd 31 9a 14 be 49 fc d3 3d 3b 84 d8 3c
       -0.07843594 -0.14511944 0.10350854 0.02643024
000080 75 15 3b 3d b9 00 1f be 87 2e de 3d b4 e3 ac 3c
       0.04567476 -0.1552762 0.10848718 0.021104671
000090 6e 44 79 3b 57 60 e7 bd 62 cb f0 3d e4 55 eb 3d
       0.0038035172 -0.11297672 0.11757542 0.11490992
0000a0 2a 4a 78 3d 79 9c 7f bd 00 a5 4e 3e 4d 9f 41 bd
       0.060617603 -0.062405083 0.2018013 -0.04727106
0000b0 4b 15 d8 3c 2d 8f 10 be f6 0f 4e bd 3f 5c ae 3d
       0.02637734 -0.14117117 -0.05030819 0.08513688
0000c0 a6 0c fd bd 2b cb d0 bd c1 2f a2 bd 5d 59 69 3d
       -0.12355928 -0.10195001 -0.079192646 0.05696999
0000d0 dc 58 4f bd bf 80 04 bd b1 31 bc bd f2 83 25 bb
       -0.050621852 -0.032349344 -0.091891654 -0.0025255647
0000e0 41 15 2f 3e 6e c7 c3 bc c8 7a ec bc 46 de a1 3c
       0.17097951 -0.023898806 -0.02886714 0.019759309
0000f0 b5 fa a7 3d 24 bb 82 be 24 88 b7 bd a5 a5 4d 3e
       0.082021154 -0.25533402 -0.08961514 0.2008272
000100 d3 1c c7 bc c0 f2 a6 bd 18 46 07 3d bb b4 c6 bd
       -0.024305737 -0.0815177 0.03302583 -0.0970244
000110 10 19 0c be 18 b6 2e 3b e7 e0 ed 3c 4b aa 4f 3d
       -0.13681436 0.002665883 0.029037906 0.050699513
000120 ce f1 76 3b 56 11 11 be 14 f7 47 3e 0c f1 4c be
       0.0037680748 -0.1416677 0.19527847 -0.20013827
000130 d6 c4 3f bd 16 88 e4 3d 83 cb 05 be cd e2 e4 3b
       -0.046818577 0.11158769 -0.13065915 0.0069850446
000140 8d 7b 10 bd 6a 82 c0 bd ca 27 56 bd 57 34 0d 3c
       -0.035274077 -0.093998745 -0.05228404 0.008618436
000150 c1 4c 8e be 35 e4 94 3d 45 56 0b 3d 25 7e 9a bd
       -0.27792934 0.072700895 0.03401782 -0.075435914
000160 5f 21 c8 3c 5a 77 d7 3d 13 69 d8 3d 71 87 4a 3e
       0.024429975 0.105208114 0.10566916 0.1977823
000170 74 6f 0e be 9c 05 12 be c8 90 a1 bd ea dc 95 3e
       -0.13909703 -0.14259952 -0.07888943 0.29270107
000180 94 6c 04 be 32 3c 3c 3d 55 dd 60 3d db cc 9b 3e
       -0.12932044 0.045955844 0.05489858 0.3042973
000190 55 7d d7 bd f3 cc b1 3c 9a 19 8c bd 5f 7f 76 3d
       -0.10521952 0.021704173 -0.068408206 0.060180064
0001a0 60 ee 2c 3e 07 45 eb bc ca 22 d8 bd 63 28 9f 3c
       0.16887808 -0.028719438 -0.105535105 0.019428438
0001b0 0e 1a da 3d aa d3 ff bd 53 ac 84 3e 2c 1d 2d bc
       0.10649501 -0.124915436 0.25912723 -0.010566037
0001c0 ff 58 3e be 11 39 9b bd 2c af 50 bd 71 69 29 be
       -0.18588637 -0.07579244 -0.050948307 -0.16544129
0001d0 81 84 70 3e 13 43 96 bc d8 b9 ab 3d ed 29 03 bd
       0.23488046 -0.01834253 0.08385056 -0.032022405
0001e0 5e 45 06 be 1f b2 0b be ce 55 84 3d 7a ad ac bd
       -0.13112399 -0.13642167 0.064616784 -0.084315255
0001f0 4b f4 23 be 54 32 4b 3a 9f c9 12 3e 03 28 40 be
       -0.16011159 0.0007751335 0.14334725 -0.18765263
000200 a7 de 35 be 29 1a 47 3a ad 75 51 3d f8 9c bf 3c
       -0.17760716 0.0007595146 0.051137615 0.023390278
000210 d3 de 79 be 01 43 50 3d 38 3a 20 bd dd 3b 53 be
       -0.24401407 0.05084515 -0.03911802 -0.20628305
000220 d8 43 1b bd d3 a1 b7 bd f0 dd 9b bd d6 07 6e bd
       -0.037906498 -0.089664124 -0.076106906 -0.05811294
000230 1a 62 f7 3d 50 a0 f2 bd 51 86 ea bc 85 9e 74 bd
       0.12079258 -0.118469834 -0.0286285 -0.05972149
000240 0f d2 52 3d 56 04 1b be 65 6c bd 3d 6c a4 47 be
       0.05146986 -0.15138373 0.0924919 -0.19496316
000250 04 10 28 be 3a e1 81 ba e0 80 4c be 87 23 a0 3d
       -0.1641236 -0.0009909042 -0.19971037 0.07819276
000260 0e 05 1d be 31 1a 55 be f8 9f 1c be 38 cf 8d be
       -0.1533396 -0.20810772 -0.15295398 -0.27697158
000270 bb 67 d2 bc a9 6c 75 3e eb 78 25 3e eb a3 24 3e
       -0.025684228 0.23967232 0.16159408 0.16078155
000280 34 7c 29 3d b4 55 96 bd 32 3b ea bc a4 c0 32 be
       0.041378215 -0.07340565 -0.02859268 -0.17456299
000290 1b a9 3c 3e 05 90 c2 3d 80 1f 2b bd 5e de 54 3e
       0.18423884 0.09500126 -0.041778088 0.20787951
0002a0 1d 26 5f bb c6 69 8a bd 22 ea 8f bd 50 9f d3 bd
       -0.0034049817 -0.06758456 -0.07027079 -0.10333121
0002b0 f2 58 05 3d f2 dc 90 3d 37 ec 21 3e 11 b6 76 3e
       0.032555528 0.07073392 0.15812765 0.2409289
0002c0 6c 22 b5 bc f4 d6 75 3d ac ec 97 3d 8c 96 4b be
       -0.02211114 0.06001945 0.074181885 -0.19881648
0002d0 e7 a6 df 3d 1a d5 9b bd a6 1d 9d 3d b4 54 b2 3d
       0.10920506 -0.07609005 0.076716706 0.08707562
0002e0 f4 36 39 3e 3c 1f 7a bd 28 e3 98 3c 3f f5 d5 bc
       0.18087369 -0.061064944 0.018663004 -0.026117919
0002f0 02 25 ad 3d c1 87 40 be c9 b5 84 be 06 94 2c 3e
       0.08454324 -0.18801786 -0.2591994 0.16853341
000300 ed b5 fa 3c 65 fd 03 3e a6 a4 43 be 5a 70 45 3e
       0.030604327 0.12889631 -0.19105777 0.1928114
000310 b7 32 4f 3d 63 db 21 3d 45 ae f5 bd 7b 19 06 be
       0.050585475 0.039515864 -0.1199613 -0.13095658
000320 6f 7b 6e 3c e8 39 11 3e 78 8b 86 3e cb 9c 91 bd
       0.014555796 0.14182246 0.2627828 -0.07109984
000330 91 ec 69 3d f3 05 dc bd 48 f4 19 be 8f 04 a5 3e
       0.057110373 -0.10743322 -0.15034592 0.3223004
000340 24 c3 dc bd 35 b2 65 3d 9b cc 25 3c 45 79 51 3d
       -0.107794076 0.056078155 0.0101195825 0.051141042
000350 20 1a 27 3e 4e f9 ec bd 97 cd a6 3d e2 47 9d 3d
       0.1631856 -0.115709886 0.08144682 0.07679726
000360 06 c7 88 bd b2 69 04 bd e6 9a 99 3d 51 fc 8d bd
       -0.06678586 -0.03232736 0.07500248 -0.06932891
000370 0b 22 3c 3d cb ec 12 be 99 ed 7e 3e 27 42 e7 3d
       0.045930903 -0.14348142 0.24895324 0.112919144
000380 cd 74 1e be 93 d1 56 be 0c 9c 05 3e e0 6d 00 3e
       -0.15474243 -0.20978384 0.13047808 0.12541914
000390 20 5e ab 3b f8 33 d9 3c e2 e7 3d bd 4e 59 9e 3c
       0.0052297264 0.026514038 -0.04636372 0.019329693
0003a0 86 22 c1 bd 07 76 d8 bc fe 15 c3 bd fb 4b 28 be
       -0.09430413 -0.026423467 -0.09525679 -0.16435234
0003b0 83 15 b6 bd 44 a6 b3 bb ae aa da 3c 26 71 49 bc
       -0.08890822 -0.005482467 0.026692715 -0.012295043
0003c0 91 a7 a0 bd a8 9b 7f be ba c8 c6 3d 1d f5 4f bc
       -0.07844461 -0.24961722 0.09706254 -0.012692717
0003d0 9c 34 91 be 94 91 02 3e 97 5b 70 be 85 67 ab ba
       -0.2836045 0.12750846 -0.23472439 -0.0013077116
0003e0 1d c8 3d 3e 35 a6 cc 3d bc f0 97 3d 7b c1 3c 3e
       0.18533368 0.09992639 0.07418963 0.18433182
0003f0 f4 37 93 bd 0d 04 5d 3e 08 2a af bd ce d9 1d 3e
       -0.071884066 0.21583577 -0.08552939 0.15415117

temporal.rnn.bias_ih_l0 f4 [128]
000000 cd 08 e0 3d 60 a2 8a be 78 71 ba bd b2 b4 86 3e
       0.109391786 -0.27077007 -0.09103674 0.26309735
000010 af ae 29 be 53 fc ea 3d b4 e0 e2 3d 1b b2 8f be
       -0.16570543 0.11473908 0.11078015 -0.2806557
000020 35 d0 e3 39 d2 f2 99 3d c3 c0 d5 bd 2e 2a 05 be
       0.0004345194 0.075170174 -0.10437157 -0.13004372
000030 02 72 b4 3c 4d 82 0b be c7 03 d2 bd ca 58 a7 bd
       0.02202702 -0.13623925 -0.10254627 -0.08171232
000040 25 2a 41 bd 90 30 0c bd 8d 8e 89 bd 78 bf 17 bd
       -0.047159333 -0.034226 -0.067166425 -0.037047833
000050 34 9b 91 bd e0 2f d4 3c e2 84 2a 3e 14 15 89 be
       -0.07109681 0.025901735 0.16652253 -0.26773894
000060 c2 41 39 be c4 aa e5 3d 3e 28 12 3c 99 bf 9d 3d
       -0.18091491 0.112142116 0.008920727 0.0770256
000070 d5 14 fa bd ee e1 2c bd 93 71 53 bd 0a de d0 3c
       -0.12211005 -0.04220765 -0.051621985 0.025496501
000080 3d 59 5f be e0 9e 2d be e9 a5 51 be 1a 5b 04 bd
       -0.21811385 -0.16955137 -0.20473446 -0.032313444
000090 e1 16 ac 3c ca 2f 60 3e 8f 89 c7 bd d2 6d f5 bd
       0.021007003 0.2189323 -0.09743034 -0.11983837
0000a0 c0 a2 fd 37 47 9a 10 3d 98 1b 16 3e 7f 3f a3 3c
       3.0235737e-05 0.03530338 0.14658964 0.019927738
0000b0 71 1c b0 bd ba c2 92 3d 5c 2f 04 be 2a 04 2a be
       -0.08599175 0.071660474 -0.12908691 -0.16603151
0000c0 99 f4 c0 3d 36 69 50 be f3 18 b8 3c 18 c5 d0 3c
       0.09421653 -0.20352635 0.022472834 0.025484607
0000d0 2c 04 30 3d 4b 47 88 bd 8c 74 4b 3e d4 11 08 be
       0.04297273 -0.06654223 0.19868678 -0.13288051
0000e0 76 70 69 3d 07 4b e9 3d cd 91 32 be c8 ac 27 3e
       0.056992017 0.113912635 -0.17438431 0.16374505
0000f0 de a9 d8 3d e5 0f 96 bd ed bc ab bb a8 fd 4b be
       0.105792746 -0.073272504 -0.0052410276 -0.19920981
000100 c0 a0 2c 3e 25 0f ec bd db 07 98 3d 7c 4c 76 bd
       0.16858196 -0.11526326 0.07423373 -0.060131535
000110 df 2d 57 3d 4e df 3d 3e bd d9 8d 3d 7b db 3b 3b
       0.05253398 0.18542215 0.06926296 0.0028664756
000120 69 84 22 3b 8b aa 1a 3e 6f b6 28 3e 0d bc d8 3d
       0.002479816 0.1510412 0.16475843 0.10582743
000130 cf df 88 ba bc ce 1f be fc bd 88 3c cc 4c 12 be
       -0.0010442677 -0.15606207 0.016692154 -0.14287108
000140 57 79 93 3d 33 2a 1f be 9f 1a ac 3d 92 7b d2 bd
       0.07200878 -0.15543441 0.08403515 -0.102774754
000150 c8 c8 ab bc e5 59 25 be b4 28 87 bd 8e 31 9f bc
       -0.020969763 -0.16147573 -0.065995604 -0.01943281
000160 00 53 40 be 9d 7c 52 bd 57 db b5 3b 01 f7 5f be
       -0.18781662 -0.05138837 0.005549829 -0.21871568
000170 c8 4f b8 3d e6 42 9a bd 5c 85 80 3d 18 46 a0 bd
       0.08999592 -0.07532291 0.06275436 -0.07825869
000180 64 4d 73 3d 87 30 7f be 76 24 3b be df 2f 85 3d
       0.059399977 -0.24920855 -0.18275627 0.06503271
000190 7b fd 02 bd e1 6f c7 3c b8 48 05 3e c8 41 17 be
       -0.03198002 0.02434534 0.13016021 -0.14771187
0001a0 89 9b 6d bc a4 79 df bc 80 46 dc bd bf fe 59 be
       -0.0145024145 -0.027279682 -0.10755634 -0.21288584
0001b0 d1 8d eb bc 83 08 93 3d c8 a2 0a 3e 62 9a ea bd
       -0.028754147 0.07179358 0.13538659 -0.114552274
0001c0 d2 54 3d 3d aa f6 4b bb 38 17 da 3d 46 65 11 be
       0.04622347 -0.0031122365 0.1064896 -0.14198789
0001d0 53 2a ab bd a5 25 bf 3d 40 09 3d bd 33 62 1c bd
       -0.08357682 0.09333352 -0.0461514 -0.038179588
0001e0 ab d3 12 be 71 b1 de bd 87 75 4e 3d e5 17 33 3d
       -0.14338557 -0.10873688 0.05040505 0.04372396
0001f0 20 5f da bd 70 1f fe 3d ad e2 93 bd 15 a5 1b be
       -0.10662675 0.1240834 -0.07220969 -0.15199693

temporal.rnn.bias_hh_l0 f4 [128]
000000 81 4c 0d be b7 04 18 be 95 3d 4c be 2c ce e6 bc
       -0.13798715 -0.14845549 -0.19945367 -0.028174482
000010 1c 6c 1d be 50 c8 4e 3d c9 bd 82 bd e3 2c 22 be
       -0.15373272 0.050484 -0.06383855 -0.15837435
000020 f1 a3 0f 3d fa 4e 54 be b4 2d 25 3e f6 07 71 be
       0.035068456 -0.20733252 0.16130716 -0.23538193
000030 b5 02 91 bd 73 c3 e7 bc 55 5e dc 3d 51 82 95 be
       -0.070805945 -0.02829144 0.1076018 -0.29200986
000040 ba c7 17 3e 14 1a 42 be ea c7 0c bd 04 6b 59 bc
       0.14822283 -0.1895526 -0.03437034 -0.013270143
000050 11 4c 86 3d 65 fd 05 be 22 ba e3 3d e6 f9 27 be
       0.06557477 -0.13084944 0.111194864 -0.16403922
000060 8d 44 da 3d bd 3e 6a 3e 5b 3e 9f 3d de 15 f4 3d
       0.10657606 0.22875495 0.07775565 0.11918233
000070 0d 0e 10 bd 77 02 30 be 51 95 d0 bc 4b fa 6c be
       -0.03516965 -0.1718844 -0.025461825 -0.23142354
000080 99 e6 b4 bd 44 78 21 be 1a 7b 23 bd f4 0a 7f bd
       -0.088330455 -0.15768534 -0.03991232 -0.062266305
000090 a1 7b 41 3e ea 68 04 3e 0a 68 72 39 63 72 ba 3b
       0.18894817 0.12930647 0.00023117676 0.0056899055
0000a0 46 52 73 3c ac 2a 06 be d3 86 20 3c 85 b2 a0 3d
       0.0148511585 -0.13102216 0.00979777 0.0784655
0000b0 5b da bb bc ca 68 c5 bc 19 a9 68 3d fb 07 bb bd
       -0.022931268 -0.024097819 0.05680189 -0.091323815
0000c0 04 b3 ec 3d ec 78 a5 3d ae 58 80 bc d6 ea 38 be
       0.11557582 0.08079705 -0.015667286 -0.18058333
0000d0 bd eb 26 be e3 4a 72 3d f0 63 0a 3e 3d fb ef 3c
       -0.16300865 0.05915345 0.13514686 0.029294604
0000e0 1a 33 cf 3d a1 83 9e 3d be 6b 23 bc d1 64 71 bd
       0.10117169 0.0773995 -0.009974418 -0.058934037
0000f0 a3 cf 3e bd c1 3b 72 be dd 95 24 be b2 43 f0 3a
       -0.046584737 -0.23655607 -0.16072793 0.0018330722
000100 f0 a5 bd 3d 67 2e 6a 3d 53 7e 69 bd 38 df c2 3d
       0.09260166 0.05717316 -0.057005238 0.09515232
000110 1a b7 a6 3d b6 ff c5 3d e2 6f 8e bc b9 4b c5 3d
       0.081403926 0.096679136 -0.017387334 0.096335836
000120 f0 ca b7 3a 93 20 77 bc 87 a1 08 be 6a 70 f0 3b
       0.0014022272 -0.01508345 -0.13342868 0.0073376196
000130 d4 0a 02 3e 25 c5 d7 bd b9 b5 ef bc 23 96 ec 3d
       0.12699443 -0.10535649 -0.029261457 0.11552074
000140 3c 4d db 3c 02 ec fd 3d 24 4e c1 bd 01 9a 7a bd
       0.026770227 0.123985305 -0.09438732 -0.061182026
000150 ef 17 88 3d 8e 87 26 bd d8 a9 f3 bb e3 35 37 3d
       0.0664519 -0.04065662 -0.0074360184 0.044729125
000160 36 66 96 bb ec 7f 33 be 61 73 f6 3d cd ca 85 3d
       -0.004589821 -0.17529267 0.120337255 0.06532822
000170 ea 7f 6d 3d a8 d5 e8 3d 45 23 a2 bd 14 ad 88 bd
       0.057983316 0.11368877 -0.079168834 -0.06673637
000180 12 3c 21 be e3 57 8b be 85 c0 17 bd 94 bb a7 3d
       -0.15745571 -0.2721549 -0.037048835 0.081900746
000190 2a 64 22 3e f6 e0 0e be 98 cc 11 be b9 1c ea bd
       0.15858522 -0.13953003 -0.14238203 -0.1143126
0001a0 7a 4e 69 bd 74 e6 b7 bc 24 9c 64 bd 42 b8 82 bd
       -0.056959607 -0.022448756 -0.05581297 -0.06382801
0001b0 e8 ad f0 bc ef 7a 4a be 31 1f 9f 3d 43 ce 8e bc
       -0.0293798 -0.19773458 0.07769621 -0.017432338
0001c0 b5 eb e5 3d b1 b7 08 be 5f 05 00 be f9 d3 77 3d
       0.11226598 -0.13351323 -0.12502049 0.060504887
0001d0 96 b2 8f bd 04 21 0d be b8 7e d6 bd ff b9 28 be
       -0.070164844 -0.13782126 -0.104733884 -0.16477202
0001e0 32 8b 33 be ce 5b 59 bc 8c e4 c2 bd 02 27 73 3d
       -0.17533568 -0.013266517 -0.09516248 0.059363373
0001f0 a2 a6 2d 3d 02 03 02 3d 21 17 d8 3b 50 4d f4 3b
       0.04239524 0.03174115 0.006594554 0.0074555054

temporal.rnn.weight_ih_l1 f4 [128, 32]
000000 49 40 f4 3d 2d 52 1a bd 3e 24 68 3e 00 16 80 3d
       0.11926324 -0.037676025 0.22670075 0.06254196
000010 a5 d4 34 3e 82 ee 4d 3d 19 98 36 bc ca c3 0a 3e
       0.17659242 0.050276287 -0.011144661 0.1355125
000020 fa 95 d3 bb 40 b8 eb bd 74 d2 0a 3e 8a 79 97 3e
       -0.0064570876 -0.11509752 0.13556844 0.29584914
000030 8c d6 e0 bd 92 0d 69 be 8d 29 be bd af c0 b0 bd
       -0.109784216 -0.22759083 -0.09285269 -0.086305015
000040 a9 bc 4c 3e b1 ee b1 3c e3 e0 16 3c 15 10 b5 3d
       0.19993843 0.021720262 0.009208891 0.08840958
000050 ad fa f9 bc fb 9c 6d 3d 2f 85 84 be 22 56 1f 3e
       -0.03051504 0.058011036 -0.2588286 0.15560201
000060 0a 5b 87 3d a5 84 f8 bd 2b 50 a5 3c 11 4e d8 3c
       0.06609161 -0.12134675 0.020179829 0.026404412
000070 d0 3a 72 3d df f0 16 3c d2 60 a0 bd 9f c7 df 3c
       0.05913812 0.009212702 -0.07830967 0.027316866
000080 bf dd 27 be 3d 6a 2a 3c 98 57 43 3d 2f e7 e9 bd
       -0.16393183 0.010401306 0.047690958 -0.11421048
000090 c5 87 86 bd ac f6 e8 bd e2 90 0d 3e da f2 9c 3d
       -0.06568865 -0.11375174 0.138248 0.07663508
0000a0 e1 ee 8e bd 35 b4 da 3d 9c 87 b7 bd 6a 3a 91 bd
       -0.06979156 0.10678903 -0.08961412 -0.0709122
0000b0 85 fb 48 be 9c 85 e8 3c 62 66 1c 3e 14 d3 d1 bd
       -0.19627197 0.028384022 0.15273431 -0.10245338
0000c0 52 9b 1a bd 4f f9 04 bd fd 91 20 3d c3 08 ae 3d
       -0.03774578 -0.03246432 0.039201725 0.08497765
0000d0 96 79 4e 39 a2 9e 13 3e 61 5f 00 3d fa 4f 13 be
       0.00019690985 0.14415982 0.03134096 -0.14385977
0000e0 c6 63 66 3d e2 e0 1d bd d6 1e 9f 3d 02 cc d0 3d
       0.056247495 -0.038544543 0.07769553 0.101951614
0000f0 85 71 e8 3d 9b 6a 41 bd ee ac 3b be 01 c0 a2 3d
       0.11349777 -0.047220808 -0.18327686 0.07946778
000100 9e df 83 3e 8d 58 0a bd 8b fc 54 be 24 ae 8e bd
       0.25756544 -0.033775855 -0.20799462 -0.069668084
000110 52 93 65 3e 5e 4b 14 be b3 34 a3 bd d3 ce 07 3e
       0.2241948 -0.14481875 -0.07969036 0.13262491
000120 7d 74 27 3d 11 02 95 3d 69 72 4e 3d d4 d7 c8 3d
       0.040882576 0.07275785 0.05040208 0.09806791
000130 d8 ab 8a bc 1f 7a af 3d ca 67 95 bd 82 33 44 bc
       -0.016927645 0.085682146 -0.07295187 -0.011975171
000140 b8 39 cd bc f4 c0 e9 bd d3 17 ac bd af d6 03 3e
       -0.025051937 -0.11413756 -0.084029816 0.12874864
000150 4a 78 aa 3c e6 a2 fb bd 14 ab d0 3d ce 6c 26 bd
       0.020809311 -0.1228693 0.101888806 -0.040631108
000160 b6 f5 9e bd 04 63 01 be 57 c9 5b 3c 84 7d 32 be
       -0.077617094 -0.12635428 0.013414702 -0.17430693
000170 81 53 bc 3d 63 2b 32 bd e2 1e d9 3c 8b 63 0d be
       0.091956146 -0.043498408 0.026503984 -0.13807504
000180 56 a0 09 3e 1c 81 f8 bd d5 e3 20 3e 06 83 b2 bc
       0.1344007 -0.12134001 0.15711911 -0.021790992
000190 23 6e 23 3e f5 0e 6d 3d 96 ce ae bd 7a 20 48 bd
       0.15959983 0.057875592 -0.08535497 -0.048859097
0001a0 a0 90 0d bd a1 3e 8e 3d a9 8c 8a bd 78 83 5e 3d
       -0.034561753 0.06945539 -0.0676511 0.054324597
0001b0 b8 4c 03 bd f3 d1 cc bd 56 e8 18 be 7d 9b 1d 3e
       -0.032055587 -0.10000982 -0.14932379 0.15391345
0001c0 7c 8d 87 bd de 48 66 3d 88 f8 18 bd 5b ed e0 3d
       -0.06618783 0.056221835 -0.037346393 0.10982772
0001d0 1d b7 1e 3e 3c 2d 15 be 24 88 c8 3d 8f ab 28 bd
       0.1549954 -0.14568037 0.09791592 -0.041179236
0001e0 bf 95 ee 3d 9e 84 52 bd 97 fb 0a 3d d8 fc d7 3c
       0.116496556 -0.051396005 0.03393134 0.026365682
0001f0 7d ff 8b 3c f7 56 c2 bd c8 1c 1e be fe 42 03 be
       0.0170896 -0.094892435 -0.15440667 -0.12818524
000200 3c f3 bd 3d 0a be 5f 3d f3 86 26 3d a9 8a 9c be
       0.09274909 0.054624595 0.04065604 -0.3057454
000210 ff 67 7d 3e 29 af c7 3d 78 b9 af 3e 02 ec 18 3e
       0.24746703 0.09750206 0.3432119 0.1493378
000220 20 c9 cd 3d 89 03 9f bd 8c 1a 61 3c 4f 42 3a bd
       0.10048127 -0.07764346 0.013739239 -0.045473393
000230 a4 df 20 bd 4d cd 43 be 2b b5 78 bd db 2b 4c be
       -0.03927578 -0.19121285 -0.06071965 -0.19938605
000240 f1 5f 9c 3e dc 01 34 3d 2b 92 be bd 88 8a 93 be
       0.30541947 0.043947086 -0.09305223 -0.28816628
000250 df 11 a8 3c 76 f1 10 3e 5a bc 2d 3d 77 ab 35 3e
       0.020516334 0.1415461 0.042415954 0.1774119
000260 97 fc 80 bc 77 e9 a3 bd 66 7c f2 bd 9e c3 b1 bd
       -0.015745444 -0.08003514 -0.11840133 -0.08679889
000270 b8 92 53 3e b5 1a af bb de 34 4a be 8c 0e 95 3d
       0.20661438 -0.00534376 -0.1974673 0.07278165
000280 4c 52 38 bd 52 c4 3e 3d 41 30 69 bd 17 51 78 be
       -0.04500036 0.046573944 -0.056930784 -0.24249683
000290 63 65 2f 3e 55 34 e6 bd 63 1f 9b 3e f6 48 28 3d
       0.1712852 -0.1124045 0.30297384 0.041085206
0002a0 a9 af 30 3d 43 ac dc 3c 53 25 b9 3a d3 f4 7e 3d
       0.043136273 0.02693761 0.0014125503 0.0622452
0002b0 af 55 57 3d ad 9b 6a bd 14 26 26 3e 07 5f 8e 3d
       0.05257195 -0.05727737 0.16225463 0.06951719
0002c0 4b da c8 3d 51 3e 1a be 73 e6 54 3b fd 70 66 be
       0.09807261 -0.15062834 0.0032485991 -0.22504039
0002d0 8e 55 a5 3d 1a a8 5d 3d a4 ee 7e be 30 95 c5 bd
       0.08072959 0.054115392 -0.24895722 -0.09647596
0002e0 ba 3b 28 bd 71 77 82 3a 16 a3 50 bb c3 08 27 3e
       -0.041072585 0.0009953809 -0.0031835488 0.16311936
0002f0 9b 9b b7 bc f3 66 b5 bd 19 7f f6 bd f9 27 1d 3e
       -0.022413066 -0.08857527 -0.12035961 0.1534728
000300 d1 a9 39 3c 52 a0 71 bd 2b 10 b8 bd 0d d4 66 be
       0.011331991 -0.058990784 -0.08987459 -0.22541828
000310 c4 4a 85 3d 04 09 52 3e 24 be 49 3e 0b 6a d3 3d
       0.06508401 0.20511252 0.19701439 0.103229605
000320 c9 78 2c be be 64 43 bd 82 56 0b be 70 87 87 3d
       -0.16842951 -0.047703497 -0.13607219 0.066176295
000330 c5 86 01 3e 4c e5 18 be 01 cb 18 3e 86 be db bd
       0.12649067 -0.1493122 0.1492119 -0.10729699
000340 8b 22 25 3e 4a bd 5e be ca 28 7b be 6d 8b 78 be
       0.16126458 -0.21751896 -0.24527279 -0.24271937
000350 6e d2 3d be fb 0f 12 3e 33 20 9c bd f3 f8 32 3e
       -0.18537304 0.14263909 -0.07623329 0.17477779
000360 58 85 a8 bb d1 51 5c be 8a a1 18 bd 4d c2 3b be
       -0.005142849 -0.21515585 -0.03726343 -0.18335839
000370 e6 83 68 3d 8f ec ed 3d 31 7c 9f be bf c9 d6 3d
       0.056766413 0.116173856 -0.31149438 0.10487699
000380 fa d2 8d 3e af 7a 60 3e 57 df f9 3c 53 29 16 bb
       0.27700025 0.219218 0.030502005 -0.0022912815
000390 3e f5 9c 3e b3 57 13 3d 39 04 7b 3e 83 e1 d3 3d
       0.30655855 0.03597231 0.2451333 0.10345747
0003a0 b5 f6 93 3e e5 ac bd bd 45 27 bd bd 31 3b 59 3d
       0.2889916 -0.09261493 -0.09236006 0.053034965
0003b0 2b 4e 12 3d 94 2c d2 bd 42 2d 07 bd 35 4f 5e bd
       0.035719078 -0.10262409 -0.033002146 -0.054274756
0003c0 46 d8 64 3e 82 db e5 bd 3a a7 7d bc f4 b2 28 be
       0.22348127 -0.112235084 -0.015481764 -0.16474515
0003d0 8d 85 6c 3e 79 19 01 be d1 34 dd 3d bc ee 9f 3d
       0.2309782 -0.12607373 0.108010896 0.07809207
0003e0 57 00 13 be e9 0b 4a be 95 99 03 3e 17 34 d8 bd
       -0.14355598 -0.19731106 0.12851556 -0.1055681
0003f0 d9 01 8c bd 48 1a ee bd 6d 61 82 bd 33 f9 7a be
       -0.0683629 -0.116261065 -0.06366239 -0.24509124

temporal.rnn.weight_hh_l1 f4 [128, 32]
000000 8c 11 12 3d ce 2d 21 be a5 48 73 bd 1d 5c 8c bc
       0.035661265 -0.1574013 -0.05939545 -0.017133767
000010 d4 1f 29 bd 4d dc cc bd bd 1f 25 be 43 6c ac bd
       -0.04129012 -0.100029565 -0.16125388 -0.08419087
000020 96 5a ac bd 7d 0a a5 bc 11 44 fd bc f4 0d 68 3d
       -0.084157154 -0.020146603 -0.030916246 0.05665393
000030 82 8a de 3d 67 87 f9 3c 5b 86 46 3e 11 f5 62 3e
       0.10866262 0.030460073 0.1938719 0.22163798
000040 cf e7 bc 3d 7e c8 8f bd 33 15 03 bd 7f 34 22 3e
       0.092239015 -0.07020663 -0.03200264 0.15840338
000050 d3 03 54 3e d3 49 77 be f8 d6 94 3d 84 ed e2 bc
       0.20704584 -0.24149255 0.072675645 -0.027701147
000060 51 01 51 3e 36 c6 d9 bd 57 c5 26 3d d6 ed 50 3d
       0.20410658 -0.10633509 0.04071554 0.051008068
000070 9b 82 a6 3d 9c 6c 24 3e d1 68 8f 3c 8a 7c 1b 3e
       0.0813038 0.16057056 0.017506035 0.15184227
000080 a8 af 1a 3d ba 52 01 3e f7 95 2f bc 07 18 21 3e
       0.037765175 0.12629214 -0.010716907 0.15731822
000090 4e d0 98 3e a3 53 85 bc 8a 4c 82 3e c5 83 46 be
       0.29846424 -0.016275233 0.2544902 -0.19386204
0000a0 f4 b8 7a 3d f5 9d 38 3e 42 68 3f 3e ae 31 47 be
       0.06121154 0.18029006 0.18692115 -0.19452545
0000b0 8c 77 2b bd 58 a7 3c 3e e5 17 c0 3c ea 2b 1b be
       -0.041862056 0.18423212 0.023448894 -0.1515347
0000c0 a2 f3 25 3e 0d 05 4d 3b ed 3c 9e be 81 99 3c be
       0.1620622 0.0031283528 -0.30905858 -0.18417932
0000d0 c5 64 c4 3d 53 e8 69 3b f6 aa 38 be ab 99 5b bb
       0.09589533 0.0035691455 -0.18033966 -0.0033508341
0000e0 3e 62 43 3e e8 02 8c 3e 7c c9 6b be b3 12 26 bd
       0.19080445 0.27345967 -0.23026079 -0.040545177
0000f0 cc 14 84 be 1a 31 01 3e 17 8c cf bd d7 01 06 be
       -0.25797117 0.12616387 -0.10134142 -0.1308664
000100 d6 e2 0a be ec d5 14 3e 73 cb fd 3d 7b 62 87 3b
       -0.13563094 0.1453473 0.123923205 0.004131613
000110 d0 7c bc 3d 5f bc aa bd e0 28 14 bd 61 a8 0c 3e
       0.092034936 -0.0833671 -0.036171794 0.13736106
000120 0c ea 72 be ca 99 72 bc b7 4c 8e 3e fb db 6b 3e
       -0.23722094 -0.014807174 0.27792904 0.23033135
000130 eb 90 5d bd 04 40 15 3d b9 9c f5 3b 2e 91 7e bd
       -0.054093283 0.036438003 0.0074954894 -0.062150173
000140 92 7a 13 bc 35 ac ad 3d 4a bc 47 3d 32 d0 6c 3e
       -0.009001391 0.084801115 0.04876355 0.23126295
000150 4d 5c f5 bd b2 11 98 3c ee c6 fe 3d fe 71 ee bc
       -0.119804956 0.018563125 0.124402866 -0.02910709
000160 a3 9d 0c bd a3 48 32 be ec 1f 15 bd 6b 03 87 bd
       -0.03433002 -0.17410521 -0.036407396 -0.06592449
000170 8c ae 45 3e 64 ba fd bd a9 db 0d 3e 05 3b 1c 3d
       0.19304866 -0.12389067 0.13853325 0.038142223
000180 c1 9f 8a be c6 18 76 bd 98 cd d9 bc 9f 6b d0 3d
       -0.27075008 -0.06008222 -0.026587293 0.10176777
000190 1e 95 35 bd bb 1f 9d bd 43 16 a7 bc 03 68 ff 3d
       -0.044331662 -0.07672068 -0.020396357 0.124710105
0001a0 d0 29 5c 3d 72 24 a4 3c e8 37 45 3d 39 fb 3e bd
       0.053750813 0.02003691 0.04814902 -0.046626303
0001b0 f3 fd 3e be 9a fd 84 be 41 23 62 bd e6 32 3b be
       -0.18651561 -0.25974733 -0.055209402 -0.18281135
0001c0 69 88 14 be 4a 0f 6e 3e bf 7c db 3d 01 b0 e4 bc
       -0.14505161 0.2324802 0.10717153 -0.027915956
0001d0 ba d2 47 be 0a 78 9a bc b2 8f 7b 3e dc 30 60 3e
       -0.1951398 -0.018856067 0.24566534 0.21893638
0001e0 a2 41 da bd db 68 49 3e df 0c 29 bc 14 95 98 3d
       -0.1065705 0.19668905 -0.01031801 0.074503094
0001f0 e2 5c 91 bd 01 2b 57 3e fb 82 38 3b fb 46 28 be
       -0.07097794 0.21012498 0.0028154242 -0.16433327
000200 17 45 f8 3d a7 6e ab 3b 98 f1 71 be 14 d1 0f bd
       0.12122553 0.0052316966 -0.23627317 -0.0351115
000210 99 44 a8 bc a5 54 57 3c 7e 76 33 3d 9f 72 ff 3c
       -0.020540522 0.013142739 0.043814175 0.031182585
000220 35 2e 79 3d b3 bb 98 3c 46 17 06 3e 47 17 1a bb
       0.060835082 0.01864419 0.13094816 -0.002351241
000230 95 17 b5 3d eb 91 5f be dd 6c 97 3d 55 2c 59 be
       0.088423885 -0.21833007 0.07393811 -0.21208318
000240 84 05 91 b9 2a eb 81 3e d3 48 e4 3d e3 0a b5 3d
       -0.00027660665 0.25374728 0.111467026 0.08839967
000250 86 fb 57 bb e9 12 f9 bd c9 e3 b4 3d 25 8d 39 3e
       -0.0032956316 -0.1216181 0.08832509 0.18120249
000260 34 fe 11 3e 4f a0 c8 bd 07 15 c9 bc 46 cb f4 bd
       0.14257127 -0.097962014 -0.02454616 -0.11952834
000270 43 b9 ec 3c 46 ce 20 be bc 81 14 3d 1a 67 34 bd
       0.028896933 -0.15703687 0.036256537 -0.044043638
000280 a1 c0 02 bd 67 f3 83 ba d6 6a 52 bd 08 d2 e2 3d
       -0.031921986 -0.0010067046 -0.051371418 0.110752165
000290 65 f5 0a bd 6a f9 70 bc a3 a3 6a bd 28 fb 91 bd
       -0.033925433 -0.014707902 -0.057284962 -0.071279824
0002a0 ff 75 a1 bd c7 ca ea bd b1 56 8f bd 34 85 46 be
       -0.07883834 -0.11464458 -0.06998957 -0.1938675
0002b0 1d e6 04 be 79 ff e1 bd 0f 70 87 bd f5 7e 0e be
       -0.12978406 -0.11035056 -0.0661317 -0.13915618
0002c0 3c 7d 50 3c 30 ec 02 3c 46 9f 71 be 98 29 45 be
       0.012725171 0.007990882 -0.23595914 -0.19254148
0002d0 87 53 9b 3d f4 55 89 3d be 03 c0 bd 93 19 01 be
       0.07584291 0.067058474 -0.09375714 -0.12607412
0002e0 79 ec 26 3e bf 01 1c 3e 57 bc 0d 3d 27 20 f4 bd
       0.16301145 0.15235041 0.034603443 -0.11920195
0002f0 33 9b 2b be 9e 9c 26 be 3f cf 27 bd 1b 64 86 bc
       -0.16758423 -0.16270682 -0.04096913 -0.016405156
000300 d6 97 b2 3c 6f fb 16 be 3e 19 bb bd 90 ec 3e be
       0.021800917 -0.14744352 -0.09135674 -0.18644929
000310 b4 b6 a1 3d 1c d6 23 be 4e 88 1c 3e 42 04 51 3e
       0.07896176 -0.15999645 0.15286371 0.2041178
000320 2c 8d d0 bd 2b d6 1f 3e 5c 94 2d be 34 c5 33 3e
       -0.101831764 0.15609042 -0.16951126 0.17555696
000330 ee b7 62 bd 93 de ce bd b7 88 66 3c 66 a4 13 bd
       -0.05535119 -0.101010464 0.014070681 -0.036045454
000340 9a 03 ee bd 63 fd 1a 3e 86 45 5c 3e dd a1 1f 3e
       -0.11621781 0.15135722 0.21510896 0.1558909
000350 5e b2 47 3e d6 8c db bc 9e db e7 bd 09 ea 92 bd
       0.19501635 -0.026800554 -0.113211855 -0.07173545
000360 30 d1 19 3e 0d 50 29 be 62 c8 42 3e 48 31 d1 bd
       0.15021205 -0.16534443 0.19021752 -0.10214478
000370 82 ab ac bc af 11 dc 3c 56 71 2c be 9e e5 2d bd
       -0.021077875 0.026863901 -0.16840109 -0.04245531
000380 61 d5 14 3d dd 16 38 3e 17 4d bf bd 42 8b 96 3d
       0.036336306 0.17977472 -0.093408756 0.0735078
000390 28 e8 6c 3c 5b ef 5b 3d 6c fd 6c be ac bd 58 3e
       0.014459647 0.053695064 -0.23143548 0.21166104
0003a0 2d 2f 7a 3c e7 8a 48 3e 92 62 10 3e f3 dc 09 bc
       0.015270037 0.19584237 0.14100102 -0.008414495
0003b0 52 45 5d be 0d c1 d4 bd fe 30 e4 3d 7b 8d 57 3d
       -0.21608475 -0.10388384 0.11142157 0.05262516
0003c0 13 d0 57 3e 31 7b 7f 3d 0f 43 26 3e 81 fb 68 3e
       0.21075468 0.062373344 0.16236518 0.22752191
0003d0 4e 03 ee bd 83 30 f9 3c 85 b5 59 3e 3c 4f 39 bc
       -0.11621724 0.03041864 0.2126065 -0.011310395
0003e0 ce 2e c8 3c 62 72 1b 3b cc 41 00 be 18 00 5b be
       0.02443638 0.00237193 -0.125251 -0.21386755
0003f0 8f 4e aa 3d 4b 72 81 3d 5e d6 dc bd 59 65 10 3e
       0.08315765 0.06320628 -0.10783075 0.14101161

temporal.rnn.bias_ih_l1 f4 [128]
000000 5a a4 2d 3e 1a 92 81 be 90 c7 12 3e ce 6d 9f bd
       0.16957226 -0.2530678 0.1433394 -0.077846155
000010 61 88 9a 3c 01 7b 85 be 9d 53 6b 3d b6 82 25 3e
       0.018863859 -0.26070407 0.057452787 0.16163144
000020 44 f1 13 bd da 4f 46 bd ff 6f 09 be 57 5b 72 bd
       -0.03611876 -0.048415996 -0.1342163 -0.05916914
000030 6c db 73 bd 57 8d af 3d 09 d4 b9 bd 2a 53 f1 bd
       -0.05953543 0.0857188 -0.090736456 -0.117834404
000040 df 8c 04 bd 5b 35 d2 bd e3 34 19 be c6 00 15 3e
       -0.032360908 -0.10264083 -0.14961581 0.14551076
000050 40 52 ea 3d f2 20 ae bd c5 c0 15 be c5 b4 07 3d
       0.11441469 -0.085023776 -0.14624317 0.03313138
000060 62 e0 f9 3c ac b7 8f 3d 82 46 8d bc 88 1c 20 bd
       0.030502502 0.070174545 -0.017245535 -0.03908971
000070 af e6 1c be e1 8e c4 bc 54 15 fb 3d b2 a2 22 be
       -0.15322374 -0.023993911 0.122599274 -0.15882376
000080 d4 39 e4 bd c1 b6 81 be a8 36 5c bd cc d5 bc 38
       -0.11143842 -0.25334743 -0.05376306 9.004361e-05
000090 ca 77 a3 bc 90 c5 42 bb 00 f5 ac 3c 71 40 68 3e
       -0.01995458 -0.0029719807 0.021112919 0.22680832
0000a0 d6 21 04 3e fe 88 55 3e f5 a9 d6 bd 24 12 a9 bd
       0.12903532 0.2085304 -0.104816355 -0.08255413
0000b0 b1 69 1d bc c0 b0 13 bd 13 3a be 3d 28 7f f1 bd
       -0.009607718 -0.036057234 0.092884205 -0.11791831
0000c0 f3 aa 22 3d b8 a4 b6 3d 56 ff 92 bd f3 01 90 3e
       0.03971381 0.08918136 -0.07177608 0.28126487
0000d0 ee 02 f0 3c 06 26 96 bd d2 81 01 3a d1 1c 40 3e
       0.029298272 -0.07331471 0.0004940304 0.18760993
0000e0 48 8d f1 bd f3 23 62 be b7 5d 78 bd 7d 5d 9f bd
       -0.117945254 -0.22084026 -0.06063625 -0.07781503
0000f0 0a cf a0 bd 67 9c 98 3d 06 84 0b 3d 04 b0 a2 3c
       -0.078519896 0.074517064 0.034061454 0.019859321
000100 20 11 14 3e 93 d6 e7 3d 17 6f 15 3e 9e 87 eb bd
       0.14459658 0.11320224 0.14593159 -0.11500476
000110 d4 b6 8f 3d ea d6 30 3c 18 0e 71 be 5c 4c fd 3c
       0.070172936 0.010793427 -0.23540533 0.0309202
000120 86 00 d6 bb 36 96 08 bd 33 bf 66 bd a5 e1 23 3e
       -0.006530824 -0.033346377 -0.056334686 0.16004045
000130 69 2b 57 bd c8 d1 d3 3d 76 be 8b 3d d1 18 1d be
       -0.052531634 0.10342747 0.06823437 -0.15341498
000140 fe 64 40 b7 43 12 5d 3e 3a 59 04 3e 72 f5 8f 3e
       -1.1467606e-05 0.21588998 0.12924662 0.28116947
000150 fa 0a d1 bd 47 7f 14 3e 39 54 72 3e c0 01 2e 3d
       -0.10207172 0.14501677 0.23664941 0.042482138
000160 07 2c 2a be e3 d0 08 be bb 1a 58 3c 63 25 68 bc
       -0.16618358 -0.13360934 0.013189967 -0.01416907
000170 c7 d3 4b 3e 60 fd 3b bb 83 75 ab 3d 14 1e 0a 3d
       0.19905005 -0.0028684959 0.08372023 0.03372009
000180 d7 6c 31 bc d4 39 7e be 32 4b e7 3c a5 7c f1 3d
       -0.010829172 -0.24826747 0.028234098 0.11791352
000190 22 04 e8 3d ba b0 6f be 79 d5 af 3d eb b8 7f 3e
       0.11328913 -0.2340726 0.085856386 0.24972884
0001a0 ae 83 4d 3e ed 29 8c bd fa 47 f4 bd 85 e4 10 3d
       0.20069763 -0.06843934 -0.11927791 0.035374183
0001b0 6e c0 af bd 06 7b b9 bc b3 7e e1 bd 26 52 40 be
       -0.08581625 -0.02264167 -0.11010494 -0.18781337
0001c0 6a 67 a4 bd 6e dc 21 3d e8 c7 86 bd 7b f6 d3 bc
       -0.08027537 0.03951686 -0.06581098 -0.025874367
0001d0 aa 5f 14 be c6 fd 02 3c e5 aa f6 bd 55 8b 35 3e
       -0.14489618 0.007995075 -0.12044314 0.17728932
0001e0 31 92 5d bd 83 fb 97 3d e3 59 6f be 0c dd ca bd
       -0.054094497 0.07421019 -0.23374133 -0.099054426
0001f0 b4 ad f9 bd 58 89 3f 3e a2 86 83 be 29 1c 37 be
       -0.12191334 0.18704736 -0.25688654 -0.17881836
