notebook/output/rolling_models_dynamic/window_2.pth (torch, 479733 bytes, 99 tensors)

temporal.input_proj.weight f4 [32, 7]
0.5573976 0.80972713 1.2455329 -0.2564408 -0.16391984 -0.2815621 -0.049598414 0.24160922
0.9247148 0.9773149 -0.27780682 -0.42055294 -0.06742151 -0.18771137 0.009522607 -0.2263436
-0.3803552 -0.15553556 0.17405398 -0.23039597 0.34835106 0.6482608 0.8964542 0.86182433
-0.34064493 -0.27596328 -0.06381212 0.04701628 -0.27906248 0.16313885 0.0042648874 0.20327306
-0.24993801 -0.10064225 -0.47098136 0.22419557 0.36724624 1.1421458 0.3691065 -0.27930745
-0.035903018 -0.2282626 -0.06782754 -0.37559795 -0.14542428 0.21537057 -0.033175364 0.10086311
-0.21506098 0.16744903 0.30572754 0.83739215 -0.063980445 0.102039345 -0.10856372 -0.26272282
-0.43678707 -0.45027012 -0.57441473 -0.16806732 0.28760228 -0.1403081 -0.17428419 -0.39709535
-0.11181316 -0.047379464 -0.366825 0.14100218 -0.32508254 0.23280199 1.0625844 0.9942007
0.99999654 0.23153228 -0.04911563 -0.035433874 -0.094814144 -0.24877837 -0.81068456 -0.31865734
-0.25039002 0.2718101 0.30224884 -0.17603853 -0.42955688 -1.1622111 -1.0913972 -0.12380724
0.012261524 0.22640345 0.06867187 -0.8108812 -0.41330236 -0.99877375 -0.066184856 -0.26064482
0.44560906 -0.24392416 -0.76365143 -0.4748776 -1.1082603 0.09671846 0.29932755 0.24782923
0.20228818 -0.84095716 -0.90540224 -0.69747335 -0.11841163 0.28463796 0.2316856 -0.21470281
0.38837293 0.02405067 -0.24274105 0.009696014 -0.1920032 -0.03228779 -0.3882843 0.6150087
-0.108067 0.18664937 -0.34979486 -0.11168487 -0.20470402 0.34878424 -0.8523425 -0.914257
-0.8660797 0.15013212 -0.09776071 0.22515605 -0.08384185 0.9595026 0.6149806 1.1460518
-0.2572567 -0.44375002 -0.19792347 -0.0066527636 -0.6722293 -0.41202435 -1.1050572 0.006261509
0.09462598 0.12905097 0.2662152 -0.43768305 -0.13657418 -0.50576913 -0.0017824951 0.15047775
0.049056944 -0.28257728 0.18656708 0.72130173 0.85667235 0.10533081 -0.3092742 -0.16789125
0.3210779 -0.5509735 -0.5705916 -0.24627309 -0.13638212 0.26049685 0.08074746 0.47067502
-0.11729223 -0.3515024 -0.61210686 -0.056208048 0.0811917 0.22981213 -0.13583288 -0.12248679
0.6955376 0.070995346 0.2621159 0.0012806613 -0.10621983 -0.20986542 -0.44135684 -0.42879614
-0.8172527 0.18548433 -0.12605378 0.29625386 0.09688054 0.26039472 -0.15402101 -0.2944657
0.02283906 0.19173992 -0.0085102245 -0.29037586 0.6028173 0.8698621 0.86451006 0.19624558
-0.19518837 -0.16195945 -0.040991697 0.07883979 0.05131072 0.42562386 0.094399154 0.07215476
-0.3350928 0.34905776 0.2298697 0.09705957 0.19786324 0.17948271 -0.13394369 -0.04217484
-0.27982074 -0.26641157 -0.29670817 -0.55348283 0.21380596 -0.38203794 0.24815398 0.38459
00000000: 9cb1 0e3f 474a 4f3f 9f6d 9f3f 354c 83be
00000010: 9ada 27be e828 90be b527 4bbd 6868 773e
00000020: 1cba 6c3f 4f31 7a3f b23c 8ebe b752 d7be
00000030: 4a14 8abd 6937 40be b504 1c3c 9ec6 67be
00000040: ebbd c2be b744 1fbe 353b 323e ecec 6bbe
00000050: 125b b23e 6bf4 253f 067e 653f 85a0 5c3f
00000060: 0369 aebe 0f4b 8dbe eeaf 82bd 2594 403d
00000070: 47e1 8ebe df0d 273e 78c0 8b3b d026 503e
00000080: c0ef 7fbe 861d cebd 7824 f1be 8693 653e
00000090: b307 bc3e d531 923f 87fb bc3e 6301 8fbe
000000a0: 0b0f 13bd acbd 69be 2ae9 8abd 604e c0be
000000b0: 1aea 14be 1a8a 5c3e e4e2 07bd 5191 ce3d
000000c0: f238 5cbe c277 2b3e 5288 9c3e 555f 563f
000000d0: 2e08 83bd 01fa d03d a856 debd 9b83 86be
000000e0: 8ea2 dfbe ce89 e6be d80c 13bf d719 2cbe
000000f0: 9b40 933e edac 0fbe 8e77 32be 1550 cbbe
00000100: 4cfe e4bd f810 42bd 7dd0 bbbe e062 103e
00000110: 3871 a6be a563 6e3e c402 883f f083 7e3f
00000120: c6ff 7f3f cc16 6d3e 792d 49bd 1c23 11bd
00000130: eb2d c2bd c2bf 7ebe 0689 4fbf 0e27 a3be
00000140: 1f33 80be b22a 8b3e 5cc0 9a3e 7243 34be
00000150: e1ee dbbe 55c3 94bf e7b2 8bbf a68e fdbd
00000160: 8fe4 483c 4ed6 673e d6a3 8c3d e995 4fbf
00000170: 5e9c d3be a3af 7fbf ed8b 87bd 3d73 85be
00000180: df26 e43e 41c7 79be a97e 43bf 2823 f3be
00000190: 79db 8dbf 5414 c63d 7641 993e f2c6 7d3e
000001a0: a224 4f3e f848 57bf 71c8 67bf 9d8d 32bf
000001b0: cc81 f2bd 11bc 913e fd3e 6d3e 0edb 5bbe
000001c0: d1d8 c63e e905 c53c 1c91 78be 08dc 1e3c
000001d0: 7d9c 44be 3440 04bd 33cd c6be 3671 1d3f
000001e0: 3b52 ddbd 0321 3f3e 5018 b3be 0abb e4bd
000001f0: ee9d 51be d993 b23e 1e33 5abf bf0c 6abf
00000200: 66b7 5dbf 3cbc 193e c436 c8bd 4f8f 663e
00000210: 47b5 abbd f6a1 753f 5e6f 1d3f d3b1 923f
00000220: 26b7 83be 3433 e3be 73ac 4abe 6dff d9bb
00000230: 3817 2cbf dbf4 d2be 8472 8dbf 582d cd3b
00000240: 44cb c13d f025 043e 5c4d 883e fe17 e0be
00000250: 1ada 0bbe 167a 01bf 9ca2 e9ba d716 1a3e
00000260: efef 483d f8ad 90be 710b 3f3e 3ba7 383f
00000270: e14e 5b3f aeb7 d73d 3059 9ebe afeb 2bbe
00000280: 5364 a43e 990c 0dbf 4b12 12bf 032f 7cbe
00000290: c1a7 0bbe d85f 853e ed5e a53d 51fc f03e
000002a0: e936 f0bd 1ff8 b3be 09b3 1cbf 693a 66bd
000002b0: d647 a63d df53 6b3e c617 0bbe 5bda fabd
000002c0: c10e 323f 0266 913d 0e34 863e dddb a73a
000002d0: c889 d9bd f6e6 56be 86f9 e1be 2b8b dbbe
000002e0: 7937 51bf 9bef 3d3e 3e14 01be 96ae 973e
000002f0: 4e69 c63d 7552 853e afb7 1dbe 35c4 96be
00000300: fb18 bb3c 7857 443e 786e 0bbc 25ac 94be
00000310: 3c52 1a3f 48af 5e3f 8850 5d3f 9af4 483e
00000320: 76df 47be b3d8 25be e9e6 27bd c176 a13d
00000330: 312b 523d 5feb d93e 5854 c13d e0c5 933d
00000340: 4991 abbe b3b7 b23e f662 6b3e 2bc7 c63d
00000350: a99c 4a3e 51ca 373e 8928 09be 86bf 2cbd
00000360: aa44 8fbe 1967 88be 22ea 97be 0db1 0dbf
00000370: f3ef 5a3e 7a9a c3be 141c 7e3e fbe8 c43e

temporal.input_proj.bias f4 [32]
0.26726085 0.36897647 -0.26496005 0.08476526 -0.5329896 0.3667342 -0.1263662 0.5227347
-0.35212973 0.2771693 0.40255055 -0.15150748 -0.46565437 -0.30258307 -0.3275383 -0.45149004
-0.24998403 0.36001593 -0.3696133 0.4016012 -0.2846458 -0.4080189 0.30059463 -0.13884683
0.22561286 -0.124155246 -0.26309624 -0.41731524 0.102202885 0.48689225 -0.41150117 -0.09017137
00000000: 6ad6 883e 7cea bc3e d8a8 87be 6999 ad3d
00000010: 0272 08bf 96c4 bb3e 2466 01be f1d1 053f
00000020: 594a b4be 22e9 8d3e 1b1b ce3e c724 1bbe
00000030: 406a eebe 2bec 9abe 1ab3 a7be b429 e7be
00000040: d0fb 7fbe 0254 b83e f43d bdbe ac9e cd3e
00000050: 18bd 91be dae7 d0be 8ae7 993e dd2d 0ebe
00000060: 0f07 673e 1b45 febd 8db4 86be 58aa d5be
00000070: bf4f d13d f149 f93e 48b0 d2be c4ab b8bd

temporal.layer_norm.weight f4 [32]
0.9621533 1.0907059 0.8772849 1.00867 0.8904165 1.0149164 0.94699085 1.060134
1.0737817 0.7710613 0.9598523 0.8728988 1.020081 1.1110774 1.0046828 0.8976371
1.0065976 1.1074125 1.0591764 1.2703135 0.9219748 1.08851 1.181491 1.0133457
0.6877208 0.80262506 0.9972299 0.98030484 1.1423118 1.0631921 0.91122395 1.1248336
00000000: ae4f 763f 409c 8b3f be95 603f 191c 813f
00000010: 56f2 633f c8e8 813f fe6d 723f 79b2 873f
00000020: ae71 893f 4664 453f e1b8 753f 4c76 5f3f
00000030: 0492 823f c937 8e3f 7299 803f 8ccb 653f
00000040: 31d8 803f b1bf 8d3f 1893 873f a299 a23f
00000050: 8a06 6c3f 4c54 8b3f 193b 973f 50b5 813f
00000060: 780e 303f d678 4d3f 754a 7f3f 42f5 7a3f
00000070: 4637 923f ae16 883f f945 693f 8cfa 8f3f

temporal.layer_norm.bias f4 [32]
-0.041709803 -0.13741994 0.055993587 -0.0071924496 0.10799956 -0.04654886 0.0031121762 -0.060791593
-0.090937935 -0.11985364 0.060855586 -0.100458115 -0.14596795 -0.065033436 -0.0733211 -0.058834955
-0.046834856 -0.023550117 0.01163181 -0.024744406 0.012789367 0.0429584 -0.11097878 -0.020530824
-0.31251603 0.026136944 0.017987713 0.073771566 0.01114591 -0.054285243 0.01157542 -0.059322506
00000000: e6d7 2abd d0b7 0cbe 8859 653d a4ae ebbb
00000010: e02e dd3d 04aa 3ebd a7f5 4b3b 9b00 79bd
00000020: ab3d babd d375 f5bd b543 793d fcbc cdbd
00000030: 9f78 15be 4030 85bd 5f29 96bd ecfc 70bd
00000040: e8d5 3fbd 2dec c0bc 5993 3e3c c8b4 cabc
00000050: 7e8a 513c 26f5 2f3d d848 e3bd 4230 a8bc
00000060: 1a02 a0be 251d d63c f85a 933c 8c15 973d
00000070: 569d 363c 345a 5ebd d5a6 3d3c 28fc 72bd

temporal.rnn.weight_ih_l0 f4 [128, 7]
-0.010503492 -0.113382265 0.14952244 0.12252924 -0.30628237 -0.27857092 -0.06124237 -0.24314609
-0.11428606 -0.18500395 -0.13297378 -0.014300506 -0.030585583 0.20572302 -0.20437188 -0.24740672
-0.120621644 -0.0047782646 -0.19416276 -0.18527988 0.04082851 0.4266244 0.43228492 0.2944512
0.22698 0.23345251 0.07370343 -0.1272795 0.3777933 0.25119796 0.31093135 0.24498539
0.042073365 -0.052394167 0.07904209 -0.41634288 -0.48300815 -0.27429748 -0.41626927 -0.15285924
-0.10389915 -0.12225088 0.25937977 0.04557031 0.09641131 0.08628332 -0.23477769 0.0073233005
-0.18342851 0.096829124 0.17211355 -0.021714084 0.13898365 -0.19881266 -0.15363048 0.19931597
-0.043889184 -0.25580177 0.04340897 -0.2889756 -0.15577154 0.041239545 0.123723015 0.023893092
0.058158632 0.05937616 -0.15060633 -0.21368566 -0.12588733 -0.10462139 -0.026963156 -0.038136523
-0.12705639 -0.10355068 -0.03700133 0.05340326 -0.27312496 -0.25495297 -0.041772954 -0.012439656
-0.1314053 -0.29064336 -0.32664743 0.0534404 0.21535103 -0.004521603 0.16825993 0.3066499
-0.111934975 -0.21595976 0.16494252 -0.164981 -0.034466833 -0.112805866 0.015587747 0.0080397865
-0.088577785 0.13269342 -0.29772788 0.016221587 -0.16369742 -0.101326376 -0.19696465 -0.11498731
-0.32973748 -0.20216365 -0.18795739 -0.041792627 -0.3460023 0.0151732825 -0.1303472 -0.2054339
0.11219815 0.21430653 0.25411823 -0.011723118 0.09002101 0.015983338 -0.07367496 -0.29988062
-0.048027836 -0.16805735 -0.29356223 -0.060776595 -0.26419488 -0.11106486 -0.0012461757 -0.15926024
-0.2334279 -0.09399591 0.22219434 0.085871994 -0.15261382 -0.2360326 -0.23665173 0.07572366
0.0504041 -0.0014659843 0.04225074 0.00477415 0.11268064 0.1725915 0.10518403 0.0026971227
-0.32305413 -0.25919414 0.27533817 0.12099977 -0.1271212 -0.008655949 -0.14021952 -0.017735573
-0.10655335 0.08513848 -0.14355634 -0.2553838 -0.23088594 -0.0618761 -0.16181338 0.1176349
-0.106962085 0.119012386 -0.031078456 0.067821756 0.11166848 -0.364569 -0.28065476 0.3242319
-0.01114344 -0.023751352 0.09339187 -0.07672148 -0.10585862 0.019358674 0.49480692 -0.3958529
-0.27905548 -0.522934 -0.274539 0.023470556 0.17608419 -0.15550205 -0.23089615 -0.1303981
-0.23945753 -0.17634356 0.18243624 0.15457627 -0.45454153 -0.2163781 -0.15115009 -0.34989408
-0.038627364 0.21998535 -0.0070201578 -0.04825401 -0.04571426 0.16011234 0.025339015 0.252287
-0.21327671 -0.1808568 -0.085124224 -0.16329688 -0.38152534 -0.04858711 -0.35312805 -0.04431494
0.21165274 0.032888524 0.05874443 0.1424494 -0.041162934 -0.14633635 -0.10302997 -0.056819357
-0.21178056 -0.01967328 0.12169794 -0.015874216 -0.16953981 -0.08212656 -0.03508581 0.22648028
0.09804124 -0.04793589 0.11660795 -0.14185545 -0.14505367 -0.17715845 0.0748119 -0.11728396
-0.20864406 -0.11669152 -0.21405032 -0.02593325 -0.17628394 -0.17918718 -0.010127558 -0.17400743
-0.24445324 -0.24482307 -0.1225166 0.0015561562 -0.16654997 0.52014667 0.3397924 0.4179711
0.21734469 0.24086998 0.073361464 -0.1266444 0.36027658 0.2519462 0.4006829 0.13725668
00000000: d716 2cbc f634 e8bd 691c 193e 9cf0 fa3d
00000010: 0bd1 9cbe d9a0 8ebe 48d9 7abd 4afb 78be
00000020: cf0e eabd ad71 3dbe 472a 08be ab4c 6abc
00000030: 9e8e fabc 0ea9 523e dd46 51be 3058 7dbe
00000040: 7b08 f7bd fd92 9cbb 9ad2 46be 02ba 3dbe
00000050: cc3b 273d 836e da3e 7354 dd3e 4fc2 963e
00000060: 726d 683e 2d0e 6f3e d3f1 963d 8f55 02be
00000070: 206e c13e 059d 803e 6532 9f3e 73dd 7a3e
00000080: 1f55 2c3d 449b 56bd d2e0 a13d e52a d5be
00000090: d84c f7be b870 8cbe 3f21 d5be 2287 1cbe
000000a0: 14c9 d4bd ab5e fabd 6dcd 843e efa7 3a3d
000000b0: 4b73 c53d 4fb5 b03d 9069 70be 4cf8 ef3b
000000c0: afd4 3bbe 594e c63d 893e 303e bce1 b1bc
000000d0: bb51 0e3e 8c95 4bbe 4f51 1dbe 7c19 4c3e
000000e0: 25c5 33bd 73f8 82be 9bcd 313d 9cf4 93be
000000f0: 9382 1fbe ccea 283d 7e62 fd3d 72bb c33c
00000100: bf37 6e3d 6b34 733d 8c38 1abe 6ad0 5abe
00000110: 9ce8 00be bd43 d6bd d6e1 dcbc 0b35 1cbd
00000120: 121b 02be 6112 d4bd b58e 17bd 60bd 5a3d
00000130: 09d7 8bbe 3289 82be 1e1a 2bbd b3cf 4bbc
00000140: 1c8f 06be 35cf 94be 553e a7be 52e4 5a3d
00000150: fb84 5c3e f529 94bb 554c 2c3e 3701 9d3e
00000160: 2a3e e5bd 8e24 5dbe b1e6 283e c7f0 28be
00000170: 182d 0dbd c306 e7bd c063 7f3c 4fb9 033c
00000180: 4568 b5bd c9e0 073e ca6f 98be 22e3 843c
00000190: 4ca0 27be 3484 cfbd 1ab1 49be 777e ebbd
000001a0: 5ad3 a8be fd03 4fbe e777 40be bf2e 2bbd
000001b0: 3727 b1be 5c99 783c bd79 05be 445d 52be
000001c0: 25c8 e53d 2c73 5b3e c91b 823e 5212 40bc
000001d0: ef5c b83d 7def 823c e6e2 96bd f489 99be
000001e0: d6b8 44bd 3a17 2cbe ca4d 96be e1f0 78bd
000001f0: 8d44 87be f975 e3bd b856 a3ba 1e15 23be
00000200: b907 6fbe ed80 c0bd ea86 633e a8dd af3d
00000210: cc46 1cbe 88b2 71be d554 72be 0215 9b3d
00000220: 8874 4e3d 4526 c0ba 1d0f 2d3d 7970 9c3b
00000230: 1bc5 e63d d4bb 303e ba6a d73d 36c2 303b
00000240: 5a67 a5be 18b5 84be 20f9 8c3e bace f73d
00000250: 0f2c 02be aed1 0dbc b595 0fbe 314a 91bc
00000260: a538 dabd 155d ae3d 6f00 13be aac1 82be
00000270: 5d6d 6cbe cb71 7dbd 68b2 25be 91ea f03d
00000280: f00e dbbd c4bc f33d 3f98 febc 22e6 8a3d
00000290: 72b2 e43d caa8 babe fbb1 8fbe b901 a63e
000002a0: fa92 36bc 3292 c2bc 3d44 bf3d 2720 9dbd
000002b0: 67cc d8bd 1596 9e3c 5557 fd3e 3bad cabe
000002c0: 5ce0 8ebe 01df 05bf 6090 8cbe 5345 c03c
000002d0: 6a4f 343e ee3b 1fbe 0a70 6cbe 1487 05be
000002e0: 5b34 75be 6893 34be 91d0 3a3e 3e49 1e3e
000002f0: abb9 e8be 3892 5dbe 17c7 1abe 5125 b3be
00000300: ba37 1ebd d743 613e 5a09 e6bb ffa5 45bd
00000310: e03e 3bbd 7df4 233e c493 cf3c c32b 813e
00000320: 3665 5abe 8632 39be 9c55 aebd 4c37 27be
00000330: 4a57 c3be 4703 47bd 33cd b4be 9583 35bd
00000340: 7fbb 583e 1eb6 063d 009e 703d 41de 113e
00000350: 779a 28bd 32d9 15be 6001 d3bd 6abb 68bd
00000360: 01dd 58be dc29 a1bc c53c f93d a50a 82bc
00000370: d89b 2dbe f831 a8bd 23b6 0fbd 72ea 673e
00000380: d8c9 c83d 6c58 44bd 26d0 ee3d 8e42 11be
00000390: f388 14be 0669 35be fb36 993d 9332 f0bd
000003a0: caa6 55be f7fb eebd 0230 5bbe f871 d4bc
000003b0: c783 34be d87c 37be 0fee 25bc 012f 32be
000003c0: f351 7abe e6b2 7abe fce9 fabd f0f7 cb3a
000003d0: 138c 2abe 5528 053f 45f9 ad3e 4f00 d63e
000003e0: 9b8f 5e3e 9fa6 763e 893e 963d 12af 01be
000003f0: 2c76 b83e 18ff 803e 4f26 cd3e 048d 0c3e

temporal.rnn.weight_hh_l0 f4 [128, 32]
0.24685292 -0.08942247 0.1665597 -0.053017348 -0.012392982 0.10875281 -0.0027965505 0.012138505
0.16070825 0.124586046 -0.15699005 0.022879917 0.0041842386 -0.13257596 -0.027190724 -0.12928492
0.3361925 -0.19164138 -0.08894462 -0.26753393 -0.19992508 0.10699415 -0.12427026 -0.0037422753
0.07567417 -0.37737313 -0.05002041 -0.20420049 0.04846012 -0.1291049 0.027332198 -0.055370737
-0.032222085 -0.05051374 0.053882223 -0.10757086 0.04116291 -0.22816278 0.11518741 0.15076007
-0.068708435 -0.0867431 0.18598835 -0.18091488 -0.071100816 -0.047393017 -0.053259827 0.120778956
-0.09309637 -0.065877244 -0.07020596 0.14943494 0.011393956 -0.055760946 -0.11239168 -0.011958088
0.25228602 0.030617114 -0.023313731 0.13357057 0.14332908 -0.28279147 -0.00934825 0.317781
-0.0014648167 -0.10007319 0.06480536 -0.22573328 -0.13863477 0.024734307 0.01713445 0.05539824
0.015529092 -0.14166157 0.18276256 -0.25318065 -0.07149776 0.07749486 -0.096006416 -0.03135184
0.07384835 -0.12944405 -0.11757421 -0.022658214 -0.23378254 0.08867174 0.013223631 -0.14109586
-0.014459843 0.0729215 0.08691771 0.18750834 -0.077658884 -0.12442456 -0.06282745 0.3085587
-0.18487775 -0.022740908 0.09713029 0.35231605 -0.14873146 0.066354044 -0.091196164 0.028021168
0.2434647 -0.06568952 -0.06905752 -0.009969754 0.16822778 -0.1151472 0.2806252 -0.08362885
-0.3040394 -0.12087766 0.049521543 -0.20553431 0.23392156 -0.032154918 0.08191557 -0.00052773964
-0.10717609 -0.20099333 0.13729414 -0.10308912 -0.17806923 0.06271871 0.21766375 -0.24009629
-0.10170734 -0.06871656 0.025418265 0.08048385 -0.20562059 0.1342774 -0.08180137 -0.26208848
0.08375904 -0.097536065 0.028264781 -0.12883703 0.15416613 -0.16189083 -0.02984301 -0.07264039
-0.006722152 -0.16933016 0.20368455 -0.20079525 -0.21813095 -0.047304373 -0.1997224 0.12275058
-0.17823544 -0.3255749 -0.05783132 -0.32760322 -0.13302831 0.23737772 0.16602862 0.06454238
0.06451796 -0.02635009 -0.0016193443 -0.29449284 0.22758567 0.079536475 -0.040516097 0.15084699
-0.065480255 -0.055263046 -0.09551721 -0.13667919 -0.03503364 0.031860933 0.19791995 0.22374092
0.09088088 0.042748272 -0.005087833 -0.18422599 0.104201116 -0.07520142 0.025234329 0.020661596
0.1415857 -0.09600656 -0.018305205 -0.071917586 0.12407328 -0.21362132 -0.24210474 0.2204045
0.0979421 0.015240999 -0.10856675 0.27406034 -0.003948739 0.08202109 -0.1276214 -0.16616574
0.06733164 0.11519865 0.23410939 -0.088846475 0.10416402 -0.12716985 -0.095435105 0.2600908
-0.18177709 -0.016787836 0.08218182 -0.030174475 0.16875602 -0.07309359 0.034647156 0.11145065
-0.07875705 -0.13955633 0.07166114 -0.1414946 -0.011286527 -0.08532405 0.199882 0.054536175
-0.20666467 -0.15710184 0.17117897 0.12352157 -0.048843224 -0.010768377 -0.021297785 -0.030849654
-0.093514055 0.03390994 -0.1243362 -0.16351949 0.14074118 -0.04018191 0.040725876 -0.011964374
-0.064467125 -0.24573351 0.047224518 0.01656957 -0.1834716 0.13280588 -0.26689905 -0.009858441
0.17908671 0.17884447 0.041059934 0.22575334 -0.022886135 0.22566028 -0.07183466 0.12819394
00000000: 03c7 7c3e 2123 b7bd a08e 2a3e b828 59bd
00000010: ef0b 4bbc cbb9 de3d 5546 37bb 94e0 463c
00000020: b490 243e f826 ff3d 00c2 20be aa6e bb3c
00000030: f01b 893b fec1 07be 15bf debc 4463 04be
00000040: 6c21 ac3e a33d 44be 9928 b6bd 35fa 88be
00000050: 29b9 4cbe c01f db3d 6881 febd f640 75bb
00000060: 0ffb 9a3d 0d37 c1be 34e2 4cbd ef19 51be
00000070: 1e7e 463d 1334 04be c6e7 df3c 6dcc 62bd
00000080: 4efb 03bd 7fe7 4ebd 9bb3 5c3d 1c4e dcbd
00000090: 719a 283d 81a3 69be 60e7 eb3d d960 1a3e
000000a0: 02b7 8cbd 5ea6 b1bd bb73 3e3e c041 39be
000000b0: 4e9d 91bd 2e1f 42bd fa26 5abd f55a f73d
000000c0: 4fa9 bebd a6ea 86bd 24c8 8fbd 7905 193e
000000d0: b7ad 3a3c 9765 64bd 9c2d e6bd dbeb 43bc
000000e0: a22b 813e bed0 fa3c 70fc bebc b9c6 083e
000000f0: dcc4 123e 0bca 90be 6729 19bc 31b4 a23e
00000100: 18ff bfba 2cf3 ccbd acb8 843d a026 67be
00000110: 46f6 0dbe 9a9f ca3c 8c5d 8c3c 44e9 623d
00000120: bc6d 7e3c bb0f 11be 1c26 3b3e e5a0 81be
00000130: 6b6d 92bd a0b5 9e3d 039f c4bd c96a 00bd
00000140: ce3d 973d fb8c 04be bfca f0bd b89d b9bc
00000150: b164 6fbe 8799 b53d eea7 583c 6f7b 10be
00000160: fae8 6cbc de57 953d ea01 b23d 3002 403e
00000170: 9f0b 9fbd 4ed2 febd aeab 80bd 68fb 9d3e
00000180: 9850 3dbe 244b babc 3fec c63d c562 b43e
00000190: 0f4d 18be a1e4 873d 0ec5 babd a68c e53c
000001a0: cf4e 793e 3a88 86bd 076e 8dbd 2e58 23bc
000001b0: e743 2c3e 4cd2 ebbd 1bae 8f3e 9a45 abbd
000001c0: 0dab 9bbe b58e f7bd 1ad7 4a3d 9677 52be
000001d0: 2289 6f3e e0b4 03bd 5ac3 a73d 0258 0aba
000001e0: 237f dbbd 32d1 4dbe d696 0c3e 6320 d3bd
000001f0: c857 36be ab72 803d 3fe3 5e3e cddb 75be
00000200: f04b d0bd 45bb 8cbd f739 d03c b7d4 a43d
00000210: 348e 52be 0480 093e 7a87 a7bd 7630 86be
00000220: dc89 ab3d fdc0 c7bd 8b8b e73c dbed 03be
00000230: badd 1d3e b6c6 25be 5479 f4bc 7cc4 94bd
00000240: 7f45 dcbb e364 2dbe af92 503e 459d 4dbe
00000250: b85d 5fbe 3bc2 41bd 0784 4cbe a864 fb3d
00000260: 5a83 36be c1b1 a6be 89e0 6cbd 9cbb a7be
00000270: 9338 08be 2513 733e 6803 2a3e cc2e 843d
00000280: fe21 843d 25dc d7bc 2e40 d4ba c4c7 96be
00000290: 380c 693e 05e4 a23d 35f4 25bd a277 1a3e
000002a0: 831a 86bd 815b 62bd 879e c3bd a1f5 0bbe
000002b0: 6f7f 0fbd 9c80 023d 87ab 4a3e 571c 653e
000002c0: c11f ba3d d018 2f3d d6b7 a6bb bda5 3cbe
000002d0: 6567 d53d 3403 9abd 39b8 ce3c 8242 a93c
000002e0: d7fb 103e 169f c4bd ccf4 95bc 8749 93bd
000002f0: 221a fe3d 8cbf 5abe 4eea 77be b8b1 613e
00000300: de95 c83d 62b5 793c 3f58 debd a351 8c3e
00000310: 6c64 81bb acfa a73d 2faf 02be 5a27 2abe
00000320: 2ce5 893d 45ed eb3d 5fba 6f3e 24f5 b5bd
00000330: f253 d53d d038 02be 7b73 c3bd 9f2a 853e
00000340: c623 3abe a586 89bc f14e a83d 7630 f7bc
00000350: 61ce 2c3e 18b2 95bd 2dea 0d3d 3d40 e43d
00000360: 604b a1bd dbe7 0ebe 13c3 923d f6e3 10be
00000370: 20eb 38bc 60be aebd dead 4c3e 5361 5f3d
00000380: e79f 53be 4edf 20be 8a49 2f3e e0f8 fc3d
00000390: d50f 48bd d96d 30bc b178 aebc 6ab8 fcbc
000003a0: 4c84 bfbd 26e5 0a3d faa3 febd a771 27be
000003b0: 751e 103e c995 24bd 2dd0 263d 3906 44bc
000003c0: 5707 84bd 91a1 7bbe 7f6e 413d e8bc 873c
000003d0: fbdf 3bbe 44fe 073e fea6 88be 4c85 21bc
000003e0: 8262 373e 0123 373e 762e 283d e22b 673e
000003f0: b47b bbbc 7d13 673e 0d1e 93bd 4645 033e

temporal.rnn.bias_ih_l0 f4 [128]
0.21393016 -0.27119225 -0.059412595 0.24495351 -0.16931345 0.19130954 0.05970728 -0.29682946
-2.483022e-05 0.05147724 -0.06665798 -0.19336921 -0.028156519 -0.11125762 -0.05901614 -0.06747222
0.04473735 0.024395999 0.00404513 -0.05511488 -0.17647527 -0.027928196 0.23866242 -0.35953283
-0.22040719 0.25059927 0.034447934 0.15296757 -0.14086175 -0.038004797 -0.067994624 0.009338318
-0.111039154 -0.13085462 -0.15273072 -0.0107250875 0.024549333 0.27701378 -0.13785961 -0.11065615
-0.03710815 0.0027001211 0.17948948 -0.06076553 -0.11263333 0.11230365 -0.06859981 -0.12073508
0.21850848 -0.13640177 0.07975604 0.04435777 -0.063291684 -0.10743781 0.2809852 -0.23027918
-0.010536852 0.23099968 -0.139768 0.23256168 0.10488193 -0.03743532 -0.05231408 -0.22326313
0.24673279 -0.105517805 0.10351503 -0.14088306 0.11597667 0.20891345 0.13344337 0.036726553
0.054272667 0.11281201 0.12394427 0.07623766 -0.026210435 -0.17730694 0.052687313 -0.16063134
0.12089956 -0.1884793 0.03881849 -0.106446676 -0.029944496 -0.1286153 -0.11034165 -0.031052925
-0.16133277 -0.07784894 -0.03360604 -0.21195596 0.12364728 -0.1016095 -0.00013681158 -0.09710915
0.17024821 -0.23831885 -0.15996787 0.0726604 -0.024370031 0.08784532 0.07148776 -0.1608477
-0.04064596 -0.090240315 -0.08137356 -0.27704448 -0.06871832 0.10813714 0.20221266 -0.079953566
0.15200612 0.058003653 0.16102736 -0.16879855 -0.19625884 0.0321064 0.013497438 -0.12784675
-0.19700177 0.03432317 0.064159736 0.11960639 -0.12749958 0.12854126 -0.11170098 -0.181143
00000000: 8210 5b3e b6d9 8abe 9f5a 73bd 18d5 7a3e
00000010: 8160 2dbe a6e6 433e 9f8f 743d 08fa 97be
00000020: 7e4a d0b7 ccd9 523d fb83 88bd 9402 46be
00000030: 80a8 e6bc 09db e3bd e8ba 71bd e02e 8abd
00000040: 833e 373d 1eda c73c 038d 843b 24c0 61bd
00000050: efb5 34be acc9 e4bc ec63 743e b014 b8be
00000060: 6cb2 61be 8c4e 803e 4719 0d3d 88a3 1c3e
00000070: 103e 10be ebaa 1bbd c440 8bbd bfff 183c
00000080: 7f68 e3bd c1fe 05be 7165 1cbe 47b8 2fbc
00000090: af1b c93c c0d4 8d3e 122b 0dbe b19f e2bd
000000a0: b7fe 17bd 84f4 303b 17cc 373e 47e5 78bd
000000b0: 4eac e6bd 75ff e53d 0f7e 8cbd f443 f7bd
000000c0: b0c0 5f3e e8ac 0bbe 2257 a33d 7eb0 353d
000000d0: 129f 81bd 5b08 dcbd 4bdd 8f3e 4ece 6bbe
000000e0: c3a2 2cbc 2e8b 6c3e 581f 0fbe a624 6e3e
000000f0: 56cc d63d c755 19bd 4a47 56bd 179f 64be
00000100: 85a7 7c3e b819 d8bd b0ff d33d a643 10be
00000110: 2d85 ed3d 68ed 553e 61a5 083e 956e 163d
00000120: 044d 5e3d fc09 e73d 7ed6 fd3d 7e22 9c3d
00000130: 44b7 d6bc f38f 35be a7ce 573d 8b7c 24be
00000140: 309a f73d b800 41be 2300 1f3d b700 dabd
00000150: 294e f5bc bbb3 03be cefa e1bd b462 febc
00000160: 6b34 25be 446f 9fbd 7da6 09bd fc0a 59be
00000170: c93a fd3d a418 d0bd 1475 0fb9 29e1 c6bd
00000180: 8c55 2e3e db09 74be 9ece 23be face 943d
00000190: a9a3 c7bc 3fe8 b33d 2d68 923d 42b5 24be
000001a0: 617c 26bd eacf b8bd 2ea7 a6bd c6d8 8dbe
000001b0: 31bc 8cbd 0177 dd3d d610 4f3e b2be a3bd
000001c0: 7ea7 1b3e 3d95 6d3d 5be4 243e 87d9 2cbe
000001d0: 14f8 48be 0082 033d 5c24 5d3c 42ea 02be
000001e0: d5ba 49be 7496 0c3d 2e66 833d 32f4 f43d
000001f0: 408f 02be 52a0 033e 7cc3 e4bd 8d7d 39be

temporal.rnn.bias_hh_l0 f4 [128]
-0.033447567 -0.14887728 -0.16782866 -0.04632089 -0.15734108 0.12705415 -0.11491151 -0.17454687
0.03460896 -0.23102513 0.19902144 -0.29870722 -0.120989874 -0.003309416 0.1511318 -0.2777681
0.24012005 -0.13093117 0.036841378 -0.031337023 -0.03980294 -0.18467912 0.18333478 -0.25583416
0.067085 0.36721355 0.103282996 0.19512422 -0.053920276 -0.16768244 -0.04183442 -0.2475811
0.018744411 -0.11898861 0.012091066 -0.040678028 0.1924899 0.18738632 -0.04019794 0.014872561
-0.022286948 -0.16362402 0.04269713 -0.0022276563 -0.04957213 0.01654506 0.117288955 -0.046026666
0.23986815 0.14792241 0.041615885 -0.16171084 -0.26927313 0.018258547 0.21744516 -0.06810413
0.03364272 0.19448648 0.024642214 0.009883839 -0.04749505 -0.20071892 -0.20780064 -0.022219986
0.17075238 0.066918254 -0.027724206 0.0144009 0.1448467 0.12017145 0.04679303 0.13019644
0.053195056 -0.053313088 -0.17424302 -0.022253148 0.10182931 -0.12660152 0.0067335237 0.09776263
0.075661235 0.09093931 -0.13960446 -0.06485491 0.057477158 -0.0077963904 -0.05178194 0.03310925
0.02189397 -0.20175298 0.08118168 0.07208757 0.09163438 0.087402225 -0.14206 -0.0855867
-0.04660742 -0.26126468 -0.014260374 0.089528434 0.16619481 -0.0760304 -0.20105483 -0.12744881
-0.08310313 -0.08540932 -0.029630132 -0.12798625 -0.069343984 -0.16138963 0.14452274 0.017166816
0.21805018 -0.072397046 -0.07048234 0.03369356 -0.18284735 -0.199049 -0.045085147 -0.2544392
-0.22895175 0.12979414 -0.08140783 0.1352457 0.021522116 0.036198802 -0.03289666 -0.021691503
00000000: 5100 09bd 4973 18be 47db 2bbe f9ba 3dbd
00000010: 051e 21be 7c1a 023e ba56 ebbd 6abc 32be
00000020: 20c2 0d3d da91 6cbe 47cc 4b3e 27f0 98be
00000030: 8ac9 f7bd c9e2 58bb 4bc2 1a3e 9f37 8ebe
00000040: 08e2 753e d212 06be fce6 163d 405b 00bd
00000050: 6808 23bd 861c 3dbe 1dbc 3b3e b2fc 82be
00000060: dc63 893d 6a03 bc3e 0986 d33d a5ce 473e
00000070: 82db 5cbd f2b4 2bbe 925a 2bbd e685 7dbe
00000080: e18d 993c 4db0 f3bd 9b19 463c 019e 26bd
00000090: 131c 453e 33e2 3f3e 98a6 24bd 0bac 733c
000000a0: 1e93 b6bc 0e8d 27be 30e3 2e3d dffd 11bb
000000b0: 250c 4bbd 8189 873c 3135 f03d 7586 3cbd
000000c0: ff9f 753e f978 173e 6b75 2a3d 8797 25be
000000d0: 2bde 89be f392 953c f2a9 5e3e 2e7a 8bbd
000000e0: f3cc 093d 7727 473e 78de c93c d3ef 213c
000000f0: 2b8a 42bd 4389 4dbe b1c9 54be b006 b6bc
00000100: b6d9 2e3e 700c 893d e01d e3bc c1f1 6b3c
00000110: b152 143e 731c f63d 0caa 3f3d 3752 053e
00000120: 0fe3 593d d35e 5abd c36c 32be 3c4c b6bc
00000130: e38b d03d d4a3 01be e4a4 dc3b c637 c83d
00000140: 47f4 9a3d 643e ba3d 79f4 0ebe a7d2 84bd
00000150: 2b6d 6b3d dd78 ffbb 4d19 54bd 919d 073d
00000160: fc5a b33c 5598 4ebe 9542 a63d a6a2 933d
00000170: ceaa bb3d f0ff b23d 2d78 11be 1448 afbd
00000180: 6ce7 3ebd 7cc4 85be 58a4 69bc af5a b73d
00000190: f92e 2a3e d4b5 9bbd 51e1 4dbe f181 02be
000001a0: f931 aabd 15eb aebd e4ba f2bc d40e 03be
000001b0: 3804 8ebd 5343 25be c5fd 133e 6ca1 8c3c
000001c0: 8c48 5f3e e744 94bd 0c59 90bd 4202 0a3d
000001d0: 563c 3bbe 80d3 4bbe 34ab 38bd db45 82be
000001e0: 5472 6abe c1e8 043e 26b9 a6bd d97d 0a3e
000001f0: 264f b03c 3245 143d a6be 06bd 61b2 b1bc

temporal.rnn.weight_ih_l1 f4 [128, 32]
0.016275572 -0.17425026 0.30304912 0.2876859 -0.08134487 0.06876509 -0.10121772 0.08234937
0.03972569 -0.11265798 0.119448714 0.3867603 0.058861338 -0.14558984 -0.07326315 -0.13711797
-0.0027174228 -0.005132964 0.045345 0.003620726 -0.0074819284 0.06289078 -0.26757604 0.1965254
0.12965234 -0.10455745 0.0056272084 -0.052998357 -0.0024420454 0.11450644 -0.062655576 0.014350223
-0.2664459 -0.08442133 0.0993538 0.1533578 -0.2964874 -0.12716173 -0.039412957 -0.080386065
0.09150122 -0.10889545 -0.049544614 0.032759123 0.008838475 0.009676529 0.13309492 -0.10757131
-0.20568164 -0.027336946 0.14311355 0.055508878 0.18545169 0.083456464 0.060095903 -0.09019995
0.024164017 -0.0035880816 0.15387322 0.04834642 -0.0135926595 0.07478519 -0.09108884 -0.10008369
0.27676234 -0.09562063 -0.16044311 -0.08817072 0.21134025 -0.10150503 -0.076560214 0.08421693
0.05098747 0.11451473 0.0030808516 0.18031442 0.11436838 0.047305174 -0.024164414 -0.063532464
0.008257708 -0.15124951 -0.1187265 0.07761719 0.007880417 -0.08895372 0.05878401 0.04033412
-0.11407378 -0.16386226 -0.020998886 -0.24106121 0.13101499 0.033637233 0.013706297 -0.178189
0.012264307 -0.12935898 0.20172386 0.110984154 0.0020023366 0.009076601 -0.2442145 -0.039958697
-0.04186365 -0.055529006 -0.031974643 0.029215766 0.0945453 -0.03177534 -0.17521039 0.11781817
-0.2422214 0.039281536 0.09190326 0.17792429 0.2692062 -0.25693792 0.13271657 0.05383022
0.18559292 -0.05491016 0.087495886 0.009439077 -0.14631318 -0.041268755 -0.05295022 -0.080540374
0.24966584 0.0021337972 0.105016656 -0.36701578 0.34124303 0.1660964 0.4210448 0.15016663
0.065782405 -0.03423463 -0.08982962 0.04091756 0.018763838 -0.24631852 0.02628141 -0.26338565
0.45248076 -0.035529718 -0.18222344 -0.3621666 -0.0144407675 0.22994529 -0.0691745 0.18514957
-0.101264104 -0.16296504 -0.15592036 -0.07825686 0.35225403 -0.035006955 -0.26375717 0.039457556
0.055492233 -0.1851709 0.17510015 -0.3691181 0.31877166 0.08352295 0.49223495 0.115906
0.09006292 -0.10651942 -0.24068566 0.19652613 -0.068164505 -0.1598414 0.41011295 -0.1771346
0.24744412 -0.40844265 -0.19290729 -0.40412718 0.10174979 0.2880983 -0.5104532 -0.17975157
-0.16415915 -0.22108658 -0.21743114 0.037178285 0.2655455 0.10013536 -0.28193012 0.0130384425
0.16309455 -0.13563006 -0.00034683198 -0.27736273 0.11803522 0.3139207 0.29993075 0.1628702
-0.1580747 0.014307114 -0.19326825 0.15383494 0.17806128 -0.17518649 0.19900046 -0.1798636
0.3321889 -0.29254943 -0.33852556 -0.31704813 -0.257661 0.21252294 -0.16076255 0.18755682
-0.047033194 -0.25374335 -0.04584788 -0.15798734 0.23612326 0.11041005 -0.41377085 0.05351732
0.46740314 0.10950993 0.14211625 -0.053459678 0.35891318 0.15980873 0.3319259 0.09884574
0.39749387 -0.12845388 -0.22268051 0.21631722 0.073538035 -0.24779159 0.07906568 -0.1812911
0.29177865 -0.2320824 -0.16340904 -0.26255012 0.24814498 -0.039645277 0.0030533941 0.108704984
-0.2893466 -0.3212684 0.025245218 -0.2214147 0.007694631 -0.011809625 -0.18963595 -0.37869757
00000000: 5954 853c a96e 32be 4129 9b3e 914b 933e
00000010: 2498 a6bd b6d4 8c3d 3c4b cfbd c9a6 a83d
00000020: 68b7 223d 3ab9 e6bd 87a1 f43d 7205 c63e
00000030: 9618 713d 8115 15be fe0a 96bd a768 0cbe
00000040: ca16 32bb 6c32 a8bb aebb 393d b449 6d3b
00000050: f72a f5bb e2cc 803d baff 88be f43d 493e
00000060: 95c3 043e 3722 d6bd 7264 b83b ce14 59bd
00000070: b90a 20bb 5a82 ea3d 9151 80bd 331d 6b3c
00000080: 996b 88be 17e5 acbd 017a cb3d d409 1d3e
00000090: 32cd 97be af36 02be 7b6f 21bd 73a1 a4bd
000000a0: fe64 bb3d 9404 dfbd 4bef 4abd 6e2e 063d
000000b0: 40cf 103c 4e8a 1e3c 094a 083e 594e dcbd
000000c0: 359e 52be bbf1 dfbc 5c8c 123e 475d 633d
000000d0: 0ce7 3d3e 39eb aa3d 1f27 763d c0ba b8bd
000000e0: 9ef3 c53c 0526 6bbb f190 1d3e e506 463d
000000f0: bfb3 5ebc fa28 993d c98c babd adf8 ccbd
00000100: cbb3 8d3e c0d4 c3bd 334b 24be da92 b4bd
00000110: 9469 583e dfe1 cfbd 9acb 9cbd ed79 ac3d
00000120: 3dd8 503d b386 ea3d 1de8 493b 58a4 383e
00000130: f839 ea3d 12c3 413d 73f4 c5bc 4f1d 82bd
00000140: 564b 073c 27e1 1abe e126 f3bd c3f5 9e3d
00000150: dd1c 013c 5e2d b6bd 81c7 703d 6435 253d
00000160: 849f e9bd 82cb 27be db05 acbc c0d8 76be
00000170: cb28 063e 32c7 093d 6090 603c 2d77 36be
00000180: 3bf0 483c ae76 04be b390 4e3e a94b e33d
00000190: a239 033b 06b6 143c 5e13 7abe bbab 23bd
000001a0: 3879 2bbd 6272 63bd d8f7 02bd e755 ef3c
000001b0: f7a0 c13d dc26 02bd 5a6a 33be a74a f13d
000001c0: e308 78be ade5 203d c737 bc3d c931 363e
000001d0: 65d5 893e 5e8d 83be dae6 073e 147d 5c3d
000001e0: 120c 3e3e 7ae9 60bd 0b31 b33d 5ca6 1a3c
000001f0: 1fd3 15be 6d09 29bd 54e2 58bd 5af2 a4bd
00000200: 67a8 7f3e 2dd7 0b3b f912 d73d 7ee9 bbbe
00000210: 68b7 ae3e 2d15 2a3e 2f93 d73e 48c5 193e
00000220: edb8 863d 9d39 0cbd 98f8 b7bd 2c99 273d
00000230: 9fb6 993c ec3a 7cbe 1d4c d73c 7cda 86be
00000240: 8fab e73e 9c87 11bd c898 3abe e76d b9be
00000250: f898 6cbc c776 6b3e 5cab 8dbd d997 3d3e
00000260: 8e63 cfbd 4fe0 26be 96a9 1fbe 2245 a0bd
00000270: a45a b43e 7463 0fbd 2e0b 87be 3f9e 213d
00000280: d34b 633d 719d 3dbe 744d 333e 0cfd bcbe
00000290: 0a36 a33e 150e ab3d 3806 fc3e 2060 ed3d
000002a0: e872 b83d db26 dabd 4d76 76be 253e 493e
000002b0: d599 8bbd 77ad 23be 53fa d13e c662 35be
000002c0: fe61 7d3e 651f d1be 7d89 45be c2e9 cebe
000002d0: 3262 d03d 9f81 933e 10ad 02bf cc10 38be
000002e0: 5619 28be 8564 62be 45a6 5ebe 4248 183d
000002f0: 94f5 873e c513 cd3d 2559 90be 319f 553c
00000300: 4202 273e 9be2 0abe 00d7 b5b9 7d02 8ebe
00000310: 73bc f13d 37ba a03e 8690 993e 72c7 263e
00000320: 56de 21be 6368 6a3c 1de8 45be e886 1d3e
00000330: b255 363e 1664 33be c7c6 4b3e 2a2e 38be
00000340: aa14 aa3e 0ac9 95be 3953 adbe 2254 a2be
00000350: 25ec 83be 9d9f 593e f09e 24be e50e 403e
00000360: e1a5 40bd a6ea 81be fdca 3bbd 6fc7 21be
00000370: 4cca 713e aa1e e23d c6d9 d3be fa34 5b3d
00000380: 774f ef3e be46 e03d ec86 113e 89f8 5abd
00000390: 78c3 b73e e6a4 233e 31f2 a93e a36f ca3d
000003a0: 5184 cb3e 6a89 03be 5c06 64be 4382 5d3e
000003b0: 1c9b 963d 14bd 7dbe 30ed a13d 60a4 39be
000003c0: 0364 953e 02a7 6dbe b354 27be f86c 86be
000003d0: b819 7e3e 1663 22bd 741b 483b b8a0 de3d
000003e0: 3d25 94be 4b7d a4be 0fcf ce3c 89ba 62be
000003f0: 3e23 fc3b 287d 41bc ed2f 42be a6e4 c1be

temporal.rnn.weight_hh_l1 f4 [128, 32]
0.12594302 0.026545776 0.05208226 0.05784927 0.076530546 -0.2038891 -0.058143016 -0.2187343
0.119157344 -0.098082006 -0.024187647 0.028762143 0.23045915 0.16855673 0.21678472 0.3261364
0.09044601 -0.18534185 -0.20594041 0.17368068 0.2645021 -0.12040058 -0.038687624 -0.24929258
0.19972706 -0.036054153 -0.038939662 0.21867178 0.16457927 0.054377668 0.021137955 0.111223556
0.14624216 0.24523105 -0.020127578 0.26450616 0.26698688 -0.022854496 0.23002334 -0.16750191
0.06015323 0.017965017 0.24977249 -0.1145319 -0.025797224 0.19624934 0.008462727 -0.19042684
0.10934015 0.033432927 -0.3179071 -0.11338885 0.06867215 0.21032692 -0.15894583 -0.048087608
0.10997699 0.3613275 -0.33894056 -0.047736708 -0.11457848 0.16537112 -0.1531571 -0.24713805
-0.11811267 0.19480297 0.085759126 0.016198337 0.09093639 -0.10297219 -0.03940657 0.1450695
-0.24669313 -0.020502409 0.29623094 0.21185559 -0.051034413 0.049150985 0.017915906 -0.05752641
-0.0017125361 0.094582 0.027788404 0.312246 -0.13860947 -0.005861095 0.15060307 -0.021187969
-0.028648539 -0.1139819 -0.05473636 -0.07343643 0.25517124 -0.12270422 0.116381615 0.03265356
-0.19508167 0.0148308575 0.09391443 0.24883607 0.05128228 -0.14630978 0.06660309 0.018766668
0.16184184 -0.075279884 0.020397335 -0.102915764 -0.07580849 -0.15194546 -0.10970742 -0.11490399
-0.22042447 0.13538681 -0.0016310406 -0.072937675 -0.115574844 0.08347997 0.15707026 0.09683587
-0.20447692 0.32143915 -0.03580882 0.18953432 -0.0038920087 0.1017201 0.05933812 -0.26501974
-0.0024665713 -0.1230902 -0.28676152 -0.11080561 -0.044630762 0.091428325 0.01624352 0.07441376
0.007374308 0.14164434 0.12761034 -0.02791583 0.045235224 -0.22902992 0.08551979 -0.26952213
0.03598739 0.29267886 0.15914108 0.06934355 -0.03781004 -0.18420224 0.13152093 0.28218248
0.1716285 -0.18603835 0.13208072 -0.20367336 -0.04679806 -0.14271621 0.16060987 0.074543275
-0.16080289 -0.12548308 -0.17747852 -0.036887128 -0.12833019 0.1059846 -0.1358733 0.03509885
-0.19452316 0.06280636 0.08265457 -0.124870606 -0.26232356 -0.19118616 0.14174818 -0.2605141
0.1663688 0.10500374 -0.1297148 -0.15006207 -0.005711639 -0.108583435 0.0017917773 -0.017064547
0.33096814 0.013741926 0.18511502 -0.2346384 -0.2011122 -0.060252298 0.005736597 0.17040497
-0.16714075 -0.29236814 -0.14294386 -0.30060956 0.05958579 -0.0780831 0.13838384 0.25588214
-0.14445291 0.3170142 -0.19619347 0.13517971 -0.09613341 -0.11116018 0.09091186 -0.082331926
0.018884428 0.18638311 0.25088164 0.13820201 0.17148331 -0.09494567 -0.08242404 0.012713804
0.26622686 -0.28514764 0.3606643 -0.17780784 -0.11419121 0.041993596 -0.033115137 0.12646729
0.0016763203 0.1909723 -0.16388653 0.014211522 -0.05700936 0.06286123 -0.314 0.291874
-0.033886965 0.24304597 0.25645214 0.039298795 -0.29721072 -0.14206526 0.18013354 -0.0660502
0.27420634 0.14269187 0.18960927 0.3584354 -0.23687297 -0.0058167074 0.31041288 0.02666609
0.057501126 -0.045271147 -0.046458047 -0.2756984 0.15279822 0.106026955 -0.07353685 0.20211916
00000000: 35f7 003e 8776 d93c 3554 553d 5bf3 6c3d
00000010: 0cbc 9c3d 4ec8 50be 5f27 6ebd e2fb 5fbe
00000020: c408 f43d 38df c8bd 2c25 c6bc 969e eb3c
00000030: 7cfd 6b3e 239a 2c3e d0fc 5d3e 5afb a63e
00000040: c23b b93d 41ca 3dbe 0be2 52be 59d9 313e
00000050: d26c 873e 9494 f6bd ea76 1ebd 8e46 7fbe
00000060: 4085 4c3e 85ad 13bd 327f 1fbd 7feb 5f3e
00000070: 7887 283e 1ebb 5e3d 8129 ad3c 2dc9 e33d
00000080: 81c0 153e d91d 7b3e 97e2 a4bc 5a6d 873e
00000090: 81b2 883e 5a39 bbbc 3d8b 6b3e 9f85 2bbe
000000a0: 3c63 763d 5f2b 933c 5cc4 7f3e b38f eabd
000000b0: b354 d3bc 96f5 483e 40a7 0a3c 41ff 42be
000000c0: bbed df3d f7f0 083d b8c4 a2be 6a38 e8bd
000000d0: fca3 8c3d f15f 573e b2c2 22be 83f7 44bd
000000e0: 9e3b e13d ebff b83e 9e89 adbe 9187 43bd
000000f0: 1fa8 eabd 0c57 293e 37d5 1cbe c211 7dbe
00000100: 0ee5 f1bd 6e7a 473e 7ba2 af3d 60b2 843c
00000110: dc3c ba3d 15e3 d2bd c968 21bd 198d 143e
00000120: 209d 7cbe abf4 a7bc 95ab 973e acf0 583e
00000130: 7609 51bd 8b52 493d 61c4 923c d0a0 6bbd
00000140: 2d77 e0ba 35b4 c13d 82a4 e33c b5de 9f3e
00000150: a4ef 0dbe 6e0e c0bb b137 1a3e 6492 adbc
00000160: 57b0 eabc 586f e9bd 3c33 60bd d765 96bd
00000170: cea5 823e 5a4c fbbd 7c59 ee3d bdbf 053d
00000180: 7dc3 47be 20fd 723c 3556 c03d e2ce 7e3e
00000190: 5e0d 523d 3bd2 15be 3367 883d 8ebc 993c
000001a0: deb9 253e 572c 9abd 5018 a73c 80c5 d2bd
000001b0: 7b41 9bbd 9797 1bbe 49ae e0bd c852 ebbd
000001c0: f4b6 61be d7a2 0a3e a4c8 d5ba 5960 95bd
000001d0: 81b2 ecbd 8cf7 aa3d 07d7 203e e251 c63d
000001e0: 6662 51be ac93 a43e 45ac 12bd 4915 423e
000001f0: 1211 7fbb a152 d03d 870c 733d abb0 87be
00000200: 33a6 21bb b716 fcbd 68d2 92be 0dee e2bd
00000210: bfce 36bd c63e bb3d 2111 853c 3e66 983d
00000220: 2ea4 f13b 370b 113e 49ac 023e bdaf e4bc
00000230: 9248 393d d286 6abe 0025 af3d cefe 89be
00000240: 8367 133d 01da 953e e1f5 223e fe03 8e3d
00000250: b3de 1abd 839f 3cbe 6cad 063e 397a 903e
00000260: 62bf 2f3e d680 3ebe 2b40 073e c08f 50be
00000270: 53af 3fbd 3324 12be ea76 243e 25aa 983d
00000280: 83a9 24be a37e 00be eebc 35be f516 17bd
00000290: fd68 03be 740e d93d 5f22 0bbe d0c3 0f3d
000002a0: 1431 47be 9fa0 803d cd46 a93d 29bc ffbd
000002b0: 464f 86be 4ec6 43be 6f26 113e 1b62 85be
000002c0: 955c 2a3e 330c d73d f5d3 04be dfa9 19be
000002d0: b328 bbbb fe60 debd 12da ea3a f3ca 8bbc
000002e0: a874 a93e d125 613c cb8e 3d3e 0c45 70be
000002f0: 5bf0 4dbe 1dcb 76bd 10fa bb3b a47e 2e3e
00000300: f226 2bbe 47b1 95be e05f 12be 7fe9 99be
00000310: 3b10 743d 08ea 9fbd 7eb4 0d3e fc02 833e
00000320: 77eb 13be af4f a23e f1e6 48be 8d6c 0a3e
00000330: 98e1 c4bd f3a7 e3bd ff2f ba3d a49d a8bd
00000340: 84b3 9a3c 37db 3e3e 8f73 803e d484 0d3e
00000350: 5299 2f3e e072 c2bd efcd a8bd 8f4d 503c
00000360: e34e 883e dffe 91be fea8 b83e 4213 36be
00000370: 15dd e9bd 7a01 2c3d bda3 07bd a480 013e
00000380: fab7 db3a 3e8e 433e dfd1 27be 72d7 683c
00000390: a682 69bd 63bd 803d 9cc4 a0be 8270 953e
000003a0: 0fcd 0abd 0be1 783e b24d 833e c6f7 203d
000003b0: 012c 98be 8e79 11be ed74 383e 5445 87bd
000003c0: c664 8c3e d11d 123e ef28 423e d884 b73e
000003d0: d48e 72be 149a bebb 70ee 9e3e d872 da3c
000003e0: 4d86 6b3d 3d6e 39bd cb4a 3ebd 5728 8dbe
000003f0: 2377 1c3e a924 d93d 7d9a 96bd 53f8 4e3e

temporal.rnn.bias_ih_l1 f4 [128]
0.18007122 -0.16491503 0.12996493 -0.079955205 -0.00053768564 -0.26057786 0.046657026 0.18698207
0.021874817 -0.109318666 0.055003963 -0.27323127 -0.007589814 0.057940908 -0.10075944 -0.18708727
-0.09438791 -0.048850913 -0.055650346 0.22233032 0.11762266 -0.19830361 -0.2073269 0.21133734
-0.06877641 -0.0504835 -0.025625395 0.078841135 -0.13158543 -0.14078608 0.13051249 -0.12392532
-0.07111014 -0.126742 -0.058185697 -0.008992634 -0.0018909122 0.02500858 0.033702616 0.38795418
0.22634368 0.14105882 -0.023627948 -0.2550532 0.030577429 -0.038368806 0.13278456 -0.15395366
-0.010391279 0.13599454 0.006652564 0.35589352 0.034125812 -0.16568825 -0.028188806 0.3702114
-0.17332728 -0.3967023 -0.06853585 0.06805238 -0.05842032 0.04749878 -0.010042703 0.0826762
0.20162527 0.26431116 0.17262353 -0.09941301 0.055000577 0.09535094 -0.23179694 0.030008512
0.03537602 -0.04307481 -0.016609171 0.1615106 -0.07110234 0.07123278 0.004246816 -0.15621655
-0.008785684 0.19785061 0.095352866 0.35612348 -0.18978815 0.15181139 0.24340898 -0.008062461
-0.1461877 -0.13002104 -0.12066459 -0.0032916164 0.29849076 -0.018058388 0.02606086 -0.024454856
-0.025610767 -0.18583678 0.034675594 0.02062316 0.14092067 -0.17514604 0.14539202 0.2883609
0.2808945 -0.05087339 -0.045692805 -0.16633305 0.047020506 0.035101328 -0.0934267 -0.1384441
-0.060734354 0.10188519 -0.028180461 0.08635516 -0.1168683 -0.11957474 -0.09737993 0.32274276
-0.15805562 -0.036629412 -0.23867534 -0.06964565 -0.080728285 0.21436287 -0.2759704 -0.14769314
00000000: 9764 383e 7cdf 28be 8715 053e 8ebf a3bd
00000010: 79f3 0cba 766a 85be 701b 3f3d 3a78 3f3e
00000020: d132 b33c 77e2 dfbd d64b 613d f8e4 8bbe
00000030: f9b3 f8bb 7253 6d3d f75a cebd ce93 3fbe
00000040: 734e c1bd e517 48bd 9ef1 63bd 8faa 633e
00000050: 26e4 f03d 1a10 4bbe 814d 54be d168 583e
00000060: a5da 8cbd c9c7 4ebd 59ec d1bc 7677 a13d
00000070: 55be 06be 3a2a 10be 11a5 053e 8fcc fdbd
00000080: 31a2 91bd a8c8 01be 2054 6ebd d755 13bc
00000090: 7cd8 f7ba cbde cc3c c10b 0a3d eea1 c63e
000000a0: a3c6 673e b971 103e 668f c1bc 5596 82be
000000b0: 847d fa3c 9c28 1dbd adf8 073e 07a6 1dbe
000000c0: 2f40 2abc 2742 0b3e c0fd d93b ad37 b63e
000000d0: 82c7 0b3d 2eaa 29be 36ec e6bc 598c bd3e
000000e0: b57c 31be 901c cbbe 865c 8cbd 0c5f 8b3d
000000f0: 254a 6fbd 158e 423d 268a 24bc 2452 a93d
00000100: db76 4e3e cb53 873e 39c4 303e 0c99 cbbd
00000110: 4948 613d 5b47 c33d 2d5c 6dbe 69d4 f53c
00000120: 72e6 103d 366f 30bd f50f 88bc 0963 253e
00000130: 1b9e 91bd 7ee2 913d e028 8b3b 3bf7 1fbe
00000140: d4f1 0fbc 5a99 4a3e 5d48 c33d d155 b63e
00000150: d357 42be 7274 1b3e 3440 793e 6a18 04bc
00000160: 3ab2 15be 3c24 05be ff1e f7bd 29b8 57bb
00000170: c8d3 983e 2fef 93bc 967d d53c 8d55 c8bc
00000180: accd d1bc ff4b 3ebe ff07 0e3d e7f1 a83c
00000190: 824d 103e 7c59 33be a5e1 143e 0aa4 933e
000001a0: 67d1 8f3e 9e60 50bd 6128 3bbd 3653 2abe
000001b0: 9398 403d 69c6 0f3d 7f56 bfbd 4ac4 0dbe
000001c0: 96c4 78bd 2fa9 d03d b6da e6bc f9da b03d
000001d0: a658 efbd 9ae3 f4bd 216f c7bd 8a3e a53e
000001e0: 55d9 21be b908 16bd 4f67 74be 61a2 8ebd
000001f0: df54 a5bd f181 5b3e fe4b 8dbe df3c 17be

temporal.rnn.bias_hh_l1 f4 [128]
0.000799841 0.025748711 0.18661043 0.1867792 0.048958533 -0.23407045 0.040807035 -0.04577242
0.1194389 -0.07895471 -0.018313782 -0.16775002 0.034112137 -0.17353453 -0.08584562 -0.21794344
-0.15975861 -0.11192471 -0.02403924 0.1764976 -0.05610757 -0.3640772 -0.29969823 0.12429585
-0.08298914 -0.08362868 -0.33787456 0.0768878 -0.12226535 -0.033564687 0.12247151 -0.123667754
0.025790317 -0.080623806 -0.014850351 0.18225105 -0.0053574685 -0.23997524 -0.19849485 0.18894464
0.28069636 0.17389122 0.00723242 -0.06907015 -0.22281523 -0.026983926 0.120304525 -0.022061877
-0.20501298 -0.086409666 0.26411626 0.26421234 -0.005902291 -0.41003278 -0.24264868 0.21033682
-0.010848946 -0.27501774 -0.26246965 0.32021043 -0.04448145 0.08686336 -0.18493435 -0.15102555
0.017302597 0.10739127 -0.119323164 0.12712279 -0.10578014 -0.085695416 0.0029561599 0.010949999
-0.04445313 -0.24199331 0.06739908 -0.11838456 0.04344727 -0.18722312 -0.23257367 0.0048251767
-0.057617996 -0.032118417 0.030886259 0.41838616 -0.24327725 0.05752536 -0.08868506 0.1207268
-0.016974721 0.0018880434 -0.07100885 -0.07543345 0.27178255 -0.07257105 -0.15468305 -0.008680964
-0.041415073 -0.12964563 0.091448545 -0.013083447 -0.037365284 0.047746208 0.086271934 0.27493814
0.28391218 0.014120391 -0.17217521 -0.12417185 -0.1448523 0.024061559 -0.18414415 0.08511667
-0.04159507 -0.056031704 0.092057005 0.22956097 0.03694645 -0.37096474 -0.17050818 0.11518072
-0.1701911 -0.28695792 -0.115544915 0.17588246 0.07956461 -0.10144042 -0.21961048 0.10417477
00000000: 6cac 513a f6ee d23c ce16 3f3e 0c43 3f3e
00000010: be88 483d 2ab0 6fbe 4725 273d dc7b 3bbd
00000020: 629c f43d 02b3 a1bd c906 96bc a9c6 2bbe
00000030: 2bb9 0b3d 09b3 31be d4cf afbd 912c 5fbe
00000040: c397 23be c838 e5bd f1ed c4bc c9bb 343e
00000050: 0dd1 65bd 5468 babe 0c72 99be d38e fe3d
00000060: 36f6 a9bd 8345 abbd e5fd acbe 5a77 9d3d
00000070: 4166 fabd 207b 09bd 58d2 fa3d 8545 fdbd
00000080: 3746 d33c 181e a5bd e34e 73bc 05a0 3a3e
00000090: b48d afbb 12bc 75be 3c42 4bbe b47a 413e
000000a0: 6fb7 8f3e 8a10 323e f0fd ec3b a774 8dbd
000000b0: ad29 64be 650d ddbc 3862 f63d 1cbb b4bc
000000c0: ecee 51be 8df7 b0bd 3f3a 873e d746 873e
000000d0: 0168 c1bb d1ef d1be e578 78be 8962 573e
000000e0: c7bf 31bc 20cf 8cbe 6c62 86be 9ff2 a33e
000000f0: 2e32 36bd 6be5 b13d 6e5f 3dbe 71a6 1abe
00000100: 2dbe 8d3c f4ef db3d b45f f4bd 7a2c 023e
00000110: 42a3 d8bd 1481 afbd 22bc 413b a067 333c
00000120: 7c14 36bd 18cd 77be 8708 8a3d 9b73 f2bd
00000130: c4f5 313d 6bb7 3fbe cb27 6ebe 841c 9e3b
00000140: d900 6cbd 9a8e 03bd 2e05 fd3c b636 d63e
00000150: ac1d 79be b69f 6b3d 83a0 b5bd 9d3f f73d
00000160: 920e 8bbc 3978 f73a 176d 91bd da7c 9abd
00000170: 1527 8b3e 21a0 94bd 3c65 1ebe 9a3a 0ebc
00000180: daa2 29bd d3c1 04be 6049 bb3d f45b 56bc
00000190: 570c 19bd 8791 433d 57af b03d b1c4 8c3e
000001a0: f05c 913e 3659 673c b34e 30be d04d febd
000001b0: 2954 14be bf1c c53c 4990 3cbe a651 ae3d
000001c0: 985f 2abd 8081 65bd 6288 bc3d 0812 6b3e
000001d0: 2955 173d 17ef bdbe b299 2ebe dfe3 eb3d
000001e0: 9346 2ebe 26ec 92be d0a2 ecbd 881a 343e
000001f0: c5f2 a23d ffbf cfbd 92e1 60be 9559 d53d
